Project/results/Walker_Run_03/Walker/Walker-304371.onnx (onnx, 824633 bytes, 11 tensors)

network_body.observation_encoder.processors.0.normalizer.running_mean f4 [243]
13.371769 0.020239443 -0.37403244 1.6703982 -8.5829094e-10 0.0 14.994239 -0.03749105
0.040973112 0.0127652045 0.82333714 -0.06923832 0.052011132 0.013926898 0.8505112 -0.00059288315
-0.46642786 5.5641365 0.0 0.024385998 -0.3309575 1.5879872 0.62303483 0.27901766
-0.12656009 -7.567759e-05 -0.007200204 0.019982882 0.0 0.031235643 -0.5501412 1.7676996
0.101160444 0.011980844 -0.08014254 -0.022239784 0.39193735 0.13625559 -0.07924435 -0.0073839184
0.009732275 0.9921659 0.58962286 0.0 0.026581725 -0.45498013 1.6671107 0.23529659
0.07152491 -0.0762795 -0.0055611553 0.17897472 0.07706293 0.1277684 -0.023686891 0.0216568
0.96717346 0.57871085 0.0 0.039502956 -0.6730402 1.8893454 -0.25334138 0.07509291
-0.17286085 -0.054125883 0.7457547 0.20054512 0.004515734 -0.0030109352 0.015060354 0.98768747
0.646899 0.0 -0.019558378 -0.23791192 1.5096707 1.0102875 0.43241817 0.266626
-0.07464284 -0.20546065 -0.016599918 -0.20492446 -0.007063655 -0.104413986 0.9034088 0.5513941
0.2630755 -0.034708023 -0.13712932 1.3166118 0.5306576 0.436412 0.007308296 -0.08157662
-0.3952492 -0.12114958 0.51408684 2.8734536e-05 0.00022522538 0.810247 0.5582567 0.8798959
-0.0387121 -0.051424585 1.2831758 0.44263253 0.19060104 0.10267121 -0.09047723 -0.491712
-0.21859133 -0.102773115 -0.016747715 0.02522371 0.932008 0.37489626 0.0 0.08377858
-0.24269724 1.5128531 1.3585275 -0.15363888 -0.22886415 0.061908886 -0.19001721 -0.0058886036
-0.24936703 0.0013558301 0.03145209 0.90219724 0.59290224 0.22268401 0.07596882 -0.06990088
1.3474497 0.69802094 0.18213461 0.17776711 0.05057334 -0.38230768 -0.09341413 0.50594795
-0.00068589766 0.010171931 0.8073143 0.584581 0.8289849 0.07721839 -0.04201504 1.2885792
0.21077251 0.00061524205 -0.0051820213 0.051830202 -0.49231905 -0.18081422 -0.09433477 0.0048487354
-0.0065242075 0.9602895 0.43432334 0.0 -0.08685864 -0.5685736 1.8222075 -0.19932543
0.46506292 -0.40050834 -0.20142356 0.36977354 0.17168269 -0.011569223 0.22329487 -0.10857374
0.8739362 0.65397656 0.0 -0.10549385 -0.5128225 1.9191524 -0.49154952 1.1762105
-0.109317265 -0.22671637 0.3485044 0.27994615 0.0017220394 0.5704015 0.0013567717 0.7658541
0.6132321 0.0 -0.12292496 -0.50159 2.0251412 -0.4772773 0.618307 -0.0054895314
-0.19774596 0.3194071 0.37902233 0.0 0.13366495 -0.5575796 1.8198887 -0.15378237
-0.74884915 0.84486234 0.16022451 0.42892012 0.19910118 -0.01641736 -0.24629703 0.14057378
0.8542478 0.6938519 0.0 0.130879 -0.534487 1.9146336 -0.47976696 -1.0156631
0.50863355 0.19547845 0.41589984 0.29927382 0.009914792 -0.52062714 -0.012332188 0.778459
0.50256634 0.0 0.10887081 -0.51942825 2.0551312 -0.50238645 -0.98084044 0.48399496
0.17462716 0.36826792 0.36827752
00000000: c4f2 5541 30cd a53c 2e81 bfbe 9ccf d53f
00000010: dbec 6bb0 0000 0000 67e8 6f41 3790 19bd
00000020: 6cd3 273d 2625 513c 39c6 523f d2cc 8dbd
00000030: a009 553d a52d 643c 1abb 593f b76b 1bba
00000040: a2cf eebe 680d b240 0000 0000 25c5 c73c
00000050: 4373 a9be 2a43 cb3f 367f 1f3f 67db 8e3e
00000060: f898 01be 19b5 9eb8 b0ef ebbb 24b3 a33c
00000070: 0000 0000 e4e1 ff3c 0ed6 0cbf fb43 e23f
00000080: 352d cf3d 4d4b 443c c621 a4bd 3530 b6bc
00000090: 03ac c83e 9686 0b3e dd4a a2bd ccf4 f1bb
000000a0: 1f74 1f3c 96fe 7d3f 86f1 163f 0000 0000
000000b0: ebc1 d93c 28f3 e8be e263 d53f 97f1 703e
000000c0: a77b 923d 6d38 9cbd 5a3a b6bb 2645 373e
000000d0: 2bd3 9d3d b8d5 023e 030b c2bc 9a69 b13c
000000e0: ae98 773f 6526 143f 0000 0000 dacd 213d
000000f0: 5d4c 2cbf 12d6 f13f f6b5 81be 50ca 993d
00000100: 6f02 31be 1ab3 5dbd c8e9 3e3f b35b 4d3e
00000110: b9f8 933b 1c53 45bb b4bf 763c 16d9 7c3f
00000120: 2c9b 253f 0000 0000 e438 a0bc 2f9f 73be
00000130: e43c c13f 1a51 813f ea65 dd3e 3483 883e
00000140: 58de 98bd 4764 52be 8dfc 87bc b8d7 51be
00000150: 3c76 e7bb 00d7 d5bd cd45 673f 2a28 0d3f
00000160: d5b1 863e 002a 0ebd a16b 0cbe bc86 a83f
00000170: 2dd9 073f 6571 df3e 6e7a ef3b a511 a7bd
00000180: 1a5e cabe 451d f8bd 329b 033f f20a f137
00000190: 7a2a 6c39 596c 4f3f e9e9 0e3f dc40 613f
000001a0: 9490 1ebd 96a2 52bd 1b3f a43f bba0 e23e
000001b0: eb2c 433e 4945 d23d 204c b9bd adc1 fbbe
000001c0: 68d6 5fbe b67a d2bd 8132 89bc f4a1 ce3c
000001d0: 1498 6e3f 67f2 bf3e 0000 0000 1b94 ab3d
000001e0: a085 78be 2ca5 c13f 3be4 ad3f 8353 1dbe
000001f0: 5d5b 6abe 2c94 7d3d df93 42be 30f5 c0bb
00000200: 125a 7fbe 1cb6 b13a e8d3 003d 66f6 663f
00000210: 71c8 173f 4707 643e 8a95 9b3d 3128 8fbd
00000220: 3b79 ac3f 80b1 323f 7f81 3a3e 9508 363e
00000230: fe25 4f3d d5bd c3be e84f bfbd ce85 013f
00000240: d0cd 33ba 2ca8 263c 26ac 4e3f 1aa7 153f
00000250: 5b38 543f ad24 9e3d f617 2cbd 2af0 a43f
00000260: c0d4 573e 3248 213a f2cd a9bb e84b 543d
00000270: 3e11 fcbe 5d27 39be 9732 c1bd 24e2 9e3b
00000280: 05c9 d5bb 88d5 753f a15f de3e 0000 0000
00000290: f1e2 b1bd 0a8e 11bf 183e e93f f71b 4cbe
000002a0: ba1c ee3e 6e0f cdbe fa41 4ebe f552 bd3e
000002b0: 96cd 2f3e d78c 3dbc 69a7 643e e95b debd
000002c0: 48ba 5f3f 026b 273f 0000 0000 290d d8bd
000002d0: 5648 03bf c9a6 f53f 61ac fbbe 118e 963f
000002e0: bbe1 dfbd 5628 68be 2b6f b23e 1a55 8f3e
000002f0: 0eb6 e13a d505 123f b4d5 b13a 040f 443f
00000300: c7fc 1c3f 0000 0000 15c0 fbbd 3468 00bf
00000310: ea9b 0140 b15d f4be 5e49 1e3f 87e1 b3bb
00000320: eb7d 4abe 5489 a33e 370f c23e 0000 0000
00000330: 77df 083e 89bd 0ebf 1df2 e83f 2079 1dbe
00000340: 94b4 3fbf e648 583f e511 243e 6b9b db3e
00000350: 2ee1 4b3e b37d 86bc 4a35 7cbe 93f2 0f3e
00000360: fcaf 5a3f 47a0 313f 0000 0000 2505 063e
00000370: 24d4 08bf b712 f53f 04a4 f5be 4001 82bf
00000380: cf35 023f 812b 483e d3f0 d43e 6b3a 993e
00000390: a771 223c d247 05bf f20c 4abc 1749 473f
000003a0: 30a8 003f 0000 0000 a9f7 de3d 40f9 04bf
000003b0: 4587 0340 669c 00bf 5c18 7bbf 30ce f73e
000003c0: 76d1 323e 9d8d bc3e df8e bc3e

network_body._body_endoder.seq_layers.0.weight f4 [256, 243]
0.047665656 -0.0227942 -0.0089648 -0.19708408 -0.033300642 0.03675405 -0.042365763 0.019666495
-0.0116344895 -0.02421489 -0.021532288 0.2144757 0.13126025 0.08265203 -0.099411465 0.12875536
0.015419447 0.015185987 0.05744579 -0.0057940963 0.01968895 0.05542502 -0.039417703 -0.16215147
0.042754438 0.1358044 0.13243286 0.018363275 0.072258614 0.06386981 -0.15012068 -0.08009911
-0.04638294 -0.015494666 -0.06196165 -0.046703126 0.069328494 0.040476855 0.00095045957 0.08031778
-0.06514486 0.08728962 -0.057377446 -0.033883326 -0.18615773 0.15053505 -0.039002102 0.014836535
0.0034916159 0.13393553 0.0043479437 0.016636653 0.05889911 -0.10749921 0.2527831 -0.0703788
-0.035622664 0.0071734344 -0.05759981 -0.014051987 -0.1739242 0.0035095045 0.016285738 -0.099125296
0.12738849 -0.16092186 -0.01069229 0.023935053 0.03390174 -0.10280175 -0.06335106 0.01156948
0.009542617 0.026872555 -0.057184637 0.06133618 -0.12447608 -0.05080631 0.0626089 0.10244757
-0.059963964 0.07366996 0.059951898 -0.1287378 -0.14662156 0.26301214 0.023323143 0.027568074
-0.043279953 0.13604663 -0.026183626 -0.052685242 -0.050843164 -0.16350293 0.083401635 0.002043681
0.0698982 0.013135664 -0.10224241 -0.19067459 -0.028800841 0.11095152 0.0053918757 -0.17588754
0.07466139 0.02315167 -0.07373257 -0.045212615 -0.020920336 -0.11025331 0.013684098 -0.050493382
-0.047317162 0.028747989 0.05113065 -0.114969596 -0.011596121 -0.017997358 0.115095295 -0.072483175
-0.042878706 -0.006760593 -0.102881424 0.00029312065 -0.01416233 -0.11818821 0.068362564 -0.03787531
-0.017518573 0.10681155 0.12380011 -0.12908167 -0.07696993 0.05413525 0.19352838 0.059875473
0.02498062 -0.07903906 0.031372532 -0.05674537 -0.032422673 -0.003586008 0.10646116 -0.06799224
0.063357785 -0.03499346 0.016873622 0.008265901 -0.03300347 0.073291115 -0.11152764 0.077906854
-0.13797861 0.03396935 -0.18403713 0.041292623 -0.08181105 -0.03578675 0.10669714 0.10399488
0.071639396 0.05202166 -0.051780805 0.1339644 0.0087442165 0.070627086 0.0034319449 0.03234587
0.0068073682 -0.10974816 0.034700412 0.1028338 0.004815466 -0.04157502 -0.06294032 0.0032962325
-0.10374213 0.031909153 -0.0108764 0.066948846 0.011166329 0.048194766 -0.03862096 0.0067114965
0.039367538 0.03949808 -0.015463985 -0.0108818505 -0.097993635 -0.14875019 0.04304784 0.092597924
0.08314176 -0.054268435 -0.003303748 0.025911834 0.10847019 0.048943188 0.08500683 0.06973785
0.023965575 0.12859198 0.019098248 0.019965265 -0.015414223 -0.19971253 -0.07475662 -0.04668235
-0.09234935 0.050442487 -0.11745774 0.013787659 -0.111232065 -0.060969003 -0.0063377474 -0.0517905
0.06058642 -0.04058988 -0.031025093 -0.036338285 -0.15233022 -0.07466916 -0.06890813 -0.0808667
0.037687358 0.0138979275 0.006410796 -0.12580425 0.0017935006 -0.01682801 0.06559338 0.008922694
0.01593406 -0.10376418 0.20909868 -0.17900464 -0.028532188 -0.12827432 -0.10418767 0.00061008794
-0.03764829 -0.03676602 -0.14119257 0.04352116 0.072131634 0.007942771 0.101272635 0.026322551
0.020766832 -0.0010145713 -0.0421176 0.1054732 -0.03194886 -0.06112051 -0.11880772 0.06390804
00000000: 103d 433d e7ba babc 19e1 12bc 69d0 49be
00000010: 4166 08bd 6a8b 163d b987 2dbd a11b a13c
00000020: 969e 3ebc 4e5e c6bc 7b64 b0bc 859f 5b3e
00000030: 1669 063e 7845 a93d 3d98 cbbd 72d8 033e
00000040: d9a1 7c3c a5ce 783c 474c 6b3d 67dc bdbb
00000050: b94a a13c 5905 633d 7574 21bd 090b 26be
00000060: 471f 2f3d 4f10 0b3e 7b9c 073e 946e 963c
00000070: 53fc 933d 2dce 823d 3cb9 19be 010b a4bd
00000080: 0afc 3dbd 57dd 7dbc 80cb 7dbd c74b 3fbd
00000090: 19fc 8d3d 0fcb 253d 4328 793a a67d a43d
000000a0: ab6a 85bd e6c4 b23d 9d04 6bbd 3ec9 0abd
000000b0: 22a0 3ebe dc25 1a3e abc0 1fbd f014 733c
000000c0: 98d3 643b 6526 093e 3279 8e3b 9749 883c
000000d0: 3140 713d 8c28 dcbd c96c 813e c322 90bd
000000e0: 12e9 11bd 210f eb3b c7ed 6bbd 4e3a 66bc
000000f0: 2f19 32be b7ff 653b ab69 853c 3402 cbbd
00000100: 2172 023e b3c8 24be b72e 2fbc 7213 c43c
00000110: 8ddc 0a3d b989 d2bd 33be 81bd eb8d 3d3c
00000120: a358 1c3c d523 dc3c 703a 6abd a53b 7b3d
00000130: 51ed febd 471a 50bd 1839 803d 08d0 d13d
00000140: c69c 75bd 47e0 963d 1f90 753d d8d3 03be
00000150: f623 16be 87a9 863e 2d10 bf3c 71d6 e13c
00000160: 5246 31bd cf4f 0b3e 0b7f d6bc 7bcc 57bd
00000170: ec40 50bd 506d 27be 7ace aa3d 47ef 053b
00000180: ca26 8f3d f836 573c 7864 d1bd 3340 43be
00000190: beef ebbc 8d3a e33d 55ae b03b dd1b 34be
000001a0: 12e8 983d 92a8 bd3c 1a01 97bd dd30 39bd
000001b0: 2061 abbc 7dcc e1bd 4433 603c 26d2 4ebd
000001c0: a4cf 41bd e780 eb3c 5f6e 513d 2e75 ebbd
000001d0: a8fd 3dbc 326f 93bc 15b7 eb3d 0f72 94bd
000001e0: 95a1 2fbd f787 ddbb 7fb3 d2bd fdad 9939
000001f0: 1e09 68bc a90c f2bd ac01 8c3d 2423 1bbd
00000200: 1c83 8fbc 04c0 da3d e98a fd3d fc2d 04be
00000210: 69a2 9dbd edbc 5d3d 4e2c 463e fc3f 753d
00000220: 28a4 cc3c 3bdf a1bd 7c80 003d d56d 68bd
00000230: a3cd 04bd 3b03 6bbb 4f08 da3d 843f 8bbd
00000240: bac1 813d 4d55 0fbd 8d3a 8a3c b46d 073c
00000250: a62e 07bd a719 963d 9a68 e4bd a18d 9f3d
00000260: 444a 0dbe 7223 0b3d 3b74 3cbe 7422 293d
00000270: 8d8c a7bd 2195 12bd 0884 da3d 45fb d43d
00000280: adb7 923d aa14 553d 1c18 54bd f72d 093e
00000290: e743 0f3c efa4 903d 7bea 603b 1a7d 043d
000002a0: 5810 df3b a5c3 e0bd 0522 0e3d 879a d23d
000002b0: 0ecb 9d3b 914a 2abd dbe6 80bd 9b05 583b
000002c0: c176 d4bd 2cb3 023d ee32 32bc 7a1c 893d
000002d0: faf2 363c e067 453d 0331 1ebd 1dec db3b
000002e0: db3f 213d bdc8 213d a75c 7dbc ca49 32bc
000002f0: e3b0 c8bd f851 18be ef52 303d fba3 bd3d
00000300: 3a46 aa3d 9448 5ebd b283 58bb 0e45 d43c
00000310: 9e25 de3d a778 483d 1018 ae3d b8d2 8e3d
00000320: 7453 c43c 9ead 033e ee73 9c3c 328e a33c
00000330: f08b 7cbc 7181 4cbe 001a 99bd fe35 3fbd
00000340: a821 bdbd c89c 4e3d af8d f0bd a2e5 613c
00000350: a3cd e3bd a2ba 79bd e1ac cfbb 4622 54bd
00000360: 7729 783d 9341 26bd 5628 febc 74d7 14bd
00000370: 74fc 1bbe 25ec 98bd b51f 8dbd 719d a5bd
00000380: 0f5e 1a3d 22b4 633c a811 d23b d4d2 00be
00000390: e513 eb3a e5da 89bc d255 863d 7e30 123c
000003a0: 2588 823c 5082 d4bd f71d 563e fe4c 37be
000003b0: 56bc e9bc 585a 03be 5860 d5bd 4fee 1f3a
000003c0: 1835 1abd f797 16bd c994 10be 3e43 323d
000003d0: c0b9 933d 6522 023c 0768 cf3d 64a2 d73c
000003e0: 341f aa3c 5dfb 84ba 8183 2cbd 5502 d83d
000003f0: cfdc 02bd 8059 7abd 7651 f3bd 38e2 823d

network_body._body_endoder.seq_layers.0.bias f4 [256]
0.00048848527 -0.004936364 -0.01636618 0.09849523 -0.001168361 0.014975261 0.031939372 -0.00080883753
-0.016178068 -0.031490862 0.017393092 0.023982542 0.021327004 -0.01952962 0.04398841 0.03085978
0.011112061 0.040497586 -0.0075672795 0.012894032 0.014172328 0.030827548 0.016714212 0.10976863
-0.0094725145 0.05589193 0.01781001 0.026429163 -0.020139145 0.034602247 0.03900337 0.0014575983
-0.018558702 0.029409662 1.1878708e-06 0.04130485 0.039964043 0.014789945 0.039729327 0.025667414
0.015110898 0.003825601 0.054473363 -0.00028148724 -0.008952329 -0.010352337 0.039089285 0.02527114
0.04979347 -0.012555085 0.005957714 -0.006589589 0.054774366 -0.00926441 0.010639894 0.0053439136
0.05358468 0.041055594 0.032859743 0.07754152 0.033991612 0.0882031 0.019460678 0.0004458791
0.038486715 0.10346795 0.009431409 -0.011633018 0.06254285 -0.022142809 0.023537645 0.015750239
0.026499622 -0.025831116 0.06026434 0.11445585 0.013194895 0.030187426 0.019532358 0.037321642
-0.008986524 0.02989341 -0.011998901 0.00097616634 0.02572505 0.022970237 0.080313005 0.037197024
0.110969186 0.0032425597 0.02116446 0.015505885 -0.011440982 0.033019625 0.08191157 0.069345094
0.021598961 0.02134981 -0.015840365 0.0054478883 0.055370133 0.03796979 0.016529988 0.057565894
0.006483532 0.0077190693 0.011746046 0.046669975 -0.022616861 -0.011304017 0.06603234 0.022730714
0.034586325 0.04027553 0.057415176 0.03836265 -0.02775058 0.0145547725 0.05505373 0.02887417
0.060873512 0.020609485 -0.0024866946 0.06379048 -0.012790435 -0.0019891008 0.025029719 0.022602724
0.020442655 0.037789926 0.06462411 0.038271002 0.04601464 0.03899957 0.010916168 0.025297161
0.07133176 0.06585249 0.028569203 0.035657115 0.080005564 0.0030902347 0.0029987541 -0.029174823
0.014006494 0.057499632 0.07836055 0.08620136 0.036329206 0.057937436 0.040834446 0.050472714
-0.006478105 0.021916203 0.06819532 0.022266204 0.031260613 -0.046335977 0.012130239 0.016597822
0.038646918 -0.029020594 -0.0404606 0.022706108 0.031475857 -0.031267386 0.005965367 0.026954092
0.010375408 0.032983705 -0.031282924 0.052668236 0.032383632 0.0049569793 -0.015746554 0.07421625
0.036568243 0.025875235 0.047131255 0.02842454 0.0711099 0.09222734 -0.048930623 0.07964572
-0.0147333145 0.028919104 0.006634066 -0.0006940408 0.0067698467 0.05195311 0.10142856 0.007346877
0.027188152 0.052335568 -0.00762074 0.03281705 0.0032503905 0.039176095 0.012275078 0.020915756
0.01696995 0.022643054 0.00454238 0.06640811 0.03944779 0.03152349 0.0035561428 0.022300096
0.029973932 0.018959744 0.027602684 0.010191498 -0.025664696 0.026844094 0.016730256 0.034020144
0.0469599 0.049553253 0.07850396 0.014786533 -0.03785707 0.03529567 0.0054467698 0.033814795
0.057553243 -0.022017894 -0.0335593 0.03735122 0.021097077 0.03376747 -0.04923193 0.014717695
0.046151284 0.049677324 -0.011579228 0.017560655 0.0037561688 0.07047047 0.05631936 0.04882629
-0.018441333 0.045495894 -0.017259184 0.064871214 0.04635588 0.039500777 0.043498483 0.07562793
0.0736523 0.0017625004 -0.004277585 -0.0064915037 -0.03509461 0.08743369 0.04105009 -0.03531018
00000000: b10d 003a 39c1 a1bb 5e12 86bc deb7 c93d
00000010: b123 99ba cc5a 753c dcd2 023d 2b08 54ba
00000020: de87 84bc 90fc 00bd f57b 8e3c 0977 c43c
00000030: f8b5 ae3c 95fc 9fbc 312d 343d a6cd fc3c
00000040: 5d0f 363c cce0 253d f1f6 f7bb 7d41 533c
00000050: 0d33 683c 0e8a fc3c 3eec 883c 60ce e03d
00000060: 9b32 1bbc f0ee 643d 4ce6 913c f981 d83c
00000070: d9fa a4bc 16bb 0d3d ffc1 1f3d e20c bf3a
00000080: 6b08 98bc 88ec f03c ee6e 9f35 462f 293d
00000090: 56b1 233d 8751 723c 38bb 223d 7844 d23c
000000a0: b393 773c efb6 7a3b 761f 5f3d 9494 93b9
000000b0: caac 12bc d99c 29bc 161c 203d 6c05 cf3c
000000c0: 3df4 4b3d d8b3 4dbc ed38 c33b 7bed d7bb
000000d0: 165b 603d c0c9 17bc f352 2e3c ff1b af3b
000000e0: 9c7b 5b3d e929 283d f097 063d 17ce 9e3d
000000f0: ca3a 0b3d d4a3 b43d 006c 9f3c e1c4 e939
00000100: 3fa4 1d3d 01e7 d33d 3286 1a3c 6a98 3ebc
00000110: 7716 803d d664 b5bc 05d2 c03c a506 813c
00000120: bc15 d93c c79b d3bc bed7 763d d467 ea3d
00000130: 672f 583c 9f4b f73c 5302 a03c 94de 183d
00000140: 373c 13bc 06e3 f43c 0a97 44bc 6ae5 7f3a
00000150: 57bd d23c 142c bc3c 257b a43d e85b 183d
00000160: d043 e33d 2081 543b 1761 ad3c 650c 7e3c
00000170: f572 3bbc 963f 073d 41c1 a73d cd04 8e3d
00000180: 4ef0 b03c cce5 ae3c a7c3 81bc 3384 b23b
00000190: cbcb 623d 3686 1b3d e669 873c 37ca 6b3d
000001a0: cf73 d43b 3ff0 fc3b 7d72 403c 0429 3f3d
000001b0: ff46 b9bc 7c34 39bc f73b 873d c335 ba3c
000001c0: 64aa 0d3d f4f7 243d 2d2c 6b3d 2722 1d3d
000001d0: 2f55 e3bc 2477 6e3c 0580 613d 8689 ec3c
000001e0: 8156 793d 39d5 a83c d0f7 22bb 95a4 823d
000001f0: f98e 51bc 935b 02bb 200b cd3c 5929 b93c
00000200: 5b77 a73c 9cc9 1a3d a559 843d 0ec2 1c3d
00000210: d979 3c3d 03be 1f3d bad9 323c fe3b cf3c
00000220: 6316 923d acdd 863d f609 ea3c 320d 123d
00000230: f5d9 a33d 8985 4a3b bf86 443b 0a00 efbc
00000240: 7e7b 653c bc84 6b3d 7f7b a03d 578a b03d
00000250: efcd 143d ce4f 6d3d 0542 273d 7abc 4e3d
00000260: 4946 d4bb 9c89 b33c fda9 8b3d 9d67 b63c
00000270: 210b 003d cbca 3dbd e9bd 463c 28f8 873c
00000280: 3b4c 1e3d 99bc edbc 04ba 25bd 2902 ba3c
00000290: d4ec 003d 3b12 00bd 2079 c33b d4ce dc3c
000002a0: 9efd 293c ec19 073d 8622 00bd a6ba 573d
000002b0: b3a4 043d 286e a23b ebfe 80bc b0fe 973d
000002c0: 95c8 153d 4df8 d33c b40c 413d 95da e83c
000002d0: 11a2 913d b0e1 bc3d 7a6b 48bd 4c1d a33d
000002e0: 0064 71bc c2e7 ec3c 9462 d93b 4af0 35ba
000002f0: 97d5 dd3b c9cc 543d c7b9 cf3d 12be f03b
00000300: b0b9 de3c d25d 563d 67b7 f9bb 2c6b 063d
00000310: 8104 553b 1d77 203d 691d 493c 8557 ab3c
00000320: 9104 8b3c ed7d b93c 3fd8 943b fa00 883d
00000330: 0194 213d c61e 013d 2d0e 693b b1ae b63c
00000340: e48b f53c 7751 9b3c 061f e23c 3efa 263c
00000350: c53e d2bc 25e8 db3c e40d 893c b558 0b3d
00000360: 0659 403d 5af8 4a3d afc6 a03d 3743 723c
00000370: 0410 1bbd 3192 103d d17a b23b 6281 0a3d
00000380: f3bc 6b3d df5e b4bc 7a75 09bd 98fd 183d
00000390: c7d3 ac3c c24f 0a3d 6ca7 49bd 7d22 713c
000003a0: 2109 3d3d 737a 4b3d cdb6 3dbc 5ddb 8f3c
000003b0: 0e2a 763b d252 903d 21af 663d 13fe 473d
000003c0: 4712 97bc e759 3a3d 2263 8dbc 33db 843d
000003d0: aadf 3d3d 91cb 213d 772b 323d d1e2 9a3d
000003e0: 04d7 963d b303 e73a fc2a 8cbb aeb6 d4bb
000003f0: 5ebf 0fbd 6f10 b33d 2424 283d 68a1 10bd

network_body._body_endoder.seq_layers.2.weight f4 [256, 256]
0.034329772 0.093187615 -0.122970045 0.073120065 -0.020530807 -0.18883762 0.064313434 -0.13215907
0.03214818 -0.048071705 0.015340009 0.04068944 -0.11090265 -0.024786046 -0.035091918 0.20360595
-0.1063808 0.13247678 -0.007236359 0.062996075 -0.054928906 0.03739002 -0.089765236 0.07804899
-0.07942318 0.01520832 -0.011781721 0.017126266 -0.10420357 -0.034002002 0.031474143 0.055230517
-0.09919104 -0.0033417845 0.07846108 -0.039227165 -0.023315959 0.20431729 -0.039340794 -0.032228835
-0.07757924 0.05673747 0.19332704 0.093251035 -0.12267859 -0.002471741 0.007685829 -0.17011246
-0.07423598 -0.06691301 -0.04033489 0.050220054 0.03861019 0.030028839 0.09648064 0.019891629
0.14492364 -0.047504842 -0.030996768 0.121002406 -0.0064573027 -0.110004306 0.094977245 -0.06664239
-0.074577995 0.122931086 -0.04479644 -0.08846276 0.06568573 -0.21500649 0.080060355 0.088537686
0.07244897 0.02077486 -0.035487328 -0.022757828 0.05792294 0.0013120064 -0.14918734 0.05643153
0.075131565 0.09786937 -0.08319093 0.0765242 -0.0034127105 -0.109808736 0.004142749 0.10110597
-0.17219901 0.10208731 0.06256424 -0.0710084 -0.06584598 0.07191552 -0.062367626 0.082656786
0.034331825 -0.028142845 -0.010127502 -0.10551518 0.007772172 -0.19333144 0.04362269 0.11371633
0.06712949 -0.04176328 0.06293389 0.07003346 0.065143645 -0.13483842 -0.006464046 0.034069497
-0.09812685 -0.10657798 -0.11515866 -0.16408998 0.011174858 -0.12162083 -0.09105582 0.10653905
0.11177056 0.076278605 0.024179256 0.12832247 0.050826915 -0.08385893 -0.0013082003 0.09434497
-0.06372707 -0.025967432 0.050665684 -0.15710317 0.10674678 -0.011953004 0.033660214 0.02180287
-0.06584908 0.03445621 0.0059282957 0.118826635 0.0065155905 0.027607355 -0.19689488 -0.060229503
-0.025802527 -0.07372519 0.004100589 -0.01396508 -0.13459516 0.025739623 0.08247356 -0.033646785
0.001871916 -0.06796056 0.18532713 0.07992958 -0.051098257 -0.028224874 -0.0050867763 -0.05411135
0.020520167 0.010906086 0.00051823043 0.058285292 0.057437304 -0.06371083 0.07930283 -0.0910348
0.09607805 -0.028575817 0.06407923 0.04314794 -0.009299345 0.04293035 0.07204102 0.05408553
-0.073502444 -0.049063113 0.095630184 -0.17253532 0.001998674 -0.03836552 -0.051258113 0.15341699
0.015266253 0.024470212 0.19108097 0.10376948 0.10079595 0.10069952 -0.07923432 0.19937868
0.04995356 0.10180552 0.0023844223 -0.09867223 0.016044328 0.11892178 -0.0075046397 -0.055938747
0.11361636 -0.041940242 -0.027331643 0.16572161 0.08382617 -0.04524683 -0.04001772 0.09445714
0.044600416 0.07598893 -0.124411285 -0.04611597 0.0012457104 -0.0018945549 0.045604583 0.058220346
-0.004336846 0.09173526 -0.002482675 -0.053506292 -0.1256056 -0.060288794 -0.15312095 -0.017793925
-0.09519812 -0.06719461 0.025144204 0.12185786 -0.019011138 0.009465347 -0.077256 0.03579668
0.096963964 0.2495681 -0.042869207 -0.022023102 0.033879448 -0.17003964 -0.05508169 0.17290717
0.0068562333 -0.043683812 0.041224204 0.03853795 0.060276054 -0.012364774 0.07910474 0.07547526
0.103628784 -0.05208039 -0.12517118 -0.06571544 -0.10930123 -0.07928458 0.09348358 -0.0010245156
00000000: 609d 0c3d 26d9 be3d b8d7 fbbd f9bf 953d
00000010: 3930 a8bc a65e 41be c3b6 833d b554 07be
00000020: cfad 033d d6e6 44bd a954 7b3c f8a9 263d
00000030: ee20 e3bd 1b0c cbbc 8bbc 0fbd 147e 503e
00000040: 2dde d9bd fea7 073e fb1e edbb 1604 813d
00000050: 22fd 60bd 4726 193d d6d6 b7bd 26d8 9f3d
00000060: 9fa8 a2bd 512c 793c 1f08 41bc 624c 8c3c
00000070: ae68 d5bd af45 0bbd 08eb 003d 6539 623d
00000080: ac24 cbbd d701 5bbb 34b0 a03d aaac 20bd
00000090: 1c01 bfbc 8d38 513e d023 21bd 6202 04bd
000000a0: dde1 9ebd 8d65 683d 86f7 453e 66fa be3d
000000b0: ea3e fbbd effc 21bb 68d9 fb3b f631 2ebe
000000c0: 0909 98bd b009 89bd 3336 25bd 8bb3 4d3d
000000d0: b825 1e3d 0aff f53c a497 c53d c5f3 a23c
000000e0: dd66 143e 7094 42bd efec fdbc 1cd0 f73d
000000f0: c897 d3bb f049 e1bd 6e83 c23d ce7b 88bd
00000100: 59bc 98bd 4bc3 fb3d 797c 37bd f72b b5bd
00000110: 3d86 863d a92a 5cbe aff6 a33d 3f53 b53d
00000120: 2060 943d 0a30 aa3c 295b 11bd a06e babc
00000130: 9b40 6d3d a1f7 ab3a 91c4 18be bf24 673d
00000140: 94de 993d bc6f c83d 0260 aabd b8b8 9c3d
00000150: c8a7 5fbb 67e3 e0bd e6bf 873b a610 cf3d
00000160: f054 30be 2713 d13d ae21 803d da6c 91bd
00000170: 42da 86bd 7248 933d 3275 7fbd f647 a93d
00000180: 879f 0c3d d38b e6bc d2ed 25bc 5818 d8bd
00000190: b4ad fe3b adf8 45be b5ad 323d 1be4 e83d
000001a0: 307b 893d f90f 2bbd 7ce3 803d b46d 8f3d
000001b0: 086a 853d 1513 0abe 59d0 d3bb 758c 0b3d
000001c0: bbf6 c8bd 8e45 dabd 4ed8 ebbd 3407 28be
000001d0: c016 373c 5714 f9bd 797b babd 2531 da3d
000001e0: f7e7 e43d f537 9c3d 9313 c63c f766 033e
000001f0: e22f 503d 3bbe abbd eb77 abba f037 c13d
00000200: 5783 82bd a7b9 d4bc d286 4f3d a7df 20be
00000210: 0e9e da3d 88d6 43bc 4bdf 093d ef9b b23c
00000220: e2db 86bd f421 0d3d 2642 c23b 615b f33d
00000230: bc80 d53b d228 e23c d09e 49be 36b3 76bd
00000240: d25f d3bc 3bfd 96bd 3c5e 863b cacd 64bc
00000250: 50d3 09be e7db d23c e6e7 a83d 36d1 09bd
00000260: 145b f53a e82e 8bbd 65c6 3d3e 1fb2 a33d
00000270: 684c 51bd da37 e7bc f9ae a6bb dda3 5dbd
00000280: e919 a83c 71af 323c dbd9 073a 8fbc 6e3d
00000290: 6143 6b3d d37a 82bd 8669 a23d 7470 babd
000002a0: 92c4 c43d d517 eabc f93b 833d e5bb 303d
000002b0: 485c 18bc bcd7 2f3d 3e8a 933d ca88 5d3d
000002c0: 7388 96bd 67f6 48bd c2d9 c33d 19ad 30be
000002d0: 2ffc 023b 2a25 1dbd 07f4 51bd 5819 1d3e
000002e0: 4e1f 7a3c c175 c83c bbaa 433e 1885 d43d
000002f0: 1b6e ce3d 8d3b ce3d 9a45 a2bd ed29 4c3e
00000300: 1b9c 4c3d 6a7f d03d f843 1c3b ab14 cabd
00000310: 656f 833c 438d f33d 7be9 f5bb 0720 65bd
00000320: b2af e83d 88c9 2bbd 9ce6 dfbc edb2 293e
00000330: 0ead ab3d bd54 39bd 9fe9 23bd bf72 c13d
00000340: edae 363d 16a0 9b3d 58cb febd 19e4 3cbd
00000350: 1b47 a33a b752 f8ba dfcb 3a3d 7578 6e3d
00000360: 1a1c 8ebb b2df bb3d 60b4 22bb 6a29 5bbd
00000370: c19e 00be 62f1 76bd bdcb 1cbe 91c4 91bc
00000380: 3bf7 c2bd 549d 89bd 38fb cd3c 9d90 f93d
00000390: 3fbd 9bbc 8b14 1b3c 6538 9ebd 8a9f 123d
000003a0: 0b95 c63d c88e 7f3e 9f97 2fbd cb69 b4bc
000003b0: 2dc5 0a3d df1e 2ebe 579d 61bd 940e 313e
000003c0: 41aa e03b cced 32bd b6da 283d f8d9 1d3d
000003d0: 06e4 763d 9f95 4abc aa01 a23d c692 9a3d
000003e0: 543b d43d 3f52 55bd e02c 00be d195 86bd
000003f0: 53d9 dfbd f45f a2bd 5274 bf3d 0a49 86ba

network_body._body_endoder.seq_layers.2.bias f4 [256]
0.03974221 0.017832896 0.042847466 0.015974015 0.042577267 0.00069143134 0.016041305 0.033241265
-0.011557389 0.03263392 0.032330923 0.034917872 0.016148832 -0.007828783 -0.0022041888 0.039417367
0.03029065 0.027314497 0.02591986 0.019701526 0.036094278 0.01322583 -0.039516263 0.013759149
0.011446597 0.021875467 0.021017386 -0.020394528 0.010161065 -0.01985189 -0.031931713 0.056421045
0.025568757 0.04667314 0.0023698872 -0.030758256 0.022550505 -0.019963989 0.0075175143 -0.008304364
0.03552683 0.005140982 0.042126674 0.04536518 0.05869132 -0.009167665 0.004220051 0.043371912
0.0509283 0.0065940786 0.009386808 0.04089883 0.045519046 -0.0056782723 0.052162223 -0.007752333
0.055119716 0.017841628 0.05393132 0.034401506 -0.010468455 0.0062181107 0.032100998 0.033285655
-0.016021041 -0.014331489 0.0027051507 0.025178486 -0.00067597115 0.04395441 -0.00027586627 -0.0075707585
-0.0105215795 0.025967821 -0.018599804 0.006834902 0.0378345 -0.0015047812 -0.007642332 -0.021337142
0.0023095547 -0.019026425 0.018536257 0.025934968 0.0057659387 0.055228684 0.0032881598 0.020836111
0.012254221 -0.02460344 0.023252208 -0.0140405465 0.008099924 0.032949254 0.008167895 0.026037809
-0.022181867 -0.027652277 0.021974813 0.014079922 -0.021798762 0.0061982763 0.03392585 -0.0069659166
0.01639177 -0.033200454 -0.0017127846 -0.02543788 0.00430739 0.0045170053 0.03483761 0.0075052176
0.0075701037 0.022402624 0.004018099 0.004631075 -0.0022114047 0.06251869 0.07797778 -0.016229598
-0.01443099 0.014118609 0.005276376 -0.033375997 0.029956821 -0.017586648 0.03492901 -0.014722815
0.053239606 0.0077146855 0.0429215 -0.004691397 -0.020105183 0.0047232322 0.031916615 0.013987388
0.046659496 0.0094787115 -0.004539034 0.007921528 0.026857035 -0.02318258 -0.034845456 0.023109095
-0.008380123 -0.023282293 0.018504601 -0.0016740928 0.039373834 0.046361696 -0.037777785 0.008532349
0.040585317 0.020684937 0.012007889 -0.01971602 0.025739199 0.0061174124 0.03229309 -0.006462394
-0.017319735 0.025374329 -0.0017398717 0.027710367 -0.0058659003 0.0066030524 -2.6143023e-05 0.025276756
0.047046065 -0.020952182 0.03453997 0.026384506 0.027282821 0.026890656 -0.010964575 0.029514879
0.016149657 -0.012145845 0.032280874 0.035901215 -0.0032041853 0.033614714 0.014507792 0.03587741
0.05778111 0.015896747 -0.0010846918 -0.0050199535 0.042200048 -0.026947055 0.020795261 0.027436122
0.043139223 -0.024216697 0.06965988 0.013959656 0.027663399 -0.035130057 0.018840123 -0.019061277
-0.0018110832 -0.012718722 0.046834093 -0.0029475908 0.036393594 0.019276172 0.027114665 0.010526788
0.07661335 -0.013267773 -0.01332036 0.032490954 0.0009718481 0.009125245 0.040432025 0.0038491725
0.021730972 0.009314888 0.017593069 0.0026623243 0.017292043 0.03406233 -0.0058378684 -0.027508538
0.014615925 0.0018572268 -0.017620103 -0.017876673 -0.0065032616 -0.04894684 0.0012313242 0.00067023403
0.05139357 0.01936285 0.035411157 0.02607606 -0.0048328103 0.04715879 0.0024574613 0.0031997275
0.008792381 0.044960808 -0.003195994 0.020366227 0.032281507 -0.018392637 0.009068753 0.013277961
-0.025453169 -0.0127157895 -0.022462333 0.03337361 0.053279325 0.008686058 0.0013286037 -0.05043488
00000000: bac8 223d 4b16 923c d380 2f3d f0db 823c
00000010: 8065 2e3d 2c41 353a 0e69 833c fe27 083d
00000020: 345b 3dbc 25ab 053d 6e6d 043d 0b06 0f3d
00000030: 8e4a 843c 4c44 00bc 2774 10bb 1b74 213d
00000040: 1924 f83c a7c2 df3c e355 d43c 1865 a13c
00000050: 98d7 133d 27b1 583c cedb 21bd 0e6e 613c
00000060: 828a 3b3c 2e34 b33c a72c ac3c 6d12 a7bc
00000070: 987a 263c 6ea0 a2bc d4ca 02bd c119 673d
00000080: 9275 d13c 562c 3f3d 1c50 1b3b bdf8 fbbc
00000090: d6bb b83c 858b a3bc 7b55 f63b 070f 08bc
000000a0: 9584 113d af75 a83b 058d 2c3d d7d0 393d
000000b0: 4f66 703d f933 16bc 5b48 8a3b bfa6 313d
000000c0: 319a 503d 2413 d83b 20cb 193c 8885 273d
000000d0: 2e72 3a3d cd10 babb 0ea8 553d 4807 febb
000000e0: 36c5 613d 9b28 923c 16e7 5c3d 98e8 0c3d
000000f0: e283 2bbc 4bc1 cb3b 567c 033d 8a56 083d
00000100: 8f3e 83bc 9fce 6abc e648 313b 1d43 ce3c
00000110: a833 31ba 8a09 343d 25a2 90b9 2014 f8bb
00000120: b462 2cbc 78ba d43c 9e5e 98bc 50f7 df3b
00000130: 59f8 1a3d 143c c5ba 876c fabb 3bcb aebc
00000140: e65b 173b 4edd 9bbc 59d9 973c 9275 d43c
00000150: 33f0 bc3b 7937 623d 2b7e 573b 7eb0 aa3c
00000160: eec5 483c 278d c9bc 6a7b be3c 520a 66bc
00000170: 8bb5 043c ccf5 063d a2d2 053c 3e4d d53c
00000180: bfb6 b5bc 0787 e2bc 8604 b43c 79af 663c
00000190: 5193 b2bc e91a cb3b d5f5 0a3d 5842 e4bb
000001a0: 0948 863c 33fd 07bd 847f e0ba 1a63 d0bc
000001b0: 0225 8d3b 6303 943b e2b1 0e3d 54ee f53b
000001c0: a20e f83b b585 b73c 42aa 833b 46c0 973b
000001d0: 37ed 10bb cd09 803d d0b2 9f3d eff3 84bc
000001e0: f66f 6cbc bd51 673c 73e5 ac3b 45b5 08bd
000001f0: 0268 f53c e011 90bc b911 0f3d f637 71bc
00000200: c611 5a3d 79cb fc3b 74ce 2f3d 4aba 99bb
00000210: a0b3 a4bc 58c5 9a3b ffba 023d 5c2b 653c
00000220: 071e 3f3d 994c 1b3c 2dbc 94bb 4cc9 013c
00000230: 4903 dc3c 65e9 bdbc 1cba 0ebd 494f bd3c
00000240: c94c 09bc 82ba bebc f696 973c 3c6d dbba
00000250: 7546 213d c3e5 3d3d e1bc 1abd 44cb 0b3c
00000260: ca3c 263d 7573 a93c bdbc 443c 7e83 a1bc
00000270: 03db d23c 9374 c83b c245 043d 7dc2 d3bb
00000280: 1ee2 8dbc d3dd cf3c 680c e4ba da00 e33c
00000290: bd36 c0bb 6b5e d83b b74d dbb7 3311 cf3c
000002a0: 60b3 403d e9a3 abbc c979 0d3d 5224 d83c
000002b0: 3980 df3c cb49 dc3c c3a4 33bc 30c9 f13c
000002c0: 494c 843c 5eff 46bc f338 043d 270d 133d
000002d0: 4ffd 51bb 95af 093d 17b2 6d3c 31f4 123d
000002e0: e3ab 6c3d e539 823c 382c 8eba 6c7e a4bb
000002f0: f5d9 2c3d 12c0 dcbc d35a aa3c b8c1 e03c
00000300: c1b2 303d 1862 c6bc d7a9 8e3d 0ab7 643c
00000310: 5a9e e23c 89e4 0fbd 9a56 9a3c 6526 9cbc
00000320: de61 edba 3062 50bc 1bd5 3f3d 5e2c 41bb
00000330: 7311 153d 10e9 9d3c 931f de3c 8d78 2c3c
00000340: 76e7 9c3d 1361 59bc a43d 5abc 3c15 053d
00000350: 9fc3 7e3a 0d82 153c 0d9c 253d 6642 7c3b
00000360: 2705 b23c 799d 183c 571f 903c 647a 2e3b
00000370: 0ba8 8d3c f184 0b3d 974b bfbb 9659 e1bc
00000380: a277 6f3c 316e f33a 0958 90bc 1a72 92bc
00000390: 5019 d5bb 7b7c 48bd 6264 a13a a5b2 2f3a
000003a0: 1082 523d d79e 9e3c 4a0b 113d 769d d53c
000003b0: 8d5c 9ebb 9329 413d 5c0d 213b 85b2 513b
000003c0: eb0d 103c d328 383d e273 51bb 13d7 a63c
000003d0: 9d39 043d 28ac 96bc 1b95 143c ce8b 593c
000003e0: 2a83 d0bc e355 50bc ed02 b8bc c4b2 083d
000003f0: 6c3b 5a3d f84f 0e3c 8b24 ae3a ce94 4ebd

network_body._body_endoder.seq_layers.4.weight f4 [256, 256]
0.0018776252 -0.050636873 0.0011596039 0.1034164 0.030602146 0.1350173 -0.04504933 -0.078048326
-0.03924482 0.023244208 -0.069294885 0.04063793 -0.0116053205 -0.027812505 0.076026484 0.056405302
0.0028957918 -0.00026895985 -0.01930414 -0.044132013 -0.059595525 -0.074481875 0.08833987 -0.02195619
-0.009150868 -0.12625918 0.02612608 -0.020901142 -0.09310885 -0.046609733 0.09308161 -0.030317625
0.056925558 -0.035840087 -0.010826146 -0.010665559 0.028353661 -0.037679773 0.14360854 -0.009041393
0.14332795 -0.051671725 0.008268765 0.08802511 -0.07219313 0.065110736 -0.06717654 0.03836758
-0.049047973 -0.0014177576 -0.03910933 0.003537644 0.028565224 -0.09238448 0.09898405 -0.030789647
-0.06892327 0.05503655 -0.044600368 -0.09291503 0.0073166066 0.083348565 -0.054257657 0.03612231
0.08643036 0.08128939 0.01903658 0.024308234 0.05731893 0.06615786 -0.0642954 0.07840859
-0.03458971 0.013540151 -0.0340979 -0.061298292 0.020093555 -0.060059097 -0.008784248 -0.00016216718
-0.0016028293 0.013085291 0.048688274 -0.07940959 -0.05598624 0.07570729 0.112480685 -0.081068024
0.028788438 0.17238806 0.026534785 -0.060929075 0.05326959 -0.12240235 0.023367526 0.1560324
0.0046360684 -0.06620324 0.0045108786 -0.06315698 0.03944894 0.0060092737 -0.015056344 0.07609784
0.03188356 -0.026851842 -0.01931598 -0.13498223 -0.105581194 0.070292726 -0.02782153 0.13658857
-0.0582405 -0.1198002 -0.06256467 -0.06686499 -0.15618078 -0.0054785646 0.048889343 0.032912098
0.014294224 0.005517533 0.036882494 0.068094686 -0.023830585 0.10387207 -0.0513723 -0.020033464
0.04136695 -0.021134295 -0.0971509 0.022628453 0.10468634 -0.02926103 0.15907452 -0.04897783
0.031530567 0.06901107 0.04495976 -0.045799088 0.00835423 -0.09618881 0.09015244 -0.15976085
-0.08703072 0.0001882612 -0.030220151 -0.043755673 0.043771293 0.038369022 -0.05999281 -0.009202986
-0.14813966 -0.06978841 0.12586606 -0.057739608 0.13015437 0.09117387 0.10841413 0.07360851
0.11748607 0.011885041 -0.117027014 -0.061648987 -0.057345655 -0.019053735 -0.012747437 -0.06997962
-0.03439702 0.040389013 0.054870885 -0.011885836 0.01659503 -0.109559774 -0.047065057 -0.11611136
0.044797827 -0.021266457 -0.07944872 0.08346693 0.065040305 0.0571514 -0.007921125 0.053711217
-0.012730968 -0.09056548 -0.05562324 0.032647252 0.0065104975 0.14020796 -0.01116142 -0.12617598
0.028388653 -0.12295475 -0.002808031 -0.038665917 0.084482834 -0.01288568 0.18244475 -0.029172853
-0.025999138 -0.06930147 -0.03918874 0.025589231 -0.006011853 -0.03162338 0.009558541 -0.2245416
0.0153791625 -0.059087377 0.008787011 0.1976918 0.043658357 -0.024989227 -0.069007136 -0.03942201
0.010052672 -0.047108114 -0.12812105 -0.14627662 0.19806804 -0.10527171 0.03757838 -0.025453363
-0.18089996 -0.059101515 0.11017047 -0.07625271 0.0538495 0.0535869 0.061405975 0.016329505
0.003778045 -0.026623905 0.0014976083 -0.030960936 0.052286 0.09277674 -0.018031877 -0.027533447
0.11258486 -0.08397475 0.07546468 0.053259682 0.036486696 -0.07795962 -0.020683803 -0.021136587
-0.04787074 0.11894651 0.08986867 0.04204044 -0.020302836 0.058306314 -0.0050049084 -0.0019272739
00000000: a61a f63a 9c68 4fbd dafd 973a facb d33d
00000010: 5ab1 fa3c fa41 0a3e a585 38bd cdd7 9fbd
00000020: 2dbf 20bd a36a be3c 7aea 8dbd f573 263d
00000030: 3e24 3ebc 0dd7 e3bc c6b3 9b3d 3f09 673d
00000040: 53c7 3d3b 2e03 8db9 b723 9ebc c5c3 34bd
00000050: 701a 74bd f489 98bd 89eb b43d 78dd b3bc
00000060: 86ed 15bc 164a 01be 5c06 d63c df38 abbc
00000070: daaf bebd d9e9 3ebd 92a1 be3d ab5c f8bc
00000080: c62a 693d 0ecd 12bd 2660 31bc 99be 2ebc
00000090: f045 e83c 1b56 1abd 1e0e 133e 5a22 14bc
000000a0: 90c4 123e bba5 53bd b779 073c 8246 b43d
000000b0: fed9 93bd c758 853d db93 89bd 5327 1d3d
000000c0: 87e6 48bd 0dd4 b9ba 1b31 20bd d1d7 673b
000000d0: 9e01 ea3c 1334 bdbd 26b8 ca3d 923a fcbc
000000e0: a527 8dbd 016e 613d e0ae 36bd 3c4a bebd
000000f0: 25c0 ef3b a7b2 aa3d 473d 5ebd fdf4 133d
00000100: 6702 b13d 0d7b a63d 9af2 9b3c 1022 c73c
00000110: 41c7 6a3d c67d 873d 4fad 83bd af94 a03d
00000120: f1ad 0dbd 82d7 5d3c 3daa 0bbd eb13 7bbd
00000130: 3d9b a43c 8700 76bd ceeb 0fbc 6c0b 2ab9
00000140: 0716 d2ba b063 563c 5b6d 473d 7fa1 a2bd
00000150: d451 65bd 6c0c 9b3d 465c e63d fe06 a6bd
00000160: bbd5 eb3c 7f86 303e 7a5f d93c c490 79bd
00000170: 3731 5a3d 15ae fabd 416d bf3c f5c6 1f3e
00000180: 29ea 973b 9095 87bd fecf 933b 7258 81bd
00000190: 3695 213d 71e9 c43b e2ae 76bc 2fd9 9b3d
000001a0: 5698 023d 65f8 dbbc 8c3c 9ebc c838 0abe
000001b0: f43a d8bd a2f5 8f3d fae9 e3bc e0dd 0b3e
000001c0: 978d 6ebd cf59 f5bd e821 80bd 83f0 88bd
000001d0: dbed 1fbe 8885 b3bb 3140 483d d6ce 063d
000001e0: 5232 6a3c 6ccc b43b 1912 173d 3a75 8b3d
000001f0: 5c38 c3bc e1ba d43d c36b 52bd 381d a4bc
00000200: 6470 293d d421 adbc 0df7 c6bd 4e5f b93c
00000210: cb65 d63d d4b4 efbc 6ee4 223e fa9c 48bd
00000220: 3226 013d ad55 8d3d ba27 383d d397 3bbd
00000230: 2ee0 083c a4fe c4bd d8a1 b83d 5998 23be
00000240: 2a3d b2bd fb67 4539 4090 f7bc 2639 33bd
00000250: 8749 333d d628 1d3d 05bb 75bd 1fc8 16bc
00000260: ecb1 17be 3aed 8ebd 08e3 003e 5e80 6cbd
00000270: 3047 053e 5eb9 ba3d 3a08 de3d 0fc0 963d
00000280: 899c f03d 7ab9 423c dcab efbd a683 7cbd
00000290: 47e3 6abd 9416 9cbc a0da 50bc 7a51 8fbd
000002a0: e4e3 0cbd f36e 253d 4bc0 603d cfbc 42bc
000002b0: 4df2 873c e060 e0bd 4ac7 40bd cbcb edbd
000002c0: ed7d 373d fe36 aebc 03b6 a2bd b6f0 aa3d
000002d0: da33 853d 9617 6a3d 9bc7 01bc 4b00 5c3d
000002e0: 8d95 50bc 657a b9bd 32d5 63bd 20b9 053d
000002f0: 0356 d53b ad92 0f3e 63de 36bc 4734 01be
00000300: 528f e83c b3cf fbbd f106 38bb 2760 1ebd
00000310: 5605 ad3d 761e 53bc ccd2 3a3e e8fb eebc
00000320: 25fc d4bc eeed 8dbd 5f84 20bd 82a0 d13c
00000330: 14ff c4bb 8487 01bd 6d9b 1c3c 3cee 65be
00000340: e2f8 7b3c 9b05 72bd 65f7 0f3c b86f 4a3e
00000350: 1bd3 323d 35b6 ccbc 9d53 8dbd f978 21bd
00000360: f6b3 243c 70f4 40bd 2a32 03be 8ac9 15be
00000370: 59d2 4a3e b298 d7bd caeb 193d 9283 d0bc
00000380: d73d 39be 6e14 72bd 0ea1 e13d 612a 9cbd
00000390: 4b91 5c3d f07d 5b3d d584 7b3d 74c5 853c
000003a0: 1499 773b 601a dabc 654b c43a caa1 fdbc
000003b0: d829 563d bb01 be3d 96b7 93bc d38d e1bc
000003c0: e492 e63d f4fa abbd 3a8d 9a3d d326 5a3d
000003d0: 1373 153d 4ba9 9fbd 1471 a9bc a326 adbc
000003e0: 1c14 44bd 3a9a f33d 110d b83d 9932 2c3d
000003f0: 2252 a6bc 9ad2 6e3d 3700 a4bb 959c fcba

network_body._body_endoder.seq_layers.4.bias f4 [256]
0.01971779 0.04098989 0.011527987 0.00915793 0.019529007 0.023412053 0.06622246 -0.007884828
0.02648463 0.012663927 0.03537735 0.033446226 0.011463289 -0.007829014 0.030996742 0.054359306
-0.0034921046 0.03828506 0.009324751 0.028907554 0.016391974 0.009600943 0.020507716 0.037251938
0.039763127 0.014918221 0.023389764 0.010589161 0.034094363 0.04913128 0.00683812 0.04069148
0.04746655 0.042781908 0.046149258 0.017864913 -0.025378129 0.005125357 0.030611323 0.009389844
0.020045046 0.016613314 0.021762358 0.011845618 0.06212645 0.043344866 0.051599707 -0.0065275226
0.007255374 0.0031133718 0.0034916468 -0.007990335 -0.018549949 0.042425513 0.020030774 0.038558044
0.0290797 0.027097167 0.03403045 -0.008095479 0.0022673004 -0.025647122 -0.006818998 0.014811945
0.040732034 0.0074648913 0.017642643 0.04316565 0.002577306 0.009018122 0.06381631 0.015506585
-0.0007937171 0.05325488 0.035866693 0.0101931 0.05588362 0.010265517 0.031860527 0.021918232
-0.0032959152 -0.057588506 0.023197513 0.048096232 -0.047902264 0.004402311 0.034377374 -0.019976849
0.024855465 -0.0037370904 0.013996591 0.044657424 0.008873949 0.009905898 -0.00102061 0.030499768
0.023157211 0.029675765 -0.016086819 0.02619409 -0.022236062 0.040767618 0.013395162 -0.0014310811
0.04461225 0.07087211 0.017970152 0.0012181476 0.050568633 0.024125714 0.036961146 0.0366865
0.009845854 0.03204306 0.016591625 0.012569196 0.032724153 0.007150127 0.03414239 0.008231514
0.019053062 0.007732224 0.022740478 0.02883516 0.014554407 0.035511114 0.0043484056 0.032986086
0.01873998 0.025494523 0.038767308 0.0061278194 0.057488378 0.03949658 0.010748069 0.0043766317
0.024015257 0.049736768 0.025093082 0.013249199 0.02863906 -0.01091739 0.030827127 0.0032123674
0.0038503734 0.0058824513 -0.0005161044 0.023214912 0.047307137 0.031849205 0.050950177 0.022146907
0.013116773 0.04838422 0.024798602 -0.008817943 0.027765358 0.03592694 0.0019426538 0.00982641
-0.0011416606 0.038550377 0.017072678 -0.0015288291 0.0199885 0.0051602107 0.017106773 0.0015474346
0.028095925 0.02293998 0.049903173 0.033290368 0.01305997 0.022603033 0.0028870816 0.026518526
0.06342105 0.021792559 0.012684268 -0.013717171 -0.0023239262 0.02988498 -0.004397947 0.045417525
0.09928496 0.022478556 0.030970195 0.040444594 0.015272456 0.06021303 -0.0013916872 0.02103676
0.01788923 0.019067094 0.005589532 0.013347077 0.033191495 0.019933324 0.0030574687 -0.015008453
-0.04011117 0.017312935 0.037401617 0.044609223 0.01419889 0.031467937 0.06046173 -0.00080328743
0.055646535 -0.0029081753 0.028420268 0.03238126 0.06621735 0.031253573 0.016252305 0.033317316
-0.021173274 0.021703659 0.04133503 0.0053248308 0.035962563 0.0036101118 0.03418784 0.00020006488
0.0156113645 -0.004190689 0.023902748 0.018301807 0.0043774736 0.024303941 0.015527361 -0.010058289
0.026540466 -0.019029958 -0.027710052 -0.005710381 0.056509625 0.044123244 0.01612066 0.020054713
0.04002307 0.0012445775 0.009104258 0.042648017 0.010533679 0.03713679 -0.014199368 0.016258724
0.036036022 0.0073045213 0.015247868 0.05289225 0.033752084 0.012033496 -0.0017034 0.03911775
00000000: 3487 a13c 04e5 273d e2df 3c3c 240b 163c
00000010: 4cfb 9f3c a2ca bf3c a49f 873d 5e2f 01bc
00000020: 4bf6 d83c 5c7c 4f3c d7e7 103d e9fe 083d
00000030: 85d0 3b3c 4445 00bc e1ec fd3c dda7 5e3d
00000040: cbdb 64bb ccd0 1c3d d7c6 183c 89cf ec3c
00000050: 7648 863c 464d 1d3c ccff a73c 7d95 183d
00000060: a9de 223d 8e6b 743c e49b bf3c 297e 2d3c
00000070: 88a6 0b3d e23d 493d 4f12 e03b 1cac 263d
00000080: 496c 423d 153c 2f3d 0107 3d3d 7059 923c
00000090: cbe5 cfbc 9cf2 a73b 99c4 fa3c dcd7 193c
000000a0: 8235 a43c a518 883c f946 b23c 1f14 423c
000000b0: 4e78 7e3d 638a 313d 375a 533d d4e4 d5bb
000000c0: 7dbe ed3b b609 4c3b 1dd4 643b e5e9 02bc
000000d0: 10f6 97bc 60c6 2d3d 9417 a43c 0aef 1d3d
000000e0: 8d38 ee3c e1fa dd3c 8363 0b3d e6a2 04bc
000000f0: fd96 143b ea19 d2bc e771 dfbb cdad 723c
00000100: a2d6 263d 0c9c f43b 4e87 903c 77ce 303d
00000110: 05e8 283b bfc0 133c 20b2 823d 550f 7e3c
00000120: 7411 50ba ca21 5a3d f4e8 123d f600 273c
00000130: 39e6 643d b330 283c 2f80 023d dd8d b33c
00000140: 4800 58bb ede1 6bbd b608 be3c 8e00 453d
00000150: 2a35 44bd 4341 903b 4acf 0c3d 7da6 a3bc
00000160: b09d cb3c f9e9 74bb f551 653c b4ea 363d
00000170: 0a64 113c 594c 223c fdc5 85ba a6da f93c
00000180: 31b4 bd3c 971a f33c 81c8 83bc fd94 d63c
00000190: 6728 b6bc f2fb 263d 6277 5b3c 1d93 bbba
000001a0: 56bb 363d 6625 913d 2436 933c 40aa 9f3a
000001b0: 0e21 4f3d 4aa3 c53c 9264 173d 9544 163d
000001c0: 8150 213c 953f 033d 29eb 873c 07ef 4d3c
000001d0: c309 063d 9d4b ea3b e4d8 0b3d 79dd 063c
000001e0: 2b15 9c3c 995e fd3b 3d4a ba3c b737 ec3c
000001f0: 9c75 6e3c 1a74 113d 127d 8e3b 6b1c 073d
00000200: 9684 993c e4d9 d03c 78ca 1e3d e0cb c83b
00000210: ef78 6b3d 2ac7 213d ab18 303c d969 8f3b
00000220: a5bb c43c c8b8 4b3d 0290 cd3c 2b13 593c
00000230: 769c ea3c dade 32bc 2c89 fc3c 9586 523b
00000240: 8c56 7c3b 94c1 c03b 2e4b 07ba 332d be3c
00000250: 21c5 413d 5074 023d 22b1 503d 6e6d b53c
00000260: bce7 563c 882e 463d 7026 cb3c 2279 10bc
00000270: 2d74 e33c 2128 133d a5a0 fe3a f3fe 203c
00000280: c6a3 95ba 00e7 1d3d 00dc 8b3c fe62 c8ba
00000290: ecbe a33c fc16 a93b 8123 8c3c 4ad3 ca3a
000002a0: 6d29 e63c a0ec bb3c 4567 4c3d 7b5b 083d
000002b0: 7cf9 553c ff29 b93c 3135 3d3b 613d d93c
000002c0: e5e2 813d 4f86 b23c add1 4f3c fcbd 60bc
000002d0: 034d 18bb 58d1 f43c a71c 90bb ba07 3a3d
000002e0: ea55 cb3d f324 b83c 35b5 fd3c 3ba9 253d
000002f0: 5339 7a3c f0a1 763d 4669 b6ba 4955 ac3c
00000300: 6f8c 923c 9832 9c3c 6528 b73b b3ad 5a3c
00000310: cef3 073d 364b a33c d05f 483b 04e6 75bc
00000320: 9c4b 24bd dbd3 8d3c 7032 193d 29b8 363d
00000330: 76a2 683c 86e4 003d b8a6 773d b593 52ba
00000340: 9fed 633d 1697 3ebb 9fd1 e83c 36a2 043d
00000350: f69c 873d bf03 003d 8e23 853c bd77 083d
00000360: 9373 adbc dfcb b13c ec4e 293d eb7b ae3b
00000370: 7b4d 133d a097 6c3b 8c08 0c3d 82c8 5139
00000380: cfc6 7f3c 0c52 89bb b2cf c33c aced 953c
00000390: e970 8f3b 0f19 c73c 7966 7e3c 86cb 24bc
000003a0: 646b d93c b7e4 9bbc 3100 e3bc 261e bbbb
000003b0: a376 673d 93ba 343d 790f 843c c849 a43c
000003c0: 3bef 233d 1721 a33a 072a 153c b0af 2e3d
000003d0: 7495 2c3c bf1c 183d 77a4 68bc 0431 853c
000003e0: 829a 133d c45a ef3b 32d2 793c 8ba5 583d
000003f0: a03f 0a3d 2428 453c 9f44 dfba ef39 203d

action_model._continuous_distribution.log_sigma f4 [1, 39]
-0.81391567 -1.1190884 -0.6465542 -0.55104417 -0.9762042 -0.67713284 -1.9769475 -1.4910811
-2.0233061 -1.58298 -1.7689549 -1.4952763 -0.34324378 -0.58436954 -0.33596238 -0.27106032
-0.49397585 -0.022933917 -1.6636556 -1.4987996 -1.658798 -1.5581628 -1.2296472 -1.1487395
-0.551436 -0.33770433 -0.6562772 -0.39460793 -0.23542003 -0.6942373 -0.63363796 -0.6289094
-0.75457627 -0.5218743 -0.5022344 -0.37504143 -0.49273238 -0.26802328 -0.49901167
00000000: c75c 50bf 4a3e 8fbf 9384 25bf 3b11 0dbf
00000010: 85e8 79bf 9458 2dbf 9e0c fdbf bfdb bebf
00000020: d97d 01c0 179f cabf 1d6d e2bf 3765 bfbf
00000030: a6bd afbe 3e99 15bf 4303 acbe 6bc8 8abe
00000040: 67ea fcbe e9df bbbc abf2 d4bf aad8 bfbf
00000050: 7e53 d4bf e171 c7bf 1465 9dbf e509 93bf
00000060: e92a 0dbf 95e7 acbe c801 28bf 0d0a cabe
00000070: f311 71be 89b9 31bf 1936 22bf 3500 21bf
00000080: e92b 41bf 8e99 05bf 6f92 00bf 6e05 c0be
00000090: 6b47 fcbe 593a 89be 757e ffbe
