Project/results/Test2_NoWall_01/Test2/checkpoint.pt (torch, 565538 bytes, 36 tensors)

network_body._body_endoder.seq_layers.0.weight f4 [128, 46]
-0.031311687 0.10178333 0.06457408 -0.1624494 0.19493756 0.01564456 0.025922425 -0.10707559
-0.070722565 -0.024110677 0.071039766 -0.2985325 0.21638131 -0.4812871 -0.026425166 -0.0074510844
-0.15148735 0.012808042 0.03018572 -0.06166936 -0.121475846 0.052220196 0.21516623 -0.0498035
-0.26373667 0.014019751 0.191707 0.2787377 -0.005422672 0.24083231 0.06451934 -0.07288151
0.16156979 -0.24467061 -0.09489426 -0.049889833 -0.0047221794 -0.11787817 0.0035678283 -0.23377581
0.19934452 -0.30096784 0.017324574 -0.00591771 0.065622754 0.008080471 -0.16727579 0.016075956
-0.2854245 -0.14603099 0.15538903 0.12119006 0.019046461 -0.030759197 0.22108398 -0.14636616
0.18188544 0.22093302 -0.088358775 -0.0869933 0.12973017 0.16427992 0.16465744 0.25481826
0.031482905 0.01798141 0.355864 0.09520983 -0.3830971 -0.12860844 0.13096075 0.11102704
0.08616888 0.16504699 -0.0011986444 0.017669223 -0.22062223 0.17882988 0.026730318 -0.07331118
0.24439695 0.14254029 -0.092509575 0.013725054 0.103207774 0.06929274 0.00935832 0.14252974
0.34556663 -0.04117781 0.25082257 0.020716775 0.022585142 0.09049213 0.14009045 0.0033237694
-0.1579557 -0.19087462 0.023257622 0.15201323 -0.157786 0.0038619656 0.11472846 0.107109435
-0.23122188 -0.263653 -0.003571769 -0.0015527043 -0.03695714 -0.25593045 -0.11263129 0.21253972
-0.28439128 0.32457677 -0.16352735 -0.24684474 -0.37025502 0.11771448 0.04142915 0.30071226
0.069900915 0.009118399 -0.019810895 0.14315233 -0.3098681 0.018612914 -0.104248755 0.005557499
-0.044493746 -0.10462026 0.021840993 0.25812414 -0.030906955 -0.049636327 0.30213314 0.20285837
-0.16286089 0.087255746 -0.048951034 -0.25577778 -0.048400786 0.027652884 -0.10826136 -0.122322775
0.300435 -0.010533136 0.2326346 -0.08641802 0.13062574 0.048121955 0.076651186 -0.06719198
0.0077424324 -0.32905933 0.06404531 -0.04183264 -0.016186157 -0.11414 0.2614738 -0.06322629
0.11186012 0.013123209 0.16172957 0.16078033 0.17633158 0.11934279 -0.123998225 0.12184034
0.08930148 -0.04979269 0.0768095 -0.1954479 0.18021691 0.066614494 -0.06509506 0.23927477
-0.17602544 0.24703526 -0.2516879 0.10962431 -0.24478513 0.01780478 0.16455731 -0.05116027
0.1443651 0.15764777 -0.021242756 0.021361796 0.096191846 -0.015879327 0.33913916 -0.13378203
0.10119411 0.05219053 -0.10887063 0.1434109 0.069283776 -0.085179165 0.093620956 -0.28787616
-0.15929307 -0.057950098 -0.18647751 -0.07169062 0.1631957 -0.018592339 0.14601904 0.057889324
0.0734888 0.06701635 0.016430901 0.3206832 0.04328785 0.16642807 -0.07591745 0.029767253
0.14275894 0.1707064 -0.3560002 0.052996937 -0.12228061 0.16482487 0.16330492 -0.119393855
-0.031235509 0.20182045 0.54580474 0.18515861 0.18221956 0.01899619 -0.040840004 0.38932624
-0.037274852 0.30692178 0.06605213 -0.12640166 0.060553994 -0.16841397 0.058768485 -0.17122951
0.44859874 -0.047432605 0.008294726 0.03990204 0.10990498 0.10451911 0.017090332 -0.03391519
-0.117479764 -0.30069095 0.0058971928 0.07694632 -0.16719128 -0.08721004 0.02518421 -0.07353514
00000000: af40 00bd c773 d03d 6a3f 843d 2359 26be
00000010: b69d 473e 0529 803c 445b d43c 724a dbbd
00000020: fed6 90bd c183 c5bc 4c7d 913d 40d9 98be
00000030: 1093 5d3e 436b f6be 9779 d8bc 3a28 f4bb
00000040: 801f 1bbe d2d8 513c 0b48 f73c 0399 7cbd
00000050: 54c8 f8bd d8e4 553d 8954 5c3e c1fe 4bbd
00000060: 7e08 87be 19b3 653c d74e 443e b5b6 8e3e
00000070: abb0 b1bb bf9c 763e b722 843d e742 95bd
00000080: 8d72 253e ef8a 7abe ec57 c2bd 4859 4cbd
00000090: 83bc 9abb 1c6a f1bd 3ad2 693b ed62 6fbe
000000a0: f820 4c3e 7518 9abe 44ec 8d3c 59e9 c1bb
000000b0: 3965 863d f463 043c 584a 2bbe b9b1 833c
000000c0: 2923 92be 2689 15be 4d1e 1f3e 7f32 f83d
000000d0: 5307 9c3c b6fa fbbc d763 623e 03e1 15be
000000e0: 2d40 3a3e 443c 623e 72f5 b4bd 8b29 b2bd
000000f0: fcd7 043e ff38 283e f69b 283e 8a77 823e
00000100: 38f4 003d c04d 933c ce33 b63e 5ffd c23d
00000110: 4e25 c4be eeb1 03be 931a 063e 2562 e33d
00000120: 4f79 b03d 1402 293e d51b 9dba 0cbf 903c
00000130: cbea 61be 2e1f 373e 8af9 da3c 2c24 96bd
00000140: 3243 7a3e 15f6 113e a975 bdbd 0ddf 603c
00000150: 995e d33d 5ae9 8d3d a453 193c 51f3 113e
00000160: 1cee b03e 10aa 28bd d16b 803e 3ab6 a93c
00000170: 7a04 b93c f053 b93d df73 0f3e 99d3 593b
00000180: 24bf 21be a374 43be c586 be3c 5ba9 1b3e
00000190: a792 21be 0819 7d3b c1f6 ea3d 315c db3d
000001a0: 6ec5 6cbe 87fd 86be 5714 6abb 1c84 cbba
000001b0: 5f60 17bd 5109 83be 3cab e6bd 03a4 593e
000001c0: bc9b 91be ed2e a63e b773 27be dec4 7cbe
000001d0: 1192 bdbe 4a14 f13d 9db1 293d f5f6 993e
000001e0: 3628 8f3d 5665 153c 754a a2bc 8696 123e
000001f0: 08a7 9ebe 1c7a 983c 5f80 d5bd ae1b b63b
00000200: 133f 36bd 2643 d6bd e2eb b23c d928 843e
00000210: 9530 fdbc 764f 4bbd 32b1 9a3e 1bba 4f3e
00000220: 01c5 26be 24b3 b23d e180 48bd 4ef5 82be
00000230: e73f 46bd 4d88 e23c 22b8 ddbd 5d84 fabd
00000240: 9ed2 993e 2d93 2cbc c437 6e3e eefb b0bd
00000250: c1c2 053e 871b 453d 4cfb 9c3d f39b 89bd
00000260: 3bb4 fd3b 777a a8be 302a 833d b458 2bbd
00000270: d598 84bc 3bc2 e9bd e5df 853e c97c 81bd
00000280: eb16 e53d ba02 573c 709c 253e 99a3 243e
00000290: 4490 343e fe69 f43d c8f2 fdbd 6e87 f93d
000002a0: b2e3 b63d 6bf3 4bbd 4d4e 9d3d 7f23 48be
000002b0: c88a 383e 2e6d 883d 8f50 85bd 7204 753e
000002c0: 0340 34be d0f6 7c3e 3ddd 80be b682 e03d
000002d0: f4a8 7abe 54db 913c b681 283e 6e8d 51bd
000002e0: 72d4 133e 6b6e 213e 4a05 aebc effe ae3c
000002f0: 3b00 c53d 5d15 82bc a6a3 ad3e 28fe 08be
00000300: dc3e cf3d bdc5 553d 91f7 debd 4fda 123e
00000310: a7e4 8d3d 6a72 aebd 58bc bf3d 8164 93be
00000320: b91d 23be 155d 6dbd f6f3 3ebe 88d2 92bd
00000330: c61c 273e f64e 98bc 0486 153e 5b1d 6d3d
00000340: 4c81 963d de3f 893d 199a 863c 9730 a43e
00000350: 9a4e 313d 1f6c 2a3e 9c7a 9bbd 74da f33c
00000360: 662f 123e a9cd 2e3e a945 b6be 5113 593d
00000370: 426e fabd dac7 283e 6839 273e c484 f4bd
00000380: 9ce1 ffbc 05aa 4e3e dcb9 0b3f 389a 3d3e
00000390: c497 3a3e e69d 9b3c d947 27bd c555 c73e
000003a0: 84ad 18bd da24 9d3e 5746 873d 706f 01be
000003b0: 7707 783d b674 2cbe 39b7 703d ca56 2fbe
000003c0: bcae e53e b148 42bd 9ae6 073c 5270 233d
000003d0: dd15 e13d 1d0e d63d 0601 8c3c a7ea 0abd
000003e0: 3b99 f0bd 2af4 99be 3d3d c13b 0896 9d3d
000003f0: 3134 2bbe 2d9b b2bd 1e4f ce3c 9799 96bd

network_body._body_endoder.seq_layers.0.bias f4 [128]
-0.045958586 -0.013049711 -0.04563095 -0.01792473 0.058890026 0.01020676 -0.05787412 0.03165275
-0.02827409 -0.06892289 -0.034416735 -0.065542325 -0.13678572 -0.06974922 0.026558412 0.035485256
0.015639273 -0.003826866 -0.08592733 -0.0041427165 0.011582327 -0.019386377 -0.06357127 -0.051458772
0.03346061 -0.026471408 0.027269356 0.017509032 -0.04694505 -0.03322821 -0.008342418 0.030659404
-0.021518825 0.049886957 0.06794808 0.020640658 0.0031380462 -0.018668896 -0.017729612 -0.038272865
-0.0045672804 -0.04826497 0.036134146 -0.014331182 -0.058811657 -0.021144588 0.003666207 -0.04464206
-0.021939032 0.0040915 0.041094497 -0.03043111 -0.0032386086 0.008530417 -0.059468698 0.04242278
-0.002385858 -0.008526795 -0.12603883 -0.032079637 -0.04161898 0.012886666 -0.10999877 0.056218587
-0.08353182 -0.024931086 -0.048682477 0.021708611 -0.15800773 0.020139081 -0.09896974 0.024220701
-0.036085732 -0.012317019 -0.029970482 0.018589167 0.06894339 0.10397824 0.061937626 -0.083162926
-0.103434145 0.04676473 -0.0016211466 -0.15544906 0.038437042 -0.15083455 0.0069420403 -0.0051358114
-0.00089286175 0.0013541859 -0.016604912 0.00427749 -0.019717364 -0.030063732 0.012925347 -0.15350236
0.03622198 -0.009764285 -0.014436927 0.014344352 0.014081608 0.056872714 -0.04379662 0.02345686
0.015261845 -0.036473256 -0.13573915 -0.046305124 -0.03506248 -0.00809243 0.009583247 -0.012612335
-0.033155687 0.027508633 -0.030777948 0.025059417 -0.03133839 0.019387543 -0.015836995 -0.03836349
-0.027376477 -0.01025518 -0.04360703 -0.15038374 0.01451937 0.010437226 -0.008338889 0.012345132
00000000: 123f 3cbd 74ce 55bc 85e7 3abd e2d6 92bc
00000010: ab36 713d 413a 273c 6a0d 6dbd 50a6 013d
00000020: 109f e7bc 7227 8dbd 90f8 0cbd 0e3b 86bd
00000030: 8e11 0cbe aed8 8ebd 0791 d93c fd58 113d
00000040: ef1d 803c 28cc 7abb abfa afbd a0bf 87bb
00000050: cdc3 3d3c 2ed0 9ebc a731 82bd 6fc6 52bd
00000060: fe0d 093d 91da d8bc fc63 df3c 1a6f 8f3c
00000070: 7449 40bd 4e1a 08bd a3ae 08bc 6e29 fb3c
00000080: 3f48 b0bc 4456 4c3d 5d28 8b3d 9916 a93c
00000090: aea7 4d3b 83ef 98bc b13d 91bc 02c4 1cbd
000000a0: 20a9 95bb 7db1 45bd 6601 143d 56cd 6abc
000000b0: 7ee4 70bd 6a37 adbc bf44 703b 98da 36bd
000000c0: 7cb9 b3bc fd11 863b b452 283d aa4a f9bc
000000d0: d63e 54bb 2ac3 0b3c 7395 73bd 82c3 2d3d
000000e0: 0e5c 1cbb f8b3 0bbc 5310 01be f065 03bd
000000f0: aa78 2abd 9822 533c 0947 e1bd 7645 663d
00000100: bb12 abbd 473c ccbc 4767 47bd 42d6 b13c
00000110: c7cc 21be b7fa a43c a6b0 cabd 7e6a c63c
00000120: a2ce 13bd 52cd 49bc a884 f5bc 4f48 983c
00000130: 3132 8d3d 8bf2 d43d 4fb2 7d3d 5351 aabd
00000140: 48d5 d3bd 608c 3f3d a77c d4ba 0a2e 1fbe
00000150: 2970 1d3d 5f74 1abe 0e7a e33b 4f4a a8bb
00000160: f00e 6aba f07e b13a 0607 88bc 302a 8c3b
00000170: 4f86 a1bc 3748 f6bc d6c4 533c b92f 1dbe
00000180: 805d 143d 61fa 1fbc dc88 6cbc 9304 6b3c
00000190: 8bb6 663c 5df3 683d 1664 33bd 9a28 c03c
000001a0: d10c 7a3c fb64 15bd 34ff 0abe 71aa 3dbd
000001b0: ad9d 0fbd 1d96 04bc 0d03 1d3c f8a3 4ebc
000001c0: 42ce 07bd c959 e13c 0922 fcbc 6849 cd3c
000001d0: af5c 00bd a0d2 9e3c 96bc 81bc 0923 1dbd
000001e0: a244 e0bc 5805 28bc 499d 32bd 32fe 19be
000001f0: a7e2 6d3c e600 2b3c d69f 08bc 3d43 4a3c

network_body._body_endoder.seq_layers.2.weight f4 [128, 128]
0.034939796 0.0033347043 -0.0067629223 -0.0035085212 -0.0980658 -0.07681596 0.16706744 -0.23709093
0.043296356 0.023799052 -0.1376051 -0.15944989 0.024724754 0.014183525 0.018098814 -0.06362032
0.093854 0.00071380666 -0.090583034 0.047412805 0.0033024927 0.13102667 -0.024021776 0.006741528
-0.04657788 0.09996264 -0.16148956 -0.16308019 -0.12966171 0.11059723 0.061483588 0.1401
0.020902686 -0.08838581 0.008824978 0.12753452 -0.09622905 0.028947163 -0.028652921 0.19719246
0.0114157135 -0.004786359 0.009872729 -0.0088378405 -0.023393866 0.019944899 -0.024291597 -0.108583845
0.033329546 0.11417523 0.043413788 -0.056006197 -0.10506924 -0.0928092 -0.07884763 -0.0060934625
-0.045042936 0.0054250127 -0.03406786 0.056394864 0.14896138 0.068319306 0.085956916 -0.11109908
-0.09273376 0.093030624 -0.074106604 -0.14513193 0.032304548 0.055504363 0.110431634 -0.115284756
-0.14929435 -0.042490795 -0.042785045 -0.17546368 0.040467814 0.174769 -0.10494662 -0.06579982
-0.062483646 0.07983116 -0.0040328177 -0.06128073 -0.06057633 -0.02536257 -0.12583745 0.012618099
-0.008641202 0.099543564 -0.11816183 0.06798231 -0.103227355 0.006101654 -0.02226562 0.12297983
-0.09201521 -0.0016830587 -0.020432046 -0.07960747 -0.086842924 -0.014826117 -0.009255403 0.10032778
-0.0021861738 0.18573052 -0.16575131 0.09430115 -0.058055356 0.09098525 -0.07649399 -0.14134656
-0.0361911 -0.0074268235 -0.033946615 -0.09433673 -0.00017652095 -0.07715872 -0.1454309 -0.10346466
-0.010523416 -0.029876482 -0.013611221 0.08153102 0.0071570682 0.028814917 0.0728326 -0.1407152
0.020424254 -0.020072248 -0.016315438 -0.12852219 -0.11912445 -0.027949346 -0.06723587 0.0389682
-0.03574972 -0.04898839 0.03962897 0.029661763 -0.053567432 0.16103922 -0.030870909 0.22108528
-0.020403806 -0.07394101 0.02666575 0.012316475 0.078243986 0.15173821 -0.047203414 0.08539486
0.0632994 0.17227048 -0.102209315 -0.0016927932 0.014406626 -0.16352007 0.07566221 0.026098369
0.052925862 0.120284915 0.05356196 -0.04644123 -0.058642283 -0.014870714 -0.028259043 -0.012511623
-0.05517527 -0.069280155 0.14810812 0.06171735 -0.063745245 0.08252454 -0.030136922 0.034211744
-0.007195882 0.01194361 0.16520193 0.05737925 -0.106460914 -0.160605 -0.005636665 0.13321126
0.059786607 0.08116696 0.097312324 -0.023966802 0.05866136 0.050738562 -0.074386664 -0.13198584
-0.09209297 0.07547854 -0.19835041 -0.16936587 -0.004724925 0.19817446 0.01502655 0.10315802
0.06260791 -0.0031162559 -0.07508591 0.052524343 -0.13186578 -0.26376298 -0.11130689 -0.025768373
0.0328715 0.08591682 0.07271581 -0.09097689 -0.00024064441 -0.18369597 0.11666658 0.034451112
-0.13018723 0.0070709847 0.0050559156 -0.08930397 -0.11844079 -0.20641676 0.00063265854 -0.24819227
-0.014200774 -0.010774551 0.01863233 -0.0779501 -0.09431306 -0.122936785 -0.15488029 -0.07151936
0.09837088 -0.04414061 0.058790658 -0.18299305 0.20088531 -0.124882065 -0.038714036 -0.15888074
0.009130997 0.11910886 0.012653528 0.0022079416 0.107177824 0.08353544 0.029529147 0.033505693
0.0075074933 0.13692069 -0.10829041 -0.028899133 -0.1937893 0.06363183 -0.028041182 -0.123475954
00000000: 081d 0f3d 0e8b 5a3b 819b ddbb 38ef 65bb
00000010: b9d6 c8bd b051 9dbd ba13 2b3e f7c7 72be
00000020: 8557 313d 3bf6 c23c 5ae8 0cbe d546 23be
00000030: 918b ca3c 0462 683c f743 943c 5f4b 82bd
00000040: 8736 c03d c11e 3b3a 9983 b9bd ee33 423d
00000050: a26e 583b db2b 063e 51c9 c4bc 09e8 dc3b
00000060: 72c8 3ebd 36b9 cc3d 855d 25be 7efe 26be
00000070: 0ac6 04be cd80 e23d 37d6 7b3d 6076 0f3e
00000080: 1c3c ab3c 9f03 b5bd a496 103c 6998 023e
00000090: bc13 c5bd 9a22 ed3c 88b9 eabc d2ec 493e
000000a0: f908 3b3c e4d6 9cbb 3ac1 213c 97cc 10bc
000000b0: 7ea4 bfbc 7c63 a33c 2cff c6bc 3561 debd
000000c0: 9084 083d b4d4 e93d a8d2 313d c166 65bd
000000d0: 8b2e d7bd c012 bebd de7a a1bd abab c7bb
000000e0: f17e 38bd 4ec4 b13b be8a 0bbd 4dfe 663d
000000f0: 5589 183e feea 8b3d 2e0a b03d ea87 e3bd
00000100: 33eb bdbd d786 be3d 34c5 97bd 779d 14be
00000110: c651 043d 8b58 633d fb29 e23d 6a1a ecbd
00000120: 9ee0 18be d40a 2ebd 5f3f 2fbd c0ac 33be
00000130: 94c1 253d a5f6 323e 41ee d6bd 0ec2 86bd
00000140: daee 7fbd 857e a33d ba25 84bb 8101 7bbd
00000150: e31e 78bd 2ac5 cfbc 88db 00be 25bc 4e3c
00000160: d493 0dbc 7fdd cb3d d4fe f1bd 4f3a 8b3d
00000170: dd68 d3bd 62f0 c73b 6466 b6bc d9dc fb3d
00000180: 7872 bcbd 149a dcba 1b61 a7bc 3e09 a3bd
00000190: b4da b1bd 3ee9 72bc f9a3 17bc a778 cd3d
000001a0: e945 0fbb 2430 3e3e b6ba 29be f620 c13d
000001b0: 74cb 6dbd 7a56 ba3d e2a8 9cbd 27bd 10be
000001c0: 1e3d 14bd b65c f3bb 9b0b 0bbd 9e33 c1bd
000001d0: 7b18 39b9 6405 9ebd d6eb 14be 48e5 d3bd
000001e0: 686a 2cbc 86bf f4bc 9901 5fbc bcf9 a63d
000001f0: d785 ea3b 430d ec3c 4229 953d a517 10be
00000200: c450 a73c 8e6e a4bc f4a7 85bc 529b 03be
00000210: 85f7 f3bd 07f6 e4bc f6b2 89bd 1f9d 1f3d
00000220: 4c6e 12bd 0da8 48bd fd51 223d 3afd f23c
00000230: 8669 5bbd 77e7 243e fde4 fcbc 2e64 623e
00000240: e225 a7bc 626e 97bd 2272 da3c 0acb 493c
00000250: 623e a03d 4361 1b3e 5e58 41bd 80e3 ae3d
00000260: 1ea3 813d ac67 303e 1e53 d1bd b7e0 ddba
00000270: c509 6c3c ce71 27be caf4 9a3d 3fcc d53c
00000280: cac8 583d f057 f63d c963 5b3d 2939 3ebd
00000290: e432 70bd 4ca4 73bc 827f e7bc 8dfd 4cbc
000002a0: 77ff 61bd c1e2 8dbd a8a9 173e 55cb 7c3d
000002b0: de8c 82bd a002 a93d b5e1 f6bc 9d21 0c3d
000002c0: 6fcb ebbb 22af 433c b22a 293e 8106 6b3d
000002d0: 2e08 dabd a375 24be c6b3 b8bb 8868 083e
000002e0: cde2 743d dd3a a63d af4b c73d 0756 c4bc
000002f0: e546 703d 3dd3 4f3d 0958 98bd 4c27 07be
00000300: 3d9b bcbd 7e94 9a3d 5f1c 4bbe 3f6e 2dbe
00000310: 8bd3 9abb 3fee 4a3e eb31 763c 8344 d33d
00000320: 9338 803d 193a 4cbb a4c6 99bd c423 573d
00000330: d307 07be f10b 87be def4 e3bd 3218 d3bc
00000340: 44a4 063d 28f5 af3d 07ec 943d 1752 babd
00000350: 7e55 7cb9 cc1a 3cbe e3ee ee3d 9c1c 0d3d
00000360: cd4f 05be b8b3 e73b 18ac a53b 00e5 b6bd
00000370: 1691 f2bd ea5e 53be ffd8 253a 1d26 7ebe
00000380: 5daa 68bc be87 30bc d4a2 983c 4da4 9fbd
00000390: 3527 c1bd 48c6 fbbd f098 1ebe be78 92bd
000003a0: ac76 c93d c9cc 34bd 79ce 703d 8862 3bbe
000003b0: e1b4 4d3e 2bc2 ffbd 9c92 1ebd a2b1 22be
000003c0: 2d9a 153c 59ef f33d be50 4f3c 1db3 103b
000003d0: 0c80 db3d a114 ab3d 1ce7 f13c 443d 093d
000003e0: 6b01 f63b f034 0c3e 5dc7 ddbd e0bd ecbc
000003f0: b470 46be 6851 823d 9fb6 e5bc f6e0 fcbd

network_body._body_endoder.seq_layers.2.bias f4 [128]
0.025540268 0.03024154 0.016781062 -0.010823361 0.0021110151 -0.0317175 -0.09054909 -0.016858479
-0.029907227 -0.084832065 -0.011170253 0.067599416 -0.10655484 0.04143989 0.017271623 -0.015509274
-0.00040990958 0.012969259 -0.03408339 -0.053371504 0.05756977 -0.08569707 -0.014354245 -0.01474517
0.0051159416 -0.0059448346 -0.029473064 -0.014221227 -0.027107045 -0.0011252018 0.028577339 0.0065235044
-0.13545859 0.06249412 -0.038586725 -0.02819762 -0.0005453547 0.011200496 -0.021395663 0.008839111
-0.010944876 0.0041446756 -0.017002644 0.03589171 -0.013246645 -0.0189978 0.057096567 -0.03771881
0.049944766 0.006644872 -0.048710544 0.025356242 -0.11011679 -0.03409802 -0.0648527 -0.0142066
-0.042896368 0.029853584 0.030078629 -0.07657117 -0.05619461 -0.01687289 -0.027701698 -0.07149191
-0.0007945303 0.08648264 0.0006244124 -0.028622981 -0.0068035945 0.05211759 0.00861925 -0.065911345
0.00063700747 -0.0010964927 -0.0038410597 0.032735832 -0.031831156 -0.059576247 -0.011181794 0.027416442
-0.023248129 0.017501261 -0.12345157 -0.01087271 0.026645947 -0.10376503 0.018850673 0.011784307
-0.028048217 0.0073746173 -0.013586073 -0.015815051 0.021345893 0.060484856 0.019371219 -0.023287518
-0.014600617 -0.07979702 -0.023201916 0.007935481 0.015022856 0.018256977 0.0509344 -0.0074301693
-0.10491772 -0.092952296 -0.01650768 -0.018280849 0.032216746 -0.056224495 0.010771166 -0.025912229
-0.014088696 -0.00991488 0.03755107 0.006163127 0.014436774 -0.08367626 -0.0048949555 -0.018971702
0.070438735 0.018547121 0.008054455 0.007034242 -0.040220115 -0.00599907 0.04614467 0.0071141482
00000000: d339 d13c 1bbd f73c 7078 893c 7754 31bc
00000010: f558 0a3b 36ea 01bd cd71 b9bd cb1a 8abc
00000020: 0000 f5bc 6fbc adbd 7003 37bc 9071 8a3d
00000030: 6d39 dabd e0bc 293d 387d 8d3c 9c1a 7ebc
00000040: 22e9 d6b9 047d 543c 069b 0bbd 149c 5abd
00000050: 47ce 6b3d f281 afbd 112e 6bbc ba95 71bc
00000060: a1a3 a73b e3cc c2bb 7f71 f1bc 2600 69bc
00000070: 980f debc 827b 93ba 061b ea3c 1fc3 d53b
00000080: a8b5 0abe d6f9 7f3d 1d0d 1ebd b2fe e6bc
00000090: 22f6 0eba 4982 373c f545 afbc ebd1 103c
000000a0: 2352 33bc 0fd0 873b 2149 8bbc 3003 133d
000000b0: 7508 59bc 46a1 9bbc 17de 693d 0a7f 1abd
000000c0: e292 4c3d 3abd d93b b584 47bd e5b7 cf3c
000000d0: e984 e1bd 5eaa 0bbd 7ed1 84bd cdc2 68bc
000000e0: 1ab4 2fbd 818f f43c 7567 f63c 58d1 9cbd
000000f0: 522c 66bd 0439 8abc acee e2bc 5a6a 92bd
00000100: 0748 50ba cf1d b13d 9baf 233a be7a eabc
00000110: b0f0 debb 4179 553d c137 0d3c 87fc 86bd
00000120: d9fc 263a 31b8 8fba 4aba 7bbb 0216 063d
00000130: 6361 02bd 3906 74bd d833 37bc 7298 e03c
00000140: dc72 bebc ce5e 8f3c 2dd4 fcbd 7323 32bc
00000150: 9a48 da3c c382 d4bd ba6c 9a3c f712 413c
00000160: 60c5 e5bc c6a6 f13b 1f98 5ebc 918e 81bc
00000170: 95dd ae3c f8be 773d 64b0 9e3c 77c5 bebc
00000180: 6d37 6fbc 9f6c a3bd f211 bebc d203 023c
00000190: 6d22 763c a88f 953c 97a0 503d c778 f3bb
000001a0: 1adf d6bd c65d bebd 1d3b 87bc b8c1 95bc
000001b0: b5f5 033d a84b 66bd 8b79 303c e245 d4bc
000001c0: 46d4 66bc 0572 22bc 27cf 193d 0ef4 c93b
000001d0: 3888 6c3c 765e abbd dd65 a0bb 8b6a 9bbc
000001e0: 2f42 903d 22f0 973c d5f6 033c 807f e63b
000001f0: d9bd 24bd d993 c4bb 3202 3d3d cd1d e93b

action_model._continuous_distribution.log_sigma f4 [1, 2]
-0.21363471 -0.6162486
00000000: 0fc3 5abe 78c2 1dbf

action_model._continuous_distribution.mu.weight f4 [2, 128]
-0.0077685453 0.0075652357 0.104183525 0.022423191 -0.003426709 0.025098067 -0.0020034888 0.13945411
0.017549066 -0.00074452383 0.07519834 0.01000319 -0.008960974 -0.16036156 0.0020240715 -0.08496329
0.06733322 -0.015449342 0.09922814 0.05274791 -0.063092865 -0.02853591 0.029521063 0.00071694865
-0.00028488284 -0.007895853 0.008539339 -0.00975638 0.05569206 -0.07385056 0.11789624 -0.043149073
-0.029682914 -0.012387584 0.030237585 0.05139793 0.12259012 0.00067016645 -0.09263839 -0.005143358
0.05081679 0.07601375 0.007105746 -0.0409175 0.023321128 0.03091775 0.051301613 0.0025232339
-0.08866097 0.029559279 0.040054943 0.063533604 0.014528068 0.032452416 -0.058410153 0.12136144
0.039160743 0.013854905 -0.075049065 0.012680762 -0.011910448 0.1000764 0.01926645 0.020664193
-0.012709333 -0.036004312 -0.01175122 -0.03539489 -0.014473829 -0.056270294 -0.013528101 0.012585975
-0.0021294807 -0.06374748 0.013004306 -0.013358929 0.08015403 0.027195023 0.038114548 0.118322894
0.006855074 -0.017611673 -0.01382424 0.014046196 0.010505625 0.004447218 0.10321525 -0.0018202197
0.025783112 -0.07365607 0.051956944 -0.0048838914 -0.06738573 0.029454367 -0.02404163 0.059498202
-0.0019857 0.0015418018 0.057499263 0.0064446605 -0.02623948 -0.030362729 -0.018999534 -0.044128615
0.0039841696 -0.006199331 0.03633919 0.09537137 0.06552912 0.01622104 0.08520111 -0.016380321
-0.047063626 0.040439937 -0.01605577 0.013109394 0.15139085 0.040105667 0.014527948 0.016350351
0.0003344031 0.047081016 -0.0019288306 0.02567661 0.061077844 0.007576479 -0.030307312 0.010454385
0.00029128772 -0.153121 0.03169467 -0.116595365 -0.10365439 -0.07453021 -0.05273813 0.008193209
-0.10023402 -0.09375467 0.0059855664 0.08332697 -0.06355659 0.014285846 -0.10826854 -0.075165905
-0.11204723 0.025027117 -0.034580022 -0.03389369 0.07200469 -0.06860565 -0.12443034 -0.0015404851
-0.098122396 -0.11303416 -0.09875392 -0.09127159 -0.09388985 -0.05540109 0.053697098 -0.10661267
-0.07146351 0.082496695 -0.0873555 -0.0680442 -0.005990555 0.043983508 -0.019250832 0.02185994
-0.084824644 0.054485228 -0.10281942 -0.11985753 -0.10870908 -0.12246316 0.08941607 -0.11099079
0.05165933 0.024485458 -0.07954185 0.052581158 -0.07386134 0.004853375 -0.093552135 -0.03813998
-0.016003724 -0.16202351 0.027909381 -0.06372064 -0.081621386 -0.019287629 -0.09648138 -0.06559208
-0.11459566 0.101576835 -0.068676926 -0.061375014 -0.09872022 0.070678174 -0.004147737 -0.07245167
-0.13531588 0.026254931 -0.12050088 -0.16248673 -0.002984436 -0.09295865 -0.102392316 0.067055285
-0.10344384 -0.14917769 -0.056118075 -0.14168844 -0.14129677 -0.05069741 0.042952236 -0.12160194
-0.12108761 -0.049071506 -0.091473766 -0.017182907 0.010544282 0.110813 -0.14208008 0.028614437
-0.101884805 -0.0784768 -0.10087061 -0.12888533 -0.13443075 -0.1282641 0.07878835 0.018367281
-0.065717876 -0.062419165 -0.09637655 -0.029692397 0.0849611 -0.10005362 0.03797116 -0.11096606
0.020822 -0.10226886 0.04918328 -0.093990155 -0.0111173745 -0.028943006 -0.124515556 -0.102704324
0.087152265 -0.09406672 0.007835589 -0.10861563 -0.06797649 -0.100880235 -0.13712007 -0.002761857
00000000: 488f febb cce5 f73b 2c5e d53d d7b0 b73c
00000010: a392 60bb 769a cd3c f74c 03bb 0fcd 0e3e
00000020: 0fc3 8f3c 262c 43ba 9601 9a3d 6be4 233c
00000030: 0dd1 12bc d235 24be 49a6 043b 3c01 aebd
00000040: 00e6 893d 3d1f 7dbc 2038 cb3d 310e 583d
00000050: d536 81bd 24c4 e9bc 28d6 f13c 9cf1 3b3a
00000060: 545c 95b9 9c5d 01bc 95e8 0b3c 39d9 1fbc
00000070: 5c1d 643d f63e 97bd 9573 f13d 15bd 30bd
00000080: 9529 f3bc 4bf5 4abc d0b4 f73c a386 523d
00000090: 8710 fb3d 1cae 2f3a 32b9 bdbd 9d89 a8bb
000000a0: 4425 503d 19ad 9b3d 51d7 e83b 1c99 27bd
000000b0: f30b bf3c 3947 fd3c a421 523d d75c 253b
000000c0: e293 b5bd 4d26 f23c a710 243d e81d 823d
000000d0: 2207 6e3c d3ec 043d 7c3f 6fbd 598c f83d
000000e0: 0467 203d afff 623c 53b3 99bd f9c2 4f3c
000000f0: 0a24 43bc dbf4 cc3d add4 9d3c f447 a93c
00000100: ce3a 50bc 4279 13bd 3088 40bc 3bfa 10bd
00000110: a423 6dbc ae7b 66bd f8a4 5dbc 6835 4e3c
00000120: c28e 0bbb 0a8e 82bd 0310 553c 69df 5abc
00000130: cc27 a43d 19c8 de3c 001e 1c3d 4653 f23d
00000140: 87a0 e03b 5b46 90bc 117f 62bc 0422 663c
00000150: c91f 2c3c f8b9 913b 8462 d33d 7094 eeba
00000160: 1b37 d33c fed8 96bd ced0 543d 0d09 a0bb
00000170: 8801 8abd 494a f13c f4f2 c4bc 63b4 733d
00000180: 8522 02bb 4916 ca3a 5984 6b3d bb2d d33b
00000190: 2ef4 d6bc 42bb f8bc e9a4 9bbc 35c0 34bd
000001a0: a38d 823b c223 cbbb 67d8 143d 1152 c33d
000001b0: 2234 863d fde1 843c eb7d ae3d 0630 86bc
000001c0: cac5 40bd 59a4 253d 6487 83bc c9c8 563c
000001d0: 3406 1b3e d745 243d a106 6e3c 2cf1 853c
000001e0: d352 af39 06d8 403d d1d0 fcba c157 d23c
000001f0: c32c 7a3d 1d44 f83b 0a47 f8bc de48 2b3c
00000200: fab7 9839 c0cb 1cbe 45d2 013d 8dc9 eebd
00000210: c148 d4bd 4ba3 98bd f003 58bd cf3c 063c
00000220: 7e47 cdbd 7302 c0bd 9222 c43b 55a7 aa3d
00000230: f529 82bd 2e0f 6a3c e5bb ddbd 95f0 99bd
00000240: 0579 e5bd ab05 cd3c c8a3 0dbd 1cd4 0abd
00000250: 3277 933d 1e81 8cbd 56d5 febd 1aea c9ba
00000260: 65f4 c8bd 747e e7bd 7f3f cabd 99ec babd
00000270: 5249 c0bd 41ec 62bd 7df1 5b3d be57 dabd
00000280: 765b 92bd 07f4 a83d 71e7 b2bd c25a 8bbd
00000290: 6b4c c4bb 0d28 343d ecb3 9dbc 9e13 b33c
000002a0: 8bb8 adbd e72b 5f3d fd92 d2bd dd77 f5bd
000002b0: dea2 debd f7cd fabd c61f b73d 244f e3bd
000002c0: bc98 533d ba95 c83c d6e6 a2bd 575f 573d
000002d0: 9d44 97bd 0f09 9f3b 4398 bfbd ab38 1cbd
000002e0: 3e1a 83bc 7ee9 25be 37a2 e43c f87f 82bd
000002f0: 1d29 a7bd 1701 9ebc 0898 c5bd 2455 86bd
00000300: 21b1 eabd 8407 d03d 7da6 8cbd 5e64 7bbd
00000310: d42d cabd b8bf 903d bde9 87bb 8b61 94bd
00000320: 3f90 0abe 9514 d73c 2ac9 f6bd ec62 26be
00000330: 8796 43bb 1b61 bebd 10b3 d1bd 4854 893d
00000340: 5dda d3bd 09c2 18be 11dc 65bd c616 11be
00000350: 1ab0 10be 16a8 4fbd afee 2f3d 700a f9bd
00000360: c8fc f7bd 34ff 48bd 9956 bbbd 2bc3 8cbc
00000370: edc1 2c3c edf1 e23d 717d 11be d368 ea3c
00000380: fba8 d0bd 72b8 a0bd 4095 cebd 84fa 03be
00000390: 37a8 09be aa57 03be c95b a13d fb76 963c
000003a0: 1897 86bd 3dab 7fbd 1261 c5bd 783d f3bc
000003b0: 1600 ae3d eae8 ccbd a687 1b3d 2c42 e3bd
000003c0: e692 aa3c 5672 d1bd 6874 493d e97d c0bd
000003d0: a625 36bc e219 edbc 0302 ffbd a556 d2bd
000003e0: e37c b23d 0da6 c0bd d860 003c df71 debd
000003f0: 4237 8bbd 4c9a cebd 3469 0cbe 4500 35bb

action_model._continuous_distribution.mu.bias f4 [2]
-0.010019958 0.08952825
00000000: c02a 24bc 965a b73d

exp_avg f4 [128, 46]
-0.00027081478 0.00022174967 1.1823363e-05 -4.65854e-05 -2.4796927e-06 -0.0001370306 -0.00024176664 0.00019270157
3.0192255e-06 -4.906508e-05 0.0 -0.00012945803 -4.906508e-05 0.0 3.4850647e-05 -4.906508e-05
0.0 -7.098943e-05 -4.906508e-05 0.0 2.7921344e-05 -0.00011484519 4.2557112e-05 -9.1578535e-05
1.3016576e-05 -2.8499979e-05 -0.00014919085 -0.00047921995 0.00013799181 -0.00015185963 -4.905976e-05 0.0
-5.8051377e-05 -0.00019291556 0.0 -0.00010474825 -4.906508e-05 0.0 7.682249e-06 -4.906508e-05
0.0 -6.53935e-05 -5.549311e-05 -2.871261e-14 -5.24504e-05 -0.0010902801 0.0011671166 0.0025197733
0.0031821313 0.0033597092 0.00032718104 0.0017781178 0.001762182 0.0019247076 0.0037454034 0.0036868898
0.0 0.00094628305 0.0036868898 0.0 0.0024566078 0.0036868898 0.0 0.0007108166
0.0036868898 0.0 0.0019100439 0.0032602968 -0.00013459762 0.001536459 0.00454716 0.00012225799
0.0019013302 0.002303356 6.482664e-05 0.0010295153 0.0036870795 0.0 0.0013098723 0.0014951648
0.0 0.0005980557 0.0036868898 0.0 0.0015971393 0.0036868898 0.0 0.00070328114
-0.00014156225 6.5981286e-13 0.0036401583 0.008364231 -0.00020375203 0.0004227469 0.00017302425 0.00021662905
2.3659122e-06 -0.000118930766 -0.00014333458 0.00036232953 0.00034989102 0.00021899503 0.0 -0.00019345694
0.00021899503 0.0 0.00025091146 0.00021899503 0.0 -6.479386e-05 0.00021899503 0.0
0.00020146465 0.0009358864 7.188498e-05 0.00034698535 0.00090910034 -2.0719443e-05 0.00012766794 -0.0008629943
0.0005056845 -3.3581946e-05 0.00021902191 0.0 0.00010272852 2.2015225e-05 0.0 -8.1509075e-05
0.00021899503 0.0 0.00017773609 0.00021899503 0.0 -5.5550725e-05 -6.335806e-05 -2.7952868e-14
0.00021260523 0.00030058215 -0.00070079166 0.0005246353 -0.00012517541 -0.00027087596 9.471949e-05 -0.00040550288
-0.00061619136 0.00044003542 -0.00031252057 -0.0001761564 0.0 -7.446983e-05 -0.0001761564 0.0
-4.6666217e-05 -0.0001761564 0.0 -8.365201e-05 -0.0001761564 0.0 -3.4255383e-05 -0.0022441433
5.7723155e-05 -0.00070925563 -0.0010040228 -6.5137357e-07 -0.0004967489 0.00028162904 -0.00014277692 -0.000114737806
-0.00017613462 0.0 -0.0003609726 -0.0008780141 0.0 -0.00023567452 -0.0001761564 0.0
-0.00013536392 -0.0001761564 0.0 -8.5686595e-05 -3.840072e-05 6.5123e-14 -0.0001704768 -0.0012027465
0.0026089053 0.003312913 0.004851748 0.005445674 0.00047614408 0.003145273 0.0037125887 0.002209229
0.0060926126 0.005921819 0.0 0.0016358512 0.005921819 0.0 0.0038100793 0.005921819
0.0 0.0012827902 0.005921819 0.0 0.0029241927 0.0075767534 -0.0003303877 0.0033814756
0.008038997 0.00019858692 0.003669137 0.0035665836 0.0005678545 0.0020804103 0.0059220535 0.0
0.0024839765 0.0036547643 0.0 0.0013546688 0.005921819 0.0 0.0025972775 0.005921819
0.0 0.0012734734 -8.53498e-05 1.3576551e-12 0.0058606947 0.01824587 0.0002185257 -0.001380698
-0.0011936056 -0.0010766194 -8.5553096e-05 -0.00035434024 1.767579e-05 -0.0011798481 -0.0012151735 -0.0011621724
0.0 -0.00015067 -0.0011621724 0.0 -0.0009111046 -0.0011621724 0.0 -0.000117914955
-0.0011621724 0.0 -0.00070579856 -0.0004010151 -2.076548e-05 -0.00013123959 -0.0013088279 1.453485e-05
00000000: 25fc 8db9 7985 6839 f55c 4637 b164 43b8
00000010: cc68 26b6 dfaf 0fb9 bd82 7db9 ef0f 4a39
00000020: e69d 4a36 3acb 4db8 0000 0000 20bf 07b9
00000030: 3acb 4db8 0000 0000 992c 1238 3acb 4db8
00000040: 0000 0000 29e0 94b8 3acb 4db8 0000 0000
00000050: a138 ea37 0bd9 f0b8 5a7f 3238 da0d c0b8
00000060: c561 5a37 3d13 efb7 1d70 1cb9 d03f fbb9
00000070: e5b1 1039 823c 1fb9 84c5 4db8 0000 0000
00000080: 317c 73b8 6049 4ab9 0000 0000 4aac dbb8
00000090: 3acb 4db8 0000 0000 02e3 0037 3acb 4db8
000000a0: 0000 0000 de23 89b8 46c1 68b8 634f 01a9
000000b0: 30fe 5bb8 bbe7 8eba eff9 983a c822 253b
000000c0: 4e8b 503b 912e 5c3b 7f89 ab39 bc0f e93a
000000d0: 04f9 e63a 7846 fc3a 7175 753b bf9f 713b
000000e0: 0000 0000 fb0f 783a bf9f 713b 0000 0000
000000f0: 0aff 203b bf9f 713b 0000 0000 1856 3a3a
00000100: bf9f 713b 0000 0000 705a fa3a b4aa 553b
00000110: c622 0db9 0263 c93a 5800 953b 6132 0039
00000120: 0e36 f93a e7f3 163b 8af3 8738 cdf0 863a
00000130: eea2 713b 0000 0000 05b0 ab3a 68f9 c33a
00000140: 0000 0000 d7c6 1c3a bf9f 713b 0000 0000
00000150: 1a57 d13a bf9f 713b 0000 0000 665c 383a
00000160: 5470 14b9 87b8 392b b98f 6e3b 210a 093c
00000170: 45a6 55b9 21a4 dd39 d86d 3539 eb26 6339
00000180: 10c6 1e36 786a f9b8 154c 16b9 0cf7 bd39
00000190: 9471 b739 08a2 6539 0000 0000 b4da 4ab9
000001a0: 08a2 6539 0000 0000 c48c 8339 08a2 6539
000001b0: 0000 0000 f0e1 87b8 08a2 6539 0000 0000
000001c0: 4140 5339 4656 753a f4c0 9638 96eb b539
000001d0: b150 6e3a aace adb7 9ade 0539 913a 62ba
000001e0: ea8f 043a 57da 0cb8 3fa9 6539 0000 0000
000001f0: f46f d738 56ad b837 0000 0000 daef aab8
00000200: 08a2 6539 0000 0000 ab5e 3a39 08a2 6539
00000210: 0000 0000 23ff 68b8 19df 84b8 edc6 fba8
00000220: c8ee 5e39 7497 9d39 55b5 37ba ae87 093a
00000230: 8541 03b9 5b04 8eb9 24a4 c638 ad99 d4b9
00000240: e787 21ba 8eb4 e639 cdd9 a3b9 a0b6 38b9
00000250: 0000 0000 b02c 9cb8 a0b6 38b9 0000 0000
00000260: 78bb 43b8 a0b6 38b9 0000 0000 556e afb8
00000270: a0b6 38b9 0000 0000 70ad 0fb8 7a12 13bb
00000280: c41b 7238 57ed 39ba 6a99 83ba 0dda 2eb5
00000290: 4138 02ba 9ca7 9339 63b6 15b9 649f f0b8
000002a0: c7b0 38b9 0000 0000 ec40 bdb9 872a 66ba
000002b0: 0000 0000 661f 77b9 a0b6 38b9 0000 0000
000002c0: 7af0 0db9 a0b6 38b9 0000 0000 a4b2 b3b8
000002d0: 7610 21b8 dba4 9229 04c2 32b9 7aa5 9dba
000002e0: 2bfa 2a3b 751d 593b 69fb 9e3b a071 b23b
000002f0: faa2 f939 ed20 4e3b e74e 733b b6c8 103b
00000300: 8aa4 c73b d10b c23b 0000 0000 0f6a d63a
00000310: d10b c23b 0000 0000 86b2 793b d10b c23b
00000320: 0000 0000 4c23 a83a d10b c23b 0000 0000
00000330: d0a3 3f3b 6a46 f83b e337 adb9 bf9b 5d3b
00000340: ffb5 033c c53b 5039 e775 703b 58bd 693b
00000350: 12dc 143a 7e57 083b c90d c23b 0000 0000
00000360: 36ca 223b c584 6f3b 0000 0000 248f b13a
00000370: d10b c23b 0000 0000 1637 2a3b d10b c23b
00000380: 0000 0000 adea a63a d3fd b2b8 ae12 bf2b
00000390: 120b c03b 5d78 953c 0c24 6539 8af8 b4ba
000003a0: c272 9cba 5a1d 8dba f86a b3b8 bec6 b9b9
000003b0: 7846 9437 22a5 9aba 7546 9fba 0954 98ba
000003c0: 0000 0000 2cfd 1db9 0954 98ba 0000 0000
000003d0: 32d7 6eba 0954 98ba 0000 0000 1c49 f7b8
000003e0: 0954 98ba 0000 0000 5705 39ba 563f d2b9
000003f0: 8731 aeb7 5c9d 09b9 fa8c abba b5da 7337

exp_avg_sq f4 [128, 46]
1.2935958e-05 6.8859384e-07 3.661305e-06 1.32709965e-05 4.555992e-07 3.298203e-06 1.320159e-05 4.7982974e-07
3.5182768e-06 1.3682741e-05 0.0 1.993784e-06 1.3682742e-05 0.0 2.4800563e-06 1.3682738e-05
0.0 1.6681336e-06 1.3682086e-05 0.0 2.0679543e-06 6.3965463e-06 5.2535215e-06 9.265384e-06
1.0163942e-05 2.2859747e-06 7.299262e-06 1.05025665e-05 1.9188083e-06 6.6053776e-06 1.36634735e-05 0.0
3.4638028e-06 1.3427846e-05 0.0 2.8346835e-06 1.3683094e-05 0.0 2.1618698e-06 1.3537017e-05
0.0 1.7943814e-06 9.950644e-07 2.2923739e-20 1.2698235e-05 0.0017825027 0.0004380462 0.00011843902
0.0003449423 0.00051815505 4.6814366e-05 0.00025389864 0.0004571773 9.786981e-05 0.00029305977 0.00056160067
0.0 0.00011227065 0.0005616012 0.0 0.00013632228 0.00056159915 0.0 7.118566e-05
0.0005615813 0.0 8.713545e-05 0.00033553535 1.9055466e-05 0.00016682535 0.0004704818 1.9289744e-05
0.00016970752 0.000344627 1.5935997e-05 0.00014374987 0.000549889 0.0 0.00011224782 0.0005500341
0.0 0.00010008984 0.0005615512 0.0 8.6727516e-05 0.0005531848 0.0 7.085251e-05
4.0351108e-05 2.8306108e-19 0.00052120566 0.02658074 0.00014014063 3.9003253e-06 3.996188e-05 0.00014377115
1.4562632e-06 3.8643888e-05 0.00014065918 3.975806e-06 3.912641e-05 0.00014468998 0.0 2.271573e-05
0.00014469032 0.0 2.9517192e-05 0.00014468952 0.0 1.6027023e-05 0.00014468747 0.0
2.4983172e-05 0.000103207145 2.3683579e-05 9.54697e-05 9.156973e-05 3.5186116e-05 8.495856e-05 0.00012632956
1.02632775e-05 5.947438e-05 0.00014446277 0.0 4.1669366e-05 0.00014418847 0.0 2.673705e-05
0.00014468744 0.0 2.5641253e-05 0.0001445914 0.0 1.6547756e-05 1.1367885e-05 2.3249766e-20
0.00013352463 0.01685662 0.00010287805 1.8256269e-05 6.986256e-05 0.000120001256 4.8581337e-06 4.920981e-05
0.00010163272 2.101495e-05 6.58477e-05 0.00012482706 0.0 2.1733244e-05 0.00012482922 0.0
3.079328e-05 0.000124822 0.0 1.481052e-05 0.0001248271 0.0 2.0186486e-05 8.092162e-05
1.0841164e-05 4.372825e-05 0.00010643011 6.583741e-06 4.0008537e-05 7.499737e-05 7.187244e-06 3.5810175e-05
0.00012421657 0.0 2.6994998e-05 0.00012094021 0.0 2.2901211e-05 0.00012482029 0.0
2.0250154e-05 0.00012118765 0.0 1.4969415e-05 1.1806543e-05 1.3348115e-20 0.000112684924 0.0072666775
0.0015833218 0.00025596135 0.0010276597 0.0017242399 0.00012993407 0.0008409585 0.0016577654 0.00017403312
0.00085745176 0.0018470576 0.0 0.00038450395 0.0018470583 0.0 0.00040705779 0.0018470546
0.0 0.00024752808 0.0018470114 0.0 0.0002661339 0.001065006 0.00011377333 0.00062294054
0.001551172 7.583202e-05 0.00061987684 0.0012363782 6.986309e-05 0.000545181 0.0018212713 0.0
0.00038239756 0.0018336351 0.0 0.00035932075 0.0018469407 0.0 0.00026651385 0.00183269
0.0 0.000248555 0.00011624408 8.190678e-19 0.0017305568 0.100490764 1.4280208e-05 3.469745e-05
4.4162643e-05 4.3446045e-05 4.869249e-06 2.399473e-05 2.923445e-05 1.9173116e-05 3.5769823e-05 4.885103e-05
0.0 8.421598e-06 4.8851507e-05 0.0 1.5193734e-05 4.884948e-05 0.0 5.0452595e-06
4.8849248e-05 0.0 9.246948e-06 9.786264e-06 2.4902886e-07 3.4543477e-06 2.7041684e-05 3.005635e-07
00000000: 8407 5937 cfd7 3835 beb4 7536 7fa6 5e37
00000010: 1499 f434 b256 5d36 667c 5d37 a6cd 0035
00000020: 891b 6c36 ed8e 6537 0000 0000 f3cc 0536
00000030: ee8e 6537 0000 0000 0b6f 2636 ea8e 6537
00000040: 0000 0000 a2e4 df35 1d8c 6537 0000 0000
00000050: 2fc7 0a36 eaa1 d636 6847 b036 8572 1b37
00000060: cc85 2a37 bf68 1936 2fec f436 2e34 3037
00000070: e0c4 0036 c3a3 dd36 2c3c 6537 0000 0000
00000080: ae73 6836 2948 6137 0000 0000 7e3b 3e36
00000090: 7190 6537 0000 0000 a414 1136 0c1d 6337
000000a0: 0000 0000 7ad6 f035 278e 8535 3382 d81e
000000b0: 810a 5537 dea2 e93a 91a9 e539 7762 f838
000000c0: 5fd9 b439 ccd4 073a 8b5a 4438 b31d 8539
000000d0: 4cb1 ef39 743f cd38 d1a5 9939 6238 133a
000000e0: 0000 0000 d972 eb38 6b38 133a 0000 0000
000000f0: bcf1 0e39 4838 133a 0000 0000 8349 9538
00000100: 1537 133a 0000 0000 7dbc b638 cbea af39
00000110: 4dd9 9f37 d7ed 2e39 00ab f639 69d0 a137
00000120: 84f3 3139 0eaf b439 4bae 8537 90bb 1639
00000130: 6d26 103a 0000 0000 9766 eb38 2a30 103a
00000140: 0000 0000 53e7 d138 1035 133a 0000 0000
00000150: 7be1 b538 9a03 113a 0000 0000 a796 9438
00000160: ac3e 2938 fb16 a720 85a1 083a dabf d93c
00000170: b7f2 1239 8adf 8236 be9c 2738 46c1 1639
00000180: d374 c335 8f15 2238 e97d 1339 ea67 8536
00000190: aa1b 2438 ecb7 1739 0000 0000 a98d be37
000001a0: 03b8 1739 0000 0000 b09b f737 ccb7 1739
000001b0: 0000 0000 c571 8637 3fb7 1739 0000 0000
000001c0: f492 d137 ea70 d838 19ac c637 e836 c838
000001d0: 2009 c038 ce94 1338 c82b b238 5577 0439
000001e0: 7130 2c37 2174 7938 ee7a 1739 0000 0000
000001f0: 24c6 2e38 4c31 1739 0000 0000 6149 e037
00000200: 3db7 1739 0000 0000 2c18 d737 759d 1739
00000210: 0000 0000 09d0 8a37 b2b8 3e37 7c96 db1e
00000220: bf02 0c39 e516 8a3c 3cc0 d738 0a25 9937
00000230: 2d83 9238 2fa9 fb38 0d03 a336 a266 4e38
00000240: a723 d538 4349 b037 b717 8a38 02e4 0239
00000250: 0000 0000 c94f b637 97e4 0239 0000 0000
00000260: 0828 0138 a7e2 0239 0000 0000 b37a 7837
00000270: 05e4 0239 0000 0000 2656 a937 77b4 a938
00000280: 72e2 3537 da68 3738 3b33 df38 e8e9 dc36
00000290: d7ce 2738 e847 9d38 f529 f136 e232 1638
000002a0: 2240 0239 0000 0000 5173 e237 48a1 fd38
000002b0: 0000 0000 fa1b c037 31e2 0239 0000 0000
000002c0: e0de a937 2026 fe38 0000 0000 2625 7b37
000002d0: b714 4637 8623 7c1e 4251 ec38 4f1d ee3b
000002e0: 7787 cf3a 8d32 8639 8ab2 863a e4ff e13a
000002f0: e93e 0839 c573 5c3a 6049 d93a a97c 3639
00000300: 9dc6 603a f818 f23a 0000 0000 3f97 c939
00000310: fe18 f23a 0000 0000 5f6a d539 de18 f23a
00000320: 0000 0000 a8c6 8139 6b17 f23a 0000 0000
00000330: e387 8b39 ac97 8b3a 9799 ee38 d54c 233a
00000340: b250 cb3a 0108 9f38 3b7f 223a f80d a23a
00000350: 7683 9238 7aea 0e3a b9b7 ee3a 0000 0000
00000360: 887c c839 9656 f03a 0000 0000 3763 bc39
00000370: 0c15 f23a 0000 0000 e2ba 8b39 df36 f03a
00000380: 0000 0000 7d50 8239 11c8 f338 03bf 7121
00000390: dad3 e23a 1ace cd3d 0795 6f37 1a88 1138
000003a0: 473b 3938 d639 3638 8862 a336 4a48 c937
000003b0: 813c f537 f4d5 a037 8e07 1638 65e5 4c38
000003c0: 0000 0000 7d4a 0d37 e8e5 4c38 0000 0000
000003d0: 97e8 7e37 bbe3 4c38 0000 0000 734a a936
000003e0: 7be3 4c38 0000 0000 5723 1b37 af2f 2437
000003f0: 44b2 8534 3ed1 6736 93d7 e237 225d a134

exp_avg f4 [128]
-4.906509e-05 0.0036868893 0.00021899483 -0.00017615636 0.005921817 -0.0011621723 0.00016626094 -0.00071636593
0.00035842066 7.681784e-05 0.0002238403 7.978037e-05 -0.00020429192 0.0010439439 -0.0010189989 -0.0013786823
-0.0035833865 0.0011972678 -2.0640122e-05 0.00046118026 -0.0016363879 -7.988055e-05 1.0098163e-05 3.5292975e-05
-0.0023894554 0.0006656993 -0.0016330674 -0.0011730726 -0.00024302307 -3.6858724e-05 -0.00028526018 -0.0030164584
0.00011967593 -0.0023325712 -0.0013784637 -0.0030895143 0.003330029 0.0049648657 0.00013906525 0.00041571344
0.003546384 -0.00044255698 0.004929383 5.812292e-05 -6.517133e-05 0.00040301218 3.2899843e-05 0.002073997
-0.0019684215 -0.00040520992 -0.0064730905 0.002089624 0.0008110563 0.0042559328 0.00021372194 -0.0010010274
0.0033633923 0.0020573924 -0.00015455182 6.3780775e-05 -0.0003177804 -0.00011434819 -0.00027036646 0.008493768
-0.00015022302 0.00022258601 -6.4339845e-05 0.007620436 -2.1224192e-05 -0.0021393655 -0.00016702915 -0.00055158685
0.00037250892 -0.0037680785 0.0014228307 -0.00024423745 0.0012860537 -0.0018383493 -0.003419231 1.3884121e-05
-0.00017525836 -0.003105035 0.003474374 -5.0642815e-05 -0.004606368 -5.7029425e-05 -0.002011134 -0.005358928
-8.8480825e-05 0.0029326167 -0.0008719684 -0.0005189733 0.0001699199 -0.0007672924 -1.2454229e-05 4.6907853e-06
-0.0024952758 0.0012592266 -0.0015616701 -0.0007455957 0.0023729058 -0.001183093 0.0024091103 0.0023092811
-0.002057487 2.2988394e-05 -0.00010114821 -0.00029162812 -7.7354525e-05 -5.4464936e-06 -0.0056045335 -0.0002852924
-0.0001300117 -0.0027879896 0.00018882025 0.0055545922 0.00029003472 -0.0007008134 0.0021651755 -0.0002206836
0.00020983604 -0.001163595 -7.392268e-05 -0.0001495172 -0.0012651738 0.0012719611 -0.0031949133 0.006281126
00000000: 3dcb 4db8 bd9f 713b faa1 6539 9db6 38b9
00000010: cd0b c23b 0854 98ba 5556 2e39 81ca 3bba
00000020: 68ea bb39 4419 a138 acb6 6a39 c34f a738
00000030: 3237 56b9 f2d4 883a ee8f 85ba e7b4 b4ba
00000040: 40d7 6abb a4ed 9c3a 5324 adb7 91ca f139
00000050: 117c d6ba 8b85 a7b8 486b 2937 8b07 1438
00000060: 6998 1cbb 5382 2e3a a60c d6ba c9c1 99ba
00000070: 02d4 7eb9 c198 1ab8 f98e 95b9 c6af 45bb
00000080: 87fa fa38 0dde 18bb 91ad b4ba 7379 4abb
00000090: 9e3c 5a3b 50b0 a23b 0bd2 1139 1df4 d939
000000a0: 736a 683b fe06 e8b9 a986 a13b 03c9 7338
000000b0: 97ac 88b8 614b d339 f0fd 0938 e5eb 073b
000000c0: a200 01bb 5b72 d4b9 381c d4bb 13f2 083b
000000d0: 119d 543a 5a75 8b3b 8c1a 6039 e834 83ba
000000e0: 5c6c 5c3b 51d5 063b 300f 22b9 0bc2 8538
000000f0: c39b a6b9 38ce efb8 f9bf 8db9 7229 0b3c
00000100: 2f85 1db9 fa65 6939 31ee 86b8 dab4 f93b
00000110: 9b0a b2b7 9934 0cbb 8c24 2fb9 5e98 10ba
00000120: 4d4d c339 def1 76bb 477e ba3a ff0c 80b9
00000130: cd90 a83a c4f4 f0ba 2d15 60bb d8ef 6837
00000140: 8fc5 37b9 d87d 4bbb 53b2 633b 4f69 54b8
00000150: 04f1 96bb e132 6fb8 3bcd 03bb f299 afbb
00000160: c88e b9b8 2531 403b cf94 64ba b50b 08ba
00000170: 872c 3239 1f24 49ba 82f2 50b7 8a65 9d36
00000180: c887 23bb a20c a53a f4b0 ccba 1574 43ba
00000190: c182 1b3b 0312 9bba 2ae2 1d3b 4f57 173b
000001a0: e7d6 06bb 33d7 c037 881f d4b8 aae5 98b9
000001b0: 6539 a2b8 06c1 b6b6 3ca6 b7bb 4c93 95b9
000001c0: c053 08b9 b4b6 36bb 0dfe 4539 4c03 b63b
000001d0: cd0f 9839 cbb6 37ba 9ee5 0d3b 4e67 67b9
000001e0: 6f07 5c39 c583 98ba f006 9bb8 b8c7 1cb9
000001f0: 30d4 a5ba efb7 a63a c061 51bb e7d1 cd3b

exp_avg_sq f4 [128]
1.3682741e-05 0.0005616013 0.00014469033 0.00012482922 0.0018470584 4.8851507e-05 1.5858762e-06 2.131483e-05
0.00010064679 2.3326807e-05 5.6054973e-06 1.2861501e-06 8.8438094e-07 2.0445437e-05 7.5972e-05 0.00082049135
0.00015072575 0.00072118593 1.1820015e-06 2.4334655e-05 0.00015945255 2.1294903e-05 3.2109879e-06 1.5894097e-05
0.00042918656 1.3474944e-05 0.00021327102 8.038946e-05 2.1120053e-05 0.0003836831 1.3672705e-05 0.00020426878
1.018063e-05 0.00014789276 6.4409454e-05 0.00016471856 0.0012621739 0.0009930126 2.1714077e-06 6.711064e-06
0.00060118217 3.780213e-05 0.0009695708 8.002937e-06 3.6659803e-06 6.1013106e-05 3.311421e-05 0.00011964059
5.5515324e-05 1.4282566e-05 0.001485817 0.00015812422 0.0003953885 0.00076346705 3.7610307e-06 8.177033e-05
0.00049745926 0.0005390887 7.396593e-07 3.4799343e-06 8.943547e-05 4.8659035e-06 1.6096343e-06 0.0029628186
1.5728482e-06 0.0001008256 3.7775314e-06 0.0022258935 7.2739134e-08 0.000261946 5.247592e-07 4.982834e-05
0.000113934155 0.0004644387 0.00012437497 6.0550233e-06 0.0020073135 0.0033239 0.0012861018 2.3013247e-06
8.3665066e-07 0.0003420279 0.00037992687 9.076849e-08 0.00048681194 8.971204e-08 0.00018785695 0.0009690705
4.1555054e-06 0.00035888515 2.7720238e-05 1.423539e-05 9.287214e-06 3.4492146e-05 6.681005e-06 3.6413005e-07
0.00042286562 2.9384286e-05 0.00010117929 6.1645515e-05 0.0008355955 0.00046073284 0.00018661017 0.00028565835
0.0006935389 5.7012465e-05 1.1336602e-05 9.173898e-06 1.9168217e-06 0.000145815 0.00055120187 3.1624717e-05
1.360244e-05 0.0004349309 2.8983159e-06 0.0010790001 2.3232858e-06 3.4204015e-05 0.00020972092 3.404502e-05
2.9213973e-06 0.0002118322 2.2006082e-06 7.8107337e-07 1.9147194e-05 0.00024406367 8.393562e-05 0.001170849
00000000: ed8e 6537 6d38 133a 04b8 1739 97e4 0239
00000010: ff18 f23a e8e5 4c38 4bda d435 40cd b237
00000020: 5512 d338 f0ad c337 db16 bc36 c89f ac35
00000030: 3266 6d35 3e82 ab37 2853 9f38 3e16 573a
00000040: 230c 1e39 f80d 3d3a 43a5 9e35 4622 cc37
00000050: b832 2739 75a2 b237 5a7c 5736 5054 8537
00000060: 7204 e139 7212 6237 81a1 5f39 c396 a838
00000070: f82a b137 1329 c939 d263 6537 fc30 5639
00000080: 79cd 2a37 a913 1b39 9013 8738 4db8 2c39
00000090: 876f a53a f927 823a 80b8 1136 9a2f e136
000000a0: a798 1d3a ba8d 1e38 cc2a 7e3a 5a44 0637
000000b0: 1005 7636 53e8 7f38 1de4 0a38 8de7 fa38
000000c0: 20d9 6838 279f 6f37 bfbf c23a 26ce 2539
000000d0: 254c cf39 6823 483a 0466 7c36 1d7c ab38
000000e0: ed67 023a a151 0d3a 008d 4635 d188 6936
000000f0: 4d8f bb38 cb45 a336 9d0a d835 d92b 423b
00000100: a71a d335 5572 d338 7f81 7d36 4ce0 113b
00000110: c334 9c33 cc55 8939 2ddd 0c35 c6fe 5038
00000120: efef ee38 e87f f339 a76a 0239 412c cb36
00000130: 228d 033b cad5 593b 6a92 a83a 7570 1a36
00000140: 3296 6035 3552 b339 ec30 c739 81ec c233
00000150: cb3a ff39 b7a7 c033 77fb 4439 3809 7e3a
00000160: 856f 8b36 c028 bc39 c288 e837 89d4 6e37
00000170: 48d0 1b37 a9ab 1038 652d e036 a77d c334
00000180: 10b4 dd39 467e f637 3830 d438 af47 8138
00000190: dd0b 5b3a 848e f139 c9ac 4339 6ac4 9539
000001a0: 9cce 353a ab20 6f38 5632 3e37 98e9 1937
000001b0: bfa2 0036 ebe5 1839 887e 103a c8a4 0438
000001c0: 0936 6437 7007 e439 b080 4236 3c6d 8d3a
000001d0: bfe9 1b36 4876 0f38 88e8 5b39 90cb 0e38
000001e0: 390d 4436 461f 5e39 29ae 1336 f4aa 5135
000001f0: 499e a037 58eb 7f39 9806 b038 2c77 993a
