Project/results/Test2_NoWall_01/Test2/Test2-200493.onnx (onnx, 95655 bytes, 7 tensors)

network_body._body_endoder.seq_layers.0.weight f4 [128, 46]
0	0xbd0040af	-0.031311687
1	0x3dd073c7	0.10178333
2	0x3d843f6a	0.06457408
3	0xbe265923	-0.1624494
4	0x3e479db6	0.19493756
5	0x3c802905	0.01564456
6	0x3cd45b44	0.025922425
7	0xbddb4a72	-0.10707559
8	0xbd90d6fe	-0.070722565
9	0xbcc583c1	-0.024110677
10	0x3d917d4c	0.071039766
11	0xbe98d940	-0.2985325
12	0x3e5d9310	0.21638131
13	0xbef66b43	-0.4812871
14	0xbcd87997	-0.026425166
15	0xbbf4283a	-0.0074510844
16	0xbe1b1f80	-0.15148735
17	0x3c51d8d2	0.012808042
18	0x3cf7480b	0.03018572
19	0xbd7c9903	-0.06166936
20	0xbdf8c854	-0.121475846
21	0x3d55e4d8	0.052220196
22	0x3e5c5489	0.21516623
23	0xbd4bfec1	-0.0498035
24	0xbe87087e	-0.26373667
25	0x3c65b319	0.014019751
26	0x3e444ed7	0.191707
27	0x3e8eb6b5	0.2787377
28	0xbbb1b0ab	-0.005422672
29	0x3e769cbf	0.24083231
30	0x3d8422b7	0.06451934
31	0xbd9542e7	-0.07288151
32	0x3e25728d	0.16156979
33	0xbe7a8aef	-0.24467061
34	0xbdc257ec	-0.09489426
35	0xbd4c5948	-0.049889833
36	0xbb9abc83	-0.0047221794
37	0xbdf16a1c	-0.11787817
38	0x3b69d23a	0.0035678283
39	0xbe6f62ed	-0.23377581
40	0x3e4c20f8	0.19934452
41	0xbe9a1875	-0.30096784
42	0x3c8dec44	0.017324574
43	0xbbc1e959	-0.00591771
44	0x3d866539	0.065622754
45	0x3c0463f4	0.008080471
46	0xbe2b4a58	-0.16727579
47	0x3c83b1b9	0.016075956
48	0xbe922329	-0.2854245
49	0xbe158926	-0.14603099
50	0x3e1f1e4d	0.15538903
51	0x3df8327f	0.12119006
52	0x3c9c0753	0.019046461
53	0xbcfbfab6	-0.030759197
54	0x3e6263d7	0.22108398
55	0xbe15e103	-0.14636616
56	0x3e3a402d	0.18188544
57	0x3e623c44	0.22093302
58	0xbdb4f572	-0.088358775
59	0xbdb2298b	-0.0869933
60	0x3e04d7fc	0.12973017
61	0x3e2838ff	0.16427992
62	0x3e289bf6	0.16465744
63	0x3e82778a	0.25481826
64	0x3d00f438	0.031482905
65	0x3c934dc0	0.01798141
66	0x3eb633ce	0.355864
67	0x3dc2fd5f	0.09520983
68	0xbec4254e	-0.3830971
69	0xbe03b1ee	-0.12860844
70	0x3e061a93	0.13096075
71	0x3de36225	0.11102704
72	0x3db0794f	0.08616888
73	0x3e290214	0.16504699
74	0xba9d1bd5	-0.0011986444
75	0x3c90bf0c	0.017669223
76	0xbe61eacb	-0.22062223
77	0x3e371f2e	0.17882988
78	0x3cdaf98a	0.026730318
79	0xbd96242c	-0.07331118
80	0x3e7a4332	0.24439695
81	0x3e11f615	0.14254029
82	0xbdbd75a9	-0.092509575
83	0x3c60df0d	0.013725054
84	0x3dd35e99	0.103207774
85	0x3d8de95a	0.06929274
86	0x3c1953a4	0.00935832
87	0x3e11f351	0.14252974
88	0x3eb0ee1c	0.34556663
89	0xbd28aa10	-0.04117781
90	0x3e806bd1	0.25082257
91	0x3ca9b63a	0.020716775
92	0x3cb9047a	0.022585142
93	0x3db953f0	0.09049213
94	0x3e0f73df	0.14009045
95	0x3b59d399	0.0033237694
96	0xbe21bf24	-0.1579557
97	0xbe4374a3	-0.19087462
98	0x3cbe86c5	0.023257622
99	0x3e1ba95b	0.15201323
100	0xbe2192a7	-0.157786
101	0x3b7d1908	0.0038619656
102	0x3deaf6c1	0.11472846
103	0x3ddb5c31	0.107109435
104	0xbe6cc56e	-0.23122188
105	0xbe86fd87	-0.263653
106	0xbb6a1457	-0.003571769
107	0xbacb841c	-0.0015527043
108	0xbd17605f	-0.03695714
109	0xbe830951	-0.25593045
110	0xbde6ab3c	-0.11263129
111	0x3e59a403	0.21253972
112	0xbe919bbc	-0.28439128
113	0x3ea62eed	0.32457677
114	0xbe2773b7	-0.16352735
115	0xbe7cc4de	-0.24684474
116	0xbebd9211	-0.37025502
117	0x3df1144a	0.11771448
118	0x3d29b19d	0.04142915
119	0x3e99f6f5	0.30071226
120	0x3d8f2836	0.069900915
121	0x3c156556	0.009118399
122	0xbca24a75	-0.019810895
123	0x3e129686	0.14315233
124	0xbe9ea708	-0.3098681
125	0x3c987a1c	0.018612914
126	0xbdd5805f	-0.104248755
127	0x3bb61bae	0.005557499
128	0xbd363f13	-0.044493746
129	0xbdd64326	-0.10462026
130	0x3cb2ebe2	0.021840993
131	0x3e8428d9	0.25812414
132	0xbcfd3095	-0.030906955
133	0xbd4b4f76	-0.049636327
134	0x3e9ab132	0.30213314
135	0x3e4fba1b	0.20285837
136	0xbe26c501	-0.16286089
137	0x3db2b324	0.087255746
138	0xbd4880e1	-0.048951034
139	0xbe82f54e	-0.25577778
140	0xbd463fe7	-0.048400786
141	0x3ce2884d	0.027652884
142	0xbdddb822	-0.10826136
143	0xbdfa845d	-0.122322775
144	0x3e99d29e	0.300435
145	0xbc2c932d	-0.010533136
146	0x3e6e37c4	0.2326346
147	0xbdb0fbee	-0.08641802
148	0x3e05c2c1	0.13062574
149	0x3d451b87	0.048121955
150	0x3d9cfb4c	0.076651186
151	0xbd899bf3	-0.06719198
152	0x3bfdb43b	0.0077424324
153	0xbea87a77	-0.32905933
154	0x3d832a30	0.06404531
155	0xbd2b58b4	-0.04183264
156	0xbc8498d5	-0.016186157
157	0xbde9c23b	-0.11414
158	0x3e85dfe5	0.2614738
159	0xbd817cc9	-0.06322629
160	0x3de516eb	0.11186012
161	0x3c5702ba	0.013123209
162	0x3e259c70	0.16172957
163	0x3e24a399	0.16078033
164	0x3e349044	0.17633158
165	0x3df469fe	0.11934279
166	0xbdfdf2c8	-0.123998225
167	0x3df9876e	0.12184034
168	0x3db6e3b2	0.08930148
169	0xbd4bf36b	-0.04979269
170	0x3d9d4e4d	0.0768095
171	0xbe48237f	-0.1954479
172	0x3e388ac8	0.18021691
173	0x3d886d2e	0.066614494
174	0xbd85508f	-0.06509506
175	0x3e750472	0.23927477
176	0xbe344003	-0.17602544
177	0x3e7cf6d0	0.24703526
178	0xbe80dd3d	-0.2516879
179	0x3de082b6	0.10962431
180	0xbe7aa8f4	-0.24478513
181	0x3c91db54	0.01780478
182	0x3e2881b6	0.16455731
183	0xbd518d6e	-0.05116027
184	0x3e13d472	0.1443651
185	0x3e216e6b	0.15764777
186	0xbcae054a	-0.021242756
187	0x3caefeef	0.021361796
188	0x3dc5003b	0.096191846
189	0xbc82155d	-0.015879327
190	0x3eada3a6	0.33913916
191	0xbe08fe28	-0.13378203
192	0x3dcf3edc	0.10119411
193	0x3d55c5bd	0.05219053
194	0xbddef791	-0.10887063
195	0x3e12da4f	0.1434109
196	0x3d8de4a7	0.069283776
197	0xbdae726a	-0.085179165
198	0x3dbfbc58	0.093620956
199	0xbe936481	-0.28787616
200	0xbe231db9	-0.15929307
201	0xbd6d5d15	-0.057950098
202	0xbe3ef3f6	-0.18647751
203	0xbd92d288	-0.07169062
204	0x3e271cc6	0.1631957
205	0xbc984ef6	-0.018592339
206	0x3e158604	0.14601904
207	0x3d6d1d5b	0.057889324
208	0x3d96814c	0.0734888
209	0x3d893fde	0.06701635
210	0x3c869a19	0.016430901
211	0x3ea43097	0.3206832
212	0x3d314e9a	0.04328785
213	0x3e2a6c1f	0.16642807
214	0xbd9b7a9c	-0.07591745
215	0x3cf3da74	0.029767253
216	0x3e122f66	0.14275894
217	0x3e2ecda9	0.1707064
218	0xbeb645a9	-0.3560002
219	0x3d591351	0.052996937
220	0xbdfa6e42	-0.12228061
221	0x3e28c7da	0.16482487
222	0x3e273968	0.16330492
223	0xbdf484c4	-0.119393855
224	0xbcffe19c	-0.031235509
225	0x3e4eaa05	0.20182045
226	0x3f0bb9dc	0.54580474
227	0x3e3d9a38	0.18515861
228	0x3e3a97c4	0.18221956
229	0x3c9b9de6	0.01899619
230	0xbd2747d9	-0.040840004
231	0x3ec755c5	0.38932624
232	0xbd18ad84	-0.037274852
233	0x3e9d24da	0.30692178
234	0x3d874657	0.06605213
235	0xbe016f70	-0.12640166
236	0x3d780777	0.060553994
237	0xbe2c74b6	-0.16841397
238	0x3d70b739	0.058768485
239	0xbe2f56ca	-0.17122951
240	0x3ee5aebc	0.44859874
241	0xbd4248b1	-0.047432605
242	0x3c07e69a	0.008294726
243	0x3d237052	0.03990204
244	0x3de115dd	0.10990498
245	0x3dd60e1d	0.10451911
246	0x3c8c0106	0.017090332
247	0xbd0aeaa7	-0.03391519
248	0xbdf0993b	-0.117479764
249	0xbe99f42a	-0.30069095
250	0x3bc13d3d	0.0058971928
251	0x3d9d9608	0.07694632
252	0xbe2b3431	-0.16719128
253	0xbdb29b2d	-0.08721004
254	0x3cce4f1e	0.02518421
255	0xbd969997	-0.07353514

network_body._body_endoder.seq_layers.0.bias f4 [128]
0	0xbd3c3f12	-0.045958586
1	0xbc55ce74	-0.013049711
2	0xbd3ae785	-0.04563095
3	0xbc92d6e2	-0.01792473
4	0x3d7136ab	0.058890026
5	0x3c273a41	0.01020676
6	0xbd6d0d6a	-0.05787412
7	0x3d01a650	0.03165275
8	0xbce79f10	-0.02827409
9	0xbd8d2772	-0.06892289
10	0xbd0cf890	-0.034416735
11	0xbd863b0e	-0.065542325
12	0xbe0c118e	-0.13678572
13	0xbd8ed8ae	-0.06974922
14	0x3cd99107	0.026558412
15	0x3d1158fd	0.035485256
16	0x3c801def	0.015639273
17	0xbb7acc28	-0.003826866
18	0xbdaffaab	-0.08592733
19	0xbb87bfa0	-0.0041427165
20	0x3c3dc3cd	0.011582327
21	0xbc9ed02e	-0.019386377
22	0xbd8231a7	-0.06357127
23	0xbd52c66f	-0.051458772
24	0x3d090dfe	0.03346061
25	0xbcd8da91	-0.026471408
26	0x3cdf63fc	0.027269356
27	0x3c8f6f1a	0.017509032
28	0xbd404974	-0.04694505
29	0xbd081a4e	-0.03322821
30	0xbc08aea3	-0.008342418
31	0x3cfb296e	0.030659404
32	0xbcb0483f	-0.021518825
33	0x3d4c5644	0.049886957
34	0x3d8b285d	0.06794808
35	0x3ca91699	0.020640658
36	0x3b4da7ae	0.0031380462
37	0xbc98ef83	-0.018668896
38	0xbc913db1	-0.017729612
39	0xbd1cc402	-0.038272865
40	0xbb95a920	-0.0045672804
41	0xbd45b17d	-0.04826497
42	0x3d140166	0.036134146
43	0xbc6acd56	-0.014331182
44	0xbd70e47e	-0.058811657
45	0xbcad376a	-0.021144588
46	0x3b7044bf	0.003666207
47	0xbd36da98	-0.04464206
48	0xbcb3b97c	-0.021939032
49	0x3b8611fd	0.0040915
50	0x3d2852b4	0.041094497
51	0xbcf94aaa	-0.03043111
52	0xbb543ed6	-0.0032386086
53	0x3c0bc32a	0.008530417
54	0xbd739573	-0.059468698
55	0x3d2dc382	0.04242278
56	0xbb1c5c0e	-0.002385858
57	0xbc0bb3f8	-0.008526795
58	0xbe011053	-0.12603883
59	0xbd0365f0	-0.032079637
60	0xbd2a78aa	-0.04161898
61	0x3c532298	0.012886666
62	0xbde14709	-0.10999877
63	0x3d664576	0.056218587
64	0xbdab12bb	-0.08353182
65	0xbccc3c47	-0.024931086
66	0xbd476747	-0.048682477
67	0x3cb1d642	0.021708611
68	0xbe21ccc7	-0.15800773
69	0x3ca4fab7	0.020139081
70	0xbdcab0a6	-0.09896974
71	0x3cc66a7e	0.024220701
72	0xbd13cea2	-0.036085732
73	0xbc49cd52	-0.012317019
74	0xbcf584a8	-0.029970482
75	0x3c98484f	0.018589167
76	0x3d8d3231	0.06894339
77	0x3dd4f28b	0.10397824
78	0x3d7db24f	0.061937626
79	0xbdaa5153	-0.083162926
80	0xbdd3d548	-0.103434145
81	0x3d3f8c60	0.04676473
82	0xbad47ca7	-0.0016211466
83	0xbe1f2e0a	-0.15544906
84	0x3d1d7029	0.038437042
85	0xbe1a745f	-0.15083455
86	0x3be37a0e	0.0069420403
87	0xbba84a4f	-0.0051358114
88	0xba6a0ef0	-0.00089286175
89	0x3ab17ef0	0.0013541859
90	0xbc880706	-0.016604912
91	0x3b8c2a30	0.00427749
92	0xbca1864f	-0.019717364
93	0xbcf64837	-0.030063732
94	0x3c53c4d6	0.012925347
95	0xbe1d2fb9	-0.15350236
96	0x3d145d80	0.03622198
97	0xbc1ffa61	-0.009764285
98	0xbc6c88dc	-0.014436927
99	0x3c6b0493	0.014344352
100	0x3c66b68b	0.014081608
101	0x3d68f35d	0.056872714
102	0xbd336416	-0.04379662
103	0x3cc0289a	0.02345686
104	0x3c7a0cd1	0.015261845
105	0xbd1564fb	-0.036473256
106	0xbe0aff34	-0.13573915
107	0xbd3daa71	-0.046305124
108	0xbd0f9dad	-0.03506248
109	0xbc04961d	-0.00809243
110	0x3c1d030d	0.009583247
111	0xbc4ea3f8	-0.012612335
112	0xbd07ce42	-0.033155687
113	0x3ce159c9	0.027508633
114	0xbcfc2209	-0.030777948
115	0x3ccd4968	0.025059417
116	0xbd005caf	-0.03133839
117	0x3c9ed2a0	0.019387543
118	0xbc81bc96	-0.015836995
119	0xbd1d2309	-0.03836349
120	0xbce044a2	-0.027376477
121	0xbc280558	-0.01025518
122	0xbd329d49	-0.04360703
123	0xbe19fe32	-0.15038374
124	0x3c6de2a7	0.01451937
125	0x3c2b00e6	0.010437226
126	0xbc089fd6	-0.008338889
127	0x3c4a433d	0.012345132

network_body._body_endoder.seq_layers.2.weight f4 [128, 128]
0	0x3d0f1d08	0.034939796
1	0x3b5a8b0e	0.0033347043
2	0xbbdd9b81	-0.0067629223
3	0xbb65ef38	-0.0035085212
4	0xbdc8d6b9	-0.0980658
5	0xbd9d51b0	-0.07681596
6	0x3e2b13ba	0.16706744
7	0xbe72c7f7	-0.23709093
8	0x3d315785	0.043296356
9	0x3cc2f63b	0.023799052
10	0xbe0ce85a	-0.1376051
11	0xbe2346d5	-0.15944989
12	0x3cca8b91	0.024724754
13	0x3c686204	0.014183525
14	0x3c9443f7	0.018098814
15	0xbd824b5f	-0.06362032
16	0x3dc03687	0.093854
17	0x3a3b1ec1	0.00071380666
18	0xbdb98399	-0.090583034
19	0x3d4233ee	0.047412805
20	0x3b586ea2	0.0033024927
21	0x3e062bdb	0.13102667
22	0xbcc4c951	-0.024021776
23	0x3bdce809	0.006741528
24	0xbd3ec872	-0.04657788
25	0x3dccb936	0.09996264
26	0xbe255d85	-0.16148956
27	0xbe26fe7e	-0.16308019
28	0xbe04c60a	-0.12966171
29	0x3de280cd	0.11059723
30	0x3d7bd637	0.061483588
31	0x3e0f7660	0.1401
32	0x3cab3c1c	0.020902686
33	0xbdb5039f	-0.08838581
34	0x3c1096a4	0.008824978
35	0x3e029869	0.12753452
36	0xbdc513bc	-0.09622905
37	0x3ced229a	0.028947163
38	0xbceab988	-0.028652921
39	0x3e49ecd2	0.19719246
40	0x3c3b08f9	0.0114157135
41	0xbb9cd6e4	-0.004786359
42	0x3c21c13a	0.009872729
43	0xbc10cc97	-0.0088378405
44	0xbcbfa47e	-0.023393866
45	0x3ca3637c	0.019944899
46	0xbcc6ff2c	-0.024291597
47	0xbdde6135	-0.108583845
48	0x3d088490	0.033329546
49	0x3de9d4b4	0.11417523
50	0x3d31d2a8	0.043413788
51	0xbd6566c1	-0.056006197
52	0xbdd72e8b	-0.10506924
53	0xbdbe12c0	-0.0928092
54	0xbda17ade	-0.07884763
55	0xbbc7abab	-0.0060934625
56	0xbd387ef1	-0.045042936
57	0x3bb1c44e	0.0054250127
58	0xbd0b8abe	-0.03406786
59	0x3d66fe4d	0.056394864
60	0x3e188955	0.14896138
61	0x3d8beafe	0.068319306
62	0x3db00a2e	0.085956916
63	0xbde387ea	-0.11109908
64	0xbdbdeb33	-0.09273376
65	0x3dbe86d7	0.093030624
66	0xbd97c534	-0.074106604
67	0xbe149d77	-0.14513193
68	0x3d0451c6	0.032304548
69	0x3d63588b	0.055504363
70	0x3de229fb	0.110431634
71	0xbdec1a6a	-0.115284756
72	0xbe18e09e	-0.14929435
73	0xbd2e0ad4	-0.042490795
74	0xbd2f3f5f	-0.042785045
75	0xbe33acc0	-0.17546368
76	0x3d25c194	0.040467814
77	0x3e32f6a5	0.174769
78	0xbdd6ee41	-0.10494662
79	0xbd86c20e	-0.06579982
80	0xbd7feeda	-0.062483646
81	0x3da37e85	0.07983116
82	0xbb8425ba	-0.0040328177
83	0xbd7b0181	-0.06128073
84	0xbd781ee3	-0.06057633
85	0xbccfc52a	-0.02536257
86	0xbe00db88	-0.12583745
87	0x3c4ebc25	0.012618099
88	0xbc0d93d4	-0.008641202
89	0x3dcbdd7f	0.099543564
90	0xbdf1fed4	-0.11816183
91	0x3d8b3a4f	0.06798231
92	0xbdd368dd	-0.103227355
93	0x3bc7f062	0.006101654
94	0xbcb66664	-0.02226562
95	0x3dfbdcd9	0.12297983
96	0xbdbc7278	-0.09201521
97	0xbadc9a14	-0.0016830587
98	0xbca7611b	-0.020432046
99	0xbda3093e	-0.07960747
100	0xbdb1dab4	-0.086842924
101	0xbc72e93e	-0.014826117
102	0xbc17a3f9	-0.009255403
103	0x3dcd78a7	0.10032778
104	0xbb0f45e9	-0.0021861738
105	0x3e3e3024	0.18573052
106	0xbe29bab6	-0.16575131
107	0x3dc120f6	0.09430115
108	0xbd6dcb74	-0.058055356
109	0x3dba567a	0.09098525
110	0xbd9ca8e2	-0.07649399
111	0xbe10bd27	-0.14134656
112	0xbd143d1e	-0.0361911
113	0xbbf35cb6	-0.0074268235
114	0xbd0b0b9b	-0.033946615
115	0xbdc1339e	-0.09433673
116	0xb939187b	-0.00017652095
117	0xbd9e0564	-0.07715872
118	0xbe14ebd6	-0.1454309
119	0xbdd3e548	-0.10346466
120	0xbc2c6a68	-0.010523416
121	0xbcf4bf86	-0.029876482
122	0xbc5f0199	-0.013611221
123	0x3da6f9bc	0.08153102
124	0x3bea85d7	0.0071570682
125	0x3cec0d43	0.028814917
126	0x3d952942	0.0728326
127	0xbe1017a5	-0.1407152
128	0x3ca750c4	0.020424254
129	0xbca46e8e	-0.020072248
130	0xbc85a7f4	-0.016315438
131	0xbe039b52	-0.12852219
132	0xbdf3f785	-0.11912445
133	0xbce4f607	-0.027949346
134	0xbd89b2f6	-0.06723587
135	0x3d1f9d1f	0.0389682
136	0xbd126e4c	-0.03574972
137	0xbd48a80d	-0.04898839
138	0x3d2251fd	0.03962897
139	0x3cf2fd3a	0.029661763
140	0xbd5b6986	-0.053567432
141	0x3e24e777	0.16103922
142	0xbcfce4fd	-0.030870909
143	0x3e62642e	0.22108528
144	0xbca725e2	-0.020403806
145	0xbd976e62	-0.07394101
146	0x3cda7222	0.02666575
147	0x3c49cb0a	0.012316475
148	0x3da03e62	0.078243986
149	0x3e1b6143	0.15173821
150	0xbd41585e	-0.047203414
151	0x3daee380	0.08539486
152	0x3d81a31e	0.0632994
153	0x3e3067ac	0.17227048
154	0xbdd1531e	-0.102209315
155	0xbadde0b7	-0.0016927932
156	0x3c6c09c5	0.014406626
157	0xbe2771ce	-0.16352007
158	0x3d9af4ca	0.07566221
159	0x3cd5cc3f	0.026098369
160	0x3d58c8ca	0.052925862
161	0x3df657f0	0.120284915
162	0x3d5b63c9	0.05356196
163	0xbd3e3929	-0.04644123
164	0xbd7032e4	-0.058642283
165	0xbc73a44c	-0.014870714
166	0xbce77f82	-0.028259043
167	0xbc4cfd8d	-0.012511623
168	0xbd61ff77	-0.05517527
169	0xbd8de2c1	-0.069280155
170	0x3e17a9a8	0.14810812
171	0x3d7ccb55	0.06171735
172	0xbd828cde	-0.063745245
173	0x3da902a0	0.08252454
174	0xbcf6e1b5	-0.030136922
175	0x3d0c219d	0.034211744
176	0xbbebcb6f	-0.007195882
177	0x3c43af22	0.01194361
178	0x3e292ab2	0.16520193
179	0x3d6b0681	0.05737925
180	0xbdda082e	-0.106460914
181	0xbe2475a3	-0.160605
182	0xbbb8b3c6	-0.005636665
183	0x3e086888	0.13321126
184	0x3d74e2cd	0.059786607
185	0x3da63add	0.08116696
186	0x3dc74baf	0.097312324
187	0xbcc45607	-0.023966802
188	0x3d7046e5	0.05866136
189	0x3d4fd33d	0.050738562
190	0xbd985809	-0.074386664
191	0xbe07274c	-0.13198584
192	0xbdbc9b3d	-0.09209297
193	0x3d9a947e	0.07547854
194	0xbe4b1c5f	-0.19835041
195	0xbe2d6e3f	-0.16936587
196	0xbb9ad38b	-0.004724925
197	0x3e4aee3f	0.19817446
198	0x3c7631eb	0.01502655
199	0x3dd34483	0.10315802
200	0x3d803893	0.06260791
201	0xbb4c3a19	-0.0031162559
202	0xbd99c6a4	-0.07508591
203	0x3d5723c4	0.052524343
204	0xbe0707d3	-0.13186578
205	0xbe870bf1	-0.26376298
206	0xbde3f4de	-0.11130689
207	0xbcd31832	-0.025768373
208	0x3d06a444	0.0328715
209	0x3daff528	0.08591682
210	0x3d94ec07	0.07271581
211	0xbdba5217	-0.09097689
212	0xb97c557e	-0.00024064441
213	0xbe3c1acc	-0.18369597
214	0x3deeeee3	0.11666658
215	0x3d0d1c9c	0.034451112
216	0xbe054fcd	-0.13018723
217	0x3be7b3b8	0.0070709847
218	0x3ba5ac18	0.0050559156
219	0xbdb6e500	-0.08930397
220	0xbdf29116	-0.11844079
221	0xbe535eea	-0.20641676
222	0x3a25d8ff	0.00063265854
223	0xbe7e261d	-0.24819227
224	0xbc68aa5d	-0.014200774
225	0xbc3087be	-0.010774551
226	0x3c98a2d4	0.01863233
227	0xbd9fa44d	-0.0779501
228	0xbdc12735	-0.09431306
229	0xbdfbc648	-0.122936785
230	0xbe1e98f0	-0.15488029
231	0xbd9278be	-0.07151936
232	0x3dc976ac	0.09837088
233	0xbd34ccc9	-0.04414061
234	0x3d70ce79	0.058790658
235	0xbe3b6288	-0.18299305
236	0x3e4db4e1	0.20088531
237	0xbdffc22b	-0.124882065
238	0xbd1e929c	-0.038714036
239	0xbe22b1a2	-0.15888074
240	0x3c159a2d	0.009130997
241	0x3df3ef59	0.11910886
242	0x3c4f50be	0.012653528
243	0x3b10b31d	0.0022079416
244	0x3ddb800c	0.107177824
245	0x3dab14a1	0.08353544
246	0x3cf1e71c	0.029529147
247	0x3d093d44	0.033505693
248	0x3bf6016b	0.0075074933
249	0x3e0c34f0	0.13692069
250	0xbdddc75d	-0.10829041
251	0xbcecbde0	-0.028899133
252	0xbe4670b4	-0.1937893
253	0x3d825168	0.06363183
254	0xbce5b69f	-0.028041182
255	0xbdfce0f6	-0.123475954

network_body._body_endoder.seq_layers.2.bias f4 [128]
0	0x3cd139d3	0.025540268
1	0x3cf7bd1b	0.03024154
2	0x3c897870	0.016781062
3	0xbc315477	-0.010823361
4	0x3b0a58f5	0.0021110151
5	0xbd01ea36	-0.0317175
6	0xbdb971cd	-0.09054909
7	0xbc8a1acb	-0.016858479
8	0xbcf50000	-0.029907227
9	0xbdadbc6f	-0.084832065
10	0xbc370370	-0.011170253
11	0x3d8a7190	0.067599416
12	0xbdda396d	-0.10655484
13	0x3d29bce0	0.04143989
14	0x3c8d7d38	0.017271623
15	0xbc7e1a9c	-0.015509274
16	0xb9d6e922	-0.00040990958
17	0x3c547d04	0.012969259
18	0xbd0b9b06	-0.03408339
19	0xbd5a9c14	-0.053371504
20	0x3d6bce47	0.05756977
21	0xbdaf81f2	-0.08569707
22	0xbc6b2e11	-0.014354245
23	0xbc7195ba	-0.01474517
24	0x3ba7a3a1	0.0051159416
25	0xbbc2cce3	-0.0059448346
26	0xbcf1717f	-0.029473064
27	0xbc690026	-0.014221227
28	0xbcde0f98	-0.027107045
29	0xba937b82	-0.0011252018
30	0x3cea1b06	0.028577339
31	0x3bd5c31f	0.0065235044
32	0xbe0ab5a8	-0.13545859
33	0x3d7ff9d6	0.06249412
34	0xbd1e0d1d	-0.038586725
35	0xbce6feb2	-0.02819762
36	0xba0ef622	-0.0005453547
37	0x3c378249	0.011200496
38	0xbcaf45f5	-0.021395663
39	0x3c10d1eb	0.008839111
40	0xbc335223	-0.010944876
41	0x3b87d00f	0.0041446756
42	0xbc8b4921	-0.017002644
43	0x3d130330	0.03589171
44	0xbc590875	-0.013246645
45	0xbc9ba146	-0.0189978
46	0x3d69de17	0.057096567
47	0xbd1a7f0a	-0.03771881
48	0x3d4c92e2	0.049944766
49	0x3bd9bd3a	0.006644872
50	0xbd4784b5	-0.048710544
51	0x3ccfb7e5	0.025356242
52	0xbde184e9	-0.11011679
53	0xbd0baa5e	-0.03409802
54	0xbd84d17e	-0.0648527
55	0xbc68c2cd	-0.0142066
56	0xbd2fb41a	-0.042896368
57	0x3cf48f81	0.029853584
58	0x3cf66775	0.030078629
59	0xbd9cd158	-0.07657117
60	0xbd662c52	-0.05619461
61	0xbc8a3904	-0.01687289
62	0xbce2eeac	-0.027701698
63	0xbd926a5a	-0.07149191
64	0xba504807	-0.0007945303
65	0x3db11dcf	0.08648264
66	0x3a23af9b	0.0006244124
67	0xbcea7abe	-0.028622981
68	0xbbdef0b0	-0.0068035945
69	0x3d557941	0.05211759
70	0x3c0d37c1	0.00861925
71	0xbd86fc87	-0.065911345
72	0x3a26fcd9	0.00063700747
73	0xba8fb831	-0.0010964927
74	0xbb7bba4a	-0.0038410597
75	0x3d061602	0.032735832
76	0xbd026163	-0.031831156
77	0xbd740639	-0.059576247
78	0xbc3733d8	-0.011181794
79	0x3ce09872	0.027416442
80	0xbcbe72dc	-0.023248129
81	0x3c8f5ece	0.017501261
82	0xbdfcd42d	-0.12345157
83	0xbc322373	-0.01087271
84	0x3cda489a	0.026645947
85	0xbdd482c3	-0.10376503
86	0x3c9a6cba	0.018850673
87	0x3c4112f7	0.011784307
88	0xbce5c560	-0.028048217
89	0x3bf1a6c6	0.0073746173
90	0xbc5e981f	-0.013586073
91	0xbc818e91	-0.015815051
92	0x3caedd95	0.021345893
93	0x3d77bef8	0.060484856
94	0x3c9eb064	0.019371219
95	0xbcbec577	-0.023287518
96	0xbc6f376d	-0.014600617
97	0xbda36c9f	-0.07979702
98	0xbcbe11f2	-0.023201916
99	0x3c0203d2	0.007935481
100	0x3c76226d	0.015022856
101	0x3c958fa8	0.018256977
102	0x3d50a097	0.0509344
103	0xbbf378c7	-0.0074301693
104	0xbdd6df1a	-0.10491772
105	0xbdbe5dc6	-0.092952296
106	0xbc873b1d	-0.01650768
107	0xbc95c1b8	-0.018280849
108	0x3d03f5b5	0.032216746
109	0xbd664ba8	-0.056224495
110	0x3c30798b	0.010771166
111	0xbcd445e2	-0.025912229
112	0xbc66d446	-0.014088696
113	0xbc227205	-0.00991488
114	0x3d19cf27	0.03755107
115	0x3bc9f40e	0.006163127
116	0x3c6c8838	0.014436774
117	0xbdab5e76	-0.08367626
118	0xbba065dd	-0.0048949555
119	0xbc9b6a8b	-0.018971702
120	0x3d90422f	0.070438735
121	0x3c97f022	0.018547121
122	0x3c03f6d5	0.008054455
123	0x3be67f80	0.007034242
124	0xbd24bdd9	-0.040220115
125	0xbbc493d9	-0.00599907
126	0x3d3d0232	0.04614467
127	0x3be91dcd	0.0071141482

action_model._continuous_distribution.log_sigma f4 [1, 2]
0	0xbe5ac30f	-0.21363471
1	0xbf1dc278	-0.6162486

action_model._continuous_distribution.mu.weight f4 [2, 128]
0	0xbbfe8f48	-0.0077685453
1	0x3bf7e5cc	0.0075652357
2	0x3dd55e2c	0.104183525
3	0x3cb7b0d7	0.022423191
4	0xbb6092a3	-0.003426709
5	0x3ccd9a76	0.025098067
6	0xbb034cf7	-0.0020034888
7	0x3e0ecd0f	0.13945411
8	0x3c8fc30f	0.017549066
9	0xba432c26	-0.00074452383
10	0x3d9a0196	0.07519834
11	0x3c23e46b	0.01000319
12	0xbc12d10d	-0.008960974
13	0xbe2435d2	-0.16036156
14	0x3b04a649	0.0020240715
15	0xbdae013c	-0.08496329
16	0x3d89e600	0.06733322
17	0xbc7d1f3d	-0.015449342
18	0x3dcb3820	0.09922814
19	0x3d580e31	0.05274791
20	0xbd8136d5	-0.063092865
21	0xbce9c424	-0.02853591
22	0x3cf1d628	0.029521063
23	0x3a3bf19c	0.00071694865
24	0xb9955c54	-0.00028488284
25	0xbc015d9c	-0.007895853
26	0x3c0be895	0.008539339
27	0xbc1fd939	-0.00975638
28	0x3d641d5c	0.05569206
29	0xbd973ef6	-0.07385056
30	0x3df17395	0.11789624
31	0xbd30bd15	-0.043149073
32	0xbcf32995	-0.029682914
33	0xbc4af54b	-0.012387584
34	0x3cf7b4d0	0.030237585
35	0x3d5286a3	0.05139793
36	0x3dfb1087	0.12259012
37	0x3a2fae1c	0.00067016645
38	0xbdbdb932	-0.09263839
39	0xbba8899d	-0.005143358
40	0x3d502544	0.05081679
41	0x3d9bad19	0.07601375
42	0x3be8d751	0.007105746
43	0xbd27991c	-0.0409175
44	0x3cbf0bf3	0.023321128
45	0x3cfd4739	0.03091775
46	0x3d5221a4	0.051301613
47	0x3b255cd7	0.0025232339
48	0xbdb593e2	-0.08866097
49	0x3cf2264d	0.029559279
50	0x3d2410a7	0.040054943
51	0x3d821de8	0.063533604
52	0x3c6e0722	0.014528068
53	0x3d04ecd3	0.032452416
54	0xbd6f3f7c	-0.058410153
55	0x3df88c59	0.12136144
56	0x3d206704	0.039160743
57	0x3c62ffaf	0.013854905
58	0xbd99b353	-0.075049065
59	0x3c4fc2f9	0.012680762
60	0xbc43240a	-0.011910448
61	0x3dccf4db	0.1000764
62	0x3c9dd4ad	0.01926645
63	0x3ca947f4	0.020664193
64	0xbc503ace	-0.012709333
65	0xbd137942	-0.036004312
66	0xbc408830	-0.01175122
67	0xbd10fa3b	-0.03539489
68	0xbc6d23a4	-0.014473829
69	0xbd667bae	-0.056270294
70	0xbc5da4f8	-0.013528101
71	0x3c4e3568	0.012585975
72	0xbb0b8ec2	-0.0021294807
73	0xbd828e0a	-0.06374748
74	0x3c551003	0.013004306
75	0xbc5adf69	-0.013358929
76	0x3da427cc	0.08015403
77	0x3cdec819	0.027195023
78	0x3d1c1e00	0.038114548
79	0x3df25346	0.118322894
80	0x3be0a087	0.006855074
81	0xbc90465b	-0.017611673
82	0xbc627f11	-0.01382424
83	0x3c662204	0.014046196
84	0x3c2c1fc9	0.010505625
85	0x3b91b9f8	0.004447218
86	0x3dd36284	0.10321525
87	0xbaee9470	-0.0018202197
88	0x3cd3371b	0.025783112
89	0xbd96d8fe	-0.07365607
90	0x3d54d0ce	0.051956944
91	0xbba0090d	-0.0048838914
92	0xbd8a0188	-0.06738573
93	0x3cf14a49	0.029454367
94	0xbcc4f2f4	-0.02404163
95	0x3d73b463	0.059498202
96	0xbb022285	-0.0019857
97	0x3aca1649	0.0015418018
98	0x3d6b8459	0.057499263
99	0x3bd32dbb	0.0064446605
100	0xbcd6f42e	-0.02623948
101	0xbcf8bb42	-0.030362729
102	0xbc9ba4e9	-0.018999534
103	0xbd34c035	-0.044128615
104	0x3b828da3	0.0039841696
105	0xbbcb23c2	-0.006199331
106	0x3d14d867	0.03633919
107	0x3dc35211	0.09537137
108	0x3d863422	0.06552912
109	0x3c84e1fd	0.01622104
110	0x3dae7deb	0.08520111
111	0xbc863006	-0.016380321
112	0xbd40c5ca	-0.047063626
113	0x3d25a459	0.040439937
114	0xbc838764	-0.01605577
115	0x3c56c8c9	0.013109394
116	0x3e1b0634	0.15139085
117	0x3d2445d7	0.040105667
118	0x3c6e06a1	0.014527948
119	0x3c85f12c	0.016350351
120	0x39af52d3	0.0003344031
121	0x3d40d806	0.047081016
122	0xbafcd0d1	-0.0019288306
123	0x3cd257c1	0.02567661
124	0x3d7a2cc3	0.061077844
125	0x3bf8441d	0.007576479
126	0xbcf8470a	-0.030307312
127	0x3c2b48de	0.010454385
128	0x3998b7fa	0.00029128772
129	0xbe1ccbc0	-0.153121
130	0x3d01d245	0.03169467
131	0xbdeec98d	-0.116595365
132	0xbdd448c1	-0.10365439
133	0xbd98a34b	-0.07453021
134	0xbd5803f0	-0.05273813
135	0x3c063ccf	0.008193209
136	0xbdcd477e	-0.10023402
137	0xbdc00273	-0.09375467
138	0x3bc42292	0.0059855664
139	0x3daaa755	0.08332697
140	0xbd8229f5	-0.06355659
141	0x3c6a0f2e	0.014285846
142	0xbdddbbe5	-0.10826854
143	0xbd99f095	-0.075165905
144	0xbde57905	-0.11204723
145	0x3ccd05ab	0.025027117
146	0xbd0da3c8	-0.034580022
147	0xbd0ad41c	-0.03389369
148	0x3d937732	0.07200469
149	0xbd8c811e	-0.06860565
150	0xbdfed556	-0.12443034
151	0xbac9ea1a	-0.0015404851
152	0xbdc8f465	-0.098122396
153	0xbde77e74	-0.11303416
154	0xbdca3f7f	-0.09875392
155	0xbdbaec99	-0.09127159
156	0xbdc04952	-0.09388985
157	0xbd62ec41	-0.05540109
158	0x3d5bf17d	0.053697098
159	0xbdda57be	-0.10661267
160	0xbd925b76	-0.07146351
161	0x3da8f407	0.082496695
162	0xbdb2e771	-0.0873555
163	0xbd8b5ac2	-0.0680442
164	0xbbc44c6b	-0.005990555
165	0x3d34280d	0.043983508
166	0xbc9db3ec	-0.019250832
167	0x3cb3139e	0.02185994
168	0xbdadb88b	-0.084824644
169	0x3d5f2be7	0.054485228
170	0xbdd292fd	-0.10281942
171	0xbdf577dd	-0.11985753
172	0xbddea2de	-0.10870908
173	0xbdfacdf7	-0.12246316
174	0x3db71fc6	0.08941607
175	0xbde34f24	-0.11099079
176	0x3d5398bc	0.05165933
177	0x3cc895ba	0.024485458
178	0xbda2e6d6	-0.07954185
179	0x3d575f57	0.052581158
180	0xbd97449d	-0.07386134
181	0x3b9f090f	0.004853375
182	0xbdbf9843	-0.093552135
183	0xbd1c38ab	-0.03813998
184	0xbc831a3e	-0.016003724
185	0xbe25e97e	-0.16202351
186	0x3ce4a237	0.027909381
187	0xbd827ff8	-0.06372064
188	0xbda7291d	-0.081621386
189	0xbc9e0117	-0.019287629
190	0xbdc59808	-0.09648138
191	0xbd865524	-0.06559208
192	0xbdeab121	-0.11459566
193	0x3dd00784	0.101576835
194	0xbd8ca67d	-0.068676926
195	0xbd7b645e	-0.061375014
196	0xbdca2dd4	-0.09872022
197	0x3d90bfb8	0.070678174
198	0xbb87e9bd	-0.004147737
199	0xbd94618b	-0.07245167
200	0xbe0a903f	-0.13531588
201	0x3cd71495	0.026254931
202	0xbdf6c92a	-0.12050088
203	0xbe2662ec	-0.16248673
204	0xbb439687	-0.002984436
205	0xbdbe611b	-0.09295865
206	0xbdd1b310	-0.102392316
207	0x3d895448	0.067055285
208	0xbdd3da5d	-0.10344384
209	0xbe18c209	-0.14917769
210	0xbd65dc11	-0.056118075
211	0xbe1116c6	-0.14168844
212	0xbe10b01a	-0.14129677
213	0xbd4fa816	-0.05069741
214	0x3d2feeaf	0.042952236
215	0xbdf90a70	-0.12160194
216	0xbdf7fcc8	-0.12108761
217	0xbd48ff34	-0.049071506
218	0xbdbb5699	-0.091473766
219	0xbc8cc32b	-0.017182907
220	0x3c2cc1ed	0.010544282
221	0x3de2f1ed	0.110813
222	0xbe117d71	-0.14208008
223	0x3cea68d3	0.028614437
224	0xbdd0a8fb	-0.101884805
225	0xbda0b872	-0.0784768
226	0xbdce9540	-0.10087061
227	0xbe03fa84	-0.12888533
228	0xbe09a837	-0.13443075
229	0xbe0357aa	-0.1282641
230	0x3da15bc9	0.07878835
231	0x3c9676fb	0.018367281
232	0xbd869718	-0.065717876
233	0xbd7fab3d	-0.062419165
234	0xbdc56112	-0.09637655
235	0xbcf33d78	-0.029692397
236	0x3dae0016	0.0849611
237	0xbdcce8ea	-0.10005362
238	0x3d1b87a6	0.03797116
239	0xbde3422c	-0.11096606
240	0x3caa92e6	0.020822
241	0xbdd17256	-0.10226886
242	0x3d497468	0.04918328
243	0xbdc07de9	-0.093990155
244	0xbc3625a6	-0.0111173745
245	0xbced19e2	-0.028943006
246	0xbdff0203	-0.124515556
247	0xbdd256a5	-0.102704324
248	0x3db27ce3	0.087152265
249	0xbdc0a60d	-0.09406672
250	0x3c0060d8	0.007835589
251	0xbdde71df	-0.10861563
252	0xbd8b3742	-0.06797649
253	0xbdce9a4c	-0.100880235
254	0xbe0c6934	-0.13712007
255	0xbb350045	-0.002761857

action_model._continuous_distribution.mu.bias f4 [2]
0	0xbc242ac0	-0.010019958
1	0x3db75a96	0.08952825
