Project/results/Walker_Run_01/Walker/Walker-29499981.onnx (onnx, 824633 bytes, 11 tensors)

network_body.observation_encoder.processors.0.normalizer.running_mean f4 [243]
00000000: 9009 5641 1314 943c 4226 c3be 5d42 d53f
00000010: 529b 77b0 0000 0000 83ec 6f41 9abd 1fbd
00000020: ba79 2a3d 7c3f 503c 867c 523f b8a2 92bd
00000030: fcc2 553d 73a6 663c 5888 593f 8716 10ba
00000040: accf eebe a210 b440 0000 0000 5c0d b93c
00000050: bc6e adbe e477 ca3f c4ba 233f 3ba0 8d3e
00000060: 139b fcbd 471a 9ab8 40f3 f0bb 4627 a93c
00000070: 0000 0000 66e8 ec3c 6fc7 0fbf d62a e23f
00000080: 7b5d e13d 9ede 473c 42a8 a5bd 9f58 b9bc
00000090: 7c33 c83e 9d39 0d3e c63a a0bd 5629 f9bb
000000a0: 81b5 243c 96fe 7d3f fc76 163f 0000 0000
000000b0: 221a c83c c22a eebe d4fd d43f 434e 793e
000000c0: e100 953d 729b 96bd 7696 b9bb 2d9a 363e
000000d0: d591 a03d a553 013e 13d3 bdbc cad4 b23c
000000e0: ae98 773f aecd 123f 0000 0000 5502 183d
000000f0: 6c93 2fbf 7147 f23f 9a7a 7abe 1ad8 963d
00000100: cafa 32be c1da 61bd 2878 3e3f 19df 4f3e
00000110: 70d0 a53b 7bf0 49bb cda3 7d3c 16d9 7c3f
00000120: 0b32 253f 0000 0000 6835 b4bc 549d 77be
00000130: bef2 bf3f f717 843f d8e6 d83e 601d 883e
00000140: 05f0 97bd 1dd5 51be 39d6 91bc 54be 51be
00000150: c03e d1bb fbf3 d2bd dd69 673f 76e1 0d3f
00000160: ef99 853e e31d 17bd d313 0ebe 08eb a63f
00000170: ffa3 0a3f 97c0 db3e 142f 2d3c afaa a5bd
00000180: d40a cabe 0258 fdbd 8908 033f 3a92 1838
00000190: fb3f 6939 24b0 4f3f ff70 0e3f 5de5 603f
000001a0: 68f4 26bd b605 51bd a063 a23f e123 f33e
000001b0: 9ec5 3f3e fe87 d53d 8ccc b7bd b688 fbbe
000001c0: 5aa8 62be 7c4d d1bd 3dda 71bc 88f1 cd3c
000001d0: 7498 6e3f c10e c03e 0000 0000 2e84 a83d
000001e0: 8844 7dbe 415b c03f 906f b03f b67f 1dbe
000001f0: cdc0 75be cfc3 7b3d ed26 42be 30b9 debb
00000200: f2fc 7ebe a97d 623a b0a5 f63c 4d02 673f
00000210: 2414 183f 2488 5f3e e729 9a3d b88e 93bd
00000220: 39cc aa3f 08a1 363f 119c 353e f046 293e
00000230: 797a 4c3d e16b c3be 38ec c3bd a317 013f
00000240: f69c 4eba 6b37 193c 8edf 4e3f 904a 153f
00000250: decb 533f 0722 9c3d 1b3c 2abd 83f8 a23f
00000260: 2a3a 843e a7c0 173b 5f6c 56bc b5a2 513d
00000270: 1bbb fbbe 30b6 3bbe 4839 c1bd 3b41 923b
00000280: 8aa3 d0bb 88d5 753f bf84 de3e 0000 0000
00000290: adaa b6bd 5f24 14bf a144 e93f 360a 59be
000002a0: 7e85 f73e 5c97 cabe 75a3 4dbe 3455 bc3e
000002b0: 706c 313e ca29 44bc 8bce 663e befe dabd
000002c0: 837e 5f3f 0de0 253f 0000 0000 1deb dbbd
000002d0: b88e 05bf 8aec f53f 46c1 02bf 07cd 983f
000002e0: 1797 d7bd 350a 67be 7165 b13e d613 903e
000002f0: 49f4 e23a 116d 113f 2bbe ae3a 8b52 443f
00000300: 6b0c 1c3f 0000 0000 f0e3 ffbd 958a 02bf
00000310: 7fd2 0140 542e fdbe 61ff 223f 75d0 9ebb
00000320: 263a 49be b9f8 a23e aaa8 c23e 0000 0000
00000330: 1da1 063e 5dd2 11bf b20d e93f 59ec 23be
00000340: 748f 46bf 4fea 553f d641 223e cf03 db3e
00000350: 2f11 4e3e f644 8dbc b3db 7dbe 32fc 0d3e
00000360: d074 5a3f e51a 313f 0000 0000 a37f 023e
00000370: b992 0bbf 0372 f53f 4282 00bf 5091 85bf
00000380: 4c3e ff3e 412d 453e e54c d43e 3c68 9a3e
00000390: 31e9 233c 3ffa 04bf 85a5 47bc 3f6f 473f
000003a0: 446c 003f 0000 0000 bf4b d63d 5a8b 07bf
000003b0: f8c5 0340 d619 06bf dc1e 81bf 518c f23e
000003c0: b947 2f3e 0425 bc3e afa4 bd3e
13.377335 0.018075978 -0.38115126 1.6660877 -9.00788e-10 0.0 14.995242 -0.038999178
0.041619994 0.012710448 0.8222126 -0.071599424 0.052187905 0.0140777705 0.8497367 -0.0005496521
-0.46642816 5.6270304 0.0 0.022589378 -0.33873546 1.5817838 0.63956857 0.2766131
-0.123342656 -7.348187e-05 -0.0073532164 0.02064861 0.0 0.02891941 -0.56163687 1.7669322
0.11004158 0.012199072 -0.08088733 -0.022625266 0.3910178 0.13791509 -0.0782371 -0.0076038046
0.0100530395 0.9921659 0.58775306 0.0 0.024426524 -0.46516997 1.6639962 0.2434626
0.07275558 -0.073538676 -0.0056636883 0.17832251 0.07840315 0.12629564 -0.023171937 0.021829981
0.96717346 0.5734509 0.0 0.0371116 -0.6858432 1.8928052 -0.24460831 0.07365437
-0.17478481 -0.05514026 0.74402094 0.20299949 0.005060248 -0.0030813504 0.015480948 0.98768747
0.64529485 0.0 -0.021998122 -0.2418111 1.4995954 1.0319813 0.4236362 0.2658491
-0.07418827 -0.20491453 -0.017802345 -0.2048276 -0.006385654 -0.10300442 0.9039591 0.5542215
0.26094005 -0.036893737 -0.1387475 1.3040476 0.5415649 0.42920372 0.010570306 -0.08089196
-0.39461386 -0.12370302 0.511849 3.6375808e-05 0.00022244446 0.81128144 0.5564117 0.8784998
-0.040760428 -0.051030837 1.2686653 0.4748831 0.18727729 0.10426329 -0.08974561 -0.4912774
-0.22134534 -0.10219857 -0.014761505 0.025139585 0.93201375 0.37511256 0.0 0.08228336
-0.24733174 1.5027848 1.3784046 -0.15380749 -0.23999329 0.061466035 -0.18960162 -0.0067969784
-0.24901178 0.00086399406 0.030108303 0.90237886 0.5940573 0.21829277 0.075275235 -0.07204956
1.3343574 0.71339464 0.17735316 0.16530967 0.049921487 -0.38168243 -0.095665395 0.5042669
-0.00078816654 0.009351592 0.8080987 0.583169 0.8273295 0.07623678 -0.041561227 1.273209
0.25825626 0.0023155601 -0.013087361 0.05118056 -0.49166188 -0.18331218 -0.09434754 0.0044633425
-0.0063671516 0.9602895 0.43460652 0.0 -0.089192726 -0.57868 1.8224069 -0.21195301
0.48344034 -0.39568603 -0.20081885 0.36783755 0.17326522 -0.011972854 0.22539727 -0.106931195
0.87302417 0.64795 0.0 -0.10738204 -0.52170897 1.9212811 -0.5107616 1.1937569
-0.10526865 -0.22562487 0.34647706 0.28140134 0.0017315234 0.5680705 0.0013331821 0.7668845
0.6095645 0.0 -0.124946475 -0.5099271 2.0284727 -0.49449408 0.6367093 -0.0048466274
-0.19651088 0.31830385 0.38019305 0.0 0.13147397 -0.56961614 1.8207304 -0.16008128
-0.7756264 0.8356065 0.15845427 0.42776343 0.20123743 -0.017244797 -0.2479084 0.13865736
0.8533449 0.6918166 0.0 0.12744002 -0.54520756 1.9175419 -0.5019876 -1.0434971
0.49852216 0.19255544 0.41464916 0.3015765 0.010004328 -0.51944345 -0.012185459 0.77904123
0.501652 0.0 0.10463666 -0.5294701 2.058958 -0.5238317 -1.0087543 0.47372678
0.17117204 0.3674699 0.37039706

network_body._body_endoder.seq_layers.0.weight f4 [256, 243]
00000000: 6b55 053d 9b46 00bd f25a 14bc 06cc 4fbe
00000010: 6349 97bc 6a8b 163d 0f1a 72bd e5e4 c73c
00000020: 1154 d638 27e9 c7bc d5c0 dcbc 03ea 523e
00000030: d8fc 0c3e 0a4e b33d 1b4e dabd 740e f93d
00000040: bcf9 b33c 3b91 083d 474c 6b3d 0f61 853a
00000050: d216 b43c a887 363d 9cab d3bc d7a1 25be
00000060: b841 533d 702c 073e d870 ff3d f214 913c
00000070: 53fc 933d a2bb 6b3d 2fff 14be ca2a afbd
00000080: a0b0 2dbd 2094 86bc 0db8 57bd f280 4abd
00000090: 480f 843d 1511 233d 2be9 b33b 7990 c43d
000000a0: 27e8 7fbd 1797 a23d 015d 34bd 3ec9 0abd
000000b0: 7ce7 3dbe 9764 1d3e cef1 41bd 0084 093d
000000c0: 13bd 603b 6045 0c3e 206e 39b9 b227 203c
000000d0: 486f 6e3d 569a d2bd 7992 853e 9d7c 8fbd
000000e0: f5ec 13bd fa7e c23c c7ed 6bbd 3d60 8cbc
000000f0: 212d 31be 89d0 2aba 5249 903c 27bd cbbd
00000100: 822d 053e 5571 27be d326 68bc 4839 c13c
00000110: 3f38 f13c 8f12 d1bd 9793 54bd e457 2f3c
00000120: 8b86 1dbc d523 dc3c d7f9 6dbd 26e9 7f3d
00000130: f0cb 09be da2b 80bd a508 733d f1ac d33d
00000140: 4be7 6cbd 7bf6 8b3d 59b4 733d edb8 04be
00000150: 8daa 15be 504d 863e 2477 c93c 5392 6b3d
00000160: 5677 20bd 835a 043e 8f2d c8bc 5f6a 6bbd
00000170: 28b8 81bd 255f 27be a7a5 a73d 9e3e 8b3b
00000180: 7b30 893d b3c8 5c3c 712f cfbd 2a3f 41be
00000190: c899 94bc e69d d43d f6ef a33b 8713 30be
000001a0: ec39 883d e013 d33c e6ad 9dbd f0dd 57bd
000001b0: b96e 8ebc 562b f2bd 78a9 723c 4d74 55bd
000001c0: b0f0 3fbd e747 e53c 5a15 473d e54c d1bd
000001d0: 7c60 12bc 32f6 7dbc 15b7 eb3d c00d 98bd
000001e0: 9259 22bd 9d1a 65bc 92c1 cbbd cd70 6dbb
000001f0: b546 bbbc 6dde febd 178e 813d c29c 2ebd
00000200: 9320 64bb 4ebe d23d 11ca 013e 24f1 f7bd
00000210: 05cf 4cbd dd78 6c3d 8ce2 443e 033f 783d
00000220: 345a a03c 25f9 9dbd 5762 0d3d 1c3a 74bd
00000230: bd9f 1fbd bb3b cbbb efae cc3d f2f4 94bd
00000240: 424b 893d 96ef 0ebd db73 5b3c edd4 903c
00000250: 80fd 03bd 44d8 a63d eca1 e2bd 6e40 923d
00000260: 6157 08be 47a9 ab3c 1462 38be f8bf 133d
00000270: 3faf a8bd 31a0 2bbd 58cd cd3d 2450 c43d
00000280: 8bcc 953d 7f42 573d 76de 81bd f72d 093e
00000290: 3499 683c d5e6 923d db5c a0bb cd7f c53c
000002a0: 56ec 8f3c f51e d6bd 4900 133d 3a71 bd3d
000002b0: 81c3 4a3b ed8e eebc 08c2 89bd 66fd 233c
000002c0: e6a9 d2bd 64af 083d ee32 32bc 42b0 803d
000002d0: 1b11 193c ec31 393d ff75 35bd 9429 9bbb
000002e0: 667d 433d b39e 1a3d 0c2c d0bc 28ca 6fbc
000002f0: f353 d4bd bf47 1fbe ae6c 0f3d 4589 c53d
00000300: e9ff ba3d 9448 5ebd 4c9a 6ebc 6f18 bb3c
00000310: 4899 e23d 0890 2a3d d735 993d 0310 9a3d
00000320: 4fd7 9b3c f7df f63d 6f5e 693c 328e a33c
00000330: 7815 68bc 5582 4ebe 1c25 a2bd 7238 42bd
00000340: 13aa b7bd 2e9c 4d3d 01ba f8bd 7407 dfba
00000350: 82c9 e6bd 060d 50bd c868 b8bb 520a 81bd
00000360: 599e 6e3d 243c 00bd 5628 febc f9cf 20bd
00000370: 09f7 1ebe 2c86 a6bd 4137 96bd ad41 a8bd
00000380: fb48 1d3d 949d 373c f13d 44bc b67c 02be
00000390: 0f8c 2c3c 1cff 82bc 7717 5c3d cefe 4c3c
000003a0: dd23 153c 5082 d4bd 03b4 503e f581 3abe
000003b0: 72b4 12bd 5573 06be cfb6 d7bd 649a 2fbb
000003c0: 0178 23bd db2e 5bbd baee 11be 199d 113d
000003d0: 4eac a03d 9492 103c 193a d53d 2a93 f83c
000003e0: 341f aa3c 209a 12bc 4d47 69bd d424 d63d
000003f0: 2b99 15bd 1e00 75bd a12a 06be 7378 693d
0.032552164 -0.031317335 -0.009054886 -0.20292673 -0.01846761 0.03675405 -0.059106883 0.024401138
0.00010219974 -0.024403168 -0.026947418 0.20597081 0.13768327 0.08755119 -0.10659429 0.1216096
0.021969669 0.033341628 0.05744579 0.001017602 0.021983538 0.044562966 -0.025838666 -0.16175018
0.051576346 0.13200545 0.12472695 0.017710183 0.072258614 0.057551987 -0.1455047 -0.08553083
-0.04240477 -0.016428053 -0.05266576 -0.049439378 0.06448227 0.039811213 0.0054904423 0.095978685
-0.062477257 0.07938974 -0.044034008 -0.033883326 -0.18545336 0.15370403 -0.047349744 0.03357315
0.0034292385 0.1369834 -0.00017684 0.009775089 0.058211595 -0.102833435 0.26088312 -0.0700619
-0.03611465 0.023742188 -0.05759981 -0.017135734 -0.17302372 -0.00065160595 0.017613087 -0.09948187
0.13005641 -0.16351826 -0.014169413 0.023586884 0.029445766 -0.10208618 -0.051898565 0.010702107
-0.009614597 0.026872555 -0.058099594 0.062478207 -0.13456702 -0.06258364 0.059334416 0.1033572
-0.057837766 0.06834122 0.059498165 -0.12961169 -0.14615841 0.2623086 0.024592943 0.057512593
-0.039176308 0.12925152 -0.024435787 -0.05747449 -0.06333953 -0.16344889 0.081858926 0.004249408
0.066987 0.013475585 -0.101164706 -0.18871751 -0.018139735 0.10381679 0.005002971 -0.17194949
0.06651673 0.025766313 -0.07699184 -0.05270189 -0.017386781 -0.11824672 0.014810912 -0.052112866
-0.046860397 0.027988387 0.048604347 -0.102197446 -0.0089341365 -0.015500592 0.115095295 -0.074244976
-0.039636202 -0.013983396 -0.0994903 -0.0036230565 -0.022860864 -0.12444768 0.063259296 -0.042629965
-0.0034809455 0.10290204 0.12674738 -0.12106541 -0.050002117 0.05773245 0.19227046 0.060606968
0.019574262 -0.07713536 0.034517612 -0.05962573 -0.038970698 -0.006202189 0.099943034 -0.07273282
0.067038074 -0.034896456 0.013394321 0.017679656 -0.03222418 0.08146718 -0.110660404 0.07141195
-0.13314582 0.020954741 -0.18006164 0.036071748 -0.082365505 -0.041900817 0.10048932 0.09585598
0.07314404 0.05255365 -0.06341259 0.1339644 0.014196683 0.07172934 -0.0048938817 0.024108792
0.017568748 -0.10455123 0.035888944 0.09250112 0.0030939283 -0.029120887 -0.06726462 0.010009145
-0.10286312 0.03337039 -0.0108764 0.062836185 0.009342457 0.045213625 -0.044301983 -0.004735181
0.04772701 0.037749004 -0.025411628 -0.0146356 -0.103675745 -0.15554713 0.035015754 0.09645323
0.09130842 -0.054268435 -0.014563154 0.0228388 0.11064392 0.041641265 0.07480972 0.07522585
0.019023566 0.12054437 0.014243706 0.019965265 -0.014165275 -0.20166905 -0.07917234 -0.04741711
-0.08967986 0.050197773 -0.121448524 -0.0017015771 -0.11268903 -0.05079367 -0.0056277253 -0.063007966
0.05825648 -0.031307355 -0.031025093 -0.03926084 -0.15523924 -0.0813106 -0.073347576 -0.08215652
0.038399678 0.011207003 -0.011977659 -0.12742886 0.010531439 -0.015990786 0.053733315 0.012511922
0.009102789 -0.10376418 0.20381169 -0.18213637 -0.035816617 -0.13129933 -0.10532915 -0.0026794905
-0.039909367 -0.05351148 -0.14251223 0.03555021 0.078453645 0.008824009 0.10411472 0.03034361
0.020766832 -0.008947879 -0.056952763 0.10456243 -0.036523025 -0.059814565 -0.13102199 0.056999635

network_body._body_endoder.seq_layers.0.bias f4 [256]
00000000: 9440 a03b d1ac d5ba e61b 68bc 1c19 cb3d
00000010: 11eb 263b 6a56 8c3c 36f8 093d 1280 4bb8
00000020: d80a 2ebc 4246 aebc 9a32 a03c 40b1 b13c
00000030: 009a a03c 85bb 89bc e29c 543d 13a0 133d
00000040: 864a 2f3c 6fa5 3b3d 1596 03bc 1d79 633c
00000050: 9366 553c 322d 023d 942d 783c bf0a df3d
00000060: 0e01 55bc 348b 743d 52aa a93c 47fc 023d
00000070: df6f a0bc 9b99 113d 679b 2e3d 49ad de3b
00000080: 924e 2ebc 0b65 f43c ad05 1bbb ce96 313d
00000090: 9724 243d b25e 743c a39e 233d 9d88 cd3c
000000a0: 8aa1 753c 427a 3a3c 9da2 7c3d 2d59 073b
000000b0: deaf 30bc 69a3 07bc f3a3 183d 88b5 ef3c
000000c0: 6d34 5d3d 02ab 98bb 8a30 4e3c 88b8 7cbb
000000d0: dbfd 633d 0590 edbb 483c 233c 5bb2 153c
000000e0: d385 673d 355e 323d 6ccb 0e3d 98ec a73d
000000f0: 5a7c 113d 76b2 b93d 0da0 823c e389 5e3b
00000100: 37c7 153d 9c2c d13d 467b 453c 5983 36bc
00000110: 1c56 853d 6e36 a4bc 1d71 d63c 8ca2 693c
00000120: 4edf f63c 6d7c a9bc 0b74 813d 7f57 f73d
00000130: 1364 623c 92d0 053d c4d1 983c a002 1b3d
00000140: ddb9 4fbc bfcb 003d e87a 1bbc 4630 843b
00000150: b89f b43c e5b3 cd3c a658 aa3d ad51 393d
00000160: 665e ea3d 29a5 0a3c 5ebe ac3c 5083 a33c
00000170: e57c 2abb fc73 133d 6ace ae3d a777 933d
00000180: 8e3a e03c 611d b23c 6e65 85bc 138f 1f3c
00000190: f297 5a3d 828b 333d 2599 953c 47c8 713d
000001a0: 24a6 3d3c d7c4 0c3c ab15 893c a47b 3d3d
000001b0: ea07 ccbc 338a 45bc 102e 8c3d 9710 dc3c
000001c0: cb45 1c3d 5c33 2c3d 2b40 793d 3724 203d
000001d0: 8206 c3bc d549 8e3c f83c 5c3d 553e fc3c
000001e0: 4982 813d 2197 b43c f7bf 2d3b e893 873d
000001f0: 2f82 01bc 26e2 1ebb 4840 ea3c e0d9 f13c
00000200: d2eb cc3c bf61 263d 8ffa 843d 1c88 203d
00000210: 3ddc 423d a5a7 323d 3e2d 123c 9448 f63c
00000220: f24a 883d 6b32 873d 2c71 113d 4260 0d3d
00000230: a666 a03d 2781 813a 9ac2 ba3b 4673 acbc
00000240: cc17 aa3c 0354 6e3d 8e12 a63d ba6e af3d
00000250: 8c55 193d 81d6 643d a6d1 393d 3029 5d3d
00000260: 7f5a 8abb 39b0 f33c 8c77 923d 7b46 f23c
00000270: e845 083d 66d3 24bd ce6e 973c 8bb5 5e3c
00000280: e790 253d a174 e7bc b116 09bd df10 073d
00000290: b5ed 123d 32d0 d0bc 11cb e23b 27f3 003d
000002a0: 99a5 933c b192 0a3d d823 f2bc 8a6e 5b3d
000002b0: fdf0 ef3c ea25 1f3c 0ca4 38bc 3594 9e3d
000002c0: 963d 1d3d 0f80 ec3c cc2e 4e3d 1fe9 043d
000002d0: 0521 953d 384e c03d 2190 54bd 4994 a13d
000002e0: 7b5d 5abc 833d dd3c 32cb 453c b1d0 8e39
000002f0: f900 fe3b 2e44 6f3d 5508 d53d d4d5 313c
00000300: b3ac 053d 373a 663d a63f aabb 8880 0e3d
00000310: b5bd 3c3c f800 263d 9a97 503c af86 a13c
00000320: 7482 b03c 1ca6 ce3c 3cc0 103c c677 8b3d
00000330: 0269 233d 6ffe 043d de04 a03b d9fd a23c
00000340: 1c6d 083d 10a0 9b3c 00c1 f13c 2e77 5d3c
00000350: 4b46 98bc 3dfa f53c d7d5 893c ec3e 043d
00000360: 09e5 353d e237 463d 8c2a a73d 3f30 993c
00000370: be86 e9bc f4d5 243d 4040 c23b 7378 2d3d
00000380: b3c6 5b3d 1497 81bc a720 f9bc 02e0 2e3d
00000390: 999b bd3c 9a37 093d ac0a 3ebd 53f0 813c
000003a0: db2a 4a3d 7f14 523d c20d 97bb 3296 b43c
000003b0: a445 c03b 4e43 923d 7a09 643d 928c 503d
000003c0: e0a3 33bc 024d 433d ba14 4bbc 0b63 853d
000003d0: 2b64 413d 8177 283d a274 433d 1b3b a73d
000003e0: 061a 9d3d 9fa5 a33b c5e4 38bb 0ddd 88bb
000003f0: 156a 14bd b7d7 b73d 2561 2a3d 0d2d 1bbd
0.004890511 -0.0016302114 -0.014166808 0.099168986 0.00254697 0.01713105 0.033683978 -4.8518246e-05
-0.010622703 -0.021273736 0.019555379 0.021690965 0.019604683 -0.01681305 0.051907428 0.03604133
0.01069892 0.045812067 -0.008031388 0.013883856 0.013024944 0.031781383 0.015147585 0.108907215
-0.01300074 0.059703067 0.020711098 0.03197887 -0.019584594 0.03554688 0.042628672 0.0067955595
-0.01063885 0.029833337 -0.0023654506 0.04335671 0.040073957 0.014915155 0.03994621 0.025089556
0.014992127 0.011381688 0.061678518 0.0020652518 -0.0107841175 -0.008278706 0.03726573 0.029261366
0.054005075 -0.0046590576 0.012584815 -0.0038562138 0.055662017 -0.0072498345 0.009963103 0.009136762
0.05652411 0.043546874 0.034861967 0.081994236 0.03551898 0.09067242 0.015945459 0.0033956699
0.03656694 0.10213587 0.012053316 -0.011139714 0.06510565 -0.020045485 0.026176983 0.014259946
0.030135777 -0.020689214 0.063209616 0.120772354 0.013817805 0.03266961 0.018654712 0.0378443
-0.012678591 0.031444307 -0.009489752 0.004034075 0.022048816 0.025110194 0.083176896 0.045243908
0.11443786 0.008462229 0.021086868 0.019960076 -0.0026014384 0.035999283 0.08535464 0.07200556
0.027371671 0.021742525 -0.016283717 0.009738701 0.053367563 0.043834217 0.018261502 0.05902889
0.011575256 0.008591852 0.016733965 0.04626049 -0.024906117 -0.012056875 0.06844723 0.02686338
0.038152497 0.042041168 0.06085221 0.039097037 -0.023806814 0.01736919 0.05376908 0.030791441
0.06323678 0.02204472 0.0026512125 0.06620008 -0.007904573 -0.0024243682 0.028595105 0.029522836
0.025014792 0.04062056 0.06493103 0.039192304 0.047573317 0.04361691 0.008921919 0.030063905
0.0665492 0.06601413 0.03550832 0.034515627 0.07832079 0.0009880409 0.005699468 -0.02105106
0.0207633 0.05818559 0.08109008 0.08566041 0.0374351 0.05586863 0.045365952 0.053994358
-0.0042222138 0.029747115 0.07151708 0.029574623 0.033269793 -0.040240668 0.018485453 0.013593088
0.040421393 -0.028253855 -0.033468906 0.032975074 0.035871226 -0.0254899 0.00692118 0.03148189
0.018023299 0.033831302 -0.029558107 0.053572215 0.029289717 0.009713629 -0.011269581 0.07743112
0.03838881 0.028869657 0.050337598 0.032448884 0.072816886 0.09389919 -0.051895265 0.07889611
-0.013327952 0.02700687 0.012072371 0.00027239838 0.007751581 0.05841463 0.1040198 0.010854203
0.032635402 0.05620786 -0.0051955758 0.034790546 0.011519839 0.040528268 0.012731457 0.019717542
0.02154658 0.025225691 0.008834895 0.06809954 0.039895065 0.03246921 0.0048833927 0.019896435
0.03330718 0.018997222 0.029510975 0.013517184 -0.018588206 0.03002655 0.0168256 0.03228657
0.044407878 0.048393138 0.08162412 0.018699763 -0.028506633 0.040243104 0.0059280694 0.042351197
0.05365629 -0.01581911 -0.030411078 0.0426941 0.023145484 0.03350029 -0.046396896 0.015861666
0.049357276 0.051289078 -0.0046097944 0.022044275 0.005867677 0.071417436 0.0556731 0.05091531
-0.010964364 0.047680862 -0.012395078 0.065130316 0.04721467 0.041129593 0.04771865 0.0816557
0.07670979 0.004994109 -0.002821253 -0.004176742 -0.03623398 0.08976691 0.04159655 -0.03788476

network_body._body_endoder.seq_layers.2.weight f4 [256, 256]
00000000: 4dce 203d dcdb 9a3d f293 e3bd a66e a33d
00000010: fde9 62bc b9a7 44be ce0e 793d c2f6 fcbd
00000020: fb32 013d 51d2 35bd 734d 803c 31f0 3e3d
00000030: 878e d9bd 05d7 dbbc ae52 08bd 9a0d 4c3e
00000040: cbe1 d0bd 4cb8 0a3e 508d 2dbb 3fca 883d
00000050: 5cfd 2cbd 11cc 0a3d c108 9abd 87a5 a73d
00000060: 3594 87bd 46b6 d43c 5023 d0bb bc44 a73c
00000070: bb87 cdbd d9de 81bc 74dd 093d 625d 803d
00000080: efe7 c9bd f974 3fbc b605 b13d 5398 02bd
00000090: c131 05bd b854 553e dc48 0bbd 16c9 06bd
000000a0: c746 98bd c05f 763d ce44 483e ef37 b53d
000000b0: a8c6 e9bd ca0c 3ebb 510f 933c e6e6 38be
000000c0: a49e b7bd b464 7dbd a1da f0bc f132 4f3d
000000d0: aef7 3f3d b9cd 0a3d 5178 c73d df22 ac3c
000000e0: 46a3 173e e479 0fbd 961f 9fbc 2692 f63d
000000f0: 8f6e 9bbc c778 d1bd 347a bd3d bf4a 80bd
00000100: ddf2 96bd 3916 f63d 3012 27bd bb59 aabd
00000110: d886 923d 046f 55be f86c b53d cf37 a33d
00000120: df49 933d ac54 ae3c d112 1fbd 0607 aebc
00000130: 5551 3b3d 6191 da3b ec0b 13be 4412 853d
00000140: c796 a33d c196 cb3d fa08 a2bd 2add ac3d
00000150: f49c fd3b 8533 d6bd bc97 913b 06f1 cd3d
00000160: 6ae0 2cbe e274 da3d 71f1 8f3d 9bb6 79bd
00000170: f546 74bd 9c81 983d fa5e 5ebd 58d4 b43d
00000180: 5664 e13c 9e1e c1bc 57dc 6ebc 7b1d d3bd
00000190: bfd4 813c 9156 55be 9fdc 193d 9f54 e33d
000001a0: 191c 923d 52b4 f1bc 5593 8e3d c210 8e3d
000001b0: 2a25 833d e244 05be 7cfa febb ad98 e13c
000001c0: 8a95 dcbd 9a3a d1bd b86b f1bd 3cb0 28be
000001d0: 0f25 a73c 6773 f8bd 0569 b5bd dd1f cd3d
000001e0: 86df e83d 42b8 aa3d 0075 fa3c 3270 023e
000001f0: d1ab 823d 8203 a0bd a42b 1b3a e48b ca3d
00000200: 30e7 4fbd 92c7 a9bc 1bc6 803d 7e5a 1fbe
00000210: 76ca ee3d 0c43 e0bc fd79 233d f127 073d
00000220: 7ed1 72bd 98fa e83c ff3e 543b 2b27 003e
00000230: abab 093c 9be3 1d3d 4240 41be 7c77 67bd
00000240: f188 e6bc 0a75 86bd fa2b d53b 7883 85bc
00000250: 73c0 0cbe be02 b93c f457 b33d e19d 13bd
00000260: 809d bf3b df93 88bd d513 3a3e e00b c13d
00000270: b476 3fbd b6d0 b7bc b679 743b a2d4 39bd
00000280: 12dd 953c be55 3d3c 3383 96ba 32bb 823d
00000290: 52c4 523d 6d71 81bd fd98 9c3d 80d3 b1bd
000002a0: efa5 c03d 53ab 1fbd 54de 913d 7918 263d
000002b0: 8646 b1bb 9670 233d 4c98 8d3d a8bf 613d
000002c0: d1ac 92bd d7e4 31bd 7be5 cd3d 330c 34be
000002d0: d50e d63b fb08 07bd 5a81 49bd 7030 1f3e
000002e0: e7cd 433c 606e b53c 1a9e 433e ca1c c73d
000002f0: 2313 c63d 4662 e43d 6bdd a2bd 657e 4a3e
00000300: 5c5d 673d 081b dd3d 8a53 033c 1ba6 c2bd
00000310: 6267 a03c 9434 e93d aad7 58bc 61e8 66bd
00000320: 2f0d e33d 34ea 09bd a2b8 d5bc bd5f 2a3e
00000330: c665 a93d 4295 3bbd 0eb3 36bd 66ff bd3d
00000340: 19e3 2e3d 0d37 a03d 8e02 fabd 5bf7 43bd
00000350: 749b 5bbb 5858 7abc 1d42 1c3d 332f 583d
00000360: 9242 f7bb d784 ab3d bfe3 c83a 4952 61bd
00000370: 252e e0bd f5aa 5fbd a2b1 12be d575 7cbc
00000380: fdee c2bd 47e3 9abd 9c19 cd3c 9303 ff3d
00000390: 4469 8bbc 5e4f a93c 1815 91bd aaae 0e3d
000003a0: 5878 d93d 0f1a 803e 4822 e5bc b61b 17bc
000003b0: a462 473d 2805 24be 436f 5dbd bd94 303e
000003c0: bcc3 023b 3d1a 47bd 493a 263d 940a 3e3d
000003d0: 92d4 593d 492e b4bc 3d0c a53d c2d1 a93d
000003e0: 3509 c53d d049 2bbd 77b6 e4bd 2024 91bd
000003f0: 539f c7bd ab27 b2bd 107f cf3d d66f c1ba
0.039259244 0.07561466 -0.11112203 0.07980089 -0.0138497325 -0.19204606 0.060805134 -0.12351753
0.03154276 -0.044390026 0.01566193 0.046615783 -0.10622888 -0.026835928 -0.033281974 0.19927064
-0.101993166 0.13546866 -0.0026481934 0.066792004 -0.04223381 0.03388602 -0.07521201 0.08185869
-0.06620065 0.025965821 -0.006351866 0.020418517 -0.10035654 -0.015853332 0.03365846 0.06267811
-0.09858691 -0.011685603 0.086436674 -0.03188355 -0.032518152 0.20833099 -0.03400503 -0.032906614
-0.07435375 0.060149908 0.19557497 0.08848559 -0.11414844 -0.0028999322 0.01795164 -0.18056831
-0.08965805 -0.061863616 -0.029401125 0.05058569 0.046867065 0.0338876 0.097397454 0.021012722
0.14808378 -0.035028353 -0.019424241 0.12039594 -0.018973617 -0.102281146 0.09251824 -0.06264257
-0.07370541 0.120159574 -0.04078883 -0.08317896 0.07154626 -0.2084313 0.08858675 0.07969629
0.07191824 0.02128061 -0.038836304 -0.021243583 0.04573186 0.0066701625 -0.14360017 0.064976245
0.07987743 0.099408634 -0.079118684 0.08440621 0.0077396575 -0.10459045 0.004443137 0.10055737
-0.16882482 0.10666825 0.07028473 -0.06096516 -0.059637982 0.07446596 -0.054289795 0.08829564
0.027513664 -0.02357417 -0.0145789 -0.10308357 0.015848516 -0.20833804 0.037563916 0.111001246
0.071342655 -0.029504929 0.06961695 0.0693679 0.06403573 -0.13014558 -0.007781325 0.027538622
-0.1077071 -0.102162555 -0.11788124 -0.16473478 0.020403413 -0.12131386 -0.088579215 0.10015843
0.11370759 0.08335926 0.030573368 0.12738112 0.06380428 -0.07813169 0.0005919284 0.09889963
-0.050757587 -0.020725045 0.062877856 -0.15561864 0.1165971 -0.02737572 0.03991126 0.032997075
-0.05928182 0.028439805 0.0032386181 0.12514941 0.008402745 0.03854714 -0.18872169 -0.056510434
-0.02814147 -0.06565292 0.0065054866 -0.01629804 -0.13745289 0.022584315 0.0875701 -0.036039237
0.005847633 -0.06668829 0.18171628 0.09426093 -0.046744063 -0.022438388 0.003730399 -0.045368798
0.018293891 0.011556087 -0.0011483192 0.06383361 0.051456757 -0.063204624 0.07646368 -0.086829185
0.09406649 -0.038981747 0.07122484 0.040550683 -0.0054100184 0.039902292 0.06913814 0.05511442
-0.07161868 -0.04343113 0.100535356 -0.17582779 0.00653253 -0.03296755 -0.049195625 0.15545821
0.011950946 0.022147357 0.1910328 0.09722288 0.09671619 0.11151557 -0.079523884 0.19774778
0.05648552 0.107961714 0.008015523 -0.09504338 0.019580547 0.113869816 -0.013235012 -0.056373958
0.11086499 -0.03367062 -0.026089016 0.16638084 0.08271365 -0.04579664 -0.044604354 0.09277229
0.042697046 0.07823 -0.122075185 -0.04784332 -0.0033509405 -0.015279852 0.038148988 0.052779388
-0.0075457776 0.083749466 0.0015326663 -0.055010114 -0.10946301 -0.054606397 -0.14325574 -0.015408953
-0.0951824 -0.07562881 0.025036626 0.124518536 -0.017017968 0.020667728 -0.070841014 0.03483454
0.10618657 0.2501988 -0.027970448 -0.009222915 0.048678055 -0.16017592 -0.054061186 0.17244239
0.0019953093 -0.048609007 0.04058293 0.046396807 0.05318124 -0.021994727 0.08058975 0.08291961
0.09620897 -0.04181844 -0.11167615 -0.070869684 -0.097471856 -0.08698972 0.10131657 -0.0014758061

network_body._body_endoder.seq_layers.2.bias f4 [256]
00000000: c14f 3a3d e265 a63c b809 1f3d 3d5f 7a3c
00000010: 70a3 2a3d 343c c43b 7e04 a33c 6807 f53c
00000020: 69ba 29bc 009c 073d 6939 023d 23b0 143d
00000030: c5c2 913c b7b3 d4bb b60b 33bb 97c0 263d
00000040: b03e fa3c 9799 e73c 6b30 e53c 5941 953c
00000050: 4fad 203d 2bc1 953c f856 25bd 5f1a ac3c
00000060: b731 713c b5d5 b03c 537c a93c b71c a3bc
00000070: b978 713c 1460 9ebc 749a fdbc a588 663d
00000080: 00b0 c83c 831e 4b3d e8dd b93b 0bd6 e0bc
00000090: 42fa d53c 04ab a8bc 36be 2f3c 5b6c b9bb
000000a0: fb75 1a3d a333 b03b 4cd1 2d3d 1a5d 473d
000000b0: 2125 7a3d 0ed6 14bc 4912 d43a 81bc 2d3d
000000c0: d39b 613d 3d34 273c 54f0 1b3c eef4 2b3d
000000d0: 779e 343d 98ce 0bbc e555 553d 2542 20bc
000000e0: 52b7 603d d570 ae3c 019c 633d 9536 0b3d
000000f0: 80b5 2ebc bd6e 263c ace7 053d 4d47 173d
00000100: 0ec4 84bc 7483 21bc b38c bc3a ce52 e83c
00000110: 2176 3a3b 536f 2e3d 131e 33b8 5ace 0cbc
00000120: 2102 04bc e639 dd3c cf13 78bc 3a67 9b3b
00000130: c3b8 183d 714f 9b39 0a8d d4bb 6851 a8bc
00000140: 471e af3b 28f2 73bc 6f12 a43c 8575 bd3c
00000150: 59ae b73b 4452 6d3d 7676 b23b f05e 8d3c
00000160: b6ea 693c 69d7 9cbc 7a86 9f3c 579c 2bbc
00000170: 103e 263c 5fdf 103d 3047 1e3c e99f d83c
00000180: be58 babc 2508 dbbc 5461 ae3c d383 803c
00000190: 2e5a c8bc 6026 2b3b f441 033d 2721 82bb
000001a0: 728c aa3c e7bc b5bc 6ab6 47bb 3141 bebc
000001b0: 499d 063c 169a e43b 89f2 ff3c 7401 1b3c
000001c0: 7989 ca3b fbb7 a53c 5e82 d33b cd03 883b
000001d0: 6307 dc3a b1a2 7f3d 3623 9e3d ebed 26bc
000001e0: 5640 82bc e185 913c f737 e43b be07 fdbc
000001f0: a513 fd3c 2b1a 68bc e2fd 0c3d 6475 28bc
00000200: 46b0 533d 1072 0e3c 8edd 1f3d d127 eb3a
00000210: 954a c2bc 5467 6b3b d0ef ff3c bc95 7d3c
00000220: 9675 453d 901e 193c 3116 b9b9 5c96 1a3c
00000230: b536 e43c 8af6 aabc fbf5 f9bc 6a1b d53c
00000240: 9435 06bc 9b9f a3bc 8b96 b23c cb0f 38ba
00000250: 3199 2c3d 554e 413d 54f6 12bd 87dc 273c
00000260: 9d36 263d e5d3 eb3c 2aa4 4e3c 5456 9abc
00000270: 5333 cb3c 557f de3b ffba 0d3d 58a1 0bbc
00000280: 970a 4dbc 13e7 be3c b709 67bb e2ab e53c
00000290: f1a3 aebb 9a41 a63b 6072 563b c837 df3c
000002a0: ae43 443d 62fa 56bc 8c6a 0b3d d68d e43c
000002b0: 5c70 fd3c 36ec ef3c 0b50 2cbc 27d1 fd3c
000002c0: 558a 873c 831a 38bc af35 063d 458e 043d
000002d0: faec aa3b cd16 073d e33a 673c fcd0 1c3d
000002e0: fb19 793d 255e 8d3c 36eb 063b 22bf 00bc
000002f0: a9ec 393d a4f4 99bc dd5f 903c 4dde ec3c
00000300: f116 253d d17b e4bc f640 923d ce0a 7f3c
00000310: ec0f 033d 23f0 f2bc 223a a13c 3e38 a0bc
00000320: 0b6a e5ba 4d04 7cbc 3ae1 463d d376 3bbb
00000330: c46a 213d bce5 853c 8874 da3c ddca 303c
00000340: 6f78 973d 77a8 17bc 1236 57bc d463 0c3d
00000350: af6f 03bb a372 d53b 07bb 1a3d a970 0d3c
00000360: 5914 c73c 8df2 583c defc 943c 062c 8c3b
00000370: c1bb 563c 31cf 0c3d 99b3 1dbb 265a dabc
00000380: a2e9 903c d9ed c03b 1360 89bc 17e0 45bc
00000390: ac24 d8bb 521a 39bd 54ef aa3b dadd 49ba
000003a0: d247 5d3d 78b1 b23c 5154 1b3d 6717 f33c
000003b0: 507a b1bb a974 4b3d 2535 823b 9e72 6c3b
000003c0: 6cef 2e3c c1ea 3c3d e472 efba 8015 a83c
000003d0: 7c7a 073d 3a0c 73bc d586 1c3c 9496 943c
000003e0: abe5 c7bc ed95 01bc 5f14 8abc ab43 1e3d
000003f0: a490 4d3d 04e6 423c b829 7b3b 33af 3bbd
0.045486216 0.020312253 0.038827628 0.015281496 0.041659772 0.005988622 0.019899603 0.029910758
-0.010359385 0.033107758 0.03179303 0.03630079 0.017793069 -0.0064911502 -0.0027320213 0.04071101
0.03054747 0.02827148 0.027977189 0.018219637 0.03922778 0.018280586 -0.040366143 0.021008668
0.014721326 0.021586278 0.020689165 -0.019911153 0.014738255 -0.019332923 -0.030957438 0.056282658
0.024497986 0.049589645 0.0056722052 -0.027445814 0.026120309 -0.02058936 0.010726502 -0.005658669
0.03771017 0.0053772493 0.04243593 0.048672773 0.061070565 -0.009084238 0.0016179766 0.0424161
0.055080246 0.010205326 0.009517748 0.04198163 0.044096436 -0.0085331425 0.05208387 -0.009781395
0.054862328 0.021294037 0.0555687 0.0339876 -0.01066339 0.010158238 0.032691643 0.036933232
-0.016206767 -0.009858001 0.0014385193 0.028359797 0.0028451758 0.042586636 -4.2704934e-05 -0.00859412
-0.008057148 0.027005147 -0.0151414415 0.00474253 0.037285578 0.00029623092 -0.0064865397 -0.02054663
0.0053441855 -0.0148892775 0.020028321 0.023127327 0.0056055007 0.057939783 0.0054462506 0.017257184
0.014277151 -0.019145684 0.019473303 -0.010474286 0.010146633 0.035369273 0.009660527 0.026443439
-0.022747394 -0.026737282 0.021286644 0.015687859 -0.024457064 0.0026115403 0.03204532 -0.003971237
0.020818923 -0.022184802 -0.0030473717 -0.023224445 0.008216211 0.0069763763 0.03124358 0.009460796
0.006180939 0.02022933 0.00645475 0.0041508437 0.0016786869 0.062411014 0.0772156 -0.01018856
-0.015899818 0.017764034 0.0069646793 -0.03088748 0.030893156 -0.014166395 0.03442181 -0.010281894
0.05168178 0.008694187 0.03902965 0.0017940943 -0.023717204 0.0035919743 0.031242281 0.015477594
0.04820784 0.009345666 -0.00035302484 0.0094352625 0.027858118 -0.020869512 -0.0305128 0.026014049
-0.008191485 -0.019973567 0.0218003 -0.00070213963 0.042138282 0.047193844 -0.035879448 0.010245449
0.040579427 0.028787563 0.012612382 -0.018839993 0.024804747 0.0067900815 0.03460216 -0.008522354
-0.012514732 0.023303544 -0.0035253593 0.028036062 -0.005329602 0.0050737383 0.0032721981 0.027248278
0.047916107 -0.013121219 0.034037158 0.027899664 0.030937366 0.029287439 -0.010517131 0.03098352
0.016545454 -0.01123679 0.03276604 0.03236224 0.005216238 0.03298073 0.014113161 0.03828524
0.060815793 0.017256806 0.0020586974 -0.00785807 0.045391712 -0.018793412 0.017623836 0.028914595
0.04030508 -0.027891072 0.071412966 0.015566541 0.031997606 -0.029655522 0.01968104 -0.019558068
-0.0017502917 -0.015381885 0.048554637 -0.002860476 0.03940846 0.016344897 0.026666895 0.010790554
0.07396018 -0.009256474 -0.01313545 0.03427489 -0.0020055582 0.00651391 0.03777602 0.008632817
0.024301695 0.013241422 0.018186983 0.004277709 0.013106287 0.03437728 -0.0024063347 -0.026654314
0.01768953 0.0058877287 -0.016769445 -0.012077353 -0.0065961685 -0.045191117 0.0052165184 -0.00077006
0.05402357 0.02181314 0.037922207 0.029674245 -0.005416192 0.049671803 0.0039736205 0.003607906
0.0106772 0.046122316 -0.0018268493 0.020518064 0.033075795 -0.014834458 0.009553631 0.018138207
-0.024401506 -0.00790928 -0.016855417 0.038638752 0.05018677 0.01189566 0.0038324427 -0.04582138

network_body._body_endoder.seq_layers.4.weight f4 [256, 256]
00000000: d14d 093c ec62 3abd 484c 09bb 5c85 cf3d
00000010: 029c d93c 21df 153e 05ca 58bd 897b 9ebd
00000020: 96bf 0bbd d1ac 9d3c bfa6 98bd adba 473d
00000030: d0b2 e8bb 4178 d5bc ef92 8e3d 67d0 6f3d
00000040: dd3f 40bc 4080 07bb 8bf4 94bc 0ee1 5bbd
00000050: f7db 69bd 6475 8cbd d908 b33d cb11 1dbc
00000060: ba2a 00bc 6796 08be 4cd9 dc3c ddd5 d3bc
00000070: b995 aabd 3e6b 2cbd da46 c83d 05d7 02bd
00000080: 0709 5c3d 8b03 10bd 5806 2dbc e91b 66bc
00000090: e2ee d63c 91e7 e0bc 2467 0c3e 92d3 3ebc
000000a0: 23b0 193e 2365 64bd 268b 513c dc17 b43d
000000b0: 3d0d 9bbd f4e4 863d cd51 9abd 5792 2a3d
000000c0: 68f7 34bd 922f 203b 9f49 2dbd ad4a 75bb
000000d0: eeb6 e03c c1fc a9bd f55c e03d fc1e 00bd
000000e0: 7ccf 8cbd 7357 323d 7d40 41bd 45fa bebd
000000f0: a631 403c 58dd af3d df19 50bd 33a0 173d
00000100: ef19 a03d 0d93 9a3d 521e 8b3c 9b7a 593c
00000110: ec61 703d f37d 7a3d 2ea3 74bd 913a 823d
00000120: 4eb6 10bd 3b15 623b 630a 10bd 4325 8cbd
00000130: 525b b33c 3bfa 85bd cb88 29bb d6b5 27bb
00000140: 674f 493b eaec 43ba d18b 543d 5b36 b3bd
00000150: a552 3bbd c7af ae3d 97a1 ee3d 0114 9bbd
00000160: 48c1 d23c 9921 2c3e 19f7 6b3c 8b34 85bd
00000170: cd46 4e3d bef8 ddbd 2155 713c 2637 193e
00000180: 37d9 273a 0187 72bd f870 283c 0fe1 82bd
00000190: c143 083d 423d 573c 5dae 47bc caa1 913d
000001a0: 2992 1e3d 783b d6bc 97c3 edbc 3e72 03be
000001b0: f244 cfbd 826d 933d 9ab0 a8bc 0f91 0b3e
000001c0: 48b8 56bd 7622 e6bd daaa 86bd 4e31 6fbd
000001d0: 571d 21be 3cc3 ef3a f9b3 513d 884d 1e3d
000001e0: e64c b13a b6da 313b ee63 363d 0642 843d
000001f0: c111 b3bc 92c1 c63d abb3 42bd 1179 cdbc
00000200: 27e1 063d 6616 e2bc 950f d3bd 3a3a 2c3b
00000210: b940 dc3d 39cd a4bc 83a2 1b3e 5b98 53bd
00000220: 5b8f c13c 60d9 ad3d 567e 473d 48be 12bd
00000230: 502e 67ba 545d bdbd 6d4c c33d a13b 27be
00000240: 5deb c1bd 20ba 8abb 63ff 27bd 16c7 22bd
00000250: cf6e 223d d581 463d ca89 80bd 0c2f 2cbc
00000260: c1a9 20be b240 75bd 37ae fb3d 0a7b 4bbd
00000270: ddc4 033e 5fa4 b53d 4b24 df3d af5b 883d
00000280: 8b76 f03d 5734 243c 9224 f0bd bad7 8abd
00000290: 0c47 43bd b4ef 11bc dfbf 41bc 1718 92bd
000002a0: a7e8 11bd 63aa 303d 1db8 733d b157 4bbc
000002b0: ffac 873c b0e5 e1bd be50 19bd c864 fbbd
000002c0: 2127 433d 262d 99bc 2303 95bd c9d0 b03d
000002d0: b35f 953d a70e 4d3d 23bc 38bc 2975 7a3d
000002e0: 839a f7bb 827b 9abd ab4e 44bd dad0 183d
000002f0: 7d82 6a3c 5d07 143e 54dd 7cbc 51da f3bd
00000300: 8004 c33c e0af f4bd ffa9 55bc 7f45 28bd
00000310: 7252 b03d a29b 00bb 9d49 323e cfec cbbc
00000320: 12d3 13bd 53e4 94bd 90af 10bd d998 cd3c
00000330: 69f6 8ebc 4546 f8bc 3a0c 743c 3618 6abe
00000340: 2ee8 293c 6dfa 4ebd 6094 083c 4ab4 453e
00000350: f1da 4e3d aa78 13bd f5dd 95bd 1e78 15bd
00000360: aee1 753b f101 33bd f910 f1bd 786d 1abe
00000370: b741 4a3e 4d75 cdbd 9186 093d 7532 cabc
00000380: 20bc 3abe 3026 40bd b42d eb3d a445 90bd
00000390: ddea 4c3d fded 7d3d 7b04 823d b0b3 ff3b
000003a0: 752a b33b 10d9 a7bc 01d0 82bb e604 3dbc
000003b0: 50e2 7b3d 974c cc3d c588 95bc 2521 f7bc
000003c0: 4614 e93d a140 aabd 4538 a93d f13c 553d
000003d0: 580d 1b3d 6b30 85bd 7214 d2bc 702e 74bc
000003e0: 6ed0 30bd 8029 e33d 235b bc3d 3def 3c3d
000003f0: 2f0c 03bd 40a0 8c3d c77a d6ba 8bb5 0a3c
0.008380369 -0.045504496 -0.0020950008 0.10132858 0.026563648 0.14635898 -0.052927036 -0.07738406
-0.034118257 0.019247444 -0.07453679 0.048762012 -0.0071013942 -0.026058318 0.06961619 0.058548357
-0.011733976 -0.0020675808 -0.018183013 -0.053681426 -0.05709454 -0.06858328 0.08741922 -0.009586762
-0.007822687 -0.13338624 0.026959084 -0.025858814 -0.083293386 -0.04209446 0.09779139 -0.03194334
0.053719547 -0.03515963 -0.0105605945 -0.01404474 0.026236955 -0.02745417 0.1371122 -0.011647122
0.15008597 -0.055760514 0.012789523 0.08793613 -0.075708844 0.06586638 -0.075351335 0.041643467
-0.044181257 0.0024442417 -0.04230654 -0.0037428543 0.027430978 -0.08300162 0.1095523 -0.03127955
-0.06875512 0.04354043 -0.04718064 -0.09325079 0.011730587 0.0858714 -0.050805923 0.037018012
0.078174464 0.07547579 0.016982231 0.01327386 0.058687136 0.06115527 -0.059725933 0.06358827
-0.03533011 0.0034497518 -0.035166156 -0.068430446 0.02189413 -0.06541868 -0.0025868888 -0.002559056
0.0030717494 -0.00074739626 0.05189115 -0.08750602 -0.045733113 0.085296206 0.116519146 -0.07572175
0.02572693 0.16809691 0.014402174 -0.065041624 0.05036049 -0.108384594 0.014729769 0.14962444
0.0006402912 -0.05921078 0.01028084 -0.06390583 0.03326774 0.013137164 -0.012187568 0.07110937
0.038713608 -0.026151404 -0.029023929 -0.12836549 -0.10120572 0.07198621 -0.020592023 0.13629554
-0.052421838 -0.11237042 -0.06575556 -0.05839663 -0.15733849 0.0018292437 0.051197026 0.03864816
0.0013526946 0.0027138419 0.044528894 0.064579055 -0.021859052 0.09704889 -0.047534626 -0.025082143
0.032929566 -0.027598571 -0.103057064 0.0026279823 0.10754532 -0.020117389 0.15198712 -0.05165897
0.023627928 0.084887266 0.048704468 -0.035825998 -0.0008818852 -0.092463166 0.095360614 -0.1633134
-0.0946872 -0.0042336136 -0.04101504 -0.039740644 0.039656457 0.04846366 -0.06276281 -0.010509264
-0.15689756 -0.05987615 0.12289088 -0.049677886 0.12868066 0.08869242 0.10895594 0.06658112
0.1174136 0.010022244 -0.11725725 -0.06779428 -0.047675177 -0.008907247 -0.011825531 -0.07133501
-0.035622265 0.043131243 0.059501756 -0.012411044 0.016561983 -0.110301375 -0.037430517 -0.12275082
0.047644738 -0.018698286 -0.07275989 0.086335726 0.07293644 0.0500628 -0.011275324 0.06114689
-0.007556261 -0.075430885 -0.047926586 0.03730855 0.014313337 0.14455934 -0.015433628 -0.11906875
0.023805857 -0.11947608 -0.0130410185 -0.0410819 0.08609475 -0.0019624014 0.17410894 -0.024893193
-0.036089964 -0.07270112 -0.03532368 0.025097298 -0.017451482 -0.030306945 0.014895493 -0.22860798
0.010370297 -0.050531793 0.008336157 0.19307056 0.050501768 -0.036003746 -0.073177256 -0.036491506
0.0037518549 -0.043703023 -0.117708154 -0.15080822 0.1975163 -0.10032139 0.0335756 -0.024682263
-0.18235826 -0.04691142 0.114833266 -0.07044533 0.05002867 0.06199454 0.06348511 0.007803403
0.0054677078 -0.020489246 -0.003992081 -0.011536812 0.061495125 0.09975546 -0.018253693 -0.030167172
0.1138082 -0.08313108 0.08262686 0.05206007 0.037854522 -0.065033756 -0.025644515 -0.01490365
-0.043167524 0.110919 0.091970704 0.046126593 -0.03199404 0.06866503 -0.0016363495 0.008466135

network_body._body_endoder.seq_layers.4.bias f4 [256]
00000000: f14b 983c fd47 223d f22a fa3b bf4b 763c
00000010: d35d 9e3c b19f d03c 79d3 833d 42db 81bb
00000020: 2d7e b73c 1031 4b3c f87e f93c 511c 0d3d
00000030: 6f0d 3e3c a406 5ebb 7382 023d 54a0 5a3d
00000040: d79a 8139 1fd9 0e3d ebb8 733c e3b6 ff3c
00000050: 995e 8e3c 447f 393c feec a13c de62 093d
00000060: c7c3 1e3d d2bd 753c 7cae 9e3c 7c22 8c3c
00000070: 6e7e 023d 6880 413d bf24 7a3c e1b8 2a3d
00000080: 7446 463d 92a2 293d d329 3b3d b7bf 933c
00000090: 6e0d b7bc d937 1d3c 72c1 ce3c 6340 293c
000000a0: d2d3 9a3c c75e 4c3c 626f cd3c 90b3 153c
000000b0: 5f1f 7b3d b1e4 2c3d ab68 523d 1e33 06bc
000000c0: 0507 0b3c 3142 263a ca18 cd3b 619e 09bb
000000d0: 61f8 28bc 1f20 333d 4959 b73c 189c 273d
000000e0: 7f10 fd3c 8534 e23c 52ef 0e3d 3e2a c9bb
000000f0: 907e 143b 1d3a d9bc ca03 54ba 9cdd 8f3c
00000100: eb79 293d 43d8 1f3c 0026 873c db9b 343d
00000110: d328 b33b 6fe2 403c 84a9 7e3d c8a6 2a3c
00000120: 2a21 e53a 0a7a 553d 39a0 113d c173 323c
00000130: 8809 5c3d 801f 623c 1e58 d43c f5f1 b43c
00000140: 679d 92bb 883c 33bd 628b a83c b35c 3c3d
00000150: 513c 2fbd a225 553b f16d 0c3d 5add a6bc
00000160: 7754 b43c c8b4 8abb 01fc 683c d8f1 2e3d
00000170: 31de 173c 8e83 2e3c cb88 aa3a 26e7 ea3c
00000180: a243 c43c 277f da3c 3861 28bc 8715 b43c
00000190: 3de1 a0bc c515 263d b7f4 763c d937 693b
000001a0: 771c 313d 6f1b 8e3d 12fc 833c fcc6 af3b
000001b0: 88f6 3a3d 9f4c c23c 4f57 0b3d 746d 1e3d
000001c0: 5c6b c13b 30c8 f63c 5b39 b13c f84a 8c3c
000001d0: 3757 fc3c 460e 103c dd5d 063d 7d6d 4a3c
000001e0: 3fc6 9a3c 3ecb 073c 417d b33c d2a1 013d
000001f0: 96be 573c 7622 193d ae58 4d3b 7dc1 ec3c
00000200: ac12 a93c d52e d73c 2e94 123d 7b0d 033c
00000210: 5264 663d 1dc2 1a3d 9764 fc3b a477 0d3c
00000220: ac50 ad3c 5947 383d cbee cf3c 5d00 6d3c
00000230: d754 f83c 1f82 e1bb f3f3 f03c 7969 8f3b
00000240: f4ca b03b f8c3 803b bcae a6ba ddd1 c13c
00000250: 5fd8 473d b9b7 f73c c533 593d 916a a83c
00000260: a4f2 433c e22f 4b3d f66c c73c 606e 54ba
00000270: 5c17 f13c 7682 0c3d cd27 f03a 0463 3e3c
00000280: 105f e63b 7011 1a3d a13e a23c ba36 7d3a
00000290: ef3f a63c 432f d83b 4076 af3c b3c7 ddba
000002a0: 940a f73c 1b84 ef3c fcaf 3f3d a9c4 063d
000002b0: 8e7d 9d3c f05a 9b3c 1b5e 9a3b d90d c83c
000002c0: 3168 733d 52d0 ce3c 0235 633c 72a4 7fbc
000002d0: 95ce c7ba 0a5f 053d 1c95 f2ba 5aab 423d
000002e0: 0389 c13d e8d4 cf3c de02 0c3d efcd 2b3d
000002f0: 7f04 863c d21b 633d ca56 003b ba11 9b3c
00000300: f289 a13c 9c6f a93c 1496 723b b596 4e3c
00000310: 06ea ea3c 773a bc3c c014 f6b9 f9b7 1fbc
00000320: 7a07 04bd 2cc0 903c 643d 173d 06cf 1c3d
00000330: b083 3b3c c58a 003d bcd1 5d3d 71d6 443b
00000340: cf6d 6a3d 088b 03bb d441 d03c 7f91 053d
00000350: 7487 8c3d 3120 073d 52e8 653c d384 133d
00000360: 9a92 93bc a4be ac3c a1be 353d 03f7 173c
00000370: 59e2 f73c 7ed1 643b 859f 0e3d 3bbc 5f3b
00000380: e7a6 7d3c a692 5e3b 65eb d73c d8eb b33c
00000390: 3959 863b 18c7 c93c 25fa 863c 2884 0ebc
000003a0: 91ef d63c e6a6 7bbc 8e81 dcbc 9426 91bb
000003b0: afca 643d cd4f 113d c32c 913c 5c45 953c
000003c0: d4fa 1b3d 43b6 6a3b d261 bc3a 6e25 253d
000003d0: a8fa 5a3c 0071 143d a77a 8dbb 7d06 773c
000003e0: bd75 073d caba 4c3c de45 9c3c c021 5a3d
000003f0: 935f 093d 3645 083c 141d adbb ae87 0d3d
0.0185909 0.039619435 0.007634514 0.015032708 0.019331848 0.025466772 0.064368196 -0.003962905
0.022399032 0.012401834 0.030456051 0.034450833 0.0115998825 -0.003387847 0.031862687 0.053375557
0.00024720162 0.03487503 0.014875631 0.031215137 0.017379092 0.011321846 0.019766327 0.033541553
0.038760927 0.01499887 0.01937031 0.017106287 0.031858854 0.0472416 0.01526755 0.04168022
0.048407033 0.041414805 0.045694184 0.018035753 -0.022345271 0.009595835 0.025238726 0.010330292
0.018899832 0.012473769 0.025077526 0.009137049 0.061309215 0.042210285 0.05136935 -0.008190898
0.00848556 0.0006342261 0.0062590586 -0.0020998942 -0.010313124 0.043731805 0.022381442 0.040920347
0.030891655 0.027612934 0.034896202 -0.006139069 0.0022658445 -0.026516968 -0.0008087723 0.017561726
0.041376036 0.009756151 0.016497612 0.044093948 0.005467513 0.011772736 0.06217338 0.01041574
0.0017481197 0.05211834 0.03555319 0.010891856 0.053720027 0.0138014555 0.025920924 0.02208803
-0.00447433 -0.0437589 0.020574275 0.045986842 -0.04278213 0.0032523652 0.034284536 -0.02036922
0.022012932 -0.0042329766 0.014220239 0.04271111 0.009269283 0.010651482 0.0013010738 0.028674673
0.023958031 0.02667196 -0.010277085 0.021982921 -0.019638652 0.040548105 0.015072993 0.0035586266
0.043240037 0.06938826 0.016111407 0.005364297 0.045645267 0.023718176 0.03401881 0.0386786
0.005902691 0.030124754 0.021633795 0.017125592 0.030803306 0.008792466 0.03280436 0.012355206
0.01889336 0.008288203 0.021910312 0.031648465 0.013167998 0.03738638 0.0031333375 0.028900856
0.020638786 0.026267448 0.035785846 0.007998819 0.056248017 0.037782777 0.007702421 0.008634482
0.021156631 0.044989917 0.02538242 0.014465419 0.030313892 -0.0068819667 0.029413199 0.004376587
0.0053952876 0.0039296113 -0.001271687 0.02365964 0.048790332 0.030238973 0.053027887 0.020558627
0.0119597055 0.04960621 0.024343949 -0.00081036054 0.029430084 0.034304105 0.0018322408 0.011620287
0.0070303753 0.037614286 0.019805254 0.0009659339 0.020294158 0.006597431 0.02141869 -0.0016920477
0.030156411 0.029237797 0.04679869 0.032902393 0.019224908 0.01896426 0.0047109253 0.024420666
0.059425537 0.02524582 0.0138676185 -0.015603172 -0.0015244061 0.03256134 -0.0018507573 0.047526695
0.09449961 0.025370076 0.034182422 0.04194444 0.016359566 0.055446453 0.001958298 0.018929351
0.019719098 0.020683102 0.0037015723 0.012609174 0.028676044 0.022977097 -0.00046936236 -0.009748452
-0.032233693 0.01766976 0.03692378 0.03828337 0.011444971 0.03138234 0.054155096 0.0030035044
0.057233628 -0.0020071883 0.025422014 0.03260946 0.06861773 0.032989684 0.01403244 0.036015343
-0.018014241 0.021086998 0.04437125 0.009275201 0.030259298 0.0034914906 0.0348201 0.0034139294
0.015481687 0.003396192 0.026357362 0.021963045 0.0040999916 0.024631068 0.0164767 -0.008698501
0.026237281 -0.015359616 -0.026917245 -0.0044296477 0.055857357 0.035476495 0.01772154 0.01822155
0.038081005 0.0035814203 0.0014372414 0.0403189 0.013365425 0.036240578 -0.0043176 0.0150772305
0.03307127 0.012495706 0.019076284 0.053254843 0.033538412 0.008317282 -0.0052830074 0.034553222

action_model._continuous_distribution.log_sigma f4 [1, 39]
00000000: 9926 45bf 86be 88bf 6544 1fbf b058 04bf
00000010: d7d4 6fbf 40a9 23bf f4af 03c0 6b0c c0bf
00000020: af21 07c0 44a8 cbbf d9f3 ebbf ae72 c5bf
00000030: 4c00 afbe 72a3 0abf 3c98 a0be e942 88be
00000040: 7d3b eebe a7e6 44bb 95a0 d9bf 9ccc b8bf
00000050: 386f d7bf 6518 c5bf 59dd 97bf cf61 8dbf
00000060: 2b5e fbbe 0b1d 9ebe dc56 1abf 8eaf d0be
00000070: 6f42 7cbe a544 1ebf c132 14bf 05aa 18bf
00000080: 381d 34bf 0659 fdbe 41e9 ebbe 6586 b5be
00000090: fcd5 efbe a9ab 81be 84b2 ecbe
-0.7701202 -1.0683143 -0.62213737 -0.51697826 -0.9368414 -0.6393013 -2.0576143 -1.500379
-2.111431 -1.5910726 -1.8433791 -1.5425622 -0.34179914 -0.5415565 -0.31366146 -0.26613548
-0.4652976 -0.0030044706 -1.7002131 -1.4437442 -1.6830816 -1.539807 -1.1864425 -1.1045474
-0.49095282 -0.30881533 -0.60288787 -0.40758938 -0.24634717 -0.61823493 -0.57889944 -0.5963443
-0.70357084 -0.49481982 -0.46076396 -0.35454097 -0.46842945 -0.2532628 -0.46229947
