Project/results/Walker_Run_01/Walker/Walker-28499980.onnx (onnx, 824633 bytes, 11 tensors)

network_body.observation_encoder.processors.0.normalizer.running_mean f4 [243]
00000000: bb15 5641 7b51 873c 0c77 c5be 3af6 d43f
00000010: 59b3 7bb0 0000 0000 8fee 6f41 bcfe 23bd
00000020: b470 2b3d c602 4f3c d255 523f 72c6 95bd
00000030: 121c 553d f31c 683c f16f 593f 3222 08ba
00000040: 11d1 eebe af56 b540 0000 0000 004f ae3c
00000050: eafe afbe 2806 ca3f f79c 263f 9f94 8c3e
00000060: a371 f8bd dbf8 9cb8 eb25 f4bb d4a7 ac3c
00000070: 0000 0000 7913 df3c 64ad 11bf 7a2c e23f
00000080: 2a95 ed3d 5966 483c ae71 a5bd 4414 bbbc
00000090: f9e4 c73e 2868 0e3e 7cff 9ebd 0978 f8bb
000000a0: 2c07 293c 96fe 7d3f ed31 163f 0000 0000
000000b0: 3581 bb3c a088 f1be eecc d43f c121 7f3e
000000c0: af5a 963d a65d 92bd edf5 babb c029 363e
000000d0: 646b a23d 335a 003e 4379 babc bfd7 b33c
000000e0: ae98 773f 8cf2 113f 0000 0000 b664 103d
000000f0: 78a8 31bf 54a7 f23f 1400 74be c89a 943d
00000100: ae63 33be a499 64bd 1a33 3e3f bd9b 513e
00000110: 13fc ad3b e375 4cbb 779d 813c 16d9 7c3f
00000120: 1cd8 243f 0000 0000 1921 c2bc 3030 7abe
00000130: 872b bf3f 16ee 853f 9b57 d63e a818 883e
00000140: 666a 97bd 037b 51be 3ee6 97bc 0aa6 51be
00000150: d5ef c3bb 171f d1bd c384 673f 4760 0e3f
00000160: 52d1 843e 786b 1dbd 4d1f 0fbe c9ec a53f
00000170: 1f8a 0c3f 7d97 d93e f6ef 4a3c dedf a4bd
00000180: 9dd5 c9be 5258 00be 90ab 023f ab9c 2d38
00000190: 501f 6739 e1da 4f3f 9128 0e3f b5a3 603f
000001a0: c131 2dbd ad11 50bd 363f a13f 019e fd3e
000001b0: 0e91 3d3e b0ea d73d bf01 b7bd c961 fbbe
000001c0: 8281 64be a6b8 d0bd f825 5dbc 4815 cd3c
000001d0: 9198 6e3f dafe bf3e 0000 0000 b660 a63d
000001e0: ee23 80be 4992 bf3f d71c b23f 0c22 1dbe
000001f0: a9f8 7dbe 80cf 7a3d 7ee6 41be ebd2 f2bb
00000200: ded1 7ebe 0487 0c3a 9fee ef3c 130e 673f
00000210: 1b35 183f f4b5 5c3e 5816 993d 8a6d 96bd
00000220: f2c0 a93f 3129 393f 9bce 323e f9d2 203e
00000230: 6806 4b3d 803a c3be a70a c7bd 3bd5 003f
00000240: 831d 63ba b592 103c a8fe 4e3f 8505 153f
00000250: b994 533f 9a92 9a3d 9433 29bd babb a13f
00000260: 1b0c 943e 6dcc 853b 145e 9dbc 0729 503d
00000270: a186 fbbe 5781 3dbe 3038 c1bd 2cb1 893b
00000280: e8a7 cdbb 88d5 753f 9e86 de3e 0000 0000
00000290: 7127 babd 99ca 15bf bf57 e93f c40c 60be
000002a0: 4ed9 fd3e 6d9d c9be 8c53 4dbe 21ad bb3e
000002b0: 3fae 323e 5073 45bc 28ba 673e 7be0 d8bd
000002c0: ea59 5f3f 99d5 243f 0000 0000 fdc0 debd
000002d0: a4fb 06bf 9225 f63f 1c92 05bf cf35 9a3f
000002e0: 6290 d3bd 796e 66be c2b9 b03e ecaa 903e
000002f0: a805 e43a d20b 113f ba13 ad3a bb79 443f
00000300: c576 1b3f 0000 0000 0f61 01be 11e0 03bf
00000310: affb 0140 be1f 01bf 78e5 253f 7186 a9bb
00000320: 9185 48be 329e a23e d227 c33e 0000 0000
00000330: 8201 053e 06c8 13bf c734 e93f 809a 26be
00000340: 24c0 4abf 917b 543f f733 213e bab4 da3e
00000350: 8e75 4f3e 8e68 92bc 1bf5 7ebe 3cf7 0c3e
00000360: e449 5a3f 57c9 303f 0000 0000 a202 003e
00000370: cd49 0dbf cec1 f53f 5c77 03bf 048e 87bf
00000380: 6080 fb3e 5a5d 433e 0b01 d43e 6028 9b3e
00000390: 82ba 243c 94c5 04bf 632e 46bc 1b87 473f
000003a0: 1161 003f 0000 0000 2c4c d03d 4922 09bf
000003b0: 03f6 0340 8be9 08bf 291c 83bf 94cb ee3e
000003c0: 8a26 2d3e 1dff bb3e d254 be3e
13.380305 0.016518345 -0.38567388 1.6637642 -9.1568136e-10 0.0 14.995742 -0.040037856
0.04185553 0.012634939 0.821622 -0.07313241 0.052028723 0.014167058 0.84936434 -0.0005193084
-0.4664388 5.6668315 0.0 0.021277905 -0.34374171 1.5783129 0.6508326 0.2745714
-0.121310495 -7.4850126e-05 -0.0074508092 0.02107612 0.0 0.027230965 -0.569052 1.7669823
0.116007164 0.012231433 -0.08078323 -0.022836812 0.3904188 0.1390692 -0.077635735 -0.0075826687
0.010316651 0.9921659 0.5866993 0.0 0.02288876 -0.4717455 1.662504 0.2491522
0.07341515 -0.07146768 -0.005705586 0.17789364 0.079306394 0.12534408 -0.0227629 0.021953462
0.96717346 0.5701072 0.0 0.035252295 -0.6939769 1.8957314 -0.23828155 0.07256085
-0.17518494 -0.055810586 0.74296725 0.20469566 0.0053095906 -0.0031198196 0.015822155 0.98768747
0.64392257 0.0 -0.023697423 -0.24432445 1.4935158 1.0463283 0.41863713 0.2658131
-0.07393341 -0.20457081 -0.018542405 -0.20473495 -0.005979518 -0.10211008 0.90436953 0.5561566
0.2594095 -0.03843257 -0.13976784 1.2962886 0.54898256 0.4249839 0.012386313 -0.08050512
-0.39420786 -0.12533692 0.51043034 4.1392323e-05 0.00022041542 0.8119336 0.5553065 0.877498
-0.042283777 -0.050798107 1.2597415 0.4953461 0.18512365 0.1054281 -0.0893588 -0.49098042
-0.22315028 -0.10191469 -0.013497822 0.025034562 0.9320155 0.37499124 0.0 0.08123915
-0.25027412 1.4966518 1.3915051 -0.15345019 -0.24801888 0.061233044 -0.18935582 -0.0074103973
-0.24884745 0.0005360695 0.029288588 0.9025585 0.5945603 0.21553785 0.07474965 -0.07345112
1.3262007 0.7232848 0.17461626 0.1570548 0.049566656 -0.3813057 -0.09718829 0.50325364
-0.00086637604 0.00882404 0.80857325 0.5821155 0.8264881 0.07547493 -0.041308954 1.2635415
0.28915486 0.0040832073 -0.019209899 0.050820377 -0.4912615 -0.1850637 -0.09434545 0.0042020287
-0.0062761195 0.9602895 0.4346208 0.0 -0.09089554 -0.58512264 1.8229903 -0.2187987
0.49579853 -0.3937792 -0.20051402 0.36655524 0.17449282 -0.012051418 0.22629607 -0.10589691
0.8724657 0.64388424 0.0 -0.10876653 -0.52727723 1.9230216 -0.5217607 1.2047671
-0.10330273 -0.2250308 0.34516722 0.28255403 0.0017396705 0.5665866 0.0013204732 0.76748246
0.607281 0.0 -0.12634681 -0.51513773 2.0309865 -0.5043906 0.64803267 -0.0051734974
-0.19582202 0.31761318 0.38116318 0.0 0.12988856 -0.57727087 1.8219231 -0.16269875
-0.79199433 0.8300105 0.1574248 0.42716008 0.20259687 -0.017872121 -0.24898188 0.13766187
0.85269 0.6905722 0.0 0.12501004 -0.55190736 1.919977 -0.51354 -1.0590215
0.4912138 0.1907858 0.41407046 0.3030424 0.010054233 -0.5186398 -0.01209602 0.7794053
0.5014811 0.0 0.10170779 -0.5356794 2.0618904 -0.5348136 -1.0242969 0.46639693
0.16909233 0.36718073 0.37174088

network_body._body_endoder.seq_layers.0.weight f4 [256, 243]
00000000: efb5 073d ab82 04bd a0fe 15bc 58e5 4fbe
00000010: e84d 9bbc 6a8b 163d 2e2c 70bd 4825 c13c
00000020: 259d 27b9 8888 cabc ceca dfbc 53a3 533e
00000030: a2fc 0c3e 0e21 b23d d9ac dabd 1d23 fa3d
00000040: c350 b03c f3a8 0a3d 474c 6b3d 9fcd 0b3a
00000050: 77ee b23c 8d6f 363d 9364 d2bc 364b 26be
00000060: c461 543d b162 063e 2540 ff3d 13f6 903c
00000070: 53fc 933d 7d35 6a3d 7deb 14be 262d afbd
00000080: bee1 2bbd 0237 8bbc a3bf 57bd d678 4dbd
00000090: b55f 843d 349a 223d 5c83 b83b a3a0 c53d
000000a0: 960d 80bd e4aa a23d 9fa7 36bd 3ec9 0abd
000000b0: 3e70 3ebe ca55 1d3e d40e 42bd 47bc 093d
000000c0: 7bcb 433b 980c 0c3e 6d00 8cba cdd7 223c
000000d0: 2626 6e3d 0fc0 d3bd cfa1 853e f346 90bd
000000e0: b0bc 11bd 3774 c43c c7ed 6bbd 29b6 8abc
000000f0: 643d 31be 2c02 17ba 5a88 953c faa7 ccbd
00000100: 57f4 043e a4ed 27be 84ee 65bc ddbe bf3c
00000110: 1983 ea3c 6798 cebd 535c 51bd accd 303c
00000120: 84fa 0cbc d523 dc3c 93ba 6ebd 5225 7f3d
00000130: 05c9 09be a4b8 80bd 8630 703d 7fb2 d43d
00000140: acd5 6dbd 7d5a 8b3d a979 743d 7adc 04be
00000150: fd86 15be 804d 863e 868b cb3c 12f5 6b3d
00000160: 9d2b 23bd 2fc1 043e e2ad ccbc 50a8 69bd
00000170: 4838 83bd 6bee 27be d082 a83d 3cd9 813b
00000180: 474a 883d 3660 603c 7c62 d0bd 1c08 41be
00000190: 0ab7 9bbc 3c62 d53d e00c 923b f862 30be
000001a0: 7cd9 883d 3549 cb3c f944 9cbd 8b74 5abd
000001b0: 7a53 91bc 1978 f1bd f1bb 693c b393 57bd
000001c0: ec0b 3fbd 0027 ea3c 76df 453d 2fb1 d1bd
000001d0: 479e 0abc d5ad 7fbc 15b7 eb3d bed5 99bd
000001e0: 8361 23bd c749 68bc b09c cabd 2c7d 99bb
000001f0: eb99 bfbc 32c0 ffbd 6192 803d dd93 2fbd
00000200: 23a1 4fbb 7e4e d23d acc3 013e d550 f7bd
00000210: 1b80 4ebd c2ac 6a3d 515b 433e 0a6a 773d
00000220: 91d4 9d3c 1e58 9dbd 79ae 093d 7d51 77bd
00000230: d86f 21bd dda1 dcbb d62c cc3d 6025 96bd
00000240: 2216 893d bfbf 0ebd 6385 633c a910 913c
00000250: 0304 05bd e093 a33d a20b e3bd 1199 913d
00000260: 6403 08be ff23 aa3c 1063 39be ed56 113d
00000270: adb5 a9bd 6d85 2cbd c508 ce3d d424 c53d
00000280: 7f67 943d 544d 583d 64fc 82bd f72d 093e
00000290: 762d 633c 95d7 923d 4762 aabb 93b5 c73c
000002a0: 911f 8f3c c983 d6bd 0a7f 123d 9825 bd3d
000002b0: 3af7 553b c2cd edbc 3f85 88bd b1d9 2c3c
000002c0: 4c3e d3bd 205f 053d ee32 32bc a7f0 7e3d
000002d0: 6205 173c 708a 373d 4c5d 33bd d038 8ebb
000002e0: 6c13 433d 6a6f 1a3d ff0a d2bc 4a50 6dbc
000002f0: 5989 d5bd 28b5 1fbe 2e61 0a3d 4d1d c63d
00000300: c6fc ba3d 9448 5ebd 4f60 78bc 27c7 b93c
00000310: 12ee e13d 4981 2c3d 77bf 993d 90c9 993d
00000320: 355b 9b3c 53a4 f63d 9970 6b3c 328e a33c
00000330: 4125 73bc f041 4ebe 16ff a1bd 58f4 43bd
00000340: 9d94 b6bd 983a 4d3d ea04 fabd 137e e4ba
00000350: 4254 e7bd 54c1 4fbd 261c 96bb 4c19 81bd
00000360: 1d7c 6f3d 35f4 01bd 5628 febc 9ce3 21bd
00000370: 26cf 1ebe 7345 a6bd 72dc 95bd a8a7 a9bd
00000380: 5b7f 1c3d 86ad 2d3c 2ab4 43bc dece 02be
00000390: 1fd5 293c 99cc 7cbc 55ff 5b3d 5df7 543c
000003a0: 7466 143c 5082 d4bd 11c9 503e 316f 3abe
000003b0: 9594 12bd d820 06be 95f5 d8bd 0f82 47bb
000003c0: 83e1 25bd e576 5abd 4152 12be 2cb6 0f3d
000003d0: c6de 9f3d 501c 0f3c eebc d53d e2ef f83c
000003e0: 341f aa3c 0a26 19bc 9300 67bd 389e d63d
000003f0: 7be2 15bd 231f 77bd 556a 05be ed31 6a3d
0.03313249 -0.032351177 -0.009154946 -0.20302331 -0.018958047 0.03675405 -0.058635883 0.023577347
-0.00015984902 -0.024723306 -0.027318384 0.20667772 0.13768247 0.08697711 -0.10677499 0.122137286
0.021522885 0.03385253 0.05744579 0.0005333069 0.021842225 0.044539977 -0.025682723 -0.16239628
0.05185105 0.13123585 0.124634065 0.017695462 0.072258614 0.057179917 -0.14542957 -0.08553533
-0.04196333 -0.016994003 -0.052672993 -0.050164066 0.06463567 0.03969784 0.0056308936 0.0964978
-0.06252591 0.07942751 -0.04459345 -0.033883326 -0.18597504 0.15364757 -0.047377422 0.03362682
0.0029875922 0.13676679 -0.0010681279 0.009939146 0.05814185 -0.10339367 0.26100013 -0.070447825
-0.035580337 0.023981197 -0.05759981 -0.016932564 -0.17308575 -0.00057605165 0.018253494 -0.099929765
0.12983833 -0.16399246 -0.014033917 0.02340644 0.028626965 -0.10087662 -0.051113438 0.0107912235
-0.008604649 0.026872555 -0.0582834 0.06229145 -0.13455589 -0.062852174 0.058640026 0.10385608
-0.0580651 0.06804369 0.059686337 -0.1297473 -0.14602275 0.26231003 0.024846803 0.057606764
-0.039836515 0.12964319 -0.024985258 -0.05704528 -0.06407219 -0.16399543 0.082280755 0.003962664
0.06654792 0.0136948135 -0.101750344 -0.1885075 -0.019008178 0.10419127 0.004457101 -0.17225254
0.06682107 0.024815181 -0.07630343 -0.0533338 -0.01774 -0.11790485 0.014266 -0.05263109
-0.04664223 0.02858305 0.048308812 -0.10238873 -0.008460588 -0.01560541 0.115095295 -0.07511471
-0.039887916 -0.014177746 -0.09893167 -0.004684111 -0.023388823 -0.1248783 0.062779196 -0.042865623
-0.0031681738 0.102688774 0.12672299 -0.12075964 -0.05041514 0.05729366 0.19077803 0.06040386
0.019266399 -0.07682823 0.033613656 -0.060380448 -0.039413303 -0.006733163 0.09969489 -0.073313475
0.066936746 -0.034850832 0.013886782 0.01770814 -0.03247453 0.07987189 -0.11086203 0.07109273
-0.13282543 0.020769117 -0.18104196 0.03548329 -0.08286605 -0.042119432 0.100602664 0.09626165
0.07246303 0.05280812 -0.06395796 0.1339644 0.013865819 0.07170025 -0.005199704 0.024378574
0.017471107 -0.10474355 0.035765685 0.09235686 0.003264858 -0.029028777 -0.0666604 0.010549949
-0.103146166 0.03256142 -0.0108764 0.062241223 0.009217592 0.04480976 -0.043790147 -0.0043402687
0.047625944 0.03770391 -0.025640009 -0.014484474 -0.104265876 -0.1559645 0.033784084 0.096735574
0.09130244 -0.054268435 -0.0151596805 0.022677971 0.110317364 0.042115483 0.07507222 0.07509148
0.01896439 0.12043061 0.014370107 0.019965265 -0.014840425 -0.2014234 -0.07909982 -0.047840446
-0.089150645 0.050104707 -0.122079685 -0.0017432593 -0.11295368 -0.05072148 -0.0045809923 -0.06303653
0.058467973 -0.031727035 -0.031025093 -0.039523706 -0.15508708 -0.08118715 -0.07317437 -0.08283931
0.038207393 0.010600453 -0.01194481 -0.12774226 0.010365753 -0.015429639 0.0537103 0.012998429
0.00905763 -0.10376418 0.20389201 -0.18206479 -0.03578623 -0.13098466 -0.10593716 -0.0030442511
-0.040498268 -0.053336043 -0.1428919 0.035085842 0.078061625 0.008734778 0.10436426 0.030387823
0.020766832 -0.009347448 -0.056397032 0.104793966 -0.03659294 -0.06033243 -0.13028844 0.05717652

network_body._body_endoder.seq_layers.0.bias f4 [256]
00000000: ae8a a33b d671 9dba 2b46 6ebc 95e6 ca3d
00000010: dee9 3b3b 2c6e 8b3c d947 0a3d 9af1 22ba
00000020: 2053 2dbc 3c1d afbc 953d a13c 144c b73c
00000030: 8fbc a03c 1243 8bbc 7253 533d 2f87 113d
00000040: 9a2b 303c cd5b 3c3d ff42 09bc 7596 6a3c
00000050: 82fc 5d3c bd7f 013d 6845 743c 3291 df3d
00000060: f358 56bc 4750 733d 439b ab3c 74b4 023d
00000070: db19 a1bc f249 103d 0439 2e3d 306b dd3b
00000080: ea41 36bc a2a2 f63c 42d7 23bb d58d 323d
00000090: 5a33 273d 76fe 6f3c 7ce2 243d 2d36 cd3c
000000a0: a5c2 6f3c e5b1 313c 1e58 7c3d 6d60 0a3b
000000b0: 81f0 39bc b5c7 0bbc dda9 183d 1ce8 f13c
000000c0: 057f 5d3d 0f15 9cbb ff63 4f3c 8393 64bb
000000d0: 026d 653d 17f4 ecbb 0516 253c 2dec 0c3c
000000e0: 3c59 673d 0b43 313d 12ca 0e3d bbb5 a63d
000000f0: 42ed 123d 4ff7 b83d 31f0 833c 6790 423b
00000100: f900 163d e030 d13d 5b64 463c 2190 40bc
00000110: bd8b 843d baeb a8bc 0fca dc3c 2c10 653c
00000120: ca3c f73c 673d acbc eb76 823d 23ef f63d
00000130: 79c6 673c b009 063d 5c5d 983c de98 1a3d
00000140: f14d 52bc 1c9f 003d 672f 1cbc 805d 673b
00000150: c40d b83c 4bf4 cb3c 82ea a93d 49e3 383d
00000160: ec10 e93d b5b2 053c 7317 aa3c 0c80 a43c
00000170: d108 24bb c17a 113d 671c af3d f619 933d
00000180: 2bce de3c 765a b13c 1ca3 83bc c181 203c
00000190: e989 583d d8ca 343d 1727 963c 816f 723d
000001a0: e574 2f3c 0390 123c d6a3 863c ff1e 3e3d
000001b0: 13a9 cdbc 043c 44bc 360e 8c3d e33e e13c
000001c0: 8829 1c3d a6f4 2b3d d232 793d f84c 223d
000001d0: c738 c3bc 9f7a 8d3c 414c 5c3d 3da6 fd3c
000001e0: b276 813d 3911 b43c 7c18 2a3b eac3 873d
000001f0: cdae 03bc a2ea 06bb 0009 ea3c c2c5 f03c
00000200: caf7 cc3c b759 273d 07ca 833d 1688 1f3d
00000210: 024d 433d 3ef0 313d d3f3 0f3c 3226 f63c
00000220: 89d9 863d 7969 873d dbf0 103d 01b1 0c3d
00000230: 9fc9 9f3d 4b73 b23a d669 b13b 9263 acbc
00000240: 7d44 ab3c c8ee 6c3d ac48 a53d 8707 af3d
00000250: 666a 183d 690e 643d c04e 3a3d 3dbf 5c3d
00000260: fc1b 72bb 0f44 f73c cc7a 923d 6024 f63c
00000270: 1d0c 0b3d f079 24bd 064e 9a3c 7318 603c
00000280: 297e 253d 7ad5 e4bc 7d1d 0abd e18c 083d
00000290: 24a2 113d 57c8 d4bc 710d e03b 89f7 013d
000002a0: f86f 933c d781 0a3d e1e1 eebc 253e 5b3d
000002b0: d0c0 f13c e006 1c3c 25ca 3fbc c800 9e3d
000002c0: 2f00 1d3d 2b16 ed3c e027 4e3d 7602 033d
000002d0: d841 953d 7e38 c03d d562 56bd 996b a13d
000002e0: 3904 5fbc 6145 e13c d138 3b3c bfd0 513a
000002f0: b62b f43b 92ef 6e3d db76 d53d 73d0 2b3c
00000300: b68e 053d d417 683d eb8a b2bb 896d 0c3d
00000310: 2007 3e3c 9ef7 243d 5d15 553c 9e9e a03c
00000320: 62b1 af3c e60a d33c 82e6 143c a86d 8b3d
00000330: a5a5 233d 6a1b 033d b801 9b3b a788 9f3c
00000340: a78c 083d 5543 9a3c 57cc f13c 64bc 603c
00000350: 2d48 9abc 050e f43c 42c8 893c 6727 033d
00000360: 9290 363d 2f1f 483d c694 a63d a91e 973c
00000370: 399b e8bc 506d 243d dcd1 b33b 0b9d 2d3d
00000380: a732 5e3d ba9d 81bc 68e5 fcbc 44c1 2f3d
00000390: 7920 c13c d149 093d b9b3 3ebd 5d04 783c
000003a0: 38ff 483d cc79 503d ed7a 98bb 4d32 b73c
000003b0: 379d be3b f07b 923d af7b 653d d7c6 503d
000003c0: e4ab 3abc b3f6 413d fcb9 4abc fabf 833d
000003d0: f951 403d ff6c 283d 86ac 433d 2689 a73d
000003e0: 5680 9d3d 7605 a53b 6fdf 36bb 5abc 8cbb
000003f0: 56e1 14bd 8960 b73d c38e 293d 3c45 1bbd
0.004990897 -0.0012012075 -0.014543097 0.09907261 0.0028673331 0.017020307 0.033759926 -0.0006215811
-0.010578901 -0.021376245 0.019682685 0.022375144 0.019621162 -0.016999755 0.05159325 0.03552931
0.010752583 0.045985986 -0.0083777895 0.014318098 0.013548972 0.03161596 0.014909126 0.10916366
-0.013082731 0.05940273 0.020948058 0.031910375 -0.01966565 0.03522677 0.042534843 0.0067571625
-0.011124114 0.030106846 -0.002500013 0.043592293 0.040820457 0.014648071 0.040255055 0.025050247
0.014633809 0.010845636 0.061607473 0.0021114603 -0.0113488445 -0.008531501 0.03727137 0.029529624
0.054076213 -0.0047632526 0.012658118 -0.0034877963 0.05601216 -0.007231246 0.010076051 0.008601231
0.056481585 0.043276828 0.034860678 0.08140131 0.035870798 0.09031545 0.016105743 0.0029688121
0.03662202 0.102144 0.012108888 -0.011753113 0.064719655 -0.020620216 0.026951818 0.013980906
0.030180354 -0.021025373 0.06370338 0.120573305 0.014146441 0.032724082 0.018599205 0.03774344
-0.0128359655 0.03140174 -0.009532786 0.0035303533 0.022467501 0.024896761 0.08296682 0.04513863
0.11380181 0.008160283 0.020763135 0.020080589 -0.002502967 0.035517458 0.08550339 0.07182686
0.027197918 0.02164958 -0.016068988 0.009796561 0.052865896 0.04413876 0.018329186 0.05918837
0.010709022 0.008945468 0.016435545 0.04641628 -0.025105035 -0.011977199 0.06838648 0.027495807
0.038125545 0.04198136 0.06083948 0.039624184 -0.023830784 0.017270384 0.05378366 0.030963058
0.063214675 0.021980869 0.0025954535 0.066291645 -0.008037281 -0.002058663 0.028568745 0.029391173
0.025020499 0.040857043 0.06435018 0.03894814 0.047680862 0.043442003 0.00878616 0.03004751
0.0658446 0.06611914 0.035385948 0.03434849 0.07802128 0.0013614682 0.005414228 -0.021043573
0.020906681 0.057844907 0.08070502 0.085463576 0.037210844 0.055677805 0.045485258 0.053893317
-0.003694295 0.03018382 0.07152328 0.030046642 0.0339471 -0.04015535 0.018836033 0.013677704
0.04040352 -0.027933825 -0.03371953 0.033337478 0.03555502 -0.025974436 0.00683754 0.03173021
0.017997727 0.03381523 -0.029160442 0.053526063 0.029510885 0.0095231235 -0.01170591 0.07714993
0.038330253 0.028941235 0.050330997 0.03198477 0.07287949 0.09385775 -0.052340347 0.07881851
-0.013611847 0.027498903 0.01142712 0.0008003823 0.0074515 0.05833394 0.104230605 0.01048671
0.032606803 0.05666335 -0.005448689 0.03428415 0.011598378 0.04027521 0.013005582 0.019606885
0.021446887 0.025762033 0.0090881605 0.06808025 0.039952893 0.032008566 0.0047304295 0.01947434
0.03333726 0.018830935 0.029516382 0.013716791 -0.018833244 0.029791841 0.016819123 0.03202
0.044571467 0.048857864 0.08133845 0.018447237 -0.028394328 0.04014331 0.0054876637 0.042386096
0.054247525 -0.01582228 -0.030871108 0.04290892 0.023575054 0.033517662 -0.046558116 0.015137759
0.04907152 0.050897405 -0.004653326 0.022362852 0.0058170813 0.071525455 0.056026157 0.05097088
-0.011393521 0.04735441 -0.012373444 0.06433101 0.046953175 0.04111957 0.047771953 0.08180456
0.07690494 0.0050360514 -0.0027904173 -0.004294914 -0.03634771 0.089539595 0.041395914 -0.037907824

network_body._body_endoder.seq_layers.2.weight f4 [256, 256]
00000000: 22ff 1c3d 9ccd 993d 74ff e4bd f833 a23d
00000010: 19f5 67bc 1bdf 44be ba7a 733d db91 fdbd
00000020: 31d2 fd3c 2525 37bd 1380 7d3c 2a5f 3c3d
00000030: 64a8 d7bd 7d51 e5bc 61b5 05bd 5075 4b3e
00000040: 8bed d1bd 797f 0a3e fa3b 3dbb 2ac5 873d
00000050: ea85 2fbd 7279 0c3d 9034 9bbd 9df9 a73d
00000060: 4995 89bd e672 cd3c b7c2 efbb 13ba 9f3c
00000070: 1432 cebd 4745 7fbc 57b5 093d ed53 7f3d
00000080: 0bdf cabd 4221 3cbc c06f b03d 96f1 00bd
00000090: 86da 06bd 2f85 543e 54d0 0bbd 6388 07bd
000000a0: 1c5e 99bd 8b1c 753d 6823 483e 869a b33d
000000b0: 25ff eabd bd5c 4cbb 7aeb 8e3c ad2b 39be
000000c0: 6952 b8bd 7ad9 7dbd 1fd6 f8bc 8f90 4b3d
000000d0: 3121 403d 7547 073d fe85 c63d b026 a93c
000000e0: e7be 173e 8f65 11bd 8ab6 a8bc bb88 f73d
000000f0: dc36 99bc f358 d1bd fa21 bd3d 422c 81bd
00000100: 9aff 96bd 7533 f63d 59b9 2abd 3e1a acbd
00000110: 3d15 923d 5e06 55be 9d06 b53d 5c34 a13d
00000120: 8b3d 913d 075f ae3c 9e87 1dbd dcaa b1bc
00000130: 506b 3b3d 797d d13b 2352 13be 608a 833d
00000140: 2440 a43d e7cc c93d b626 a4bd 9ecd ab3d
00000150: e054 c23b dea6 d6bd 1620 9f3b 830d ce3d
00000160: 91b9 2cbe 869b d93d 0a9e 8f3d 8d95 7abd
00000170: f878 76bd 7f85 963d 2c9d 60bd 55c4 b43d
00000180: 7e82 dc3c ef8f c4bc e8f1 67bc 2987 d4bd
00000190: 934e 853c 063c 55be 85e1 1a3d d6ce e23d
000001a0: c54b 913d 108b f3bc 0d68 8c3d fba0 8c3d
000001b0: 9e1c 823d a094 06be a7e2 f5bb 0125 dd3c
000001c0: 20b2 dcbd 1210 d2bd 36f8 f0bd 6bce 28be
000001d0: dfaa a13c 02a4 f7bd 83c2 b7bd 99da cb3d
000001e0: 449c e73d e768 aa3d b893 f33c 5214 023e
000001f0: 0aa3 803d 53d3 a1bd 6844 e9b8 6dcb c83d
00000200: 3826 53bd 8cee a7bc f902 7e3d 36ed 1ebe
00000210: d5cd eb3d 1123 e0bc 3843 223d 0c1a 083d
00000220: 5df3 73bd 78b8 e43c 676c 203b d440 003e
00000230: 134e 0f3c 27ab 1c3d a89a 41be 8e6b 6bbd
00000240: fd94 edbc 6202 88bd 4b10 cf3b 65e5 83bc
00000250: 9ec5 0cbe e5a1 aa3c f51a b23d 84ea 11bd
00000260: fcf9 9b3b 5dcd 88bd 5640 3a3e 5814 c03d
00000270: fa19 44bd 9d68 bcbc 6e05 4b3b 9ffe 3ebd
00000280: 4bb1 8f3c 87b2 2c3c 8bd7 e3ba 68ad 813d
00000290: 467d 4e3d 5f24 83bd b515 9b3d b94f b2bd
000002a0: fe90 c03d 5ba8 20bd 7a2f 913d 2f44 273d
000002b0: 5d49 9ebb e269 233d e33f 8a3d 076f 613d
000002c0: 25e1 91bd 2249 32bd 0877 ce3d ac77 34be
000002d0: d054 d73b 500e 07bd 92f8 4abd 4fb3 1e3e
000002e0: abc3 443c 5ee9 b43c 5257 423e a4da c43d
000002f0: bd2c c43d 0c91 e23d 9e4c a3bd fb02 4a3e
00000300: a900 633d 6a77 dc3d 27fa f03b 8e21 c2bd
00000310: b4c2 9d3c 3464 e63d 9e12 55bc 0329 69bd
00000320: b2c2 e13d 1685 0bbd 5e02 ddbc 6f0a 2a3e
00000330: ba5d a73d 1e13 3ebd c7f3 39bd 6ec1 bc3d
00000340: 7ca5 303d 7bf7 9f3d 91f2 f9bd 571b 4abd
00000350: 9def 58bb d6b0 80bc 1c5d 173d 7520 553d
00000360: 2eda 10bc f639 ac3d 67d8 bb3a c050 62bd
00000370: a075 e2bd cd63 5fbd 0212 13be 1964 81bc
00000380: 81e5 c3bd 8664 9cbd 0fae c73c cc52 fd3d
00000390: 8bee 8fbc a55b a33c 545c 92bd 435d 0c3d
000003a0: 4d74 d73d ec3c 803e 0422 eebc 3b97 1cbc
000003b0: aa14 423d 70d4 24be 7d2d 5dbd f384 303e
000003c0: b09e ff3a ff30 47bd cb9a 213d 3eee 3b3d
000003d0: bf7e 593d b841 b4bc f16c a53d f3b8 a83d
000003e0: e683 c43d ebee 2ebd 7a77 e5bd 5f31 91bd
000003f0: 9157 c9bd dd56 b1bd 9533 ce3d a846 faba
0.03832925 0.0750992 -0.11181536 0.079200685 -0.014157557 -0.19225733 0.059443213 -0.12381335
0.030984016 -0.04471316 0.01547243 0.045989193 -0.10530165 -0.027992958 -0.03264368 0.1986897
-0.10250386 0.1352519 -0.002887486 0.06629403 -0.04285232 0.034295507 -0.07578385 0.08201907
-0.06717927 0.025079202 -0.007316913 0.019497907 -0.100681454 -0.015580482 0.033620205 0.062335897
-0.09905823 -0.011482539 0.086150646 -0.031480394 -0.032923244 0.2075393 -0.034134224 -0.033089053
-0.07488653 0.059841674 0.19544756 0.087697074 -0.11474446 -0.0031183206 0.017446268 -0.18083067
-0.090000935 -0.06197498 -0.030375538 0.04969841 0.046906654 0.03302713 0.09693526 0.02064833
0.14818917 -0.035497244 -0.020594854 0.12086626 -0.018702917 -0.10222044 0.09234996 -0.0630727
-0.07372971 0.120215334 -0.041680668 -0.08403443 0.07132957 -0.2080321 0.08839152 0.07871315
0.070918165 0.021285547 -0.038459413 -0.021687917 0.045756638 0.0063931313 -0.14386801 0.06422877
0.08020046 0.09853535 -0.08015196 0.08388828 0.005930528 -0.10481046 0.00485612 0.10061171
-0.16867663 0.10625367 0.070125654 -0.06117778 -0.06017396 0.07349681 -0.05483739 0.0882651
0.026917692 -0.023994414 -0.014156796 -0.10377342 0.016272819 -0.20823678 0.03781273 0.11074607
0.0709453 -0.029729396 0.068557836 0.06866642 0.063531145 -0.13142633 -0.0075038257 0.026995184
-0.10776162 -0.102569714 -0.117660925 -0.16484992 0.019734798 -0.12091829 -0.08972647 0.099538036
0.11309102 0.0832079 0.029733524 0.12703064 0.06281097 -0.07901635 -0.000111230474 0.098044254
-0.05155012 -0.02049949 0.062014554 -0.15520176 0.11513869 -0.027360471 0.039614886 0.033227965
-0.05955826 0.027919993 0.0024478675 0.1252473 0.008746642 0.03824916 -0.18906653 -0.05747562
-0.029001707 -0.066410795 0.006319081 -0.016100595 -0.1374726 0.02082915 0.08696548 -0.035624042
0.004760025 -0.06679795 0.18188605 0.0937888 -0.047876336 -0.022999102 0.0030978578 -0.046629544
0.017540595 0.010540611 -0.0017382962 0.06331903 0.05041244 -0.064034216 0.075725 -0.08706612
0.09402655 -0.039223056 0.070891336 0.04083651 -0.004830523 0.0398959 0.06750467 0.055037525
-0.07123021 -0.043526776 0.10081297 -0.17623776 0.0065713897 -0.032972634 -0.04955346 0.15498088
0.0120095415 0.022083934 0.18978623 0.09612015 0.09578846 0.11062822 -0.07973598 0.197277
0.05542055 0.10764964 0.0073540392 -0.09479056 0.01925788 0.11249581 -0.013004927 -0.056923877
0.11023463 -0.034062468 -0.026978668 0.16605543 0.08172174 -0.04640495 -0.0453985 0.09216581
0.04312657 0.07810875 -0.12204469 -0.04934248 -0.0033101805 -0.015709322 0.03695403 0.052032907
-0.008841081 0.08409493 0.0014331461 -0.05525279 -0.110575914 -0.054538537 -0.14362338 -0.0157948
-0.09565259 -0.07636361 0.02437499 0.12369308 -0.0175698 0.01994116 -0.071465164 0.03426863
0.105202295 0.2504648 -0.029068954 -0.0095575405 0.047382988 -0.16096663 -0.05399846 0.17238216
0.0019502249 -0.04863071 0.039454263 0.045881502 0.05309939 -0.022003993 0.080774195 0.08238401
0.0959547 -0.04270832 -0.11204429 -0.07089495 -0.09831155 -0.08659146 0.10068432 -0.0019094544

network_body._body_endoder.seq_layers.2.bias f4 [256]
00000000: 6d4f 373d ee7d a93c da5b 1e3d 9228 7d3c
00000010: 9245 2c3d 55ca c63b fd12 a13c 86d2 f73c
00000020: bc81 2dbc 7abb 073d 591b 033d 02e0 123d
00000030: 03f3 903c 9aaa ccbb c7f9 33bb 6eea 263d
00000040: 0e01 fd3c e9ec e53c e152 e43c 3f9a 943c
00000050: e239 1f3d 6a2f 923c 06b0 26bd 425c ae3c
00000060: c445 793c c8b1 b43c 7b54 ac3c 2313 a4bc
00000070: 3b53 753c 06cf 9fbc c383 00bd ccd6 663d
00000080: 0f96 c93c abe5 4a3d 6ee2 cf3b 4c7d e0bc
00000090: dee9 d73c c87d abbc fb86 2a3c 3916 b1bb
000000a0: 9ef9 1b3d 8a46 b53b 93ef 2c3d da6e 493d
000000b0: dd54 7b3d c33a 06bc 53ab e03a dc54 2e3d
000000c0: 4851 623d a811 1e3c 8587 1b3c 66fe 2b3d
000000d0: ca38 353d 31bd 02bc 0f09 563d 03cc 18bc
000000e0: c379 5f3d 002f ab3c 6620 623d a02c 0b3d
000000f0: 449f 2ebc de2f 2c3c d8de 033d 81c7 183d
00000100: 6df6 85bc 4fee 16bc 5eef a73a e6fd e73c
00000110: beaa 5a3b f186 2e3d a411 ccb9 e2e3 09bc
00000120: f62c 0cbc 6d17 dd3c 5ed7 75bc b127 963b
00000130: 1968 183d 7e13 d539 97dd eabb 5681 aabc
00000140: ec69 bd3b 63c9 6fbc 8cab a63c 5649 be3c
00000150: 40bb ae3b a0a3 6d3d 77d2 b03b 8fbd 8c3c
00000160: 8a31 623c af79 9abc 2ace a03c 3dcf 26bc
00000170: cc43 233c 9e92 113d 0401 1a3c f6f9 d53c
00000180: 7a35 babc f530 d6bc f7b6 aa3c f14e 7d3c
00000190: 84d2 c5bc e140 273b e2cc 023d 83c4 8cbb
000001a0: da34 ab3c ec55 b2bc 607c 43bb de64 bcbc
000001b0: 5b06 fc3b 0429 053c c7bd 013d d0e2 173c
000001c0: 8c0d ca3b ef4a a73c a4ef c83b 956a 8f3b
000001d0: 46d5 843a add9 7c3d f732 9e3d 9701 29bc
000001e0: 66b4 7cbc f3ff 8e3c ecc9 e63b 8503 fdbc
000001f0: 91e3 fa3c 8d9a 5fbc c409 0e3d 431c 28bc
00000200: 11b2 543d 0749 0c3c d1e2 223d e7ec 8e3a
00000210: 2b3b c8bc 16d0 853b 1566 003d cf99 7d3c
00000220: 8dc3 463d 9ba0 113c 4f82 e538 81e3 0f3c
00000230: 8af6 df3c 4c37 abbc b697 fbbc 9c2a d73c
00000240: f4b6 09bc 4203 a3bc 3dbf b03c be88 84ba
00000250: c9b5 2e3d c0a5 403d e990 14bd 2327 203c
00000260: 4c7a 243d ff89 eb3c 3ac1 4f3c 7d5b 99bc
00000270: 5ac4 ca3c 9107 e23b c308 0f3d 65c8 05bc
00000280: e62a 51bc 985a bd3c 169f 57bb 3eb9 e43c
00000290: 99f3 a3bb 5456 a53b a5bc 563b 2121 e03c
000002a0: 4791 433d 0b71 54bc 2e36 0c3d 6307 e83c
000002b0: 404f 023d 12bf ed3c 2992 2cbc ea44 fb3c
000002c0: 6994 863c 0fb8 31bc 26b4 043d c5bc 033d
000002d0: be8a ae3b 2b78 053d 2f59 683c 282d 1e3d
000002e0: 11c5 763d 3e9e 913c ceab e63a a01c febb
000002f0: b70d 3c3d d569 9cbc d189 953c 18a5 ed3c
00000300: 8442 253d c2e7 e7bc 7f4a 913d 366b 7c3c
00000310: 3eb1 033d fcf7 f1bc 4f72 a23c 237e a4bc
00000320: a40b 17bb 381e 7cbc 6df1 433d 194d 38bb
00000330: ff28 213d 3839 883c 0012 d83c 82a5 2f3c
00000340: 9e67 963d 25ad 19bc 9f12 58bc 3572 0a3d
00000350: bd66 2dbb c538 d33b bb16 1a3d b2bf 083c
00000360: 1f38 c73c 1041 5b3c d442 953c e1a8 853b
00000370: b8e3 5a3c 4934 0b3d 3fea 29bb 8a9c debc
00000380: a843 923c 7ee9 b93b 8d6d 8cbc ca9d 47bc
00000390: 8857 e0bb 1ec1 38bd bf92 a53b 7953 4fba
000003a0: 8e5d 5c3d 977a b53c 2c5b 1b3d 3c80 f13c
000003b0: 930b b8bb 1e31 4a3d 804a 7e3b 9e14 483b
000003c0: fed2 333c 61fe 3a3d 7a7c 01bb 6d0d aa3c
000003d0: 9564 093d ceb2 6bbc 8dfc 1b3c d110 963c
000003e0: 737e c2bc cb9c 00bc 0d66 88bc 1683 1a3d
000003f0: 6c81 4d3d db5c 3e3c 50e7 853b 2d80 3fbd
0.04475348 0.02068993 0.038661815 0.015451567 0.042058535 0.0060666003 0.019662375 0.030251753
-0.010590013 0.033137776 0.032008503 0.03585816 0.017694002 -0.006245923 -0.0027462111 0.040750913
0.030884292 0.02806707 0.027871551 0.018139957 0.03887356 0.017844874 -0.040695213 0.021284226
0.015214387 0.022057429 0.021036377 -0.020028656 0.014973457 -0.019507896 -0.031375658 0.05635719
0.024607686 0.049535435 0.006344131 -0.027403496 0.026356634 -0.020934 0.010408158 -0.0054042605
0.03807985 0.0055320906 0.042220663 0.049177982 0.06136023 -0.008192721 0.0017140902 0.042561397
0.055253297 0.009647764 0.00949276 0.04199066 0.04424361 -0.007979677 0.052254733 -0.009325984
0.05455948 0.020896435 0.05520668 0.033978105 -0.010658089 0.010509459 0.032194942 0.037299637
-0.016352857 -0.009212091 0.0012812426 0.02831931 0.003336593 0.04260916 -0.00038923055 -0.008416148
-0.008555641 0.02698871 -0.015004961 0.0045823683 0.03720865 0.0004064105 -0.007167529 -0.020813625
0.005780449 -0.014635417 0.020345472 0.023228329 0.0053323805 0.058017373 0.005396183 0.017180232
0.013805756 -0.018856851 0.019629557 -0.010181245 0.0099648945 0.035540216 0.009399656 0.026120167
-0.022730578 -0.026146391 0.020839198 0.015460716 -0.024148233 0.0025520849 0.031933673 -0.004295887
0.020899225 -0.021769486 -0.0029828772 -0.022997316 0.0076911873 0.008127455 0.031675126 0.009270385
0.0061661657 0.020421473 0.006132083 0.0043767192 0.0010134361 0.06173103 0.077245645 -0.01031532
-0.01542387 0.01745603 0.007043114 -0.030885467 0.03062609 -0.013647688 0.034677282 -0.010260644
0.05192763 0.008562333 0.03976709 0.0010904343 -0.024442276 0.0040836437 0.031347353 0.015478565
0.048526336 0.008888389 0.00010943843 0.0087822685 0.027339239 -0.020900391 -0.03071199 0.026265435
-0.008405436 -0.019899014 0.021575565 -0.0010111553 0.042653833 0.04703307 -0.03627101 0.009774956
0.040155694 0.028752325 0.012680346 -0.018720383 0.02475183 0.0068978746 0.034920465 -0.008165454
-0.012766575 0.023114488 -0.003290122 0.027920362 -0.0050034043 0.0050456915 0.003276625 0.027359547
0.04774597 -0.012966405 0.034231357 0.028323835 0.03181386 0.029021773 -0.010532894 0.03067251
0.01642819 -0.010847106 0.032398365 0.032162447 0.005326598 0.032585304 0.014181419 0.038617283
0.06024653 0.017775651 0.0017598809 -0.007754877 0.045911517 -0.019093433 0.018254193 0.029009387
0.040346637 -0.028308753 0.07094287 0.01540642 0.032151453 -0.029537193 0.019829897 -0.020079678
-0.002304771 -0.015388064 0.047837663 -0.0028122126 0.039345738 0.016628847 0.02637577 0.0107206125
0.07343982 -0.00937966 -0.013188033 0.033800323 -0.0026458942 0.0064459764 0.037619334 0.008346485
0.024318753 0.013382211 0.018220343 0.00407897 0.013359956 0.03398541 -0.0025926975 -0.027174253
0.017854527 0.0056735864 -0.017142082 -0.012183616 -0.006846372 -0.045106046 0.005052894 -0.0007908862
0.05380016 0.022153182 0.037928745 0.029480092 -0.005616614 0.049363248 0.003880173 0.0030529867
0.010975597 0.04565275 -0.0019758032 0.020758355 0.033543188 -0.014385892 0.009520662 0.018318566
-0.023741936 -0.007849882 -0.016650224 0.03772267 0.050172254 0.011618818 0.0040864125 -0.046753097

network_body._body_endoder.seq_layers.4.weight f4 [256, 256]
00000000: b598 023c 7cbe 3cbd 6e6a 0dbb a93d d03d
00000010: 8a43 da3c e090 153e 815c 58bd 89f8 9dbd
00000020: 3bd6 0bbd ebd6 9e3c fb82 9abd 85f0 453d
00000030: c0c8 c9bb f5d5 cfbc 1b85 903d 27c3 703d
00000040: ce1b 3fbc ac23 08bb 9537 94bc 16b9 5cbd
00000050: 20dd 6bbd f23e 8cbd 7e5f b43d 4218 27bc
00000060: a8f4 e1bb 2300 08be d735 d83c b224 cdbc
00000070: fbd7 aabd 2712 29bd e87e c83d 781c 01bd
00000080: 0150 603d 4518 10bd 415d 29bc 7bc7 6dbc
00000090: 0510 d73c 210a e2bc c20a 0c3e 688c 3fbc
000000a0: da71 193e aaa1 65bd f81e 493c 2e05 b53d
000000b0: 0307 9bbd 38f3 883d dbb6 99bd b62b 2a3d
000000c0: cc8f 33bd d265 513b ac49 2abd 58cd 3cbb
000000d0: df3c da3c 8919 abbd 85e6 df3d 3953 00bd
000000e0: 3c48 8bbd 9453 323d 4601 40bd 2718 bfbd
000000f0: 5dbb 433c c8f9 af3d f410 51bd 5cd9 183d
00000100: 364d a03d 2db3 9b3d 57d8 933c d8b2 6d3c
00000110: c539 713d 4f87 7c3d cb81 73bd 7c03 823d
00000120: 419a 0dbd 1c52 6e3b 8e81 10bd 3272 8abd
00000130: 0d08 b13c a2d2 85bd cf93 13bb 3db2 dbba
00000140: 3008 2f3b 9953 1dba d9fa 543d cf33 b2bd
00000150: a204 3bbd 2c70 ad3d cb1d f03d d033 9abd
00000160: 17c5 d83c d792 2b3e 79e5 693c 9f09 86bd
00000170: 86bc 503d 6f67 ddbd af41 793c e578 183e
00000180: 72d9 af39 0256 78bd efbb 1f3c 0406 82bd
00000190: b050 093d da5e 4f3c 0b81 4bbc 8def 923d
000001a0: c203 203d 5a36 dabc 15d9 efbc d533 03be
000001b0: aa86 cfbd 3732 923d 44e2 adbc b095 0b3e
000001c0: 8a3c 57bd 3ed4 e4bd 87a6 86bd b3ee 6cbd
000001d0: 7370 21be b49b 083b d9d7 523d 263c 1f3d
000001e0: c120 4138 303b f03a 69d8 383d 2d79 863d
000001f0: 374d b6bc 8add c73d 9d50 43bd a637 c4bc
00000200: d5f7 023d 2a10 e4bc 4bad d4bd 660c 2b3b
00000210: ac00 de3d 3049 abbc d639 1c3e c9c0 53bd
00000220: 8406 c23c 987d ac3d 433f 493d 609a 10bd
00000230: 246f 4bba 3c20 bdbd 8589 c33d a199 26be
00000240: 7af0 bfbd bfc5 8abb 2d3a 24bd 45be 25bd
00000250: 7eee 223d 25f9 483d 4914 82bd e037 2abc
00000260: d026 20be ebee 73bd a80d fb3d 5417 4abd
00000270: 69dd 043e a048 b63d 02fe e03d 6f6b 853d
00000280: 1fd7 f13d 6845 2b3c d361 f0bd 84e5 8abd
00000290: 71a5 43bd bfee fdbb 2d9d 3ebc a1ff 91bd
000002a0: a191 11bd e9a2 2f3d 7154 713d 70e5 41bc
000002b0: 0aaa 893c c668 e0bd 2b40 1bbd cbbc fcbd
000002c0: e588 423d ad2d 9dbc d4d1 95bd 1be4 af3d
000002d0: 9130 953d f345 513d b45e 4bbc 00aa 773d
000002e0: 7c4d fbbb 88aa 98bd 420a 46bd 6de8 173d
000002f0: c16b 653c 26a5 143e 3585 80bc 4623 f4bd
00000300: 8bf1 c53c 9f1b f4bd aea1 4ebc b882 29bd
00000310: c1db b13d fc8e 03bb 1e53 323e ea16 cdbc
00000320: 111a 15bd 0119 94bd f1d1 14bd decf d13c
00000330: bb8a 8cbc abab f5bc bf30 803c b274 6abe
00000340: f905 313c e9ec 4dbd c056 183c d890 453e
00000350: 57c6 523d 7442 16bd c01c 95bd 6818 14bd
00000360: 4d96 783b e86d 32bd 936f f0bd 0399 19be
00000370: dbc0 493e 9f0a ccbd 4b76 093d 8fa2 cbbc
00000380: fc5f 3abe 7915 42bd a4af ec3d 72e8 90bd
00000390: 8f4b 4c3d a7e4 7e3d 3b34 833d fd0d f73b
000003a0: 8f91 bd3b 35f8 acbc 46a8 7ebb e90a 42bc
000003b0: f276 783d 8d61 cc3d 19ea 9abc a2ad f3bc
000003c0: 85ad e83d c61a a9bd a659 a83d 837d 573d
000003d0: fcee 1e3d 028b 84bd f1e3 d2bc f955 73bc
000003e0: f11f 32bd 59da e33d 0146 bb3d a553 423d
000003f0: d2a3 02bd 492c 893d 6646 07bb b6a6 163c
0.0079709785 -0.046080098 -0.002157833 0.10168011 0.026643533 0.14606047 -0.052822594 -0.0771342
-0.034139853 0.01938959 -0.07544514 0.04832508 -0.0061579645 -0.025370577 0.07056638 0.05877986
-0.011664344 -0.0020773215 -0.01809291 -0.05388745 -0.057583928 -0.06847943 0.08807276 -0.010198655
-0.0068956204 -0.13281302 0.02639286 -0.025041912 -0.08341976 -0.041277077 0.097898304 -0.03152129
0.054763798 -0.035179395 -0.010337175 -0.014512892 0.026252756 -0.02759272 0.13675979 -0.01169119
0.14984837 -0.056062378 0.01227545 0.088388786 -0.07569697 0.06687015 -0.0750558 0.041545592
-0.043838307 0.0031951559 -0.041574165 -0.0028808918 0.026640354 -0.0835448 0.1093264 -0.031329367
-0.06800887 0.043536738 -0.046876214 -0.093307786 0.011946526 0.08592564 -0.05104156 0.037316665
0.07827227 0.076025344 0.018047495 0.014507972 0.058892984 0.061652478 -0.059449952 0.06348321
-0.034570936 0.003636486 -0.035279803 -0.06760062 0.021610284 -0.06534316 -0.002251852 -0.0016761493
0.002670776 -0.0006001532 0.05199704 -0.08701288 -0.045658715 0.08468661 0.117244326 -0.07529414
0.026461167 0.16755234 0.014275902 -0.06544804 0.05096104 -0.10810744 0.015213414 0.14889868
0.0003354061 -0.0606289 0.009749397 -0.06348804 0.033524215 0.012656892 -0.012420903 0.07174597
0.039066084 -0.026637245 -0.029278317 -0.12812741 -0.10133107 0.07138484 -0.021226056 0.1363132
-0.05254797 -0.111732945 -0.06574731 -0.05784483 -0.15765552 0.002084476 0.05147538 0.03887572
4.604529e-05 0.0018328186 0.04512826 0.06566081 -0.022253616 0.09759052 -0.0476843 -0.023952316
0.031974632 -0.027839739 -0.103846155 0.002609992 0.10839972 -0.020908922 0.15256438 -0.051697526
0.023684748 0.084223926 0.049132597 -0.035303473 -0.00077603967 -0.09234664 0.09547714 -0.16269542
-0.09372039 -0.004234999 -0.040094543 -0.04046466 0.039778225 0.049065728 -0.06351525 -0.010389298
-0.15639806 -0.05955402 0.12258464 -0.049338654 0.12975086 0.08900571 0.10985948 0.06514632
0.11808609 0.010453559 -0.117374085 -0.06782058 -0.0477652 -0.007749408 -0.011634153 -0.071288355
-0.035539273 0.042879973 0.05891842 -0.011834487 0.016804714 -0.10957484 -0.037902992 -0.12340697
0.047493834 -0.019186819 -0.07315412 0.085884295 0.07284654 0.0510921 -0.012412716 0.06046486
-0.007669149 -0.07454401 -0.048349626 0.037086893 0.014002741 0.14516124 -0.015688518 -0.119207904
0.024163028 -0.11919331 -0.01261179 -0.04138443 0.08684493 -0.002007424 0.17414519 -0.02503534
-0.036401812 -0.072313316 -0.03633303 0.025611814 -0.017155996 -0.029989084 0.015648244 -0.22896078
0.010804647 -0.050274763 0.009298027 0.19293535 0.051458683 -0.03668447 -0.07280874 -0.036156088
0.0037931383 -0.043561846 -0.11740031 -0.14999776 0.19702475 -0.09962963 0.03356008 -0.024857787
-0.18200678 -0.04738376 0.11556938 -0.070755854 0.049876746 0.06222978 0.064064465 0.0075395093
0.005785174 -0.021114448 -0.0038857623 -0.0118434215 0.06066031 0.09979544 -0.018910455 -0.02974588
0.11361221 -0.0825706 0.08220224 0.05260993 0.038802132 -0.06471826 -0.025743457 -0.01485204
-0.043487493 0.11125631 0.091442116 0.04744305 -0.031894512 0.066979 -0.0020641326 0.00919502

network_body._body_endoder.seq_layers.4.bias f4 [256]
00000000: 785b 9a3c ea68 233d 833b f43b 4e30 7d3c
00000010: ab27 9c3c d858 cf3c 7d4b 833d 4e57 4dbb
00000020: b477 b83c 71ca 4a3c 8695 fa3c d240 0e3d
00000030: 4657 353c 7dc1 53bb 3dfd 033d 56e2 5a3d
00000040: b460 2b3a c068 0f3d 6bc3 763c 8dce fb3c
00000050: adf5 8b3c 9fca 313c f46d a33c c0f1 083d
00000060: 92a4 1c3d 6b67 773c afc7 a13c 431c 883c
00000070: d19c 003d 8bd9 423d e274 773c 23f7 2b3d
00000080: c7c7 463d 96f6 283d c22b 3a3d 8aaa 903c
00000090: 05c6 b7bc 27df 193c dd82 cc3c 72a9 2c3c
000000a0: a28d 9a3c f7d9 4d3c 4441 cc3c 1300 133c
000000b0: 37ef 793d 257f 2c3d c102 533d 18e6 02bc
000000c0: f64b 0c3c db63 2f3a 80d0 bd3b 21cf 03bb
000000d0: f367 24bc 5960 333d 14a1 b73c 9138 273d
000000e0: 40cc fa3c 4781 de3c 35ef 0c3d 98ce dabb
000000f0: 6d42 283b b38c d6bc 980d 1bba 578e 8e3c
00000100: 492c 283d 97c1 1b3c eaef 893c 8ece 333d
00000110: cdfc af3b e05d 353c 60bf 7e3d 99a8 2d3c
00000120: 3a57 073b 92ea 553d e260 123d f4f8 393c
00000130: c537 5d3d 4e7b 613c c7d1 d23c b78d b33c
00000140: be55 99bb 4718 35bd 953f a53c 9afa 3d3d
00000150: 64ec 2fbd f757 4f3b 5429 0b3d 072f a8bc
00000160: 7c6d b33c 3666 81bb f656 643c f608 313d
00000170: ab6b 1f3c 891b 2a3c bac4 5a3a 6607 ee3c
00000180: 0f1e bd3c 7d75 dd3c 942e 1bbc 6e89 af3c
00000190: b164 a0bc fab5 273d 55a0 803c 5a90 553b
000001a0: abeb 303d 3d75 8e3d 8842 843c 269f ae3b
000001b0: 8fdd 383d 59f2 be3c 72d5 0a3d 6e78 1e3d
000001c0: a95e c53b 0a81 f73c b052 af3c 896c 8f3c
000001d0: efd6 fe3c 9e7f 0e3c f5f0 043d fd84 453c
000001e0: 8b1d 983c ebf7 133c 461d b13c a482 023d
000001f0: c30e 523c 161b 1c3d 3613 503b 0ce4 e83c
00000200: 8cc1 a53c 21b2 d23c 69ab 133d ce80 fc3b
00000210: 9ca8 653d c11e 193d a06a f03b f8fb 103c
00000220: c0b8 ad3c 7840 383d d69b d13c 74e7 6b3c
00000230: 9014 f93c 4ed0 e9bb fe1b f83c 83cc 813b
00000240: 3d23 cf3b 285d 8a3b fcf0 84b9 7be4 c03c
00000250: 3e6c 483d 8ac0 f73c e7f1 573d 1499 a33c
00000260: adc2 4b3c 6eb2 4b3d a603 c23c 62a1 2cba
00000270: e7e6 f13c b2c2 0c3d 2f31 f13a c1c1 3c3c
00000280: c21a fa3b 1735 1c3d 5850 a13c 8cb0 293a
00000290: 5489 a53c 1ba7 c43b eafe af3c 78b3 caba
000002a0: 3f41 f73c b2df eb3c 6cc6 3e3d 5f78 053d
000002b0: 2eeb 9e3c f334 9e3c daa4 9a3b 2cd0 c73c
000002c0: 1118 733d dd69 ce3c 96b5 5d3c ea2c 84bc
000002d0: 35c6 d8ba a4c1 063d 5d95 fbba 08d5 423d
000002e0: 56f5 bf3d e724 d63c e8be 0b3d 5b8c 2a3d
000002f0: d0bd 843c dc90 613d dc73 d43a e066 993c
00000300: 5e94 a23c a8ed a53c 2ae5 6f3b f33a 4d3c
00000310: 8253 ea3c 6ea8 ba3c 41da 90b9 0e9d 1dbc
00000320: 6b43 04bd 2c7f 903c b205 163d f9ad 1b3d
00000330: 9ea5 423c fc98 fb3c 953d 5e3d 4a2b 463b
00000340: df1a 683d 7162 29bb 57cc ce3c 2f41 043d
00000350: fed3 8c3d 5aec 073d 7d83 5d3c c84e 143d
00000360: 7a89 91bc 5fb2 af3c 4fa0 363d 9006 233c
00000370: fb57 f63c 217f 653b 5cf8 0d3d 332f 713b
00000380: 34e0 763c 5b50 373b 5d66 d63c 0e8c b33c
00000390: f83d 963b c125 c93c 749d 823c 1cd1 0fbc
000003a0: e4f6 d43c cd8d 78bc 7f2b ddbc a716 7dbb
000003b0: e4c2 623d 8dc0 103d 31b8 8d3c 8852 993c
000003c0: a659 1b3d 6ad3 733b 192d 813a d65a 253d
000003d0: 9479 5e3c 1367 153d 732d 8bbb b3a8 783c
000003e0: d4d4 073d 5a61 533c 6562 993c 8bb4 5b3d
000003f0: 454f 0c3d 6690 0c3c 8488 b1bb 0678 0e3d
0.018842444 0.039894976 0.0074533834 0.015453411 0.019061884 0.025310919 0.064108826 -0.0031332555
0.022518016 0.012377367 0.030588876 0.034729786 0.011068171 -0.0032311373 0.03222393 0.053438507
0.0006537542 0.035012007 0.01506124 0.03073814 0.01708492 0.010851531 0.01994989 0.033433676
0.038242884 0.01510034 0.019748537 0.016615039 0.03139955 0.047570746 0.015103551 0.041983735
0.048530366 0.041250788 0.045451887 0.017659444 -0.02243329 0.009391583 0.024964744 0.010538446
0.018866364 0.012564174 0.024933465 0.008972186 0.06101915 0.042113442 0.0515163 -0.007989429
0.008563032 0.00066906 0.0057926774 -0.0020112472 -0.010034549 0.043793056 0.022415675 0.04082543
0.030614972 0.027161254 0.034407813 -0.00667746 0.0025674358 -0.026190137 -0.00059148064 0.017401857
0.04105786 0.009506605 0.016838033 0.043898158 0.0053707124 0.011069745 0.06219423 0.010599279
0.0020651356 0.052225657 0.035736926 0.011350859 0.054008264 0.013762308 0.025734795 0.02191816
-0.0046794107 -0.044212606 0.02017192 0.04638157 -0.04295005 0.0031638124 0.03397496 -0.020530237
0.021902792 -0.003948952 0.013936749 0.043221436 0.00973026 0.010382541 0.00083453546 0.029056262
0.023085622 0.027033562 -0.009471554 0.021427836 -0.019579263 0.04094503 0.015701452 0.003258726
0.0431935 0.06955955 0.016145006 0.0053290306 0.04513317 0.02330892 0.033894964 0.03868907
0.0060232473 0.030212898 0.021401733 0.017507808 0.031108348 0.0086974185 0.032456357 0.012055633
0.018568775 0.009031276 0.021620404 0.03186287 0.012820902 0.03811177 0.0031749732 0.028429054
0.020233892 0.025719704 0.03605214 0.0077057844 0.056069 0.037382845 0.0073369294 0.0088491365
0.02120626 0.044983357 0.025587004 0.014398444 0.030405313 -0.0071354276 0.030286785 0.0039611473
0.0063213394 0.004222531 -0.0002535655 0.023546448 0.048931353 0.030243177 0.05272093 0.019970454
0.012436551 0.04973071 0.02368338 -0.0006585327 0.029529048 0.034365363 0.0018401499 0.011520804
0.0076325843 0.038136568 0.019691631 0.0006473146 0.020207085 0.006001366 0.021483857 -0.0015464863
0.030182479 0.02879319 0.04657595 0.032585498 0.019399252 0.019312358 0.004719359 0.024391256
0.059349123 0.025196964 0.013532063 -0.016134698 -0.0016538562 0.032899514 -0.0019194294 0.047566444
0.09372966 0.026140643 0.03411761 0.04163776 0.01620379 0.05506979 0.0016208845 0.018725812
0.019846138 0.020254925 0.0036605098 0.012526262 0.028604273 0.022785392 -0.00027628432 -0.009619964
-0.032290857 0.017638765 0.036626525 0.03800771 0.0118803065 0.030712597 0.054257948 0.0030238205
0.05666625 -0.002584603 0.025243921 0.032288726 0.06876372 0.033184387 0.013520119 0.036207944
-0.01776575 0.021447359 0.044586476 0.009950295 0.03007125 0.0035018402 0.034660682 0.0036801815
0.015068103 0.002797148 0.026171857 0.02191737 0.004585024 0.024554135 0.01594422 -0.008777883
0.025996633 -0.015170527 -0.02699828 -0.0038618238 0.055361643 0.03533988 0.017299743 0.018716112
0.037927292 0.003720487 0.0009855359 0.04036983 0.013578791 0.036475252 -0.0042473613 0.01517694
0.033161953 0.012901628 0.018723676 0.053638976 0.034255285 0.008579349 -0.0054178853 0.034782432

action_model._continuous_distribution.log_sigma f4 [1, 39]
00000000: 6418 45bf aa71 88bf 96fb 1ebf 5d38 04bf
00000010: a759 6fbf 4052 23bf 9e7b 03c0 5aa6 bfbf
00000020: 91e6 06c0 f56c cbbf 13c5 ebbf fc24 c5bf
00000030: 997d afbe a270 0abf e05e a1be 0408 88be
00000040: 8ee3 edbe 772a 61bb 7f5b d9bf a0c5 b8bf
00000050: aa2f d7bf 71e1 c4bf 9cb7 97bf 7c5a 8dbf
00000060: add5 fabe a363 9ebe 0d17 1abf 70de d0be
00000070: bcba 7bbe d9ec 1dbf 1910 14bf 9d78 18bf
00000080: 2dfe 33bf 8e0c fdbe 8f5e ebbe a6cb b5be
00000090: a299 efbe c7ee 80be 2205 edbe
-0.7699034 -1.0659688 -0.6210264 -0.51648504 -0.93496174 -0.6379738 -2.05442 -1.4972641
-2.1078227 -1.5892626 -1.8419517 -1.5401912 -0.3427551 -0.54078114 -0.31517696 -0.26568615
-0.46462673 -0.0034357586 -1.6981047 -1.443531 -1.6811421 -1.5381299 -1.1852908 -1.1043239
-0.48991147 -0.30935392 -0.6019142 -0.40794706 -0.24582952 -0.61689526 -0.57837063 -0.5955904
-0.70309716 -0.4942364 -0.4597058 -0.35506934 -0.467969 -0.25182173 -0.4629298
