Project/results/Walker_Run_01/Walker/Walker-28999994.onnx (onnx, 824633 bytes, 11 tensors)

network_body.observation_encoder.processors.0.normalizer.running_mean f4 [243]
00000000: f50f 5641 c78f 8e3c 864c c4be d31b d53f
00000010: 5579 7bb0 0000 0000 bfed 6f41 fddc 21bd
00000020: fce8 2a3d b78b 4f3c 5a69 523f 4136 94bd
00000030: aa70 553d 324c 673c 007c 593f f4ae 0cba
00000040: 77d0 eebe 1baf b440 0000 0000 0c93 b43c
00000050: 3fb4 aebe 733e ca3f 7d24 253f e817 8d3e
00000060: 356b fabd 14d4 9bb8 fb89 f2bb 98e5 aa3c
00000070: 0000 0000 2de5 e63c 9fb8 10bf f42a e23f
00000080: 236f e73d 5d0b 473c 9f9c a5bd b822 babc
00000090: 160c c83e 6bd0 0d3e e899 9fbd 616c f9bb
000000a0: 3ccb 263c 96fe 7d3f 8255 163f 0000 0000
000000b0: c1a6 c23c 1ad6 efbe c6e4 d43f 9f27 7c3e
000000c0: 4f86 953d 278e 94bd 1f2b babb 6662 363e
000000d0: 1e7c a13d 17db 003e 3e46 bcbc 2849 b33c
000000e0: ae98 773f 6564 123f 0000 0000 48a6 143d
000000f0: b69b 30bf 5e76 f23f fd50 77be fa9d 953d
00000100: 2f1b 33be ce22 63bd 1155 3e3f b0bf 503e
00000110: e0ff a93b 8e33 4bbb ad2c 803c 16d9 7c3f
00000120: eb05 253f 0000 0000 4457 babc 2de3 78be
00000130: 438f bf3f 65ff 843f d799 d73e 0e1f 883e
00000140: 4aad 97bd 21a9 51be 28cd 94bc 05b2 51be
00000150: 389b cabb 6207 d2bd 3577 673f 3c1e 0e3f
00000160: da34 853e c7e7 19bd 3297 0ebe 966c a63f
00000170: 7490 0b3f 9ca8 da3e 3961 3c3c 9246 a5bd
00000180: e6f0 c9be 2bfd febd 64da 023f 2038 2338
00000190: 4d2b 6839 85c5 4f3f c64e 0e3f eec4 603f
000001a0: a7b6 29bd 4481 50bd ecd1 a13f 5a74 f83e
000001b0: 2197 3e3e 9ad0 d63d 6969 b7bd 0f76 fbbe
000001c0: e790 63be 5506 d1bd f980 67bc 6096 cd3c
000001d0: 8298 6e3f c405 c03e 0000 0000 33ad a73d
000001e0: 7bc4 7ebe aff6 bf3f 6f45 b13f 7c4a 1dbe
000001f0: 43ef 79be 9248 7b3d 0f07 42be a5a1 e8bb
00000200: 3ae8 7ebe 63cf 373a 263f f33c 0108 673f
00000210: 6a27 183f c120 5e3e b8d8 993d eff9 94bd
00000220: 9a46 aa3f 84e1 373f 8545 343e ddf7 243e
00000230: 4dba 4b3d aa53 c3be b373 c5bd d5f6 003f
00000240: e008 59ba cfe9 143c 09ef 4e3f a229 153f
00000250: 19af 533f eb8e 9b3d b4b1 29bd e159 a23f
00000260: 4428 8c3e c91f 533b 3199 84bc 3cda 503d
00000270: 4da1 fbbe 9496 3cbe 1137 c1bd d2f5 8d3b
00000280: a23a cfbb 88d5 753f 6f84 de3e 0000 0000
00000290: 1b36 b8bd 7cf5 14bf f14c e93f 6a8d 5cbe
000002a0: 4896 fa3e d510 cabe 1377 4dbe 8e02 bc3e
000002b0: ef0d 323e badd 44bc ec49 673e 11f2 d9bd
000002c0: 9e6b 5f3f d65e 253f 0000 0000 6e1f ddbd
000002d0: 3c43 06bf 7e07 f63f 6523 04bf fb7c 993f
000002e0: df4a d5bd 75b3 66be 720f b13e 2e5f 903e
000002f0: 447d e33a 8c3f 113f 57e8 ad3a bf63 443f
00000300: 6ec4 1b3f 0000 0000 1289 00be de32 03bf
00000310: 6ae6 0140 98a8 ffbe c068 243f 62cf 9fbb
00000320: 35d3 48be 5cc9 a23e bae6 c23e 0000 0000
00000330: 4eee 053e efcb 12bf 8a20 e93f f73e 25be
00000340: 2cb1 48bf b73b 553f c4bd 213e 59d9 da3e
00000350: d8c2 4e3e 12d3 8fbc 7a6a 7ebe 9379 0d3e
00000360: 865f 5a3f 0bf0 303f 0000 0000 d45f 013e
00000370: d16d 0cbf 1499 f53f edfd 01bf 4997 86bf
00000380: bd63 fd3e af47 443e 1222 d43e f9c7 9a3e
00000390: 7e4f 243c 76e1 04bf fbea 46bc 6a7a 473f
000003a0: c965 003f 0000 0000 4581 d33d 1f57 08bf
000003b0: b8dd 0340 6a82 07bf 5a24 82bf 67b1 f03e
000003c0: 2838 2e3e 540b bc3e e8fb bd3e
13.378896 0.017402543 -0.38339633 1.6649116 -9.148569e-10 0.0 14.9955435 -0.03951739
0.041726097 0.012667588 0.82192004 -0.072369106 0.052109398 0.0141172875 0.84954834 -0.0005366646
-0.4664342 5.646375 0.0 0.022042774 -0.34121892 1.5800308 0.645088 0.27557302
-0.12227479 -7.4304786e-05 -0.0074017025 0.020861432 0.0 0.028185451 -0.5653171 1.7669358
0.113004945 0.012148705 -0.08086514 -0.022721633 0.3907172 0.13849036 -0.07793027 -0.0076117967
0.010180291 0.9921659 0.58724225 0.0 0.023761155 -0.46843034 1.6632316 0.24624489
0.07301008 -0.07253676 -0.00568141 0.17810974 0.078850016 0.12583576 -0.022982713 0.02188547
0.96717346 0.5718444 0.0 0.03629139 -0.68987596 1.8942373 -0.24151988 0.07305522
-0.17490838 -0.055453114 0.7434855 0.20385623 0.0051879734 -0.003100607 0.015646303 0.98768747
0.64462155 0.0 -0.02274669 -0.2430541 1.4965595 1.039044 0.42109558 0.26586193
-0.07406099 -0.20474674 -0.018164232 -0.20478065 -0.0061830543 -0.102553144 0.9041627 0.55514884
0.26016885 -0.037574556 -0.13924864 1.3001888 0.5451729 0.42706764 0.011497789 -0.08070101
-0.39441603 -0.12450632 0.5111449 3.89145e-05 0.00022141375 0.81160766 0.5558895 0.8780049
-0.041433956 -0.050904527 1.2642188 0.4852627 0.18612339 0.10489006 -0.08955652 -0.4911351
-0.22223245 -0.10206286 -0.014129871 0.025096118 0.9320146 0.375044 0.0 0.08187332
-0.24879639 1.4997157 1.3849314 -0.15360445 -0.24407677 0.061348505 -0.18948005 -0.0070993477
-0.24893275 0.0007011799 0.029693197 0.9024659 0.5943514 0.21692182 0.07512039 -0.072742335
1.3302796 0.71828485 0.17604645 0.16110177 0.049738217 -0.38149768 -0.096412085 0.50376636
-0.00082792155 0.009088947 0.8083349 0.5826665 0.8268905 0.07595619 -0.041429237 1.2683679
0.2737447 0.003221499 -0.016186329 0.050989375 -0.491465 -0.18416816 -0.09434331 0.0043322826
-0.0063241282 0.9602895 0.43460414 0.0 -0.08994695 -0.5818708 1.8226606 -0.2153832
0.4894278 -0.39465967 -0.20064954 0.367207 0.17388128 -0.012015754 0.22586793 -0.10641874
0.87273586 0.64597833 0.0 -0.1079701 -0.5244634 1.9221036 -0.5161651 1.1991266
-0.10414671 -0.22529395 0.34582096 0.28197616 0.0017356058 0.5673759 0.0013268095 0.767147
0.608466 0.0 -0.12552288 -0.5124949 2.0296884 -0.49933314 0.64222336 -0.004877017
-0.19611819 0.3179425 0.38066655 0.0 0.13079187 -0.5734243 1.8213055 -0.161373
-0.7839534 0.8329424 0.15795046 0.42743948 0.20191514 -0.0175567 -0.24845305 0.13815908
0.8530201 0.69116277 0.0 0.12634212 -0.54855067 1.9187341 -0.50778085 -1.0514919
0.49490157 0.1916797 0.41432244 0.30230692 0.010028718 -0.51906526 -0.012140985 0.77921164
0.5015531 0.0 0.103273906 -0.53257936 2.0604076 -0.5293337 -1.0167344 0.47010347
0.1701361 0.36727393 0.37106252

network_body._body_endoder.seq_layers.0.weight f4 [256, 243]
00000000: 3d5f 043d 2928 01bd 9fd9 13bc 96bd 4fbe
00000010: 6a6f 9cbc 6a8b 163d ecdb 72bd 6456 c43c
00000020: a0b1 15b9 761f cabc b0f4 dabc 8237 533e
00000030: 9cbc 0c3e 27a0 b13d 61eb d9bd 468e f93d
00000040: 7e28 b23c 0c01 083d 474c 6b3d 6101 4b3a
00000050: 66d2 b43c f396 363d ad78 d4bc b113 26be
00000060: 97b2 533d a4c6 063e 5f24 ff3d 11f8 913c
00000070: 53fc 933d 8f27 6b3d 08bc 14be 0e3a afbd
00000080: 7094 2dbd 83cb 8abc 7420 57bd 8be2 4bbd
00000090: 1f00 843d 3142 233d c83f b03b 6f0f c43d
000000a0: ac19 80bd 076e a23d 57d1 34bd 3ec9 0abd
000000b0: 841b 3ebe 7387 1d3e e812 42bd 4a65 093d
000000c0: 86cc 453b 641b 0c3e 3b2b 22ba 0c41 1f3c
000000d0: 05c1 6e3d f9b9 d2bd 9fbb 853e bc89 90bd
000000e0: b0a3 13bd 508d c33c c7ed 6bbd 202f 8cbc
000000f0: 47e2 30be 18b6 29ba 64a6 8f3c 6153 ccbd
00000100: 1118 053e 0fa5 27be 55fb 68bc 5352 c13c
00000110: f8e8 f23c 3b88 d0bd d666 53bd 5cc4 293c
00000120: a9bc 16bc d523 dc3c 27c1 6ebd 05e4 7f3d
00000130: 8ec8 09be aee8 7fbd 73ab 713d 068a d33d
00000140: 94c9 6dbd 0c4b 8b3d 95dc 743d 5184 04be
00000150: 3f3c 15be a86a 863e ebdf ca3c 5609 6b3d
00000160: 2b35 22bd 8640 043e 3fa7 c9bc fe5d 6bbd
00000170: 2068 81bd 9ab2 27be 17fc a73d ba8e 833b
00000180: 24a9 883d 0d8d 603c 3eab cfbd f177 41be
00000190: 296b 96bc 86e5 d43d ff95 993b e332 30be
000001a0: 970a 883d 7bf8 d03c 3eb9 9dbd 4784 55bd
000001b0: 83b6 8ebc 9926 f2bd 322b 6c3c f462 56bd
000001c0: e85a 3fbd cf5c e63c c18f 463d 09e0 d1bd
000001d0: cf92 11bc f382 7dbc 15b7 eb3d 8a9d 98bd
000001e0: 6ebd 22bd 0fd2 63bc 0df5 cbbd 9458 90bb
000001f0: a211 bbbc 05d5 febd caca 803d c376 2ebd
00000200: 91c2 4abb 9efa d13d e4a3 013e 630c f7bd
00000210: 3ddc 4bbd b72b 6c3d 30b6 443e bd92 773d
00000220: 97d7 a03c 7d53 9dbd 8987 0a3d dbf4 75bd
00000230: 7aaf 1fbd 805e d7bb e9b7 cc3d f78f 95bd
00000240: 6896 893d a690 0fbd 3e6d 613c 1d6f 8f3c
00000250: 31b0 04bd 1c6f a63d 75f3 e2bd b82e 923d
00000260: 8144 08be fce1 a93c 243f 39be 5a22 133d
00000270: c454 a9bd 61d5 2bbd 43a1 cd3d 2001 c53d
00000280: 0b63 953d 7a55 573d cb4f 82bd f72d 093e
00000290: 4dfd 6a3c 073d 933d d39b a1bb 300a c63c
000002a0: cced 8e3c 5b59 d7bd 1d9b 113d 734a bd3d
000002b0: e32d 593b 821b eebc cf58 89bd e58f 2c3c
000002c0: cfc2 d2bd 4bf9 073d ee32 32bc 8ef9 803d
000002d0: afea 183c 4988 393d b5c4 34bd 6521 9dbb
000002e0: d4fb 413d 2930 193d 469e d1bc 6bdb 6abc
000002f0: 1f54 d4bd 287b 1fbe 1972 0d3d 7178 c53d
00000300: 6bd1 ba3d 9448 5ebd b3a3 6cbc b2d7 ba3c
00000310: 86f6 e23d 4cfc 2b3d 8cda 983d 80f0 983d
00000320: 6cd7 983c 008b f63d 8039 6f3c 328e a33c
00000330: 8bc7 6cbc 0672 4ebe b80c a2bd 31b4 42bd
00000340: d931 b8bd 085f 4d3d dbaf f8bd 150e 05bb
00000350: 51f8 e6bd 084d 50bd 3fdd acbb 371a 81bd
00000360: 3071 6f3d 6024 01bd 5628 febc 21d6 21bd
00000370: 8cf8 1ebe de54 a6bd 3f58 96bd 05c5 a8bd
00000380: fb8f 1c3d e75c 393c 4c59 47bc bc83 02be
00000390: c01c 2d3c 4f19 82bc c86d 5b3d 209f 4e3c
000003a0: dbf8 143c 5082 d4bd d591 503e 9780 3abe
000003b0: e452 12bd 137a 06be 701e d8bd 8152 3abb
000003c0: cfe7 22bd d45b 5bbd 9de3 11be 8812 103d
000003d0: 6ff4 9f3d ab51 103c 0a7e d53d ae86 f43c
000003e0: 341f aa3c 7e76 18bc 125f 67bd 5911 d63d
000003f0: 01b2 15bd 1903 75bd 140c 06be 1019 693d
0.03231739 -0.03153244 -0.009024053 -0.20287165 -0.019096095 0.03675405 -0.059291765 0.023966976
-0.00014275918 -0.024673205 -0.026728004 0.20626643 0.13743824 0.08673125 -0.10640598 0.1218534
0.021747824 0.033204123 0.05744579 0.0007744041 0.022072982 0.04457755 -0.025936449 -0.16218449
0.05168399 0.13161713 0.12458109 0.017818483 0.072258614 0.057410773 -0.14524853 -0.08555995
-0.04237789 -0.016942745 -0.052521184 -0.049776595 0.064453356 0.039858047 0.005378697 0.09573256
-0.062548965 0.07931142 -0.044144955 -0.033883326 -0.18565184 0.15383701 -0.04738131 0.033543862
0.003018172 0.13682324 -0.00061862514 0.009720098 0.058289547 -0.10289378 0.26119706 -0.07057521
-0.036044776 0.023871094 -0.05759981 -0.017112315 -0.17273818 -0.00064739725 0.017535396 -0.09976841
0.12997462 -0.16371559 -0.0142200785 0.023598826 0.029652104 -0.10182234 -0.051611744 0.010361757
-0.0092002535 0.026872555 -0.058289673 0.062473316 -0.13455412 -0.06247776 0.059001397 0.1032906
-0.058053568 0.068014234 0.059780676 -0.129411 -0.14573763 0.26253247 0.024764976 0.05738195
-0.039601486 0.12915239 -0.024615882 -0.057462685 -0.063186884 -0.16376725 0.08202379 0.004014817
0.06672886 0.013705504 -0.10140084 -0.1889341 -0.018361645 0.103953406 0.0046870704 -0.17206912
0.06642645 0.02550911 -0.07701348 -0.052128103 -0.017421013 -0.11823768 0.014414595 -0.052340463
-0.046717554 0.028120426 0.04847694 -0.102478094 -0.0088851 -0.015473115 0.115095295 -0.07451923
-0.039731435 -0.013905062 -0.09958849 -0.0044050906 -0.022835556 -0.12442974 0.06288679 -0.04259373
-0.0030938725 0.102528796 0.12660176 -0.120629095 -0.049770582 0.057658877 0.19210124 0.060442675
0.019634051 -0.0768194 0.033820663 -0.060047965 -0.038985707 -0.0065725446 0.099960156 -0.0730285
0.06718141 -0.035050057 0.0137589555 0.017509038 -0.03239459 0.08126661 -0.11081592 0.07137817
-0.13307382 0.02073764 -0.18090492 0.035921432 -0.08268121 -0.04195154 0.10040524 0.09619355
0.072942816 0.05257175 -0.063628756 0.1339644 0.014342618 0.071893744 -0.004931906 0.02417478
0.017447375 -0.1051509 0.03554832 0.09242716 0.0033138923 -0.029065851 -0.06706392 0.010532354
-0.10291063 0.03319673 -0.0108764 0.06297599 0.009333297 0.045295987 -0.044132907 -0.0047952407
0.047359303 0.037399445 -0.025588166 -0.01433454 -0.10367607 -0.15574324 0.03453264 0.09642113
0.091219746 -0.054268435 -0.014443326 0.02280793 0.11082177 0.041988656 0.074635595 0.07467747
0.018657409 0.12038231 0.014601111 0.019965265 -0.014451872 -0.20160684 -0.07912582 -0.047535125
-0.08993883 0.050139457 -0.12142917 -0.0020302583 -0.11277831 -0.050854713 -0.005275398 -0.06303828
0.058457553 -0.03152883 -0.031025093 -0.03951085 -0.155245 -0.08121656 -0.0734105 -0.082407035
0.038223248 0.011313654 -0.012167286 -0.12745565 0.010565937 -0.015881209 0.053571492 0.012611181
0.009092535 -0.10376418 0.2036813 -0.18213116 -0.035723582 -0.13132505 -0.105526805 -0.0028430524
-0.03977185 -0.05355437 -0.14246984 0.035173923 0.07810294 0.008808534 0.10424431 0.029849377
0.020766832 -0.0093055945 -0.05648715 0.104525276 -0.03654671 -0.059817407 -0.13090545 0.056908667

network_body._body_endoder.seq_layers.0.bias f4 [256]
00000000: d6e6 a13b 4275 c9ba 7b32 68bc fd4b cb3d
00000010: f2a5 253b be01 8f3c 9abf 0a3d be80 8838
00000020: 4d26 2cbc f6f8 afbc 7772 a03c 8aa4 b13c
00000030: b7d6 a03c ed19 8abc 44be 543d 203e 133d
00000040: 0906 323c 64c0 3b3d d945 06bc c6a8 6b3c
00000050: 44eb 553c 1788 023d 2c3b 783c de06 df3d
00000060: 6707 55bc 6d69 743d 7e6c ac3c bd5a 033d
00000070: e325 a0bc f45c 103d 2134 2e3d 8c4f e13b
00000080: a6e9 32bc 4cae f43c 7241 1ebb 5c5e 313d
00000090: 6863 243d 13a7 733c e734 243d 9dec cc3c
000000a0: 0530 723c 1753 303c c8ff 7c3d 268c d63a
000000b0: 0eec 2dbc 2e87 09bc bf45 183d 5358 ef3c
000000c0: 70ff 5c3d 7ec0 92bb 71b8 4f3c 6ce5 6cbb
000000d0: 3cda 643d b21a e8bb 567b 263c 46de 153c
000000e0: edbe 673d 566d 323d fcf4 0e3d b895 a73d
000000f0: 28a0 123d f773 b93d e4a5 833c f6d3 523b
00000100: 4c44 183d 80d8 d03d bbfd 433c 519b 3dbc
00000110: 5098 843d 4dbc a6bc 6f90 d93c 7b30 643c
00000120: 8799 f73c e8ef a8bc 98c6 813d e9b2 f73d
00000130: 449c 683c 89c8 063d 2339 993c 4dca 1a3d
00000140: cbe4 53bc fc82 003d b193 1cbc 577a 853b
00000150: 8bf5 b33c 7fa3 cc3c b72f aa3d a2ea 383d
00000160: e0c1 e93d 098c 083c 31ee aa3c 1096 a33c
00000170: 9dc2 23bb f543 133d ad91 af3d 378a 933d
00000180: 0fc9 e03c 6b47 b33c dd56 87bc f189 1e3c
00000190: 74fd 593d e8cb 343d 66e2 963c 45ed 713d
000001a0: dc8f 353c d431 0c3c 15d2 863c 2afc 3d3d
000001b0: be88 cdbc 0dd7 42bc cdfa 8b3d 3a23 dc3c
000001c0: db9d 1c3d 8366 2c3d 3f8b 793d 93a6 213d
000001d0: 6ac4 c0bc 65aa 8c3c df26 5c3d 2bd4 fc3c
000001e0: 7975 813d 0d33 b53c 5d2f 313b 3490 873d
000001f0: e4dd 01bc e5db 11bb 3b45 eb3c 6d53 f23c
00000200: 8d3b cd3c 1b6b 273d 93db 843d 408a 203d
00000210: 61b3 423d 3758 333d d5eb 143c 9c75 f73c
00000220: ed0b 883d 40f6 863d be1c 123d 484f 0d3d
00000230: 9ea4 a03d fb8c a03a f63b b63b d7ff adbc
00000240: 7575 a83c 9b23 6e3d ac3a a63d de5a af3d
00000250: e28b 183d ce1c 653d 2a83 3a3d 1b5b 5d3d
00000260: aecd 89bb db11 f73c 065d 923d e956 f33c
00000270: e3ab 083d 008b 24bd ebb2 973c 5ac5 5d3c
00000280: ad7e 243d c3a0 e7bc 61c1 09bd 6a82 073d
00000290: 1d77 133d e040 d0bc 3f04 e33b 063c 013d
000002a0: df9f 923c 7718 0a3d 13a4 f1bc 1270 5a3d
000002b0: 8257 f03c cd1d 193c 1473 3cbc 3471 9e3d
000002c0: 76ab 1c3d 99b1 ec3c 2406 4e3d 2f4c 043d
000002d0: 2041 953d 3988 c03d 4cea 54bd 573c a13d
000002e0: acf1 5bbc 999a df3c e1ef 3f3c fe75 043a
000002f0: 3906 f73b 1ea4 6e3d aae3 d43d 5bfc 2d3c
00000300: ea9a 043d 4ec7 663d b5a0 b0bb 646a 0f3d
00000310: 2d51 373c a3e0 253d 754c 563c 06a3 a13c
00000320: 5460 b03c a49d d03c 7795 0f3c 4349 8b3d
00000330: d930 233d 3d98 043d e123 993b d0da a03c
00000340: 44ab 083d 5c9c 993c f34a f23c 8578 5f3c
00000350: fe20 9abc 8a5f f33c fe85 893c d442 033d
00000360: 7fa9 363d 17d2 463d 56ad a63d 766e 983c
00000370: ccb6 e8bc 5da9 233d 7684 be3b cb46 2e3d
00000380: 6a49 5c3d eefa 7dbc 123b fcbc ab19 2f3d
00000390: 49f5 be3c 0e03 093d 1cf7 3ebd 9d2d 7d3c
000003a0: 6747 493d d049 513d a83c 95bb fe2b b33c
000003b0: 6bfb bf3b 2bfe 913d b4b8 643d f9de 503d
000003c0: 1a3c 32bc 5c5c 433d 6cd2 4dbc feed 843d
000003d0: 271b 413d da07 293d 02cb 423d 9362 a73d
000003e0: 5af9 9c3d 426c a13b e610 3cbb 014e 7fbb
000003f0: 4360 14bd c1db b73d c847 2a3d eca3 1bbd
0.004940848 -0.0015370029 -0.014172192 0.09926603 0.0025275913 0.017456885 0.03387413 6.5089655e-05
-0.0105071785 -0.021481019 0.019585831 0.021684904 0.019633634 -0.016858066 0.051939264 0.03594792
0.010865697 0.045837775 -0.008195364 0.0143835 0.01305658 0.031868067 0.015150826 0.10889982
-0.013002253 0.059670854 0.021047827 0.032068957 -0.019549316 0.035244897 0.042530183 0.006875938
-0.010919964 0.029868267 -0.0024147895 0.04330288 0.040133864 0.014871377 0.040089514 0.02501517
0.014781957 0.010761998 0.06176737 0.0016368672 -0.010615362 -0.008394046 0.03717589 0.029216921
0.05395454 -0.0044785133 0.012678252 -0.0036147488 0.055872187 -0.0070832605 0.0101612415 0.009147232
0.056578565 0.043561302 0.034901604 0.081828535 0.03579727 0.09055322 0.016070314 0.0032169796
0.037174508 0.10197544 0.0119623495 -0.011572675 0.06474364 -0.02035346 0.02655813 0.013927574
0.030224575 -0.020622209 0.06336707 0.12094671 0.014197413 0.03290609 0.018704003 0.037790585
-0.012932966 0.031374916 -0.009556697 0.004073422 0.02196767 0.024980305 0.08309882 0.04514564
0.11413932 0.008334168 0.020865532 0.019969016 -0.0024987825 0.03595348 0.08572707 0.07204097
0.027439622 0.02188464 -0.016520912 0.0096764425 0.053220227 0.044139773 0.018418502 0.05906417
0.011081662 0.008556802 0.016457597 0.04638306 -0.025089618 -0.011892092 0.06834946 0.026872266
0.03823648 0.04208995 0.06092381 0.0394655 -0.023531158 0.017171094 0.053748008 0.030862888
0.06321234 0.02211907 0.0027036287 0.066193014 -0.007926438 -0.0022256311 0.028719535 0.029580796
0.02505281 0.040873628 0.06487193 0.039194345 0.04753435 0.0437853 0.00908943 0.030207448
0.066429 0.06589937 0.035671942 0.034499437 0.07843898 0.0012249047 0.005561347 -0.021240158
0.02056382 0.058139425 0.081166595 0.085622534 0.037242778 0.055935673 0.045535244 0.054041963
-0.004205427 0.030159881 0.07146649 0.029704528 0.03336705 -0.040171623 0.018517932 0.013535822
0.04015987 -0.0282749 -0.033631686 0.033083357 0.036002267 -0.02542156 0.0069279964 0.031551383
0.017898498 0.033714738 -0.029497182 0.053329535 0.029338602 0.009345484 -0.011502046 0.077364355
0.038249455 0.028893279 0.050298825 0.032299217 0.07287812 0.094009824 -0.051981255 0.07872837
-0.013424318 0.027295398 0.011714906 0.00050529826 0.0075385836 0.058261983 0.10394986 0.010619248
0.0323743 0.056342416 -0.0053902515 0.03501357 0.011188787 0.040497433 0.013079752 0.019731056
0.021530308 0.025465794 0.008763663 0.06801083 0.039841507 0.03237175 0.0046734666 0.019635588
0.033366457 0.018751316 0.029576754 0.013639574 -0.01881456 0.029708643 0.016787525 0.032046154
0.044595238 0.0485402 0.0813853 0.01860736 -0.028407477 0.03995644 0.0058141304 0.042547982
0.05378095 -0.015501721 -0.030789886 0.04274909 0.02331032 0.03345018 -0.04662238 0.01545277
0.04914036 0.051095784 -0.00455435 0.021871563 0.005858829 0.07128557 0.05584021 0.050993893
-0.010878587 0.047695503 -0.0125623755 0.06490706 0.047145035 0.041267253 0.047556885 0.081730984
0.076647475 0.0049262354 -0.0028696596 -0.0038956406 -0.036224615 0.089774616 0.041572362 -0.037998125

network_body._body_endoder.seq_layers.2.weight f4 [256, 256]
00000000: 1869 1e3d 02e3 993d 0c55 e4bd 2c43 a33d
00000010: 3454 65bc 2090 44be e65b 763d 1568 fdbd
00000020: 3355 ff3c 93d1 36bd 9a6d 7f3c 498f 3c3d
00000030: 79b6 d8bd 819d e1bc 23a3 06bd bea8 4b3e
00000040: e115 d2bd 88a7 0a3e c8e3 33bb 82a2 883d
00000050: 0f1a 2cbd 4a4d 0c3d c1ce 99bd 97d4 a73d
00000060: 4a31 88bd defc d03c 0561 e2bb e70a a63c
00000070: 1b59 cdbd 5a50 84bc 510f 0b3d 9018 803d
00000080: fe6b cabd a733 3dbc b5cd b03d 9ce5 01bd
00000090: 9c4b 05bd 2c08 553e 8b57 0bbd c482 06bd
000000a0: 664b 99bd 0734 753d 49fc 473e 98c1 b43d
000000b0: e803 eabd 257f 4ebb 4d54 903c cdfb 38be
000000c0: a09f b8bd b65f 7dbd 7777 f2bc 1afa 4c3d
000000d0: ed3d 3f3d d627 083d 44aa c63d b71b ac3c
000000e0: adb0 173e 08a0 10bd 6346 a3bc 0040 f73d
000000f0: 6171 98bc 5ada d0bd 49f7 bd3d 2f8e 80bd
00000100: 37ad 96bd 4791 f63d 58ab 27bd 81b1 aabd
00000110: 58cb 923d 9c1f 55be 8d40 b53d 7017 a23d
00000120: 3b32 923d a965 af3c a41e 1fbd 5f71 afbc
00000130: 3131 3b3d ab04 dd3b 2d15 13be 01dc 843d
00000140: f0e5 a43d e7d0 ca3d a34d a3bd 08f8 ab3d
00000150: 955f eb3b 7318 d7bd 1a08 943b 5a90 ce3d
00000160: 4714 2dbe 0b7b da3d e968 8f3d c2ea 78bd
00000170: eeea 75bd 41a5 963d 86fe 5fbd 2ea7 b43d
00000180: 5c33 df3c f33d c2bc 8bc0 6dbc 7a50 d3bd
00000190: cf9c 823c f928 55be a451 193d 8dbc e23d
000001a0: 5ed4 913d eed6 f2bc c4ec 8c3d b19c 8d3d
000001b0: e797 823d d400 06be 4944 01bc a1da e03c
000001c0: bbfe dbbd 64f1 d2bd d43e f0bd ff68 28be
000001d0: 92f8 a33c 8446 f8bd b071 b6bd 4e95 cc3d
000001e0: c37e e83d 347d aa3d 3b7f f63c e45a 023e
000001f0: 44a7 823d 2150 a1bd d4c0 2a3a f8cf c93d
00000200: 4869 51bd 022a a8bc 7a22 803d 4d6a 1fbe
00000210: a8b5 ed3d ffa9 e0bc f547 233d cd0c 063d
00000220: 5dae 73bd 8f19 eb3c 8454 323b 9e69 003e
00000230: 5fad 0f3c 5b34 1d3d 1415 41be 4fc3 68bd
00000240: e824 e9bc 1d25 87bd 2945 cb3b 42e2 83bc
00000250: 5ca6 0cbe e26a b03c 9ea1 b23d a599 12bd
00000260: 4ef4 b03b 3925 88bd 1e6f 3a3e 0850 c03d
00000270: 353c 42bd 842a b9bc 2ed6 653b 016c 3cbd
00000280: 1135 953c e2dc 353c 76e5 c9ba 4ec7 813d
00000290: d3c1 503d c73e 82bd 0ccd 9a3d d526 b2bd
000002a0: 2578 c03d 09e2 20bd 243e 923d 88fe 273d
000002b0: b510 adbb 8837 243d 556e 8c3d 607e 623d
000002c0: 6dc6 92bd 59c1 31bd 1cef cd3d 1d58 34be
000002d0: f74f dd3b 8d6d 07bd b18d 48bd 12ed 1e3e
000002e0: c502 443c 54af b53c 6401 433e 35c1 c53d
000002f0: 0d67 c53d 6035 e43d 87c1 a2bd 5a66 4a3e
00000300: 2ad4 643d 5619 dd3d f486 f53b 9d63 c2bd
00000310: 93bc 9c3c 6c6c e83d 39c3 5cbc 1b98 66bd
00000320: 6a44 e23d 93bd 0bbd 1e12 dbbc a45a 2a3e
00000330: 57b4 a83d 3c06 3cbd d93d 36bd 402d bd3d
00000340: c817 2f3d cdc8 9f3d abd2 f9bd 9101 47bd
00000350: a60a 65bb 4e4b 7abc a93b 1a3d 9289 573d
00000360: 748b 08bc 9628 ad3d cbe4 d73a 0ec1 60bd
00000370: f699 e1bd 30f5 5dbd 60ee 12be 08ab 80bc
00000380: 657f c3bd 3c8f 9bbd f4c8 c83c fbc7 fd3d
00000390: d239 8ebc 9d28 a63c 8c1e 91bd b27a 0f3d
000003a0: c5b4 d93d 4b35 803e 5870 e6bc 2fbe 17bc
000003b0: 6126 463d 2125 24be b61f 5dbd e9c2 303e
000003c0: 218a 003b a0e8 46bd aa5c 233d 8db8 3b3d
000003d0: a328 5a3d 2645 b6bc eafd a43d 019d a83d
000003e0: b795 c43d 9d0b 2cbd 9d30 e5bd 12ce 91bd
000003f0: 450e c8bd 0da3 b1bd ea9c cf3d d241 c2ba
0.038674444 0.075140014 -0.11149034 0.079717964 -0.013997126 -0.19195604 0.060146235 -0.12373368
0.031168556 -0.04463346 0.015590096 0.046035085 -0.10581679 -0.027540924 -0.032870423 0.19888589
-0.10258079 0.1354047 -0.0027449 0.06671621 -0.04201704 0.034253396 -0.07510138 0.08194845
-0.06650026 0.025511201 -0.0069085383 0.02026887 -0.10026761 -0.016151596 0.033950154 0.06254685
-0.09883879 -0.011547959 0.086329855 -0.031713113 -0.03254281 0.20803899 -0.034019034 -0.03283955
-0.07485084 0.05986407 0.19529833 0.088259876 -0.11426526 -0.003150889 0.017618323 -0.18064804
-0.09014821 -0.061858855 -0.02959798 0.050043203 0.046689916 0.033241116 0.09700444 0.02100931
0.1481349 -0.035308868 -0.019931024 0.12072754 -0.01860875 -0.10197897 0.092756815 -0.06277119
-0.07357257 0.12039428 -0.04093489 -0.083346374 0.07167691 -0.2081284 0.08850203 0.079146266
0.07138487 0.02141078 -0.03884758 -0.021416364 0.04570121 0.006744941 -0.14363547 0.06487275
0.080516696 0.09903126 -0.079737924 0.083969176 0.007183025 -0.1050271 0.0045175673 0.100861266
-0.16902266 0.10668 0.07002432 -0.060770757 -0.0600385 0.073557384 -0.05468609 0.088209495
0.02724617 -0.02371118 -0.014511238 -0.10318084 0.015943913 -0.20816411 0.037431374 0.110711195
0.07120584 -0.029643502 0.06881097 0.06914652 0.06376629 -0.13086253 -0.007889816 0.027448
-0.10741945 -0.10299948 -0.117307335 -0.16446303 0.020015988 -0.12122825 -0.08908403 0.09989415
0.11352303 0.08324662 0.030089965 0.12729985 0.0637956 -0.078766115 0.0006513719 0.0985412
-0.051125795 -0.020527843 0.06256576 -0.15567894 0.11606914 -0.02742481 0.039863545 0.03272705
-0.059492458 0.02869871 0.002721102 0.1254029 0.008769362 0.03838001 -0.18855697 -0.056826886
-0.028459981 -0.06598876 0.006203313 -0.0160991 -0.13735336 0.02153534 0.08722232 -0.035791058
0.005400217 -0.06647725 0.1820645 0.09390265 -0.0474207 -0.02260328 0.0035070288 -0.046001438
0.01821378 0.011100026 -0.0015403468 0.063368425 0.050966095 -0.0635963 0.07558641 -0.08698813
0.09397916 -0.039278064 0.07140759 0.041014224 -0.0052815326 0.04009202 0.06856982 0.0552963
-0.07166753 -0.04339728 0.10055372 -0.17611738 0.0067539173 -0.03306346 -0.048963252 0.15520123
0.011963551 0.02217833 0.19043499 0.09655992 0.09638796 0.11142993 -0.07947069 0.19765607
0.055866398 0.10795848 0.0074928943 -0.09491656 0.019132888 0.11348805 -0.013474279 -0.056297403
0.11048205 -0.03411634 -0.026742037 0.16636139 0.08237522 -0.045904383 -0.044492576 0.092371464
0.04274729 0.078019716 -0.12198385 -0.04858548 -0.0034948974 -0.015276743 0.037654553 0.05262143
-0.0083340295 0.08455007 0.0016471384 -0.05487161 -0.11015694 -0.054188907 -0.14348745 -0.015706554
-0.09545783 -0.07595679 0.024509884 0.12391659 -0.017361555 0.020283038 -0.070859045 0.03502912
0.10630182 0.2504066 -0.028129742 -0.009261652 0.048376445 -0.16029789 -0.05398532 0.17261852
0.0019613581 -0.048561692 0.039883293 0.0458303 0.05326141 -0.02224977 0.08056243 0.08233071
0.09598868 -0.042003263 -0.11190913 -0.07119383 -0.09768347 -0.086736776 0.10137351 -0.0014820641

network_body._body_endoder.seq_layers.2.bias f4 [256]
00000000: a7fb 383d 40be a93c 2ce0 1e3d 5a90 7d3c
00000010: 7880 2a3d 5d3d cb3b 75c0 a23c 9581 f73c
00000020: ed4d 2cbc 97fc 073d 38f6 013d 3b99 133d
00000030: b8f0 913c a6b5 d4bb 87a6 2ebb 9017 273d
00000040: 30ad fc3c 8a0f e73c fe1e e63c 991a 933c
00000050: 186c 203d 75af 933c f1a6 25bd 7788 ad3c
00000060: eb58 6f3c 614d b33c 7d30 aa3c daf0 a3bc
00000070: d8bc 713c e9f6 9fbc 556e ffbc 8c69 673d
00000080: c046 cb3c 75a3 4b3d 0af7 b53b 4d51 e2bc
00000090: 9fb7 d73c c887 a9bc c78d 2f3c 2a15 b7bb
000000a0: 492d 1b3d 6a79 b23b cc86 2c3d 5e43 483d
000000b0: 138b 7a3d c9b7 0fbc 1872 c13a 641e 2d3d
000000c0: 817c 623d 5c90 233c f2ab 193c 0461 2d3d
000000d0: f0b4 343d ab46 0cbc 5d5c 553d 2fde 1fbc
000000e0: 65da 603d 89f7 ac3c a719 633d b4cb 0a3d
000000f0: 50b8 2fbc 5592 273c 166f 043d 45e9 163d
00000100: e67e 85bc 71f0 1ebc f474 c03a 9762 e83c
00000110: c062 3a3b 5adf 2d3d b7fd 17b9 70b8 0cbc
00000120: 839e 02bc d288 dd3c 2ee5 78bc 8561 963b
00000130: f427 183d b538 9039 c1f1 d2bb e3b2 a7bc
00000140: b146 b53b ef98 71bc 7631 a53c 8195 bf3c
00000150: b473 b83b 772c 6d3d 8fd3 b03b 4a09 8e3c
00000160: 6c45 653c 2819 9dbc adbe a23c 1ebd 2cbc
00000170: 972b 293c 77c7 113d 75a0 1c3c 8193 d83c
00000180: 5827 bcbc 2351 dabc 54cc af3c 28c6 803c
00000190: 2b45 c8bc a536 1a3b 5628 033d 7f0c 85bb
000001a0: ee3d aa3c 9429 b7bc d7ba 42bb 1795 bebc
000001b0: e24c 003c 00a5 f93b b2f5 fe3c 3f89 193c
000001c0: d0c5 cc3b 88d2 a63c f73b d23b 42e9 8b3b
000001d0: 2524 a93a 7c8c 7e3d 633c 9e3d e7f0 27bc
000001e0: 38b0 80bc e349 903c 348c e63b aecd fcbc
000001f0: fa76 fa3c f5eb 65bc 7c9b 0d3d 14f7 28bc
00000200: 583e 543d 26b2 083c febf 213d e7f5 be3a
00000210: 77df c3bc 1126 753b 0d67 fe3c 8b6f 793c
00000220: dc28 453d 01e4 173c c3c8 8eb9 c291 163c
00000230: 0ab0 e13c 1792 abbc 2af9 fabc 2962 d63c
00000240: e73b 09bc cf44 a3bc 7a00 b23c 4498 77ba
00000250: c790 2d3d 0200 413d d4f9 13bd ae41 283c
00000260: 3e97 253d f1e3 eb3c 3a58 4a3c f90c 9abc
00000270: ac3c ca3c 7b6d d83b b241 0e3d 965c 09bc
00000280: b98d 4bbc e557 be3c 9b66 65bb 57bf e53c
00000290: a7a0 a6bb 8e9d a23b 323e 5f3b 6b2b e03c
000002a0: 26f4 433d 5528 57bc 8750 0c3d 5ff2 e33c
000002b0: 769f 003d f56c ee3c 6a7b 2cbc e612 fb3c
000002c0: 9b95 863c bfb1 34bc 06db 063d a9e6 033d
000002d0: 16ac ac3b acd2 053d 5055 693c 1cc9 1c3d
000002e0: 9d10 793d 5be9 8c3c 16a0 003b e442 ffbb
000002f0: ede7 3a3d a8ab 9abc 1d2b 923c ed90 ee3c
00000300: 2937 253d 4aa7 e5bc 6b13 923d fcfa 7c3c
00000310: 888f 023d 8f84 f1bc e4f6 a03c 05d4 a1bc
00000320: 93f3 fbba 8e56 7abc 1763 453d 027f 2abb
00000330: cb2c 213d a18e 863c 22af d63c c441 2e3c
00000340: dbe9 963d d8f9 15bc 6656 5bbc 9487 0c3d
00000350: ab6f 06bb c692 c83b 7f63 1a3d 5398 0a3c
00000360: be4c c53c 9dbc 573c 6143 963c 962c 8f3b
00000370: 6ef5 553c 9a8f 0c3d 3d71 23bb e0dd ddbc
00000380: ddab 903c 268a c03b 13d3 87bc 1d87 43bc
00000390: 6945 dbbb a949 39bd 0d19 ae3b d900 62ba
000003a0: 5d5b 5c3d e323 b53c 21bf 1b3d d8d6 f43c
000003b0: 7ebe acbb 75a3 4b3d 7e15 8b3b 0f5b 613b
000003c0: 5e21 333c d8d9 3b3d ea8f 03bb 5d50 aa3c
000003d0: 2b5a 083d 1fe0 6dbc c39c 1b3c a324 963c
000003e0: c4d3 c5bc afd6 f9bb 5900 8abc 968a 1d3d
000003f0: 49c3 4c3d 6048 423c 68d1 823b 3312 3dbd
0.04516187 0.020720601 0.038788006 0.015476311 0.041626424 0.0062023834 0.019867161 0.030213157
-0.010516626 0.033199873 0.031728953 0.036034804 0.017814979 -0.0064913807 -0.002664955 0.040793955
0.030844301 0.028205652 0.02809095 0.017957019 0.039165586 0.018028 -0.04044241 0.021183236
0.014608602 0.021887483 0.020775074 -0.020012308 0.0147544965 -0.019526916 -0.03118054 0.05649714
0.02481401 0.04971643 0.005553131 -0.027626658 0.026332675 -0.020694628 0.010714955 -0.0055872397
0.037884984 0.0054466026 0.04212074 0.04889237 0.061167788 -0.008771845 0.0014758734 0.04226531
0.055294517 0.009983148 0.009379374 0.04232885 0.044117868 -0.00856177 0.052090038 -0.009757563
0.054895777 0.021114128 0.055444386 0.033885673 -0.010725096 0.010227759 0.032332502 0.036843557
-0.016295861 -0.00970088 0.0014683292 0.028367324 0.0028440207 0.042449333 -0.00014494998 -0.008588895
-0.007972362 0.02704278 -0.015191359 0.004589262 0.037147477 0.0002750807 -0.0064375107 -0.020471042
0.0055321087 -0.014745935 0.020165186 0.023386719 0.0056290273 0.057903733 0.0053963135 0.017338414
0.013993602 -0.019177034 0.019866312 -0.010543136 0.010325334 0.035590615 0.00955974 0.026437523
-0.02296798 -0.026650017 0.021459736 0.015719488 -0.024447044 0.0023531106 0.03202089 -0.0040603275
0.020781484 -0.022358693 -0.0029713416 -0.023264451 0.00783083 0.0076185465 0.031123016 0.009371101
0.006249167 0.020364061 0.00641584 0.00426975 0.0012904449 0.062145695 0.077263616 -0.010250307
-0.015709028 0.017613357 0.0070357565 -0.030859794 0.03057431 -0.014033307 0.03457211 -0.010312814
0.051817268 0.008343255 0.03948974 0.0014569134 -0.023910267 0.0037406723 0.031054998 0.015224348
0.04813467 0.009270669 -0.0002723393 0.009190025 0.027549762 -0.020943685 -0.030636389 0.026169853
-0.008376098 -0.019930271 0.021728743 -0.00094449916 0.0423744 0.047119148 -0.036126927 0.0102695655
0.04042744 0.028795214 0.012350136 -0.018805014 0.024687134 0.006604848 0.03473062 -0.008383891
-0.012423926 0.02323527 -0.0035003785 0.02804534 -0.005085069 0.0049626296 0.003406417 0.027364453
0.04784026 -0.0131321745 0.034256484 0.027825532 0.031402074 0.02910469 -0.010527471 0.03064866
0.01642876 -0.011028706 0.03292372 0.032202397 0.0052695377 0.032671615 0.0142415315 0.03827773
0.06080686 0.017201116 0.0019626669 -0.0077899564 0.045631338 -0.01888068 0.017842824 0.02912184
0.040335808 -0.028033871 0.0713261 0.015440699 0.031875163 -0.029482154 0.019648977 -0.01975442
-0.0019222371 -0.015279425 0.048190203 -0.0026015644 0.03934936 0.016425433 0.026206557 0.010635797
0.07368823 -0.009153806 -0.013387298 0.034308985 -0.0020513337 0.0061210124 0.037692543 0.0084591685
0.024084445 0.0131675275 0.018342676 0.0043693287 0.013059003 0.034316637 -0.0024939321 -0.027083337
0.017660076 0.0058758436 -0.01658014 -0.011934069 -0.006691624 -0.045236263 0.005313045 -0.0008621342
0.05379807 0.022111839 0.03802407 0.029887602 -0.005271732 0.04971643 0.0042445054 0.003438655
0.010933248 0.04586205 -0.0020074793 0.020790273 0.033289116 -0.014518767 0.009497824 0.018328017
-0.02414883 -0.007624469 -0.016845869 0.038462244 0.049990926 0.011858076 0.0039922483 -0.046159934

network_body._body_endoder.seq_layers.4.weight f4 [256, 256]
00000000: cae4 0b3c 878a 3abd 6170 0abb df06 d03d
00000010: bbb8 d83c 74e9 153e 104d 58bd 9ba2 9ebd
00000020: 21a4 0cbd 71bc 9d3c f955 99bd 60cd 473d
00000030: 7019 eebb bfd0 d4bc 67ea 8e3d 6769 703d
00000040: 5bbf 3fbc 7316 0dbb 4922 96bc cefe 5cbd
00000050: e49f 69bd ca33 8dbd 825d b23d 414e 21bc
00000060: 63a8 ffbb 3d47 08be 1e3c da3c 5139 d4bc
00000070: 774d abbd 109c 2dbd 2358 c73d 3bef 01bd
00000080: 2744 5c3d 3fca 0fbd 233d 29bc 37af 67bc
00000090: 4363 d63c d325 e1bc a650 0c3e b1b9 3dbc
000000a0: 3273 193e 30e7 63bd 3fc3 4c3c 4e75 b43d
000000b0: 91c6 9abd 6554 863d c466 9abd fdaa 293d
000000c0: e937 35bd a7bc 0d3b 3392 2cbd b931 84bb
000000d0: 36bc de3c 7dc3 a9bd dc10 e13d f449 fdbc
000000e0: a2d0 8cbd 0256 323d b324 41bd 9342 bfbd
000000f0: d3a1 3d3c 36af af3d 6286 4fbd 8945 173d
00000100: d51d 9f3d 910d 9b3d 8995 8a3c 27ea 5f3c
00000110: 3920 6f3d 7364 793d ec61 75bd 4e5e 823d
00000120: 8364 11bd 53ff 6d3b cf44 10bd d504 8bbd
00000130: 3623 b23c d380 85bd 2fb6 3dbb 5b9f 0bbb
00000140: 1685 353b 113d 45ba db76 533d 9206 b3bd
00000150: 9478 3cbd 2748 ae3d 0994 ee3d a969 9bbd
00000160: d1c9 d83c 75e9 2b3e c1c9 6d3c 8f09 85bd
00000170: 26bb 4f3d c73e debd 28e9 753c ea1c 193e
00000180: 338d 4239 c6e9 73bd 3526 223c 4648 83bd
00000190: 2055 093d 2a92 593c 7e5b 56bc 2429 923d
000001a0: 757c 1d3d 839b d5bc 6e5f edbc cff6 03be
000001b0: 8df0 cfbd 3c16 933d 55ac a9bc 703d 0b3e
000001c0: 24be 57bd b08e e5bd 7dad 87bd 0b0d 6fbd
000001d0: a395 21be 8ab1 e63a cdb6 503d 33f3 1c3d
000001e0: 9fbf a03a 7a1a 263b 356d 363d 7d5d 853d
000001f0: 7c3e b4bc b5f4 c73d 1c8d 42bd 4732 cdbc
00000200: a8e2 053d c319 e0bc 7b00 d4bd 13e9 393b
00000210: 570d dc3d b9a8 a3bc 4d08 1c3e b960 54bd
00000220: 7cc3 c03c ab05 ae3d 658b 463d 503c 13bd
00000230: a7b6 b2ba f7bd bdbd 8590 c33d da03 27be
00000240: c301 c2bd 3978 9abb f00c 27bd 96dd 23bd
00000250: d001 223d 60c9 463d a2ae 80bd 7de5 33bc
00000260: e8de 20be 5b7a 76bd 0ed8 fb3d 3f5e 4cbd
00000270: 7f06 043e ec52 b53d 2e75 df3d 3c1a 873d
00000280: ba5c f03d 0c4e 2c3c 3846 f0bd 3d24 8abd
00000290: 7ecc 42bd 27b6 13bc d337 44bc 33b3 92bd
000002a0: 1c5e 10bd 5e20 313d c339 723d b9a8 51bc
000002b0: 2e38 843c f13e e2bd acca 18bd 2629 fbbd
000002c0: f8b7 413d 4c68 9bbc 14b4 94bd c208 b13d
000002d0: b771 943d f343 4e3d 5409 34bc b006 7a3d
000002e0: 4700 02bc d4bc 9abd fa55 44bd 9d4b 183d
000002f0: 62b3 693c dc51 143e d3fc 7dbc 7bb7 f4bd
00000300: d93a c43c 660a f5bd a6e1 4bbc 7cb2 27bd
00000310: 4f05 b13d dc2f 1cbb 064a 323e 4b1b ccbc
00000320: 0f6a 16bd 357b 94bd 7081 12bd b1c7 cc3c
00000330: e26c 8ebc 5c65 f9bc e075 763c cb7b 6abe
00000340: 3ad3 2b3c 4a12 50bd 0cdc 003c 1976 453e
00000350: 7ab9 4e3d 701d 14bd 359c 94bd 6dde 15bd
00000360: 6433 5f3b e6d7 31bd a2b0 f1bd ff67 1abe
00000370: 3e04 4a3e a0fe cbbd 3b36 0a3d 0d3d cdbc
00000380: dd84 3abe 9826 41bd cbbe ea3d 1533 90bd
00000390: b727 4d3d b611 7d3d 8028 823d e97c 033c
000003a0: 4138 b13b 63f3 abbc 8f41 70bb 6d78 3fbc
000003b0: 13e6 793d 53d3 cb3d 9bb9 9bbc 7de0 f5bc
000003c0: 1ec7 e83d 2c01 aabd 2cb6 a93d a3fa 533d
000003d0: 5ce1 1a3d 61c4 85bd 27d8 d2bc 5ef4 70bc
000003e0: d4dd 31bd a4ef e23d 2590 bc3d 6a23 3e3d
000003f0: 4c5f 01bd 57b1 8b3d 2966 d7ba 0da3 ff3b
0.008538434 -0.045542266 -0.0021124112 0.101575606 0.026455274 0.14639837 -0.052807868 -0.07745858
-0.034336213 0.019254895 -0.07487101 0.048779845 -0.007266216 -0.025978444 0.069783024 0.05869427
-0.011703338 -0.0021528273 -0.018326895 -0.05395394 -0.05703725 -0.068946436 0.087092414 -0.009845317
-0.0078020557 -0.13308425 0.026639994 -0.025906237 -0.083643846 -0.04238516 0.097336076 -0.03172229
0.053775933 -0.035104986 -0.010329518 -0.014140896 0.026170379 -0.027483856 0.1370264 -0.011579917
0.1498535 -0.0556404 0.012497722 0.088114366 -0.07557405 0.06559066 -0.07539132 0.041422833
-0.044242773 0.0021627338 -0.042131614 -0.0040342477 0.027189355 -0.082892396 0.10989544 -0.030919053
-0.06875731 0.043539055 -0.04715414 -0.0933887 0.011574226 0.08578341 -0.050665267 0.03693155
0.07769362 0.07570947 0.016917007 0.013666666 0.05838034 0.06088681 -0.05990784 0.063656434
-0.035496246 0.0036315515 -0.03522187 -0.06788031 0.021745306 -0.06518712 -0.0028947701 -0.00213047
0.0027697734 -0.0007524053 0.05162702 -0.087414876 -0.04601343 0.08509856 0.11649329 -0.075885125
0.026463421 0.16788276 0.014513434 -0.06495964 0.050715588 -0.108518176 0.015009202 0.14952436
0.00018553883 -0.059549116 0.009896805 -0.064102694 0.033528447 0.013279477 -0.013083337 0.07136753
0.03844877 -0.02607513 -0.028976168 -0.12887119 -0.10153303 0.07181975 -0.020712057 0.13597655
-0.052671567 -0.11208856 -0.06624887 -0.058362048 -0.15779738 0.0017600518 0.050955582 0.03831787
0.0012264139 0.002534537 0.04453774 0.06511972 -0.022002451 0.09763471 -0.047497854 -0.025048388
0.03268686 -0.027356034 -0.10351654 0.0028367683 0.10744732 -0.019977914 0.15237541 -0.051850054
0.023530714 0.08497175 0.04847278 -0.03594619 -0.0013634757 -0.092647485 0.09549049 -0.16310063
-0.09472992 -0.0047140387 -0.040783823 -0.040006243 0.03955251 0.04853189 -0.062833086 -0.010980007
-0.15710032 -0.06017528 0.122970685 -0.049894568 0.12893103 0.08853707 0.10911022 0.06596801
0.11736436 0.010516655 -0.11732143 -0.06745193 -0.0475583 -0.0090155965 -0.0119762 -0.07163086
-0.035246 0.04324376 0.059137117 -0.012796574 0.01614007 -0.11047161 -0.037302658 -0.12263708
0.047294587 -0.018970631 -0.0726091 0.086442485 0.07248252 0.05035777 -0.010988552 0.061041534
-0.007934636 -0.07555547 -0.047933556 0.037181485 0.01426396 0.14484352 -0.0155021725 -0.119490586
0.023953842 -0.11964874 -0.0124439355 -0.0409417 0.08643591 -0.0023832237 0.1741105 -0.024915358
-0.03672224 -0.072500624 -0.035767972 0.024997564 -0.017385904 -0.03044384 0.015042752 -0.22898786
0.010487372 -0.05079869 0.007864963 0.19283332 0.050469853 -0.036160886 -0.072563566 -0.036589075
0.003405773 -0.043418787 -0.11801268 -0.15078734 0.19728181 -0.09960675 0.033743124 -0.025053525
-0.18214746 -0.047155946 0.11462172 -0.07040993 0.050086703 0.06178447 0.06355381 0.008025386
0.0054083173 -0.02099008 -0.003666017 -0.011686427 0.06101043 0.09952416 -0.019009402 -0.03001427
0.113661036 -0.08301005 0.082867 0.051752698 0.037812576 -0.06531597 -0.025737835 -0.014706699
-0.043424442 0.11080864 0.09207181 0.046420492 -0.031585023 0.06820934 -0.0016433644 0.0078014196

network_body._body_endoder.seq_layers.4.bias f4 [256]
00000000: ceca 973c 2fb6 223d fafe fa3b b48b 793c
00000010: e3e1 9b3c 3797 ce3c 239b 833d efcb 68bb
00000020: 17e1 b73c 1246 4b3c d29e f93c 778e 0d3d
00000030: e43e 3e3c 4163 5fbb e641 033d 0b76 5a3d
00000040: f82f 7b39 a84e 0e3d d29a 743c 55e8 fc3c
00000050: 151e 8e3c 0451 383c 646f a33c cc2c 083d
00000060: eb34 1d3d 7064 783c 2eee 9e3c 7227 893c
00000070: f576 023d d3db 413d ae76 793c c07d 2a3d
00000080: 9d85 473d 2a7a 293d eb92 3b3d e6a6 953c
00000090: 190a b8bc 9ea7 1b3c 7cff cb3c f527 263c
000000a0: 6e1e 9c3c a7bb 4f3c 7f93 cd3c 0625 133c
000000b0: d7e2 7a3d af04 2d3d d3f6 523d 43b6 02bc
000000c0: 0dab 083c c715 f239 8b66 ca3b c57c f7ba
000000d0: a75f 2dbc fe7f 333d f581 b53c e95e 263d
000000e0: 38b3 fe3c eb1d e13c 1720 0d3d 675e ccbb
000000f0: 9ac7 1e3b a7dc d9bc f475 f2b9 b64e 8f3c
00000100: dbb2 293d 1382 213c adb7 893c 6847 343d
00000110: e99c af3b e401 3c3c da85 7e3d b9d4 2e3c
00000120: 0e22 003b b486 553d 227e 113d e2b9 323c
00000130: 6adb 5b3d a2da 5b3c 70d3 d33c 5692 b23c
00000140: cc5c 96bb cd8b 33bd 32a5 a53c 39ff 3c3d
00000150: 35de 2fbd 8190 533b 9287 0b3d f08e a6bc
00000160: 020d b53c 79ce 87bb e727 653c aae1 2e3d
00000170: de4a 1b3c 21e5 303c 9bba 983a d6cd ed3c
00000180: 7e3f c13c 02e8 d93c 1a2c 23bc aeb3 b43c
00000190: fd8a a3bc 8f8e 263d f06a 7f3c 4903 723b
000001a0: 2cfa 303d 7131 8e3d 7c93 843c cbf0 ad3b
000001b0: 53e7 393d 8eca bf3c 2248 0b3d 25dc 1e3d
000001c0: b9b3 bc3b ba5f f53c dc3e b03c 7f4c 8e3c
000001d0: 3977 fc3c ff7c 103c 920c 053d 1b44 473c
000001e0: a256 9a3c 545e 0d3c 307f b33c ef02 023d
000001f0: dfee 593c 7976 1a3d 1c22 4b3b 5c1e ea3c
00000200: e570 a53c f5d6 d53c c4c1 133d 8209 ff3b
00000210: 7221 663d fbcd 1a3d 5adb fa3b 88b2 133c
00000220: 00b7 ac3c 3ed1 373d e25d d13c 5479 6a3c
00000230: 8c39 f73c 3b20 dabb 2b43 f33c 6540 8a3b
00000240: b8c6 b33b e5ba 873b 83a6 96ba 4f39 c13c
00000250: 8ac0 473d 21f2 f83c bc55 593d a05b a53c
00000260: b045 473c 11f0 4b3d 2c06 c83c b0fe 58ba
00000270: afaa f23c 49fc 0c3d 73c1 fa3a 1ac7 3b3c
00000280: b0e2 e83b b11d 1b3d 130c a63c e50e 883a
00000290: 2bf5 a53c 3fef d53b 8298 ae3c 1205 afba
000002a0: c5a7 f53c 80b8 ee3c 7119 403d 9517 073d
000002b0: 9fcd 9d3c 898d 9c3c 308b 963b 85e0 c53c
000002c0: bb6b 733d 0e0f cf3c 3ad3 603c 8815 82bc
000002d0: 6fcb ceba 52bf 053d a9ff dcba 81ce 423d
000002e0: b14c c13d b673 d33c 93ca 0b3d 08fa 2a3d
000002f0: c485 863c b339 623d a5a5 c23a 96a0 9a3c
00000300: 7644 a23c 1556 aa3c a948 5f3b da95 4a3c
00000310: b813 ea3c b77f bc3c 874d 2bba f3d5 1ebc
00000320: 35fb 03bd 0660 913c 66a8 163d 7e2d 1c3d
00000330: db07 3a3c 5b4b ff3c e3a5 5c3d de9f 463b
00000340: ec6a 693d cbb2 16bb 88da ce3c d950 053d
00000350: 6763 8c3d d3ac 073d fc7d 5e3c 970c 143d
00000360: 88b7 92bc 7eb3 ae3c a6bf 353d fc23 1c3c
00000370: 2a96 f63c 7132 683b 54be 0e3d 4485 553b
00000380: 21d0 7a3c a0f3 5b3b 3a96 d73c 6786 b43c
00000390: cc0e 8c3b 289c c93c 032f 873c 3fed 0ebc
000003a0: 202a d63c 82b9 79bc 97bd dbbc b9b4 8dbb
000003b0: c942 643d 676a 113d 04af 913c c79f 9a3c
000003c0: be6a 1b3d 34e4 743b 5c82 a63a 0516 243d
000003d0: fb76 5b3c 5fa8 133d 7dcb 8abb 2db8 7c3c
000003e0: 69c0 073d a2b4 503c 2e04 9d3c 86e7 5a3d
000003f0: 76f3 093d 0236 093c 3b1e a9bb 507c 0d3d
0.018529322 0.039724525 0.00765979 0.015231062 0.01902861 0.02521859 0.06426074 -0.0035521945
0.022446198 0.012406843 0.03047124 0.034559693 0.011611674 -0.003408626 0.032045268 0.05333523
0.00023955095 0.03474298 0.01492949 0.030872503 0.017348329 0.011249784 0.019950576 0.033245847
0.038380545 0.015160665 0.019400682 0.016742442 0.031851728 0.04732878 0.015226049 0.04162383
0.048711408 0.04137627 0.04579441 0.01826806 -0.022465752 0.009500412 0.024902098 0.010141362
0.019057479 0.012679017 0.025094746 0.008980995 0.061251488 0.042240795 0.05150492 -0.007978025
0.008341563 0.00046174062 0.006176775 -0.0018881789 -0.010581887 0.043823235 0.022156695 0.040617857
0.031091318 0.027480086 0.03445443 -0.0062368396 0.0024227859 -0.026594473 -0.0004624572 0.017493587
0.041430335 0.009857672 0.016811216 0.04401341 0.0053592813 0.01147506 0.06213937 0.010670834
0.0019551548 0.052130416 0.03552068 0.010908576 0.053676046 0.013418825 0.025857657 0.021798294
-0.004588699 -0.043834496 0.020220373 0.046141837 -0.042936523 0.0032282176 0.034064837 -0.02033183
0.02210093 -0.0041444865 0.013986564 0.04269568 0.009478299 0.010796816 0.0011652292 0.029028814
0.023589846 0.026599888 -0.009959245 0.022058334 -0.019963736 0.0406633 0.015589461 0.0036928228
0.043207332 0.06943024 0.016183607 0.005308246 0.045386624 0.023412015 0.034004338 0.038784165
0.0057587293 0.029952873 0.021514349 0.01737046 0.030818569 0.008818864 0.03248269 0.012162234
0.018840138 0.008628447 0.021911234 0.03174108 0.01330158 0.03771064 0.0030995673 0.02857893
0.020195434 0.026103476 0.03607346 0.007783116 0.05618424 0.037794095 0.0076555433 0.009014733
0.021083355 0.044877283 0.025557462 0.014311153 0.030178808 -0.006656674 0.029695114 0.004219102
0.0054863356 0.0041421526 -0.0011493716 0.023586897 0.048767604 0.030388894 0.05306028 0.020185292
0.012162611 0.049789492 0.024417005 -0.00082776975 0.029622404 0.034420285 0.0019131139 0.011461044
0.0071071014 0.037870113 0.02026943 0.0010380415 0.020258507 0.0065287645 0.021312956 -0.0013352952
0.029987225 0.02914071 0.046899263 0.032981474 0.019263087 0.019110458 0.004594229 0.02415491
0.05942891 0.025275733 0.013722235 -0.015879408 -0.0015777181 0.03265316 -0.0016860861 0.04756022
0.09438456 0.025812011 0.034128737 0.041742355 0.016421206 0.055230808 0.0014850391 0.018875401
0.019808035 0.020793 0.0034070408 0.012364829 0.028573856 0.023010118 -0.0006534685 -0.009694564
-0.03222199 0.017745983 0.03678169 0.038129322 0.011354412 0.031163862 0.05386914 0.003030769
0.056986734 -0.0022994753 0.025250688 0.032547805 0.06854897 0.033123802 0.013579842 0.03614482
-0.01790978 0.021325823 0.044372223 0.009530064 0.0301009 0.0035430456 0.03484948 0.0032580653
0.015308411 0.003356196 0.02631675 0.022036744 0.004274225 0.024610594 0.01650191 -0.008723556
0.026143134 -0.015241982 -0.026823802 -0.0043245223 0.055727754 0.035501864 0.01778365 0.018875016
0.037943594 0.0037367465 0.0012703645 0.040060062 0.013395066 0.036049243 -0.0042356835 0.01542477
0.03314248 0.012738379 0.019167032 0.053443454 0.033679448 0.008374693 -0.0051610745 0.03454238

action_model._continuous_distribution.log_sigma f4 [1, 39]
00000000: 5ef7 44bf 3baa 88bf 672f 1fbf 6d7b 04bf
00000010: 1dad 6fbf 1bc0 23bf c0a1 03c0 39f4 bfbf
00000020: 5112 07c0 cf99 cbbf 5ce1 ebbf 904f c5bf
00000030: 1216 afbe 23ad 0abf 4be6 a0be 852f 88be
00000040: d02a eebe db1d 5cbb ac86 d9bf 53ca b8bf
00000050: 5259 d7bf 5812 c5bf abca 97bf 845d 8dbf
00000060: 4738 fbbe 243f 9ebe e12f 1abf 8daa d0be
00000070: 4148 7cbe ac14 1ebf 972c 14bf 1795 18bf
00000080: 3808 34bf af29 fdbe e0bc ebbe 0c71 b5be
00000090: fcc7 efbe 9662 81be 08ef ecbe
-0.7693995 -1.067695 -0.62181705 -0.5175083 -0.93623525 -0.63965005 -2.0567474 -1.4996406
-2.110493 -1.5906314 -1.8428149 -1.5414906 -0.34196526 -0.54170436 -0.314257 -0.26598755
-0.46517038 -0.0033587131 -1.6994224 -1.4436744 -1.6824133 -1.5396223 -1.1858724 -1.1044164
-0.49066374 -0.30907547 -0.6022931 -0.4075512 -0.24636938 -0.6175029 -0.5788054 -0.59602493
-0.7032504 -0.49445865 -0.46042538 -0.3543781 -0.46832263 -0.25270528 -0.46276116
