Project/results/Walker_Run_01/Walker/Walker-29999989.onnx (onnx, 824633 bytes, 11 tensors)

network_body.observation_encoder.processors.0.normalizer.running_mean f4 [243]
00000000: 9303 5641 069f 9a3c 9d08 c2be c462 d53f
00000010: 4e06 74b0 0000 0000 d5ea 6f41 82b7 1dbd
00000020: 1cc7 293d f6ba 503c d48f 523f 6a21 91bd
00000030: f1b3 553d 4805 663c 4d94 593f 131d 14ba
00000040: 2bcf eebe c073 b340 0000 0000 a67d be3c
00000050: 8631 acbe 9faa ca3f 9556 223f 3a06 8e3e
00000060: bbae febd 83f0 95b8 bb5b efbb 146b a73c
00000070: 0000 0000 56eb f33c 26dc 0ebf da24 e23f
00000080: e551 db3d 4875 463c ffa2 a5bd 7772 b8bc
00000090: a05a c83e e2a1 0c3e 47cf a0bd f6d3 f8bb
000000a0: 03de 223c 96fe 7d3f db9a 163f 0000 0000
000000b0: 827a ce3c e189 ecbe f110 d53f b86e 763e
000000c0: d227 943d 9899 98bd 07c8 b8bb 20d2 363e
000000d0: 1fa7 9f3d 4bcb 013e f935 bfbc 4a54 b23c
000000e0: ae98 773f 4732 133f 0000 0000 50d5 1b3d
000000f0: 4e91 2ebf d113 f23f 8d8f 7dbe c2d6 973d
00000100: 04b7 32be 638a 60bd 269b 3e3f 23fe 4e3e
00000110: c8e4 a13b afad 48bb 4e3e 7b3c 16d9 7c3f
00000120: bf5d 253f 0000 0000 85eb acbc 9563 76be
00000130: d84d c03f b839 833f c824 da3e 4b09 883e
00000140: 652b 98bd 4fff 51be f7cd 8ebc 52cd 51be
00000150: f57c d7bb 86da d3bd b45c 673f 55a7 0d3f
00000160: fef6 853e 99bf 13bd 3398 0dbe a160 a73f
00000170: 1ebd 093f e0bd dc3e 7835 1c3c 310b a6bd
00000180: 8123 cabe 43af fbbd eb36 033f af2a 0e38
00000190: b236 6a39 449a 4f3f f08e 0e3f 7100 613f
000001a0: cdab 23bd 0699 51bd 2eed a23f d5f6 ed3e
000001b0: 74dc 403e 181e d43d 8434 b8bd 339a fbbe
000001c0: 3ebc 61be 0e99 d1bd a3c7 7bbc 3538 ce3c
000001d0: 5e98 6e3f 731a c03e 0000 0000 afa1 a93d
000001e0: f0d1 7bbe 58b8 c03f da9e af3f 4a9e 1dbe
000001f0: 41c8 71be f04a 7c3d 5d47 42be 2e91 d5bb
00000200: ef0c 7fbe 8e8f 853a 0b17 fa3c d0fd 663f
00000210: 3604 183f e8e3 603e 6ccc 9a3d 1a35 92bd
00000220: 014a ab3f 6265 353f 4ef8 363e 215c 2d3e
00000230: 674b 4d3d 8084 c3be b074 c2bd fb37 013f
00000240: 9ed0 43ba 2980 1d3c 88d0 4e3f b069 153f
00000250: a0e9 533f 10ff 9c3d bbcf 2abd dc8d a33f
00000260: 55e2 783e a66a c53a 70b1 21bc 4f73 523d
00000270: 1bd5 fbbe aedd 3abe cc36 c1bd 9532 973b
00000280: 4099 d2bb 88d5 753f 0682 de3e 0000 0000
00000290: b9e1 b4bd c758 13bf 1136 e93f ebad 55be
000002a0: b378 f43e d321 cbbe 26c8 4dbe f1a5 bc3e
000002b0: 72d5 303e 994e 43bc 6f56 663e 7ff9 dbbd
000002c0: 4f90 5f3f 9f5b 263f 0000 0000 0e74 dabd
000002d0: dfdf 04bf d0cb f53f bb6d 01bf c61f 983f
000002e0: 93a3 d9bd 7852 67be 42b8 b13e 27ce 8f3e
000002f0: 1479 e23a 7e98 113f db8d af3a 2d42 443f
00000300: 9953 1c3f 0000 0000 296b febd 33e8 01bf
00000310: 92bb 0140 94c9 fabe d69a 213f 5604 9abb
00000320: 8d8d 49be d625 a33e 326f c23e 0000 0000
00000330: 8573 073e 09df 10bf 78f6 e83f 1862 22be
00000340: 058b 44bf a397 563f 30c8 223e 6b2c db3e
00000350: b253 4d3e eddc 8abc cf56 7dbe 796f 0e3e
00000360: 9289 5a3f e149 313f 0000 0000 4eb8 033e
00000370: 5ebc 0abf 3747 f53f f9e1 fdbe 2793 84bf
00000380: 3d8a 003f f012 463e a774 d43e 1aff 993e
00000390: 5885 233c da10 05bf 305d 48bc 1f65 473f
000003a0: 3574 003f 0000 0000 d346 d93d 41c4 06bf
000003b0: baac 0340 1a98 04bf d01f 80bf b268 f43e
000003c0: f855 303e 653b bc3e bc40 bd3e
13.375873 0.018874656 -0.37897196 1.6670766 -8.877564e-10 0.0 14.994832 -0.038505085
0.04144965 0.012739887 0.82250714 -0.07086451 0.05217356 0.014039345 0.84991914 -0.00056500843
-0.46642432 5.6078796 0.0 0.023253273 -0.33631533 1.583332 0.63413364 0.27739125
-0.12435671 -7.1496725e-05 -0.0073046363 0.020436801 0.0 0.029775303 -0.5580467 1.7667496
0.107089795 0.012112923 -0.0808773 -0.022515519 0.3913164 0.13733628 -0.07852035 -0.007593627
0.009940627 0.9921659 0.5883004 0.0 0.0252049 -0.46198943 1.6645795 0.24065673
0.072341576 -0.07451171 -0.0056390795 0.17853594 0.07795548 0.12675206 -0.023341166 0.021768708
0.96717346 0.5749859 0.0 0.038045228 -0.6819047 1.8912297 -0.24761792 0.07414009
-0.17452627 -0.054819476 0.7445549 0.20214133 0.004940603 -0.0030621102 0.015334679 0.98768747
0.6459617 0.0 -0.021108398 -0.24061425 1.5023756 1.0251989 0.42606187 0.2656959
-0.07430152 -0.20507549 -0.017432196 -0.2048848 -0.0065761753 -0.103444144 0.9037583 0.55333453
0.26165003 -0.036071394 -0.1382759 1.3076364 0.53804195 0.43113613 0.009534232 -0.08107603
-0.39480212 -0.12289288 0.51255673 3.389519e-05 0.00022336355 0.81094766 0.55686855 0.878913
-0.039958764 -0.051171325 1.2728631 0.4647738 0.18834096 0.103573024 -0.089943916 -0.49141082
-0.22044465 -0.10234271 -0.015367421 0.025173286 0.93201244 0.3752018 0.0 0.08282792
-0.24591804 1.5056257 1.3720353 -0.15392414 -0.23611547 0.061594903 -0.18972535 -0.006517551
-0.24907278 0.0010189877 0.030528566 0.9023104 0.59381425 0.2196194 0.07558522 -0.071390346
1.3381959 0.7085782 0.17868158 0.16929676 0.050120737 -0.38187027 -0.094949126 0.50476044
-0.0007469746 0.009613075 0.80786943 0.5836439 0.8277836 0.07665837 -0.041702013 1.2777667
0.24305089 0.0015061691 -0.009868965 0.051379498 -0.49186024 -0.18248627 -0.0943428 0.004614184
-0.00642696 0.9602895 0.43458575 0.0 -0.08832116 -0.5755734 1.8219625 -0.20867126
0.47748336 -0.39674243 -0.20095882 0.36845353 0.17268923 -0.011920595 0.2249391 -0.10740947
0.8732957 0.6498355 0.0 -0.10666667 -0.519041 1.9202824 -0.5055806 1.1884696
-0.106269024 -0.22590053 0.3471089 0.2808697 0.0017278516 0.5687331 0.0013393717 0.76663476
0.6106506 0.0 -0.12422783 -0.5074493 2.0270734 -0.48981917 0.63126886 -0.004700224
-0.19682904 0.31864804 0.3797546 0.0 0.13227661 -0.56590325 1.8200216 -0.15857732
-0.76774627 0.8382513 0.15896678 0.42807326 0.20051458 -0.016951049 -0.24740146 0.13909711
0.85366166 0.69253355 0.0 0.12863275 -0.54193676 1.9162358 -0.49586466 -1.0357407
0.50210935 0.19343162 0.4149525 0.3007744 0.009980522 -0.5197884 -0.012229249 0.77888674
0.5017732 0.0 0.10609212 -0.5264321 2.0574174 -0.5179459 -1.0009708 0.47736126
0.17220294 0.36764064 0.3696345

network_body._body_endoder.seq_layers.0.weight f4 [256, 243]
00000000: fc62 053d 9fc1 00bd b269 17bc 2ee7 4fbe
00000010: ce9f 95bc 6a8b 163d f245 72bd ab32 c73c
00000020: cebd 18b8 2668 c6bc 4fe6 dcbc 51de 523e
00000030: acea 0c3e e25a b33d e066 dabd 8a41 f93d
00000040: 0f50 b43c 0cac 083d 474c 6b3d 11ab 753a
00000050: 413e b23c e204 363d 8245 d3bc 6c98 25be
00000060: 76ac 533d 260f 073e 4046 ff3d ed97 913c
00000070: 53fc 933d e098 6b3d 9d40 15be a35e afbd
00000080: 6245 2ebd dca2 86bc ad01 58bd 0b28 4bbd
00000090: bcf3 833d 41eb 223d 80ba b53b a31a c43d
000000a0: e149 7fbd 52f3 a23d 9b54 34bd 3ec9 0abd
000000b0: 2f05 3ebe d626 1d3e 4458 42bd 2ea1 093d
000000c0: 6d42 633b d53c 0c3e 54b4 b2b9 9d34 1f3c
000000d0: 3a87 6e3d e39b d2bd 9ca9 853e 2d8b 8fbd
000000e0: 3225 14bd ce36 c13c c7ed 6bbd 1186 8cbc
000000f0: 0d5f 31be 5009 47ba 9bcf 8f3c 1ea7 cbbd
00000100: 392e 053e 798c 27be 10d8 68bc dd91 c03c
00000110: 05cf f13c eab4 d0bd d1fa 54bd a552 2e3c
00000120: da39 1dbc d523 dc3c 59c7 6dbd 9834 7f3d
00000130: d4e2 09be 2e91 80bd c130 733d 1fd7 d33d
00000140: 06ca 6cbd c20e 8c3d c601 743d 92cb 04be
00000150: debb 15be 1e4e 863e b783 c93c c68c 6c3d
00000160: df21 21bd 8b7b 043e d6eb c8bc 1d62 6bbd
00000170: 731b 82bd a056 27be a2ee a73d 7611 8c3b
00000180: 573f 893d 7f7c 5e3c 0a05 cfbd b76b 41be
00000190: a04d 95bc 0d98 d43d 2fae a43b 3d03 30be
000001a0: 7452 883d e387 d23c b999 9dbd 3adc 57bd
000001b0: 9e74 8dbc a491 f1bd 5e96 723c 3871 55bd
000001c0: a26d 3fbd 8ff4 e43c 0653 473d 314b d1bd
000001d0: 464e 10bc 528e 7abc 15b7 eb3d 3a59 98bd
000001e0: 3c41 23bd 89f0 68bc 5254 cbbd 60bb 69bb
000001f0: b40b bcbc cc0d ffbd 8658 813d 6cb7 2ebd
00000200: 7523 5cbb 2fd7 d23d 1dff 013e e9e2 f7bd
00000210: e31d 4cbd 8c43 6c3d 79b6 443e e1a5 773d
00000220: 32ac 9e3c a509 9ebd aa44 0d3d 01e9 73bd
00000230: 2405 20bd 90ae ccbb 70ab cc3d f90f 95bd
00000240: fceb 883d def0 0fbd 11c5 5c3c 8fd5 8f3c
00000250: ac3d 04bd 6f79 a63d 8ca4 e2bd b2eb 913d
00000260: be35 08be db91 ab3c fe51 38be 1546 133d
00000270: 40bd a8bd 156f 2bbd 8d73 cd3d 94f7 c33d
00000280: 116b 953d 9cfd 563d dbdf 81bd f72d 093e
00000290: 8f5a 663c 5591 923d ab0b a3bb 1ef5 c43c
000002a0: a438 903c 4d07 d6bd 5602 133d 2c34 bd3d
000002b0: ab9c 4b3b 0946 eebc 109c 89bd a929 253c
000002c0: 68ac d2bd 7c92 083d ee32 32bc 2047 803d
000002d0: c385 173c 87c8 383d a63f 36bd 47d6 98bb
000002e0: 9674 433d cab9 1a3d 6d41 d1bc af73 70bc
000002f0: b562 d4bd 6829 1fbe ea28 0f3d 5857 c53d
00000300: 3ecd ba3d 9448 5ebd 33f3 70bc 0c95 ba3c
00000310: a56c e23d d0d8 293d bd62 993d 2c38 9a3d
00000320: 4922 9c3c 9e9b f63d 380a 683c 328e a33c
00000330: 6d19 69bc beb4 4ebe 7773 a2bd ee41 42bd
00000340: b9ca b7bd 6440 4d3d fe09 f9bd 4e95 ddba
00000350: b7f0 e6bd 048b 50bd 9c48 b7bb 20fe 80bd
00000360: 35ff 6e3d fcc4 00bd 5628 febc d55b 20bd
00000370: 2a23 1fbe 078c a6bd a649 96bd 7c8b a8bd
00000380: 99a2 1c3d fc1d 363c a21d 43bc 4694 02be
00000390: a1f7 2c3c 2d98 83bc 2f7c 5c3d 27ed 4a3c
000003a0: 4e95 153c 5082 d4bd cccd 503e baa5 3abe
000003b0: 3a6a 12bd 966f 06be 8e01 d8bd 787d 36bb
000003c0: 059d 23bd e6d4 5abd 3f09 12be dae5 113d
000003d0: c037 a03d fe69 103c 601c d53d 6900 f83c
000003e0: 341f aa3c 32b7 11bc 5b37 68bd 4e78 d63d
000003f0: ac6e 15bd 98ab 75bd 0018 06be a7bd 693d
0.032565102 -0.03143465 -0.009241508 -0.20303032 -0.018264677 0.03675405 -0.059148736 0.024316153
-3.6416393e-05 -0.024219584 -0.026965288 0.2059262 0.13761395 0.08757569 -0.10664153 0.12170704
0.022010831 0.0333672 0.05744579 0.0009371499 0.0217582 0.04443825 -0.02578998 -0.16171426
0.051678143 0.13189372 0.12464571 0.01777264 0.072258614 0.05751884 -0.1457543 -0.085629724
-0.042546637 -0.01643508 -0.052735973 -0.049598735 0.06442973 0.039775137 0.005545914 0.09575393
-0.062326316 0.07956566 -0.044026 -0.033883326 -0.18556665 0.15346846 -0.047447458 0.03360098
0.0034677044 0.1369508 -0.0003408516 0.009717134 0.05823443 -0.10283639 0.26105964 -0.070089675
-0.036168285 0.023585703 -0.05759981 -0.017153772 -0.17321415 -0.0007592635 0.017555049 -0.099439844
0.13005914 -0.1636218 -0.01421167 0.023507053 0.02951766 -0.101907566 -0.05199701 0.010639821
-0.009596312 0.026872555 -0.05805144 0.062306017 -0.13465434 -0.06277691 0.059372667 0.103437655
-0.057809852 0.06838752 0.059572004 -0.12968281 -0.14622447 0.26231474 0.02459894 0.05775144
-0.039338943 0.12937753 -0.024526518 -0.057466615 -0.06352892 -0.16341639 0.081998125 0.0042745424
0.06701534 0.013579487 -0.10108383 -0.18888746 -0.018225491 0.10380564 0.005025647 -0.17188735
0.06656352 0.025699561 -0.07695336 -0.05270026 -0.017267521 -0.11795357 0.014806358 -0.052109927
-0.046735413 0.027948646 0.04866316 -0.1021942 -0.008807724 -0.015292721 0.115095295 -0.074388936
-0.039857134 -0.014217504 -0.09928192 -0.0035664663 -0.0229548 -0.124538034 0.06315713 -0.042655393
-0.003359047 0.10294949 0.12694974 -0.121038266 -0.04983319 0.057681605 0.19210233 0.06046093
0.019369218 -0.07716683 0.03448931 -0.05954838 -0.039067402 -0.0062463954 0.099936366 -0.07278437
0.066856354 -0.03514182 0.013474719 0.017557887 -0.032285377 0.0812863 -0.11066541 0.071250334
-0.13301751 0.020943573 -0.18000028 0.035955507 -0.082392216 -0.041853983 0.10031805 0.09568706
0.07295812 0.052487954 -0.06341525 0.1339644 0.014059677 0.07156626 -0.004975756 0.024042662
0.017605133 -0.10450611 0.0358909 0.092384666 0.0031068723 -0.02908613 -0.0671922 0.010080733
-0.1028679 0.033342823 -0.0108764 0.06263566 0.0092482 0.045113113 -0.044494294 -0.0046642157
0.047718607 0.03777484 -0.025543893 -0.014676019 -0.10370389 -0.15543139 0.034951128 0.096358
0.09121178 -0.054268435 -0.014706421 0.02277615 0.110558785 0.041466534 0.07489536 0.07530245
0.019059317 0.120414004 0.014162593 0.019965265 -0.014227253 -0.20186135 -0.079321794 -0.047426157
-0.08974213 0.050110236 -0.12160109 -0.0016905458 -0.112763815 -0.050913826 -0.0055933725 -0.062984705
0.058348853 -0.03143786 -0.031025093 -0.039150078 -0.15540758 -0.08132177 -0.07338266 -0.082297295
0.038241003 0.011115547 -0.0119089205 -0.12751874 0.010557086 -0.016063774 0.05382937 0.012385643
0.009129835 -0.10376418 0.20391005 -0.18227282 -0.035745837 -0.13128504 -0.105471715 -0.0027845781
-0.039944667 -0.053425692 -0.1426134 0.035619594 0.078231335 0.008814333 0.10405803 0.030273633
0.020766832 -0.008893775 -0.056693416 0.10472165 -0.036482498 -0.059978098 -0.13095093 0.057065632

network_body._body_endoder.seq_layers.0.bias f4 [256]
00000000: 9ed5 a13b 1eb0 d8ba bcbf 68bc b2fc ca3d
00000010: f6d2 293b 5ebc 8c3c 4b0f 0a3d 1080 a7b8
00000020: 2870 2dbc 78bc adbc 5731 a03c 52cd b13c
00000030: 9e1b a13c 3242 89bc 3346 543d 51a1 133d
00000040: 2939 2f3c 2b85 3b3d a4ec 00bc 2bca 643c
00000050: 10ff 553c 9149 023d 07a6 783c b0eb de3d
00000060: e8ae 56bc bd54 743d 83b5 a93c 0c96 023d
00000070: 4591 9fbc 251e 113d eccd 2e3d 14a6 de3b
00000080: 3034 2fbc e780 f53c 164b 1cbb 6b3f 323d
00000090: c03f 243d ce99 763c 83d4 233d f260 ce3c
000000a0: 3b6a 763c cf48 3d3c 5e96 7c3d 4c56 0a3b
000000b0: 9990 31bc af3c 07bc 7342 193d bd11 ef3c
000000c0: ec9b 5c3d e9e1 95bb a0a8 4e3c 93f3 80bb
000000d0: 7601 643d 3188 e9bb aced 213c c696 133c
000000e0: 7ca7 673d 5bc3 313d e5ad 0e3d 4e10 a83d
000000f0: 3de1 113d 91d7 b93d 79de 823c b484 623b
00000100: e198 153d 6318 d13d b1d6 433c ab93 35bc
00000110: e6f8 843d 0210 a4bc c683 d43c 7a98 6a3c
00000120: 0b6d f63c 441f aabc f86d 813d f15d f73d
00000130: 998b 603c c417 063d 89c3 973c 547e 1a3d
00000140: bb5c 4dbc 22cd 003d fab7 19bc ba43 7c3b
00000150: 2f56 b33c 3c9a cd3c ef78 aa3d 7161 393d
00000160: 887a ea3d c11e 0c3c 7cf7 ac3c 8d62 a33c
00000170: 6eac 33bb feab 123d 2d6f ae3d 577c 933d
00000180: bf4a e03c 5b8b b13c 690c 86bc 889d 213c
00000190: 53a0 5a3d 6ed0 333d 6318 963c cb6c 713d
000001a0: cf9c 403c 8748 0c3c 48d0 883c a051 3d3d
000001b0: 5bc5 cabc b131 45bc df30 8c3d be7e dc3c
000001c0: 7c37 1c3d a73d 2c3d 0e1b 7a3d dc0f 203d
000001d0: d292 c3bc e064 8e3c 2eb5 5b3d daeb fc3c
000001e0: ab91 813d fed8 b33c 756c 333b 0e74 873d
000001f0: 2df5 00bc 63bb 15bb 401c ea3c d6a7 f03c
00000200: e646 cb3c 3a8e 263d 7da9 843d f520 213d
00000210: 257f 433d c0c6 323d debe 113c 783e f63c
00000220: 580e 883d e96d 873d 855e 113d 5355 0d3d
00000230: db94 a03d 155c 833a 3f0e c13b c251 acbc
00000240: 5d6b aa3c 1c09 6e3d 152a a63d fe70 af3d
00000250: cf7c 193d c755 643d 12ce 393d 01e9 5c3d
00000260: 632e 8bbb 67d3 f33c 5759 923d 18a2 f13c
00000270: c83f 083d 0a62 24bd 6e2f 983c c112 5e3c
00000280: c766 253d 4fca e6bc 34f4 08bd ee76 073d
00000290: fae3 123d 18cd d0bc b764 df3b 8cc2 003d
000002a0: 91c8 933c 0303 0b3d 8bbc f1bc aa3e 5b3d
000002b0: 5a50 ee3c 03d3 1f3c 1ad6 39bc a2e4 9e3d
000002c0: bbf2 1d3d 5037 ee3c 6ffa 4d3d ebc6 043d
000002d0: 2351 953d dc39 c03d 4769 54bd 16c1 a13d
000002e0: 8645 55bc f045 de3c ff42 443c a1e6 7f39
000002f0: 37b9 fc3b b6de 6e3d 9ab8 d43d 0606 333c
00000300: de41 053d 3610 663d c76d afbb e5a3 0e3d
00000310: 3078 3e3c 4f8e 263d 973a 503c 3f57 a23c
00000320: 3bfb ae3c 11ec ce3c e928 0f3c 2897 8b3d
00000330: 35a7 233d 8a26 053d bcb4 a13b 0433 a33c
00000340: 81e8 083d 3f70 9b3c 8e33 f23c 39e4 5c3c
00000350: ea81 98bc 3824 f63c c273 893c c66a 043d
00000360: 30c4 353d fbc8 463d 7637 a73d 692b 993c
00000370: 6c7d e9bc 57fb 243d 8c92 c13b cbf1 2c3d
00000380: 2795 5b3d f077 81bc 9593 f9bc ce12 2f3d
00000390: 242d bf3c b211 093d 4d47 3dbd 311c 823c
000003a0: 2d42 4a3d 6fa1 523d 105e 9dbb 254c b53c
000003b0: bf85 c03b 5b48 923d 18f3 633d 174e 513d
000003c0: 85ec 33bc bbe2 423d 2f1b 48bc bd4d 853d
000003d0: 2cb5 413d dd41 283d a233 433d 5611 a73d
000003e0: e413 9d3d dc01 a83b 3c12 3ebb 0a4d 8abb
000003f0: abbf 14bd da06 b83d 67be 293d cf59 1bbd
0.004938795 -0.0016531979 -0.014205869 0.09911479 0.0025913096 0.017179664 0.03370599 -7.987034e-05
-0.010585822 -0.021208033 0.019554777 0.02170435 0.01966649 -0.016755197 0.05182476 0.036042515
0.01069478 0.045781296 -0.0078689195 0.013964216 0.0130613 0.03180844 0.015176303 0.108847976
-0.013103224 0.059651125 0.020716434 0.031881377 -0.01947845 0.03542914 0.04267685 0.0067947004
-0.010693595 0.029968692 -0.0023848466 0.04351751 0.04009986 0.015051318 0.03999759 0.025192712
0.015039976 0.011553003 0.06166684 0.0021108566 -0.010837697 -0.008254214 0.037416887 0.029183263
0.053859636 -0.0045740497 0.0126134455 -0.0039352863 0.055665456 -0.007126831 0.009883326 0.009008115
0.05655621 0.043399196 0.034833807 0.08206235 0.035615195 0.09074319 0.015975224 0.003456396
0.03652275 0.102097295 0.011953042 -0.01108257 0.06492786 -0.020027164 0.02594174 0.01431858
0.030081293 -0.020766862 0.06319803 0.12078465 0.013705158 0.03273751 0.018525856 0.037718132
-0.012534316 0.03144563 -0.009382242 0.0038492517 0.021891681 0.025097959 0.083238475 0.045258943
0.11449152 0.008552254 0.021114103 0.019944454 -0.0027416009 0.035808556 0.08517299 0.0720145
0.027379392 0.021672895 -0.01636334 0.0098642185 0.053375553 0.043899946 0.018322175 0.058941644
0.011756136 0.008562214 0.016700879 0.04622042 -0.02475231 -0.012035773 0.06845259 0.026915904
0.03813885 0.042050984 0.061060958 0.039077625 -0.02387372 0.017382085 0.053639583 0.030874182
0.06326612 0.021954056 0.0027377878 0.066139325 -0.007870954 -0.0022847287 0.028577924 0.029376905
0.02481408 0.04066298 0.0647764 0.03933807 0.047728676 0.043646574 0.008895604 0.030059084
0.06643361 0.066127606 0.03549053 0.0345052 0.07840892 0.001002195 0.005891591 -0.021035079
0.020803148 0.058114156 0.08113495 0.085664734 0.037472542 0.055745866 0.04536254 0.053933147
-0.004247473 0.02976389 0.071459465 0.029496238 0.03326395 -0.04013256 0.018577304 0.013554276
0.04038122 -0.02817264 -0.033436015 0.033072405 0.035861947 -0.025488421 0.006817426 0.031435534
0.018039973 0.03393842 -0.02950885 0.053526558 0.029091049 0.009754899 -0.01134255 0.07758452
0.038561564 0.02907911 0.05028766 0.032416265 0.07290866 0.09386036 -0.051858213 0.07898156
-0.013017064 0.027132958 0.011978864 0.00024404611 0.007712509 0.058317862 0.103867725 0.010926729
0.03253352 0.056167804 -0.0053536627 0.03482427 0.011625335 0.04066306 0.012709281 0.019816993
0.02136003 0.02525905 0.008737781 0.0681594 0.039954383 0.032507457 0.0049348753 0.019921787
0.033424858 0.018974422 0.029565599 0.013482147 -0.018616635 0.030046567 0.01677883 0.03232839
0.044376552 0.048531514 0.08164875 0.018697457 -0.028502189 0.04027876 0.0059073623 0.04222278
0.05360904 -0.015804261 -0.03046588 0.042742543 0.023336954 0.03346414 -0.046210576 0.015882583
0.049379516 0.051423486 -0.004802473 0.022131035 0.005875319 0.07142707 0.055651754 0.051099863
-0.010981684 0.04757951 -0.012213512 0.06508968 0.04729192 0.041078437 0.047656663 0.081576034
0.076698095 0.005127175 -0.0029002568 -0.0042206096 -0.0363156 0.08985682 0.041441347 -0.037927445

network_body._body_endoder.seq_layers.2.weight f4 [256, 256]
00000000: f99c 203d faae 9a3d 45bc e3bd 6c8a a33d
00000010: 67d0 63bc d69e 44be 4c32 783d 1e13 fdbd
00000020: 4a71 013d 360a 36bd 3298 813c 9aef 3e3d
00000030: 7d4e d9bd 9ac9 dcbc 74fd 07bd 2f05 4c3e
00000040: 45cf d0bd b0ba 0a3e b819 35bb e6ec 883d
00000050: c12b 2dbd 5f4f 0b3d ff69 9abd ec58 a73d
00000060: 7de5 87bd c6e3 d43c 0dde cdbb 5b6b a73c
00000070: 0abb cdbd ca94 80bc e200 0a3d 3696 803d
00000080: 99f6 c9bd 4e87 3ebc 44f8 b03d 92d8 02bd
00000090: fec2 05bd bd8a 553e 0e5b 0cbd 104a 06bd
000000a0: 0f0f 98bd d2cb 763d c265 483e a703 b53d
000000b0: 48ad e9bd 113f 3dbb a107 943c 0813 39be
000000c0: 980b b8bd 1f01 7ebd 09cd efbc 45f9 4e3d
000000d0: 8e32 403d 6be7 0a3d 2dc7 c73d 8cca ac3c
000000e0: c985 173e ad65 0fbd 6644 9dbc 40bc f63d
000000f0: d386 9bbc ed65 d1bd c362 bd3d ecfd 7fbd
00000100: a7ff 96bd bd12 f63d 4f46 28bd 2820 aabd
00000110: 0ea4 923d 1d85 55be 4d5a b53d 8621 a33d
00000120: dea6 933d 1848 af3c bb8d 1ebd 032d acbc
00000130: 89a1 3a3d 36da d93b e6f9 12be 788b 853d
00000140: ca55 a33d 977e cb3d b1cf a1bd 2b78 ac3d
00000150: a586 fd3b 202b d6bd 2e7b 953b b0e4 cd3d
00000160: 239c 2cbe 2f6b da3d efd3 8f3d dd01 79bd
00000170: 8c40 74bd 4239 983d ff60 5dbd dfde b43d
00000180: 68e3 df3c 1e91 c1bc 1caf 6fbc 6a58 d3bd
00000190: 21a5 813c 1886 55be 3a40 193d 5cad e33d
000001a0: a242 923d 421b f1bc bf4a 8e3d 901f 8e3d
000001b0: c827 833d 3832 05be 3505 fbbb 84ce e13c
000001c0: d1ac dcbd c902 d1bd 6760 f1bd 35cf 28be
000001d0: 0d98 a63c c69a f8bd c0a7 b5bd 6ccc cc3d
000001e0: d405 e93d 3ef9 aa3d c74b fa3c d86a 023e
000001f0: 25cd 823d b4cb 9fbd 45e7 423a fa89 ca3d
00000200: 5398 50bd 5622 a9bc bf18 813d 6f66 1fbe
00000210: ba74 ee3d 812b e1bc 9138 233d f9f5 063d
00000220: 285d 72bd 11d9 e83c 8f81 5d3b 112b 003e
00000230: 0372 0a3c 9686 1c3d 954d 41be 493b 67bd
00000240: f94f e6bc d47e 86bd acd9 d53b d196 84bc
00000250: e5d8 0cbe d6f3 b83c 6f34 b33d a0d8 12bd
00000260: aa44 bd3b 4ee2 88bd 4413 3a3e 01cb c03d
00000270: 9b72 3fbd c835 b8bc be2a 6b3b 1917 3bbd
00000280: b360 963c 6060 3c3c c317 b2ba 0381 823d
00000290: bbf5 523d d356 81bd 4ca0 9c3d 2d25 b2bd
000002a0: c7f4 c03d d531 20bd ff07 923d 35dd 253d
000002b0: b29d b1bb 6bbe 233d b987 8d3d 93e3 613d
000002c0: 299b 92bd 1893 31bd 99f4 cd3d 1333 34be
000002d0: 2040 d73b 66b4 06bd 37eb 49bd cc58 1f3e
000002e0: 078f 3e3c 74bf b43c 0884 433e f833 c73d
000002f0: 0de9 c53d 9d66 e43d 82ab a2bd 6b76 4a3e
00000300: e5a3 673d f8ca dc3d bb3a 023c 1d90 c2bd
00000310: ed6e a03c b761 e93d 2a1d 56bc 981b 67bd
00000320: 05ca e23d 38d6 09bd 273a d5bc 1266 2a3e
00000330: 3681 a93d de27 3cbd 8a7f 36bd f39d bd3d
00000340: 6039 2f3d 3d32 a03d ab4d fabd 713d 44bd
00000350: e8a9 5bbb 3bf8 7bbc 23ed 1b3d dcf1 583d
00000360: 895e fcbb f17d ab3d 2d27 dd3a ec35 62bd
00000370: 4122 e0bd c328 60bd 3da0 12be 7d41 7bbc
00000380: e026 c3bd 18e1 9abd 8c70 cd3c 481d ff3d
00000390: 3e8d 8cbc 3253 a93c dc0b 91bd 4c4d 0e3d
000003a0: 59d1 d93d 5d19 803e d4dd e4bc 24b6 15bc
000003b0: 6093 473d 9622 24be 0a01 5dbd e794 303e
000003c0: f314 023b a180 47bd 5195 263d a2c5 3e3d
000003d0: c1f4 593d 9cf6 b4bc 0a04 a53d c5f4 a93d
000003e0: 103e c53d a765 2bbd 83a6 e4bd 2062 91bd
000003f0: 7e8a c7bd 82e1 b1bd 4756 cf3d 6131 b0ba
0.0392122 0.075529054 -0.11119894 0.07985386 -0.013904667 -0.19201216 0.06059484 -0.12357162
0.03160218 -0.04444333 0.015819643 0.04661522 -0.106106736 -0.0269516 -0.033200696 0.19923852
-0.101957835 0.13547778 -0.0027633738 0.0668581 -0.042278055 0.03401124 -0.075397484 0.081712574
-0.06635568 0.025987517 -0.006282574 0.020436933 -0.100454405 -0.015695948 0.03369225 0.062786505
-0.09861488 -0.011628939 0.08641103 -0.03194482 -0.032656662 0.20853706 -0.034266524 -0.032785475
-0.07424747 0.060252972 0.19570068 0.08838587 -0.11410004 -0.0028876702 0.018070044 -0.18073666
-0.08986586 -0.062012788 -0.029272573 0.05053069 0.046923213 0.033912104 0.09754787 0.021092676
0.14797129 -0.035009075 -0.019197654 0.120476246 -0.018985188 -0.10224519 0.09247353 -0.06249802
-0.073729806 0.12015293 -0.041082677 -0.083069146 0.07160197 -0.2085156 0.08855114 0.079653785
0.07209562 0.021396682 -0.038709383 -0.021017557 0.04556421 0.006648327 -0.14353141 0.06520742
0.07975347 0.099362545 -0.07900942 0.08421358 0.007736998 -0.10457444 0.0045618033 0.10053384
-0.16856436 0.10664975 0.07022845 -0.060792793 -0.05963187 0.07432796 -0.05404758 0.08831572
0.027330115 -0.023628768 -0.014629152 -0.10319598 0.01582581 -0.20851934 0.037414767 0.1111705
0.071416155 -0.029431943 0.069478504 0.06939614 0.06404072 -0.13007438 -0.007660533 0.027564295
-0.107751496 -0.10205609 -0.117859654 -0.16485293 0.020336175 -0.12138896 -0.088698864 0.09999928
0.11378065 0.083483204 0.030553712 0.1273607 0.063867845 -0.07802525 0.00074349745 0.09889598
-0.050926518 -0.020646255 0.06303548 -0.15566419 0.116433576 -0.027486565 0.039848868 0.03294942
-0.059170872 0.028423818 0.0033799147 0.12516429 0.008450034 0.03821429 -0.18877251 -0.056453023
-0.028114306 -0.06567159 0.0065261927 -0.016185196 -0.13754614 0.022577208 0.08750235 -0.03585112
0.0057760077 -0.06683789 0.18171412 0.0941372 -0.046740156 -0.022486582 0.003588363 -0.045676325
0.018356657 0.011497587 -0.0013587404 0.06372263 0.051503878 -0.063153885 0.07647762 -0.08698497
0.094216876 -0.039110024 0.071304314 0.040494163 -0.00542041 0.03997652 0.06910653 0.055148672
-0.07158501 -0.04335317 0.10056419 -0.17597608 0.0065689236 -0.032886885 -0.049296584 0.15561217
0.01163078 0.022063948 0.19093335 0.09726709 0.096635915 0.111523844 -0.07942869 0.19771735
0.056552786 0.10780901 0.007948573 -0.09500144 0.019584144 0.11395591 -0.013068477 -0.0564228
0.110736884 -0.03365156 -0.026028706 0.16640499 0.08276598 -0.045936458 -0.044555224 0.09258642
0.042779326 0.07822082 -0.12221845 -0.047910158 -0.003351802 -0.015379007 0.038067948 0.05296503
-0.007701699 0.08373631 0.0016872637 -0.055227205 -0.109440334 -0.054726373 -0.14318939 -0.015335438
-0.09528899 -0.075624645 0.02507808 0.12456757 -0.017157193 0.020669553 -0.0708234 0.034741685
0.10635633 0.2501935 -0.027937807 -0.009137664 0.048724532 -0.16028818 -0.05395607 0.17244302
0.0019848912 -0.048706654 0.040669743 0.046575196 0.05321193 -0.022090249 0.08057411 0.08298639
0.09630978 -0.04184499 -0.11164572 -0.07098794 -0.09743212 -0.0868559 0.10123878 -0.001344245

network_body._body_endoder.seq_layers.2.bias f4 [256]
00000000: 8b60 3a3d 0e98 a63c d745 1f3d 1d20 7a3c
00000010: 66f3 2a3d c6e7 c23b 5928 a33c 3d1e f53c
00000020: f023 27bc 7e87 073d 58f3 013d 9252 143d
00000030: 8948 913c 6095 d8bb dcb6 36bb 3c63 263d
00000040: f5f6 fa3c 1947 e53c 874e e63c aa15 963c
00000050: a4a6 203d f159 963c 0941 25bd 6b07 ac3c
00000060: 8326 733c 5616 b13c a67f aa3c 8ac4 a3bc
00000070: 8dc4 713c 785e 9fbc d6de fbbc 07c4 663d
00000080: c872 c83c 1402 4b3d 77c3 b93b 0ba8 e0bc
00000090: ab5a d53c 5e47 a8bc 767f 2f3c 7ee4 b4bb
000000a0: d1c7 1a3d d03f b33b 620f 2e3d 612d 473d
000000b0: 9679 7a3d dfb3 16bc 4b31 e53a a626 2d3d
000000c0: 421a 613d fd6e 263c 7a6b 1b3c dd2f 2c3d
000000d0: 36d9 343d a9c7 07bc a0c6 553d f740 20bc
000000e0: b632 603d 46e1 ad3c 1620 633d 90e5 0a3d
000000f0: 2a81 2ebc f7d9 283c 5a55 063d 100f 173d
00000100: 26c6 84bc f83b 26bc 63f2 bb3a b55d e93c
00000110: c806 3d3b c8ab 2d3d ad1a cdb7 5aa9 0cbc
00000120: 022f 04bc d5f7 dd3c 08c8 75bc 26b5 a13b
00000130: 5b18 193d ef9f ee39 08c7 d8bb 5a93 a8bc
00000140: cac3 ac3b 9219 73bc c453 a33c 51d2 bd3c
00000150: 106f b63b 90da 6c3d 5942 b23b 758b 8e3c
00000160: 089a 693c 8d83 9bbc 49bf 9f3c 15ce 28bc
00000170: a5eb 253c f385 103d 1dbe 203c d05f d83c
00000180: b364 bbbc 6ef7 dbbc 6cff ad3c d975 813c
00000190: 1b1b c8bc 62d6 223b 9f1f 033d 3757 7dbb
000001a0: e04f ab3c f370 b5bc 1501 46bb e6e8 bebc
000001b0: 4abf 073c 2ba1 e23b e656 003d 6cd4 183c
000001c0: 66a9 ca3b ee74 a73c ac2d d13b acb2 843b
000001d0: ae75 ee3a 3c90 7f3d f018 9e3d c51c 27bc
000001e0: 02fd 81bc 732b 913c e17c e13b c2fb fcbc
000001f0: d46a fe3c be5a 6abc b358 0d3d 19e2 26bc
00000200: 352b 543d 0d16 103c 4154 203d 5f53 f33a
00000210: 953a c2bc eff2 723b a109 003d ce65 7c3c
00000220: 2e05 453d 4361 1b3c 2a31 9fb9 3385 1b3c
00000230: d4a3 e53c 3657 aabc 2114 f9bc fe6d d53c
00000240: bb58 07bc b677 a3bc c772 b33c 602d 27ba
00000250: bb86 2c3d 517a 413d 94ee 12bd 5ad8 283c
00000260: ff77 263d 9864 eb3c 1a51 4f3c 0fc4 9abc
00000270: 74c3 cb3c 31a4 dc3b 71f6 0d3d c038 0cbc
00000280: 26c5 4dbc cb9d be3c 079f 5cbb bbae e43c
00000290: 504c acbb ecbd a33b a9fe 523b 58ed de3c
000002a0: 3b4f 443d d24b 52bc 1990 0b3d 3928 e53c
000002b0: 7151 fd3c da09 ef3c 8e52 28bc 94b0 fe3c
000002c0: 6ce1 863c ad17 38bc 27d1 063d 626a 043d
000002d0: 972e aa3b e61c 073d 86c2 663c 1cd6 1c3d
000002e0: 4909 793d 27bf 8c3c 529b 013b 8e82 ffbb
000002f0: b4d6 393d 8cac 99bc 52b1 8f3c 435a ed3c
00000300: bc1e 253d 390f e4bc 7b47 923d 4c9d 7d3c
00000310: bdf5 023d a516 f3bc bbd9 a03c b6f0 a0bc
00000320: 1734 e1ba 4443 7cbc 0afc 463d 65b3 40bb
00000330: d09a 213d c331 863c 8077 db3c da8b 333c
00000340: 7be2 973d 59e5 16bc 3a41 5abc ea00 0c3d
00000350: 353e 08bb 865e d33b 2b3d 1a3d 0c24 0c3c
00000360: 8efb c73c 6349 593c 6c42 963c f8f6 903b
00000370: 0f97 563c 1129 0d3d 5554 22bb f911 dabc
00000380: 8b1e 933c 712a bd3b 78fc 89bc 93a1 45bc
00000390: 18de d8bb 790b 39bd 3cb6 ad3b df29 36ba
000003a0: 4807 5d3d ad60 b23c a6a3 1a3d 57fa f23c
000003b0: 7626 b1bb db50 4b3d 9025 853b eab5 753b
000003c0: 9a30 2f3c 4d06 3d3d 5c12 fdba d32c a93c
000003d0: ff40 073d bb74 72bc 9c59 1e3c 218b 943c
000003e0: 1631 c7bc 5763 01bc da83 88bc cd6a 1e3d
000003f0: a66c 4d3d 7e90 413c f77d 7b3b c250 3cbd
0.045502227 0.020336177 0.038884964 0.015266445 0.04173603 0.0059480397 0.0199167 0.029921645
-0.010201439 0.0330882 0.03172621 0.036211558 0.017734783 -0.0066096038 -0.0027879989 0.04062198
0.030635336 0.027988004 0.028113617 0.018320877 0.03922142 0.018353434 -0.040345225 0.02099963
0.014840725 0.021617096 0.02081282 -0.019991178 0.014756334 -0.019454226 -0.030745905 0.05633929
0.024468794 0.04956253 0.005669053 -0.02742388 0.02604421 -0.020541843 0.010711541 -0.0055204025
0.037788216 0.0054702535 0.04249514 0.04862726 0.06115111 -0.009198158 0.0017486004 0.042273186
0.054956682 0.010158298 0.009486074 0.042037833 0.04415246 -0.008287349 0.052191377 -0.009781114
0.05473586 0.021225583 0.05545052 0.033910334 -0.010650912 0.010305873 0.03279624 0.0368796
-0.016207766 -0.010146134 0.0014339205 0.028487066 0.0028843153 0.04240015 -2.4450326e-05 -0.008585298
-0.008067848 0.027095715 -0.015001304 0.0049349247 0.037376743 0.00045514057 -0.0066155232 -0.020578075
0.0052723633 -0.014837639 0.019937404 0.023171576 0.005567439 0.057825625 0.005440038 0.017400483
0.014257915 -0.018983627 0.019500392 -0.01030304 0.010126983 0.035283994 0.009810952 0.026412874
-0.022875166 -0.026851382 0.021239959 0.015803264 -0.024426987 0.002484702 0.032012578 -0.003865672
0.02091211 -0.022148585 -0.0030213047 -0.023304414 0.008285353 0.0069161854 0.031332873 0.009327989
0.0061847446 0.020441499 0.0063836183 0.0040496197 0.001819303 0.062393412 0.077196 -0.01019973
-0.015867714 0.017720914 0.006881342 -0.030881766 0.031056799 -0.014303861 0.03450842 -0.010185742
0.051799018 0.00879432 0.03914285 0.0018564275 -0.023709575 0.003707107 0.031259183 0.0154051315
0.048100643 0.009483638 -0.00030363473 0.009492206 0.02803222 -0.020793539 -0.030405106 0.026053425
-0.008260901 -0.019954544 0.021905316 -0.0006377306 0.042120676 0.04723579 -0.035872057 0.0103054885
0.04064178 0.02873449 0.012653613 -0.018892316 0.024873473 0.0067334403 0.034658853 -0.008558452
-0.012559211 0.0232686 -0.0033664124 0.02791535 -0.0052581206 0.0049970057 0.0032195246 0.027212784
0.047927123 -0.01283546 0.03407297 0.027973281 0.030922623 0.029179502 -0.010273589 0.031090058
0.016464911 -0.0112361135 0.032914307 0.032328017 0.005193542 0.032986544 0.014084464 0.038290128
0.06079987 0.017180992 0.0019776416 -0.0077975458 0.045370772 -0.018759035 0.017540608 0.028973704
0.040312514 -0.02783929 0.0714254 0.015479397 0.031972636 -0.029673884 0.019635072 -0.01964603
-0.0017181662 -0.015396897 0.048580207 -0.0029403802 0.03945428 0.01638115 0.02679038 0.010958636
0.074162446 -0.009209954 -0.013321215 0.03418056 -0.0020789031 0.006450477 0.03765599 0.008553516
0.024411943 0.013262126 0.01834222 0.004423972 0.013097539 0.034462992 -0.0024769504 -0.026619898
0.0179589 0.0057728817 -0.01684402 -0.012062448 -0.0066182725 -0.045176957 0.005301265 -0.00069489883
0.053962022 0.021774614 0.037753724 0.029660387 -0.005406196 0.049637657 0.0040633157 0.0037492462
0.01069274 0.046148587 -0.001930784 0.020651257 0.03302097 -0.0147983385 0.009664919 0.018132748
-0.024315398 -0.00789722 -0.016664434 0.038676072 0.050152443 0.011814235 0.0038374641 -0.045975454

network_body._body_endoder.seq_layers.4.weight f4 [256, 256]
00000000: aef0 083c 67aa 3abd d8bf 0fbb 227a cf3d
00000010: c1ff d83c fbcb 153e 379a 58bd 848c 9ebd
00000020: 1705 0cbd 98ba 9d3c f66f 98bd 3b5b 483d
00000030: 3997 e8bb 16ca d5bc 4c62 8e3d 25a3 6f3d
00000040: 69a7 40bc 6a94 09bb 11c1 95bc d145 5bbd
00000050: a424 69bd 0448 8cbd b01b b33d be4b 1dbc
00000060: 6292 02bc 678c 08be 05b3 db3c 111a d4bc
00000070: 938a aabd 467f 2cbd 633b c83d 57ad 02bd
00000080: 4739 5c3d e107 10bd 8d79 2ebc a13e 68bc
00000090: 6e86 d63c c774 e0bc 7778 0c3e 66ae 40bc
000000a0: 4d9f 193e 3c4c 64bd 45e9 503c c714 b43d
000000b0: 6b33 9bbd 0410 873d 3a3f 9abd b352 2a3d
000000c0: b269 35bd 5b0e 1b3b a1fa 2cbd 0f7d 6cbb
000000d0: 225b e13c 0ff0 a9bd 894e e03d 0a58 00bd
000000e0: 40b8 8cbd 03e7 313d f70c 41bd b8fe bebd
000000f0: b5f8 3e3c 9db8 af3d dced 4fbd 622d 173d
00000100: 330e a03d d69c 9a3d 7b86 8b3c d540 593c
00000110: 6a33 703d 4f6c 7a3d 243c 75bd 6f60 823d
00000120: 6550 10bd f086 5f3b dcf2 0fbd 4b93 8cbd
00000130: 3569 b43c 2cf7 85bd 28bd 26bb 13d6 2bbb
00000140: 981c 4b3b fe83 38ba 25ae 543d 0e44 b3bd
00000150: 81c7 3bbd 72da ae3d 3097 ee3d d10c 9bbd
00000160: 5ff1 d13c 9c22 2c3e e0c6 6a3c 6f12 85bd
00000170: b61b 4e3d 1e51 debd 897c 733c f62c 193e
00000180: 62e9 ec39 59bb 72bd 2c9b 273c 0d14 83bd
00000190: 546d 073d b9e3 573c 7433 45bc 875e 913d
000001a0: bff1 1d3d 9f65 d5bc 2cd9 eebc d169 03be
000001b0: 936a cfbd 7f75 933d fb4b a8bc b6b7 0b3e
000001c0: 83de 56bd 0a8b e6bd ceb8 86bd 860b 6fbd
000001d0: f228 21be 7438 e53a cda7 513d a912 1e3d
000001e0: a643 ae3a a381 343b 5e83 353d 8441 843d
000001f0: 8556 b2bc 66c6 c63d 3efb 42bd 6660 ccbc
00000200: 5a96 073d 38cb e1bc b711 d3bd a607 2f3b
00000210: 6265 dc3d a3fa a3bc 69ca 1b3e 6f87 53bd
00000220: 6f46 c23c d705 ae3d 8b59 473d b499 12bd
00000230: aedc 48ba 8291 bdbd d9e4 c23d 7867 27be
00000240: c7e0 c1bd 4476 89bb 2186 27bd 1a14 22bd
00000250: e944 223d a355 463d c537 80bd fbf4 29bc
00000260: 0b9f 20be a205 75bd 87a8 fb3d 0fbe 4bbd
00000270: 84a9 033e ae8c b53d 343c df3d 0259 883d
00000280: 4d9b f03d 1c06 253c bc56 f0bd fcdf 8abd
00000290: 1f4c 43bd 390e 13bc fc1b 40bc cd61 92bd
000002a0: 19c4 11bd b5e6 2f3d 2d68 733d a7eb 4dbc
000002b0: 8714 893c 8cd9 e1bd 283b 19bd c16c fbbd
000002c0: e59e 423d fb9a 99bc 0f20 95bd 270e b13d
000002d0: 659c 953d 6273 4d3d 8f26 36bc e877 7a3d
000002e0: aac6 f7bb 2f79 9abd 6fde 43bd 35fc 183d
000002f0: 149d 6a3c 04ea 133e 8e27 7cbc 28c3 f3bd
00000300: 39da c13c 8e6d f4bd 2a11 56bc 3fe2 27bd
00000310: 586b b03d 0c95 feba f036 323e efe7 cabc
00000320: eb75 13bd 56dc 94bd 3e19 10bd 362f ce3c
00000330: bf0a 8fbc 3002 fabc 4206 723c 3bd9 69be
00000340: 6c54 283c 6689 4ebd e24a 093c bda7 453e
00000350: aeba 4e3d ef9e 13bd dfc5 95bd 9985 15bd
00000360: 8366 773b 4096 33bd 21e2 f0bd b33c 1abe
00000370: 0686 4a3e b471 cdbd 0117 0a3d e1ea cbbc
00000380: ba91 3abe 409a 3fbd 2b12 eb3d 6768 90bd
00000390: 96b9 4c3d 4cb9 7d3d f9fc 813d 6df8 013c
000003a0: a7a6 b03b 2788 a7bc 38cf 82bb ec06 3cbc
000003b0: 1dfe 7b3d 941e cc3d 25b2 94bc a88f f7bc
000003c0: 5ff9 e83d 4554 aabd a600 a93d 2471 553d
000003d0: df11 1b3d 2842 85bd 8717 d1bc 95f5 73bc
000003e0: 9b6f 30bd fa7c e33d 2ac5 bc3d 4231 3c3d
000003f0: ee15 02bd 05df 8c3d b8d3 cfba 8e08 0d3c
0.008358164 -0.045572665 -0.0021934416 0.10130717 0.02648914 0.14628594 -0.052881446 -0.07741645
-0.03418454 0.019254014 -0.0744323 0.04891513 -0.0070981053 -0.026097339 0.069523424 0.058505196
-0.011758664 -0.0020993003 -0.018280538 -0.05353338 -0.05691971 -0.068496734 0.08745515 -0.009600578
-0.007969471 -0.13334809 0.026818762 -0.025891336 -0.08327212 -0.042113565 0.09776952 -0.03190359
0.05376556 -0.035163764 -0.010649097 -0.014175088 0.026187148 -0.027399434 0.13717829 -0.01176033
0.15002175 -0.055736765 0.012750928 0.087930255 -0.075781666 0.065948516 -0.07531591 0.041582774
-0.044290252 0.002365968 -0.042231206 -0.0036085283 0.027509276 -0.08297741 0.109524794 -0.03133396
-0.068710804 0.0434332 -0.047131505 -0.093259275 0.011655976 0.08580134 -0.05076395 0.036908515
0.07815208 0.07549445 0.017031899 0.013260086 0.058642782 0.061138447 -0.059871808 0.063660495
-0.03523292 0.0034107529 -0.035143718 -0.068640314 0.022022823 -0.06541285 -0.0025442336 -0.0026220127
0.0030992385 -0.00070387113 0.05192389 -0.08753215 -0.04584456 0.08537759 0.116499305 -0.07570804
0.02562779 0.16810077 0.014329642 -0.064976566 0.050319396 -0.108553156 0.014861234 0.14958557
0.00045187311 -0.0592607 0.010229867 -0.06400309 0.033063248 0.013176852 -0.012036193 0.07098108
0.038560625 -0.026049433 -0.02915629 -0.12833335 -0.10127749 0.07200145 -0.020544043 0.13644299
-0.052458297 -0.11256988 -0.065782174 -0.0583606 -0.15738276 0.0017488138 0.051185418 0.038592014
0.0013295307 0.002754309 0.044314735 0.064578086 -0.021769771 0.0970581 -0.047602884 -0.02494831
0.03310237 -0.027562723 -0.10306113 0.002670744 0.10761525 -0.020016974 0.15213932 -0.05164283
0.023715226 0.084972076 0.04866938 -0.035791114 -0.00076622784 -0.09256269 0.095163055 -0.16348064
-0.09466701 -0.0041950066 -0.0408994 -0.03956995 0.0396165 0.048421513 -0.06260637 -0.010373349
-0.1568567 -0.059819825 0.122880034 -0.0497418 0.12857634 0.08864723 0.10900155 0.06657602
0.11748371 0.010072257 -0.11735293 -0.06781003 -0.047680017 -0.008975559 -0.011725422 -0.0714756
-0.035587404 0.04294463 0.05942552 -0.012568391 0.016733421 -0.11027822 -0.03740993 -0.122766025
0.047514815 -0.018750658 -0.07281505 0.086452775 0.073052205 0.050158866 -0.0111175915 0.061149508
-0.0075615244 -0.07542645 -0.04781955 0.0373499 0.014319677 0.14444739 -0.01539029 -0.119024575
0.023663627 -0.119349584 -0.013065616 -0.04098725 0.08614224 -0.0019423082 0.1740377 -0.024768798
-0.036001127 -0.07268588 -0.035180323 0.025168996 -0.017461179 -0.030518621 0.014772 -0.22836773
0.010274034 -0.050424002 0.00837967 0.19302268 0.050471 -0.036040243 -0.073131315 -0.03650436
0.003775031 -0.04384446 -0.11761881 -0.15062217 0.19777688 -0.10031453 0.033713344 -0.024892272
-0.18219653 -0.046777964 0.11478075 -0.07051163 0.049981676 0.06194429 0.06347079 0.0079327645
0.0053909603 -0.020450665 -0.0039919876 -0.01147626 0.06152164 0.0996677 -0.018151352 -0.030219868
0.11375689 -0.083168544 0.08252077 0.052109852 0.03785884 -0.06506759 -0.025523914 -0.014890094
-0.043075185 0.11107822 0.092172936 0.045945413 -0.031759195 0.06878475 -0.0015855944 0.008607997

network_body._body_endoder.seq_layers.4.bias f4 [256]
00000000: 4fbf 983c be08 223d 8b7e f63b 8866 753c
00000010: 3f13 9f3c 815f d03c bbfa 833d 5ead 84bb
00000020: 960e b73c 29fc 4a3c 8e3a fa3c c587 0d3d
00000030: d29d 3c3c dad2 5cbb 161e 033d 5075 5a3d
00000040: 4887 9939 2f68 0f3d 69c7 763c f600 ff3c
00000050: d81e 8d3c feb8 3b3c 2529 a23c 08e6 093d
00000060: 8562 1f3d 922c 773c 8d05 a03c 7066 8c3c
00000070: 4fb0 023d 0dd4 413d 5a9e 793c c48b 2a3d
00000080: fd17 463d 8024 293d 7ecd 3a3d 4e3c 943c
00000090: e5f3 b6bc 209b 1e3c d934 cf3c b476 293c
000000a0: 1533 9b3c 8936 4b3c 950a cd3c 1990 153c
000000b0: 0608 7b3d ea44 2c3d 03b3 523d 191a 04bc
000000c0: 9d25 0d3c c33e 303a 1584 cb3b dc83 08bb
000000d0: 86d2 27bc 7f6a 323d 2943 b63c a070 273d
000000e0: 152d fd3c 7da5 e23c c7af 0e3d 1ecc c6bb
000000f0: d441 133b 0e59 dabc accb 0eba 913e 8f3c
00000100: d52b 293d c8fb 213c e2a2 873c eb4a 343d
00000110: 6c15 ba3b a955 3e3c 7e77 7e3d 0dc2 2b3c
00000120: e31f ee3a 1055 553d 1117 123d dfb0 333c
00000130: cd68 5c3d 1dd0 613c 4b1d d53c a6a3 b43c
00000140: 952f 8fbb e3db 32bd 67aa a83c 5d5c 3c3d
00000150: 2ecd 2fbd f9fa 533b 29bf 0c3d e2f6 a6bc
00000160: 511c b53c cac1 88bb 89a8 693c ec78 2e3d
00000170: cd28 153c c84b 2d3c aec1 a73a 175d eb3c
00000180: a133 c43c 5f14 da3c c510 24bc 9a7c b33c
00000190: b90a 9fbc 8332 263d 0768 743c 895b 6d3b
000001a0: ef44 313d b244 8e3d 1c90 843c 6f62 b23b
000001b0: e896 3a3d ea04 c33c 3477 0b3d 97a2 1e3d
000001c0: 7b20 bf3b 95b6 f63c 3a99 b03c cefa 8b3c
000001d0: da42 fc3c d2d9 133c ac7e 063d b37b 4d3c
000001e0: e9de 9a3c 1ef2 083c 9e8f b33c a4e4 013d
000001f0: 5d88 593c bd71 193d bbb0 493b c651 ec3c
00000200: f23c a83c 5ca0 d63c a775 123d 7a6f 053c
00000210: 627f 663d 7eb2 1a3d 2210 fa3b 75d5 0d3c
00000220: e910 ac3c 2973 393d 8a2b d03c 4898 6c3c
00000230: cda7 f63c 5f95 debb eeb1 f13c 4c4a 8e3b
00000240: 747c b33b 4a6b 7b3b c0a0 afba 3804 c13c
00000250: c5cd 473d a548 f73c 77a7 583d 7bed a83c
00000260: 1591 403c 32eb 4a3d 386b c73c 5450 6eba
00000270: 5344 f13c 3ab0 0c3d 6909 e33a 582b 423c
00000280: 8a58 e43b 4af1 193d aba4 a23c f314 8b3a
00000290: 573f a73c aec5 db3b a070 b03c 97a1 ddba
000002a0: fc0e f73c 4481 f03c 7ad5 3f3d 8ba4 063d
000002b0: 6658 9d3c d029 9c3c ec97 9b3b c8e4 c83c
000002c0: faf4 723d 3580 cf3c 3b06 623c 2f82 7ebc
000002d0: d8cf bcba 1c29 053d b0af f3ba a8f7 413d
000002e0: 79a1 c13d 5636 ce3c af03 0c3d 14ca 2b3d
000002f0: ed84 853c 1379 633d c452 073b 4883 9b3c
00000300: 3c6a a13c 8a5f a93c a5a1 683b 4b63 513c
00000310: eb40 ec3c c078 bd3c 8eba 99b9 6973 1ebc
00000320: 1d7f 04bd b5e8 913c 23dc 173d f7aa 1c3d
00000330: eff0 3c3c cf98 003d 71b8 5d3d b2d6 423b
00000340: becb 6a3d d39a f9ba c342 cf3c 644e 053d
00000350: ea42 8c3d a92d 073d 437f 643c 3821 143d
00000360: 1bd1 93bc 7473 ad3c b432 353d 7222 173c
00000370: 46d4 f73c 1047 653b 9e7f 0e3d d710 653b
00000380: c276 7c3c 2b0e 593b 49fa d73c d6fd b33c
00000390: a46a 853b b4c8 c83c b696 863c 28b6 0dbc
000003a0: 867f d63c 8197 7cbc 5a19 dcbc 2ccd 8dbb
000003b0: 7e97 653d 4bcd 113d b26d 923c 85ce 953c
000003c0: f1e4 1b3d b084 6c3b 9e88 ca3a 37c1 243d
000003d0: 02da 5c3c de06 143d c837 8bbb 55b3 783c
000003e0: 12dd 073d c72e 4f3c 0e5a 9b3c 7067 5a3d
000003f0: 92d3 093d 47bd 083c c44d b0bb b46a 0d3d
0.01864591 0.03955912 0.0075224093 0.014978059 0.019418357 0.025436165 0.064443074 -0.0040489873
0.022345822 0.012389221 0.0305455 0.034553308 0.011512237 -0.0033695013 0.032011114 0.053334534
0.00029283226 0.035011467 0.0150621915 0.031128388 0.017226622 0.01145768 0.01979501 0.03366664
0.038912315 0.01508631 0.019533897 0.01713869 0.031906422 0.047321368 0.015235508 0.041637197
0.04836272 0.041294575 0.04560613 0.018095162 -0.022333095 0.009680539 0.025293754 0.010343242
0.018945256 0.012403139 0.02502946 0.009128594 0.06128695 0.04205791 0.05144025 -0.008062863
0.008614925 0.00067232194 0.0062108138 -0.0020830547 -0.010243064 0.043558594 0.022248821 0.040878892
0.030905286 0.027666802 0.034835603 -0.006066813 0.0022469657 -0.026653793 -0.00054472196 0.017485889
0.041301567 0.0098866895 0.01655716 0.04401676 0.005678823 0.011617103 0.062125675 0.010483277
0.0018167462 0.052083075 0.03566653 0.010967462 0.053810883 0.013782528 0.026014945 0.02205069
-0.004369686 -0.04366673 0.020589067 0.045986522 -0.042920284 0.0032345636 0.034361992 -0.020381395
0.022108229 -0.004173492 0.014261373 0.04259579 0.009103966 0.01057715 0.001279881 0.028730912
0.0239504 0.026621042 -0.010013764 0.02191 -0.019414293 0.040575515 0.01491738 0.003621789
0.04327863 0.06946696 0.016181998 0.005443863 0.04555407 0.023806054 0.034049228 0.038729277
0.0058327294 0.030116359 0.02155744 0.017087366 0.030793596 0.0090241 0.032835647 0.012541699
0.01890512 0.0083585065 0.021919068 0.03171219 0.01327714 0.037461985 0.0030775506 0.028847586
0.020536873 0.026199512 0.035756733 0.008144254 0.056273825 0.03776788 0.0076313177 0.008656849
0.021004157 0.04527584 0.025411386 0.014440604 0.03010931 -0.0067927088 0.029503789 0.004342353
0.0054774825 0.003836351 -0.0013399348 0.023561582 0.04878022 0.030186007 0.052894082 0.020621052
0.01175334 0.049540706 0.024343118 -0.00090909493 0.029451525 0.03434775 0.001732153 0.011851154
0.0069685625 0.037583627 0.01985391 0.0010611102 0.020415945 0.006706915 0.021538079 -0.001690912
0.030158512 0.029358514 0.046834446 0.032871764 0.01920719 0.019062907 0.004748335 0.024523154
0.05931566 0.025329689 0.013795431 -0.015533968 -0.0014405204 0.032509908 -0.0018591788 0.047355324
0.094546266 0.025172394 0.0341832 0.041940764 0.016298736 0.055535387 0.0020648697 0.018983498
0.019703977 0.02067544 0.0035496738 0.012780021 0.028839549 0.023128867 -0.00029321428 -0.009671071
-0.032347787 0.017811159 0.037075173 0.038248982 0.011532052 0.03139573 0.054130975 0.002973002
0.05732321 -0.0019043334 0.02530039 0.032545462 0.068487 0.03300253 0.013946357 0.036164492
-0.018044045 0.021173216 0.044237807 0.009224521 0.030252587 0.0034984984 0.034789674 0.0034952664
0.015409173 0.0033120017 0.026364462 0.021971624 0.0040715504 0.024509765 0.016429286 -0.008649386
0.026183855 -0.015416981 -0.026867557 -0.004327437 0.056052677 0.035596173 0.017874572 0.018286953
0.038060132 0.003608983 0.0015452092 0.040223327 0.0134797115 0.03613936 -0.004248593 0.015179475
0.033169813 0.01264543 0.01896384 0.053321302 0.033649035 0.0083459085 -0.005380364 0.03452559

action_model._continuous_distribution.log_sigma f4 [1, 39]
00000000: 392c 45bf aebe 88bf 503c 1fbf b85a 04bf
00000010: 15db 6fbf acab 23bf f8b2 03c0 0317 c0bf
00000020: e526 07c0 d0b5 cbbf 62f8 ebbf 0f7a c5bf
00000030: 03f4 aebe 8fa0 0abf 568f a0be bb30 88be
00000040: a92b eebe f2e6 43bb 0a9f d9bf c7d1 b8bf
00000050: 9671 d7bf f619 c5bf 24dc 97bf 2364 8dbf
00000060: c061 fbbe 432c 9ebe 3964 1abf d0ae d0be
00000070: d541 7cbe bb4d 1ebf f635 14bf ddbf 18bf
00000080: 0e16 34bf 2556 fdbe fa02 ecbe 3075 b5be
00000090: 7cab efbe b79d 81be 3f97 ecbe
-0.77020603 -1.0683191 -0.62201405 -0.51700926 -0.9369367 -0.63933825 -2.0577984 -1.5007023
-2.111749 -1.591486 -1.8435175 -1.5427874 -0.3417054 -0.5415124 -0.31359357 -0.26599678
-0.46517685 -0.0029892293 -1.700166 -1.4439019 -1.6831539 -1.5398548 -1.1864057 -1.1046184
-0.49098015 -0.30893144 -0.6030918 -0.4075837 -0.24634488 -0.6183736 -0.5789484 -0.5966776
-0.7034615 -0.49479786 -0.4609602 -0.3544097 -0.4681052 -0.2531564 -0.46209142
