Project/results/hb_01/Hummingbird.onnx (onnx, 649088 bytes, 10 tensors)

network_body._body_endoder.seq_layers.0.weight f4 [256, 46]
000000 e6 a8 89 3e 27 21 5e bd ef b2 cd 3e a7 d1 85 3e
       0.26886672 -0.054230835 0.40175578 0.26136515
000010 2e 88 a6 bd 1a 48 47 be 8c 2a 2a bd 9e 8d ad bd
       -0.08131443 -0.19461098 -0.041544482 -0.08474277
000020 da b8 0d 3d 3b 09 da 3d 24 d6 57 bd c1 c7 ad 3d
       0.034600116 0.10646292 -0.052694455 0.08485366
000030 3f 5c 0a 3e 3c f8 d6 3c 2d f5 b2 3e 0c bd 23 3c
       0.13511752 0.026241414 0.3495268 0.009993803
000040 e4 ea 26 3e db c2 10 3e 24 f2 67 bc 89 ea 0e 3d
       0.16300541 0.14136831 -0.014156852 0.03489164
000050 86 d2 5c bd 8a b4 8f 3c 00 ca bf 3b d6 50 a5 bd
       -0.05391171 0.017542142 0.0058529377 -0.08072059
000060 eb 20 b8 3d b9 9b 96 bd 91 11 1c bd 89 b8 4b 3e
       0.089906536 -0.073539205 -0.03810269 0.19894613
000070 05 b0 cf 3e b1 e5 3f bd 0d 30 3f 3a e1 cf ed 3d
       0.4056398 -0.04684991 0.0007293232 0.116119154
000080 d6 e4 3b 3e ee 34 8b 3e df b4 89 bd 78 cd d5 3d
       0.18349013 0.2718882 -0.067239515 0.10439581
000090 b0 09 03 be 96 a7 92 be 71 94 37 be d9 51 78 bd
       -0.12796664 -0.28643483 -0.1792772 -0.06062493
0000a0 17 fb dd 3d 19 fe c0 3d 6f dd 05 bd f6 9a 16 3b
       0.10838907 0.09423465 -0.03268188 0.0022980548
0000b0 c4 71 8d bd 7f 05 86 3e 3b 4c 6d 3e af 9d 0d 3e
       -0.06906465 0.26176068 0.23173611 0.13829683
0000c0 0d 05 8d bd e5 72 54 3d 74 97 12 be 8f 9c cb 3d
       -0.06885729 0.051867384 -0.14315587 0.099419706
0000d0 b2 b2 08 be 26 ee 52 bd 8d 39 70 3e 80 b1 99 3d
       -0.13349417 -0.051496647 0.23459454 0.075045586
0000e0 89 ec ee 3d cc d6 4c be 7b 78 08 bd 16 bb 72 3e
       0.11666209 -0.20003814 -0.033318024 0.2370418
0000f0 04 75 1d bd a2 63 a8 3b 7f 40 3d be 5c d0 74 be
       -0.038441673 0.0051388303 -0.18481635 -0.23907608
000100 96 28 c4 bd 18 3a b6 bd 6f 0b e7 3d 39 e6 8b bc
       -0.09578054 -0.08897799 0.11281478 -0.017077552
000110 94 10 a5 bd 79 8b 0c 3d 5a f1 f7 bc 88 a5 18 3e
       -0.08059803 0.0343127 -0.030266453 0.14906895
000120 b7 e9 58 3e 52 19 46 bd d8 34 13 3e 02 d2 84 3e
       0.21182905 -0.04836399 0.14375627 0.25941473
000130 25 b7 74 be ec 2f d0 bc 41 f7 0b be 4e 1d 0d be
       -0.23897989 -0.025413476 -0.13668539 -0.1378071
000140 88 77 02 3e f1 0c 25 3e 75 7f 64 bd 3e 6b 56 be
       0.1274091 0.16118218 -0.055785615 -0.20939347
000150 d2 c2 16 3e 37 16 54 3e 1b 2b 87 be b3 9e 26 3e
       0.14722756 0.207116 -0.26400074 0.16271476
000160 cf c7 cd bb f6 33 5e be 32 35 f8 bc fc 40 8b bc
       -0.0062799226 -0.21699509 -0.030298803 -0.01699876
000170 cd 26 89 3e 18 88 e4 bd 62 9d 95 3d 4d 25 7c 3e
       0.26787415 -0.1115877 0.07305409 0.24623604
000180 1f 31 32 be e3 57 84 3e 2f a7 e9 bd b8 2d 7f 3e
       -0.1740155 0.25848302 -0.11408841 0.24919784
000190 94 53 1d bc 46 e2 1a 3d 6a 25 66 bd 8e 30 13 be
       -0.009602446 0.037813447 -0.056188025 -0.14373991
0001a0 40 d3 9f 3e fa 28 1d be 13 3f 05 3e c2 2b 37 3d
       0.31215858 -0.15347663 0.13012342 0.044719465
0001b0 be a6 a9 bd 73 88 f3 3c 99 c4 b0 3e c8 40 5e 3b
       -0.08283757 0.02972815 0.34524992 0.0033913124
0001c0 ab ee ac 3d 84 a4 df bd 67 0b 79 3e 8b d4 ba bd
       0.0844396 -0.10920051 0.24320756 -0.091225706
0001d0 be a9 cc bd fd ff 78 3d 2d ab bd 3d 3e 48 95 3e
       -0.09993313 0.060791004 0.09261165 0.2915668
0001e0 b1 d3 fe bc 0e cb 47 3d e0 9a 3b bd 01 80 b4 3b
       -0.031106802 0.048777632 -0.045801997 0.0055084233
0001f0 d4 d7 27 be a3 5a 10 be 52 73 2c 3d 5c ed 53 3c
       -0.16390926 -0.14097075 0.042102166 0.012935009
000200 62 bc 1e be 5b f1 7d 3d 43 be 18 3d d2 1e 08 3e
       -0.1550155 0.061997753 0.037290823 0.13293007
000210 b3 54 1f 3d 14 62 a4 be d7 97 be 3c 69 c7 66 bd
       0.038899135 -0.32106078 0.023265762 -0.056342516
000220 ff a3 a9 3e 03 79 86 3e 69 be 90 3d 7b ef 05 bc
       0.33132932 0.262642 0.07067568 -0.008174772
000230 3a 98 10 bd cb 29 f9 3d 29 11 02 be 5e fe 3d 3d
       -0.035301425 0.121661745 -0.12701859 0.04638516
000240 8e 03 76 3e aa ef ae be dd 7c 8e be 1a 50 2c 3e
       0.24024794 -0.34167224 -0.27829638 0.16827431
000250 2c 84 9b bd e3 84 47 bd 31 06 44 3e fb 27 15 3c
       -0.07593569 -0.048710715 0.19142987 0.00910377
000260 44 f8 1f bd 69 37 a3 be 91 b6 8a 3a 98 07 87 be
       -0.039055124 -0.31878212 0.0010582973 -0.2637298
000270 08 a8 97 3c 16 83 11 3e a6 93 28 3e fd 34 0f bd
       0.01851274 0.14210162 0.16462573 -0.034962643
000280 5c 53 14 bd a3 b2 a6 3e 6b 25 dd bd ed 51 3b be
       -0.03621231 0.32558164 -0.107981525 -0.18292971
000290 bb c2 32 be c7 27 9c 3e 4c 39 a8 bd b7 66 05 3e
       -0.17457096 0.30499098 -0.082140535 0.13027464
0002a0 3a cf ee bd 61 49 dc 3d e0 73 3e be 0a 3b c7 bd
       -0.11660619 0.107561834 -0.1859889 -0.09728058
0002b0 30 26 98 3d c9 e8 98 bd 3a 40 be 3d e6 09 7f 3e
       0.07429159 -0.07466275 0.09289594 0.2490612
0002c0 17 69 88 3d 5a a3 69 bc 03 f2 d9 bd e4 8b 03 bc
       0.06660669 -0.014260137 -0.10641863 -0.008028958
0002d0 a9 a6 84 be 05 00 76 be 3e 7b 10 3e b3 f1 2f 3d
       -0.25908402 -0.24023445 0.14109513 0.04295511
0002e0 dc aa 2b 3e e1 44 1d bd f1 f6 13 3e 6e ee 8f bd
       0.16764396 -0.038395766 0.1444967 -0.07027899
0002f0 3b be 3a be 3c 21 d5 bc ea c1 03 3c 7f 77 69 be
       -0.1823663 -0.026016824 0.008041838 -0.2279949
000300 7d 17 79 3e 07 3d 78 bd b9 09 05 be 08 1f 2f 3e
       0.24325366 -0.060605075 -0.1299199 0.17101681
000310 5e f1 98 bc 0f 0f 07 be 77 64 4f bd 7e ba 61 3d
       -0.01866978 -0.13189338 -0.05063292 0.055109493
000320 8b 99 57 be 28 a8 26 3e b2 24 b9 3c b6 16 de 3d
       -0.21054666 0.16275084 0.022600506 0.108441755
000330 71 4c ca 3d 74 cd 34 bd fd 77 47 bd c8 04 ae 3e
       0.09877861 -0.044141248 -0.048698414 0.33988023
000340 e6 11 d9 3d 74 da 14 3d d2 de 9e 3d 5a 41 2f 3d
       0.10599117 0.036341146 0.07757343 0.042786933
000350 f8 24 3e be ec 45 61 3c c2 d8 4b 3c 2b 6d 1f 3e
       -0.1856879 0.013749581 0.012441816 0.15568988
000360 f1 4b 2f bd 92 03 11 3e 96 d0 a1 bd d7 63 64 3d
       -0.042797033 0.14161518 -0.07901113 0.055759277
000370 c6 e2 16 3e 39 f3 db 3c 03 fe 3e 3d ff 48 20 be
       0.14734945 0.026849376 0.046628963 -0.15652846
000380 d3 48 96 bd 5c 20 3b be 9f d5 19 be 9e 5d 15 3e
       -0.07338109 -0.18274063 -0.15022896 0.14586493
000390 ac ed 93 be cc bb 36 3e 86 44 2a bd 27 c9 f0 bb
       -0.28892267 0.17845076 -0.041569255 -0.007348198
0003a0 66 9b 1f 3d cf 1c 47 bc d2 b8 1f be 34 dd 3f be
       0.03896656 -0.012152865 -0.15597847 -0.18736726
0003b0 5f 80 37 3d e8 2f 7c bc ac 1c 5b 3e 98 70 5f bd
       0.04480016 -0.015392281 0.21397656 -0.054550737
0003c0 f4 b5 f5 3d 88 a2 08 3e 05 99 09 3e 2a d0 41 be
       0.119975954 0.13343251 0.13437279 -0.18927065
0003d0 e7 25 37 3d 3e 99 1d 3e ad 4d 79 3d f8 ed 22 be
       0.04471388 0.15390489 0.060865093 -0.1591109
0003e0 20 62 04 3e 8a 58 ee 3d f0 67 3c 3d 78 ca bf bd
       0.12928057 0.11637981 0.04599756 -0.0936479
0003f0 50 15 00 3d 03 e2 08 be ce a7 9f 3d 2b 95 26 bd
       0.031270325 -0.13367467 0.07795678 -0.0406696

network_body._body_endoder.seq_layers.0.bias f4 [256]
000000 18 b3 d3 bb ce 47 e3 ba f3 c0 fb ba 55 9a 53 3c
       -0.0064605586 -0.0017340125 -0.0019207284 0.012915214
000010 82 6d f8 3b bf 19 9c 3b 17 c7 1f bc 29 4e 47 bc
       0.0075814137 0.0047638114 -0.009752057 -0.012164631
000020 77 f0 a0 bb 03 30 9d bb 40 7c af 3c 81 66 2f 3b
       -0.004911478 -0.004796983 0.021421552 0.0026763978
000030 b3 2c bb bb 99 f9 aa bb f8 c1 ca 3b 99 19 c7 3b
       -0.0057121157 -0.0052177426 0.0061876737 0.0060760495
000040 29 1d f4 3b 14 e7 bd 3b 11 c8 12 bc 1e ee b1 3b
       0.007449765 0.005795369 -0.008958832 0.005429997
000050 4b e7 2a 3c 77 bb 99 3b 66 d3 f9 bb 26 79 e8 3b
       0.010431121 0.004691537 -0.0076240776 0.00709452
000060 61 4c cb bb d1 80 30 bc 4a a2 dd 39 f4 62 f7 3b
       -0.0062041734 -0.0107729 0.0004227332 0.007549638
000070 9e 69 14 bc f1 01 15 bb cb 35 b0 3b cf c7 2b bc
       -0.009058384 -0.0022736753 0.0053775064 -0.01048465
000080 c4 2b f5 3b 7e aa 34 3c c1 d9 30 bc f2 31 6d bb
       0.007482024 0.011026977 -0.010794104 -0.00361931
000090 f1 16 78 3b ba 72 97 3c f4 e4 3e 3c 22 9e 87 bb
       0.003785547 0.018487323 0.011651266 -0.004138724
0000a0 68 01 29 bb 6b 94 9e bb dd e1 cc bb fb 2b 95 3b
       -0.0025788192 -0.00483947 -0.006252511 0.004552362
0000b0 a2 a8 13 3c 49 17 16 bc e6 93 4c 3c bb ec 12 bc
       0.009012373 -0.009160825 0.012486434 -0.008967574
0000c0 91 e8 3e 3a ed 10 c3 3b 22 0a 7f 3b 31 ce 9d 3b
       0.000728258 0.0059529454 0.0038915952 0.0048158397
0000d0 2a 94 fe b9 69 1b 72 bb a6 ae 9e 3c 60 0e 99 ba
       -0.00048557046 -0.0036942607 0.019370388 -0.0011677258
0000e0 f6 06 77 3b ce 0a 9b ba 6b 17 bc bb 8c bc 20 3c
       0.0037693358 -0.0011828782 -0.0057400963 0.009810578
0000f0 b8 09 a4 bb a0 80 10 3c ac ca 65 bc 3c fa fa 3b
       -0.0050060414 0.008819729 -0.0140253715 0.007659225
000100 2f ee 85 3b e9 a8 18 bc b4 35 3f 3a ba d4 0b 3b
       0.0040872316 -0.009317615 0.0007294074 0.0021336512
000110 10 c0 f5 3b 0b 9e 49 3a 91 53 30 3c 70 c8 f7 3b
       0.0074997023 0.0007691092 0.010762111 0.007561736
000120 0d a9 a7 bb 05 bb 83 bb db e9 01 bb ec 78 93 3a
       -0.005116588 -0.004020097 -0.0019823227 0.0011251247
000130 e4 43 a3 3b 33 4c 2c bc 85 23 9b 3c a1 10 22 bb
       0.0049824584 -0.010516214 0.018937835 -0.002472915
000140 bb 1e d6 ba 86 c0 98 bb 74 af 0b bc a2 e6 97 bb
       -0.0016336063 -0.0046616225 -0.008525718 -0.004635648
000150 c2 2c 48 bb 46 a9 c6 3b a0 5a fe ba 6f 36 a2 bb
       -0.0030544256 0.0060626594 -0.001940567 -0.0049503366
000160 e3 d1 da ba c3 da 48 bc 2b 36 f1 bb 16 f1 d3 3b
       -0.0016694631 -0.012259188 -0.0073611937 0.0064679487
000170 9f 0e ac 3c 79 50 de bb b2 85 8a 3c 9c 48 5c ba
       0.021003066 -0.0067844954 0.016909454 -0.00084031536
000180 a9 0a 90 bb ef 7d f5 bb 37 c4 b8 3b d9 5e ca 39
       -0.004395802 -0.007491819 0.005638625 0.0003859911
000190 19 d5 de 3b 63 ed 2d 3b 10 02 b6 3b cf 59 70 3b
       0.0068003056 0.0026539199 0.005554445 0.0036674624
0001a0 77 14 d7 ba ca 4f 99 bb b9 42 7d 3c ac cc f7 bb
       -0.0016409297 -0.004678701 0.015457802 -0.0075622406
0001b0 c4 b3 81 39 17 8a 0d 3c 72 1d a9 3b c5 a3 e3 3b
       0.00024738733 0.00863888 0.005160981 0.006947013
0001c0 9f 96 25 3c 1b 58 8b 3b 4f be d5 b9 50 c4 86 3a
       0.010106712 0.0042524463 -0.00040768317 0.0010281894
0001d0 2d 26 0c bc 48 87 86 3a 71 39 63 ba 54 c0 0a 3c
       -0.008554024 0.0010263706 -0.0008667922 0.008468706
0001e0 f5 f3 27 bb 8d ba 33 bc fd fb 06 3b a2 82 3f bc
       -0.0025627587 -0.01096977 0.0020596974 -0.01168886
0001f0 4b 63 b8 3a 13 40 66 bb b9 4a 14 3c 74 14 66 bb
       0.0014067678 -0.0035133406 0.009051018 -0.0035107406
000200 32 b5 49 bb db 87 c3 3b 53 8b 34 bb 5e 22 f0 3a
       -0.0030778167 0.005967123 -0.0027548864 0.0018320789
000210 f6 ff bd bb 86 23 6e 3b b0 e9 bf 3a aa a6 cb ba
       -0.005798335 0.0036337092 0.0014641788 -0.0015537341
000220 81 ba 6a 3b 68 cd 28 3b 65 19 9d 3c b6 1e 17 bc
       0.0035816731 0.0025757197 0.019177148 -0.009223631
000230 ab dc ae bb ef 19 0d bb 48 c3 86 bb 6b 08 40 3b
       -0.0053363643 -0.002153035 -0.004112635 0.0029301893
000240 8c 9e 53 bc fa 27 79 3b 78 95 5c 3c 9b 10 9e 3b
       -0.0129162185 0.0038018213 0.0134633705 0.004823757
000250 3e 40 03 3c 8d 48 8b 3b 4b 65 38 bb 30 94 6f ba
       0.008010922 0.004250592 -0.0028136547 -0.0009139208
000260 53 8f 09 3c d9 b7 72 3b 90 79 4c 3b d7 82 41 3c
       0.008395988 0.0037035851 0.0031200387 0.01181098
000270 90 b1 af 3a 52 da 8c 3b 7d 52 cd 3b f8 48 bd ba
       0.0013404358 0.0042984867 0.006265937 -0.0014441302
000280 ff 90 ba 3b cd 52 a4 3b 77 2a 67 bb d9 ca f8 3a
       0.0056935544 0.0050147534 -0.0035273114 0.0018981352
000290 4d 77 a3 ba b1 eb 2f 3b df ee 7c bb 8b c1 b4 ba
       -0.0012471467 0.0026843364 -0.0038594527 -0.001379059
0002a0 71 6a 51 3b e2 43 ba 3b ac d8 9c b9 e3 63 f1 39
       0.0031954313 0.005684362 -0.00029916072 0.00046041523
0002b0 8f 39 60 3c a8 0d 88 ba e4 70 5a 3c 28 33 c7 bb
       0.013685598 -0.0010380046 0.013332579 -0.0060790963
0002c0 10 8f bc 3b ac 05 8b bb 5a b4 08 3c 0e d9 83 3b
       0.005754359 -0.0042426195 0.00834378 0.0040236777
0002d0 75 77 f4 3a b6 00 7d bb 67 49 38 3b 15 61 99 3b
       0.0018651324 -0.003860516 0.0028119923 0.0046807625
0002e0 79 66 d0 3b 45 64 a4 3b b1 6c b4 ba 84 25 1d 3b
       0.006359872 0.005016836 -0.0013765303 0.002397866
0002f0 5d 49 26 3c c9 d5 15 bb ae 3b 00 3c 00 2e 1b 3b
       0.010149327 -0.0022863022 0.007826729 0.0023678541
000300 31 f4 05 3b cd 84 4d 3c 88 81 0c 3b 64 bc 37 3c
       0.002043974 0.012543869 0.0021439511 0.011214349
000310 dd 4a d2 3b 3d 5a 76 3b aa be c3 ba a4 22 17 3c
       0.006417616 0.0037590407 -0.0014934142 0.009224568
000320 64 07 f6 3b 4f 34 47 bc f9 1a 31 3b 10 dc 12 3b
       0.0075082052 -0.012158467 0.0027024134 0.0022409
000330 06 c6 4e bb d8 4d a1 3b 79 d9 83 bb 0c 78 1c 3c
       -0.0031551137 0.00492261 -0.0040237275 0.009550106
000340 3b ec 97 bb bb 92 0b bb 1b a1 a6 bb ca 94 ec 3b
       -0.004636315 -0.0021297175 -0.0050851232 0.0072198855
000350 ab 80 8e bb 9c e6 2b bc 82 f0 9b 3a 79 c4 4b 38
       -0.0043488345 -0.010491993 0.0011897238 4.858195e-05
000360 99 cc 04 3b 7b d2 5d 3c 0d 6e 47 bc bb 77 c9 3b
       0.0020263551 0.013538952 -0.012172234 0.006148306
000370 50 53 13 3c c0 a4 40 3c d3 69 e9 bb 7d 1c 54 3c
       0.008992031 0.011758029 -0.007123211 0.012946245
000380 d5 21 22 3c 1a 7c 37 3c d6 06 bc 3b 8d e2 1d bc
       0.0098957615 0.011199022 0.0057381196 -0.009636533
000390 f0 d3 a1 3c 07 d0 e6 bb d1 54 f9 3b 1d 68 c0 bb
       0.01975438 -0.0070438418 0.007608988 -0.0058717863
0003a0 19 69 5d 3c 8e b9 31 ba d2 48 11 bb cd aa 0a bc
       0.013513827 -0.0006779664 -0.0022168648 -0.008463574
0003b0 ff d0 38 3c 69 5c e9 ba 5c cd bf 3b 23 05 e0 bb
       0.011280297 -0.001780403 0.005853338 -0.00683655
0003c0 ec ff 32 3b 11 56 59 3c e5 2e 60 3b 38 88 b7 3b
       0.0027313186 0.013265149 0.0034207639 0.0056009553
0003d0 43 39 b6 bb 4c cb bb bb 81 1e d0 ba 7d 56 3f 3c
       -0.0055610253 -0.005731022 -0.0015878231 0.011678335
0003e0 ec 3d 22 3b b1 f5 7e ba e5 ec 16 bc 62 6d 40 3c
       0.0024756147 -0.0009725942 -0.0092117535 0.011744829
0003f0 ad c0 f1 3a bd 47 86 3b 72 65 7d bb 0c b6 f5 bb
       0.0018444263 0.0040979073 -0.0038665202 -0.0074985083

network_body._body_endoder.seq_layers.2.weight f4 [256, 256]
000000 df f5 26 bd 3a df 5e bc f1 25 8d bd 70 8b 69 3d
       -0.040761825 -0.013603026 -0.068920024 0.057017744
000010 cc 58 73 3d a2 2c 34 bd c4 b9 8b bd 7d 12 f9 3d
       0.059410855 -0.043987878 -0.06822541 0.121617295
000020 06 bd c4 3c 43 2e 26 bd 45 24 9b 3c 14 37 05 3e
       0.024015915 -0.040571462 0.018938193 0.13009292
000030 dd b1 d6 3a 22 9c 93 bd d4 c2 3c bd 71 12 0b 3e
       0.0016379912 -0.07207514 -0.04608424 0.13581254
000040 4a ed 22 bd 5e 9d 9d 3c 61 61 8d 3c d5 fe 97 bd
       -0.039777078 0.019240078 0.017258348 -0.07421652
000050 14 14 26 bd d3 67 4b 3d 8f 82 39 3c 88 61 91 bc
       -0.04054649 0.04965956 0.0113226315 -0.017746702
000060 c7 ea 88 3d 27 27 81 bc 02 c5 a4 3c 0a a8 0f 3c
       0.06685405 -0.01576574 0.020113472 0.008768091
000070 a1 7a 83 3d d2 73 ac bd 8d 56 5f 3d 1f cc c3 bc
       0.06419874 -0.084205285 0.0545259 -0.023901043
000080 1e 22 b6 bd 43 fa da 3d b1 08 7e 3c b4 5a 9a bc
       -0.08893226 0.10692265 0.015505002 -0.018842079
000090 ad e2 9c 3c 71 9b 5f 3d 50 38 f2 3c a9 2d aa 3d
       0.019151056 0.0545916 0.029567868 0.0830949
0000a0 a2 4b 54 3d 4b 33 5e bd 3e b3 45 bd 49 be 6a 3d
       0.05182994 -0.054248136 -0.04826664 0.057310376
0000b0 b3 62 97 3b da a4 0b 3e 17 6d df 3c 35 0e 33 3d
       0.00461992 0.13637105 0.027273698 0.04371472
0000c0 38 8a 2c bd 86 53 04 be 7d e0 d7 3d ac 6e 8a bb
       -0.042124003 -0.12922487 0.105408646 -0.004224619
0000d0 d6 d5 76 bd 39 2b a2 3d bc d5 18 3c e3 4b 0c bd
       -0.060262524 0.079184 0.009328302 -0.03425206
0000e0 de 3d 19 bd 86 21 4e bd 75 51 06 3d d4 7f ae 3c
       -0.037412517 -0.05032494 0.032792527 0.021301188
0000f0 85 07 4a 3c 0c 48 f7 3b 5e ad e8 bc 07 4c 32 3c
       0.012330894 0.0075464305 -0.02840298 0.010882384
000100 7f 72 3e bc d0 6d 2b 3d dc 2f 90 bc 10 f5 a4 3b
       -0.011623978 0.041852772 -0.017600946 0.0050340965
000110 06 68 b0 bd c7 b0 c7 bd 76 44 39 bc 7b dc 2b bd
       -0.08613591 -0.097505145 -0.011307826 -0.041958313
000120 52 89 b5 bd 6a c7 06 3d 48 a6 03 3d c5 e7 8a 3d
       -0.088640824 0.03290502 0.032141 0.06782488
000130 59 63 ef bc 9a 62 eb bc 6c ca 8b 3d 11 a4 62 bd
       -0.029222177 -0.02873354 0.06825718 -0.055332247
000140 bf fb 9b bd bb 87 32 3d 99 fc d9 bc a2 bb 5c 3d
       -0.07616376 0.043586474 -0.026609706 0.053889878
000150 73 4d 7f 3d 0a d6 4c 3d 84 8e 3d bd 36 3f a1 bd
       0.06232972 0.05000881 -0.04627849 -0.07873385
000160 2b 17 a9 3d a0 3b 1a 3d 74 32 36 3d b5 ac a4 ba
       0.08256372 0.03765452 0.04448171 -0.0012563678
000170 6f 53 29 3e c4 b5 5a bd 8f 50 46 bd 62 47 15 3c
       0.16535734 -0.053396 -0.04841667 0.009111257
000180 d1 80 ad 3d 73 86 d3 bd eb 1a a3 3c c1 19 a8 3d
       0.084718354 -0.103283785 0.019910296 0.08208037
000190 02 14 35 3d d7 58 99 bd 49 30 ce bd c3 03 f3 3c
       0.044208534 -0.07487648 -0.100678034 0.02966488
0001a0 97 86 e2 3c b3 bb 8c bd fa 95 fa bc 48 b1 69 be
       0.027652068 -0.06871738 -0.030589093 -0.22821534
0001b0 49 07 15 bc eb b5 b8 3d 0f 2a ac bc 60 0a 3a bd
       -0.009095975 0.09019073 -0.021016149 -0.04542005
0001c0 99 9f 4d 3d 5c 06 39 3c c5 55 93 bd 79 8d 6c bd
       0.050201032 0.01129302 -0.071940936 -0.057752106
0001d0 20 e4 3e be 7b a0 9f 3c e0 5a 76 bd d6 b7 18 3e
       -0.1864171 0.019485703 -0.06014526 0.14913878
0001e0 b2 d9 22 3b 3c d6 51 3d 19 16 b9 bd b1 f6 48 bc
       0.0024848995 0.0512297 -0.09037418 -0.012265847
0001f0 11 bd 9c 3d 6d a1 c9 3c 1c 72 8f 3d 04 dc 29 bb
       0.07653249 0.024613107 0.070041865 -0.0025918493
000200 25 a9 00 bd 0b 66 88 3d a5 99 6b bd 9c fb d1 3c
       -0.03141131 0.06660088 -0.057519574 0.025632672
000210 17 dd e1 3d 5c 32 0f bd 2a 89 e4 bd c8 81 cd bb
       0.11028498 -0.034960136 -0.111589745 -0.0062715746
000220 33 01 89 bc 3d 2b 02 3d a6 66 86 bd d8 4f b6 3c
       -0.016724205 0.031779516 -0.065625474 0.02225487
000230 5c 3f 37 3d bf 5c c3 bc b4 6c 99 bd cc 37 d1 3c
       0.04473816 -0.023847936 -0.074914366 0.025539301
000240 1b f9 2e bd 51 97 d1 3c e1 59 d5 3c 33 d7 b8 3d
       -0.042718034 0.025584849 0.026043834 0.09025421
000250 0c 11 89 3d fa 45 30 be 3d a2 98 3d 2e b0 6d ba
       0.066927046 -0.17214194 0.074528195 -0.00090670853
000260 c2 11 4a b9 c3 bd 04 3d eb f9 cb 3c 62 8a 9c 3d
       -0.00019270836 0.032407533 0.024899444 0.07643582
000270 e5 44 59 3d fd 9b 9b bc be 61 03 3d 1d bb bc bd
       0.05304422 -0.01899528 0.032075636 -0.092153765
000280 d2 11 20 3c dc ae 2d 3d ce 89 a5 3a e0 57 65 bc
       0.009769874 0.042403087 0.001262957 -0.013998002
000290 e0 c6 87 bc c3 08 17 3d d5 d6 64 3b 4d 05 4b bd
       -0.016574323 0.03687359 0.003491809 -0.049565602
0002a0 ca 08 2f 3d cc e4 55 3d 82 77 65 3c 42 79 11 be
       0.04273299 0.05222015 0.014005544 -0.14206412
0002b0 02 41 d4 3c 15 13 22 bd fa 6c 70 bd 93 0d 4f bd
       0.025909904 -0.03956898 -0.05869768 -0.050550055
0002c0 9f 50 d9 3d 19 a2 49 3c 34 29 0a 3c e9 24 57 3d
       0.106110804 0.0123067135 0.008432675 0.052525435
0002d0 b6 6b b7 bc bf 75 ef 3c 51 75 cd 3d 74 56 f6 3a
       -0.022390228 0.02923095 0.10032142 0.0018794076
0002e0 6c 20 31 bd 20 cb ca bd a7 c1 db bd 6b 01 a9 bd
       -0.04324381 -0.09902024 -0.10730296 -0.082522236
0002f0 de df 66 bd 97 09 21 bd b1 68 5c 3b 97 03 09 bd
       -0.05636584 -0.039315786 0.0033631737 -0.03345069
000300 81 61 e1 bc 78 bf 8b 3c 70 69 e6 bd e3 24 e5 bd
       -0.027512314 0.017059073 -0.11250579 -0.11188676
000310 bb ee 8d bd 4a 11 4f be 3f d5 c7 3d 04 87 90 3d
       -0.069303 -0.20221439 0.0975747 0.07057002
000320 08 df 2f 3d 1d 73 d1 bc 4f 01 c9 3d a3 c8 06 3d
       0.04293731 -0.025567586 0.09814703 0.032906186
000330 64 55 3f bd 4a 66 27 bd ee 0e 03 3e dd 01 84 bd
       -0.046712294 -0.040869035 0.12798664 -0.06445668
000340 e8 17 d9 3b 5e 6d 22 bd e4 d6 cb 3c 5c 6a 5e bc
       0.0066251643 -0.039655082 0.024882741 -0.013575163
000350 d3 e1 b2 3c e6 e4 0a 3b 21 a8 1e 3d 94 38 4a bc
       0.021836197 0.0021193563 0.03873456 -0.012342591
000360 e5 ba 38 3d 3d dd 4c 3d 05 a8 3a bc 09 10 43 bd
       0.04510011 0.050015677 -0.011392598 -0.047622714
000370 70 3a df bd 0a 28 3f bd 28 1e 58 3d d3 33 08 bd
       -0.10899818 -0.046669044 0.052763134 -0.03325255
000380 31 01 84 3d e4 7f bd bb b1 95 5c bd ac b2 c2 3b
       0.0644554 -0.005783068 -0.053853694 0.0059417095
000390 38 3c f4 3c 01 e1 a4 3d 87 aa 10 3d 5a 26 23 3c
       0.02981387 0.080507286 0.035318878 0.009957874
0003a0 cd ed a6 bd b7 53 8b bb a2 49 04 bd 85 bf 61 bc
       -0.08150826 -0.004251923 -0.032296784 -0.013778572
0003b0 63 0e d2 3c 4a a9 4f 3c 0c 5d 9c bd 7e e0 11 3e
       0.025641626 0.012674639 -0.07634935 0.14245793
0003c0 1a 47 30 bc 7b 7b 10 3d c3 77 8b bd 89 e5 79 bd
       -0.010759139 0.03527401 -0.06809952 -0.061009917
0003d0 09 44 32 bd 2b 0a 01 3d 94 a3 3c bc 9a ba b0 3a
       -0.043521915 0.031503838 -0.011513609 0.0013483346
0003e0 c1 bf 8a 3d 36 ab 2a bd 4b 51 89 3d b9 b4 02 3d
       0.067748554 -0.041667186 0.067049585 0.03191063
0003f0 23 f1 20 bd 15 7a b8 bd 79 d0 72 bd d0 84 94 3d
       -0.039292466 -0.0900766 -0.059280846 0.072518945

network_body._body_endoder.seq_layers.2.bias f4 [256]
000000 c0 98 26 bc 74 b9 1d 3c c8 ac da bb 23 b9 83 3a
       -0.010168254 0.009626735 -0.006673429 0.0010049682
000010 27 d3 c0 bb 99 4c 4b 3b c4 d1 ba 3b f8 7a 05 3c
       -0.0058845463 0.0031020998 0.0057012755 0.008146994
000020 b0 b6 5c 3c ed 80 19 3b 2a 5e 96 bb 91 1e aa bb
       0.0134712905 0.0023422793 -0.004588862 -0.005191632
000030 82 2d 1a 3c 34 c6 09 ba 7d 20 09 3c 6d 8c bd 3b
       0.009410264 -0.000525567 0.008369562 0.0057845623
000040 da 99 44 3b 42 b7 ce 3a 98 01 f0 3b 8f de 16 3b
       0.002999893 0.0015771168 0.0073244087 0.002302084
000050 d8 16 b6 3b 67 09 1f bb 5b 4a b2 bb ba 71 c1 bb
       0.0055569224 -0.002426708 -0.005440993 -0.00590345
000060 24 6d 48 bb 54 e2 00 bc 74 2b a5 ba 30 9e 11 bb
       -0.003058263 -0.007866461 -0.0012601451 -0.0022219531
000070 eb 88 b7 3b d0 35 b9 3b 9c 6f 54 3b 16 f0 25 3c
       0.0056010387 0.005652167 0.0032415157 0.010128042
000080 80 1e 97 3b 0d d2 44 3b 02 6b 2e b9 c1 1b b9 b9
       0.00461179 0.0030032427 -0.00016633797 -0.00035306628
000090 d7 59 50 bb 2d f1 45 3c 11 15 03 bc 9d e9 72 ba
       -0.003179183 0.012081427 -0.008000628 -0.00092663785
0000a0 19 33 4a 3c 2c a4 f7 bb 34 2a c1 3b 67 72 1a 3b
       0.012341284 -0.0075574126 0.0058949236 0.0023566724
0000b0 93 00 b4 3a 7b 45 24 3c a5 c4 50 3b fb 7b 79 3b
       0.0013733081 0.010026331 0.003185549 0.0038068283
0000c0 57 ae d2 3a d6 53 c5 3b 3e c3 84 3b 29 a6 a8 3b
       0.0016073686 0.006021957 0.004051595 0.005146761
0000d0 4c 7b e3 bb 18 55 56 3a e4 3c 94 bb 5c c4 0c b8
       -0.0069421884 0.0008176132 -0.0045238603 -3.3561475e-05
0000e0 df 43 cf bb f0 f9 37 bb 32 c0 29 3b b5 4d b8 3b
       -0.0063252295 -0.0028072558 0.002590191 0.005624498
0000f0 1d c6 98 bc e0 16 a1 3a ec fd 91 3a 43 04 7e ba
       -0.018649155 0.0012290142 0.0011138297 -0.0009689966
000100 a9 d9 35 3c 39 4a fa 3b 2c b0 43 3a 57 a2 18 3c
       0.0110992575 0.0076382426 0.00074649113 0.009316049
000110 d3 61 6d 3c 87 db 92 3b be dd 84 3b 4e cd ad 3b
       0.014488655 0.004481736 0.004054754 0.0053040152
000120 24 02 25 3b 34 2f 98 39 bd 57 79 3a 3f fe 47 3a
       0.0025178278 0.00029026868 0.000951167 0.0007629133
000130 1c e0 8a 3b b2 01 03 3c 55 7a 30 bc 61 0d 36 ba
       0.0042381417 0.00799601 -0.010771354 -0.00069447426
000140 25 84 e2 bb 77 b5 aa 3a 78 bf 9a 3b d9 cb 1a 3b
       -0.0069127255 0.0013024051 0.004722532 0.0023620038
000150 cf 13 43 bb c2 8b d8 bb 60 21 38 bc d9 99 43 3c
       -0.0029766446 -0.0066084573 -0.011238426 0.011938536
000160 09 23 e2 3b 87 78 4b 3b 0d d7 54 bb dc 29 38 3b
       0.006901149 0.0031047182 -0.0032476813 0.0028101122
000170 55 3f 32 bc 45 00 ff ba 43 cc 1b 3a dd 8f d0 3a
       -0.010879357 -0.0019455036 0.0005943218 0.0015912015
000180 39 d6 83 bb 40 b8 68 3b 10 b9 75 3b f3 6c 00 3b
       -0.00402334 0.0035510212 0.003749434 0.0019596189
000190 b3 21 c7 3b 4a 15 3b 3a af 8d 98 3b 9d 7e 08 3c
       0.0060770153 0.0007136656 0.004655562 0.008330968
0001a0 0f 16 04 3c 7d 6a 83 3b 47 eb 16 3c 7a 00 29 bc
       0.0080619 0.004010497 0.009211368 -0.010315055
0001b0 62 35 c7 bb 53 e9 04 bc 6a a0 5b 3a 74 0f 40 3a
       -0.006079362 -0.008112269 0.00083780906 0.00073265214
0001c0 cf 7f c9 ba 06 a0 9e 3c 82 6d 9e bb f6 4d 58 bb
       -0.0015373173 0.019363414 -0.0048348317 -0.0033005453
0001d0 95 b9 33 3b 25 00 ca ba 78 0f 18 bb 52 93 06 3c
       0.0027423848 -0.001541142 -0.002320258 0.008213835
0001e0 1b 20 a0 3b f0 00 37 3c 25 bd 14 3b 02 bc 96 bb
       0.00488664 0.011169657 0.0022695747 -0.004600049
0001f0 49 bc a9 3a 0e f5 b8 3a 79 f3 48 bb a8 44 03 bb
       0.001294979 0.0014111118 -0.00306627 -0.0020029936
000200 e1 d9 9d 3b c8 dc df b9 df 87 c0 39 78 d9 a0 3b
       0.004817233 -0.0004269837 0.00036722326 0.004908737
000210 c0 de b7 bb 60 cb 84 b9 d1 fa 37 3b ab 74 58 bb
       -0.0056112707 -0.00025328528 0.0028073082 -0.0033028524
000220 a4 5f 96 3a 48 bd b5 39 cc ae 70 3b ad 3f 34 3b
       0.0011472595 0.00034664036 0.003672528 0.0027503774
000230 68 ba d5 3b bb ac c9 bb d6 a9 91 bb 4b 2e bb bb
       0.0065224655 -0.0061546243 -0.004445295 -0.0057123057
000240 73 06 52 bc c3 77 e5 bb de 73 9c 3b 4f be a1 bb
       -0.01281892 -0.007002802 0.0047745546 -0.0049360166
000250 86 96 ce 3b e7 ea 99 3b 98 ff 23 3b c1 db 83 3a
       0.006304565 0.004697192 0.0025024172 0.0010059999
000260 e8 18 4e bb 1a 81 e6 ba 58 bb 24 3b 3d a3 d6 3a
       -0.003144795 -0.0017586083 0.002513608 0.0016375553
000270 ce 5b a5 ba a9 24 e7 3a ca 61 05 ba ee 96 37 3b
       -0.0012615861 0.0017634827 -0.0005088119 0.0028013545
000280 8d fc dd 3a a1 b4 5d 3b 4c 67 e7 36 68 fd f6 3a
       0.0016936228 0.0033829587 6.896362e-06 0.0018843831
000290 09 fe 9a 3b 26 49 85 3b a9 0f 4b bc 25 cb 9d 3b
       0.0047299904 0.004067558 -0.01239387 0.0048154765
0002a0 51 5d 38 bc fb f8 ef 3b 75 8a f1 3a ea bb 36 3c
       -0.011252717 0.007323382 0.0018428104 0.011153201
0002b0 56 e9 8f 3a 95 f9 fb ba 2a db 89 ba 9e 19 9c 3b
       0.0010979574 -0.0019224162 -0.0010517586 0.004763796
0002c0 39 20 26 39 ea 57 9d 3b 5a 63 10 3b b9 73 e0 3b
       0.00015842998 0.00480174 0.0022031874 0.0068497327
0002d0 0b ad ad 3b 2a d1 74 3b 61 df 77 bb e1 a4 ea b9
       0.0053001693 0.0037356117 -0.0037822353 -0.00044754802
0002e0 ae b4 1d 3c 29 61 99 bb 9e 8a a2 ba 18 86 dd 3b
       0.009625597 -0.004680772 -0.001240093 0.00676037
0002f0 14 ef 16 3a 2c 1d d7 39 aa 9b 54 bb 22 97 aa 3a
       0.00057576713 0.0004102973 -0.0032441416 0.0013015012
000300 84 65 37 bb 24 19 df 3b 53 47 69 3b 59 24 ab 3a
       -0.0027984092 0.006808417 0.003559549 0.0013057097
000310 71 9a 33 bc 40 8e 00 bc de 34 62 3b 54 c5 1f 3c
       -0.010962115 -0.007846415 0.0034516375 0.009751637
000320 c9 b2 64 bb 7b 06 bf 3b d8 29 1a 3b 96 41 4f bb
       -0.0034896603 0.00582963 0.0023523476 -0.0031624786
000330 e3 51 1f bb 1e 01 a5 3a 57 7f a8 ba cd 8f 1e 3c
       -0.0024310283 0.0012588834 -0.0012855333 0.009677839
000340 5f c4 d2 bb 04 92 8d b9 bd ec 0e 3b d6 4b 56 3b
       -0.0064321007 -0.00027002406 0.0021808587 0.003269901
000350 be ee f7 3a 76 01 d2 3b 33 2d cd bb cf 24 3a 3c
       0.0018915755 0.0064088656 -0.0062614917 0.011361315
000360 0d 64 b4 3b 35 05 51 3c 67 7f 9b ba b9 04 a0 39
       0.005505091 0.012757589 -0.001186353 0.00030521097
000370 91 74 51 3b 2e 0f 17 3a 8b 66 81 3b dd ad 49 bc
       0.0031960348 0.0005762455 0.0039489917 -0.012309519
000380 cf 9f 80 bb 5d 14 bb 3b 88 6d 0e 3b 33 6b 8e 3c
       -0.0039253007 0.0057092146 0.0021732766 0.017385101
000390 97 38 d5 3b 35 f9 07 bc 55 8a c8 3b 7a ec 1a ba
       0.00650699 -0.008299162 0.006120006 -0.00059098715
0003a0 75 32 34 bc da e0 34 3a ab 54 1f bc f1 83 40 3b
       -0.010998358 0.00068999606 -0.009724776 0.0029375518
0003b0 69 c0 0c bc 9e 55 42 bb 3a 73 2b bb 0c e4 23 3c
       -0.008590796 -0.0029653083 -0.002616121 0.010003101
0003c0 d8 b1 56 bb 9a 16 0a 3b 75 92 86 bb 2c 8d 40 3b
       -0.0032759812 0.00210706 -0.0041068145 0.002938102
0003d0 51 91 ff ba 83 88 d7 3b bb 3d c4 ba 5b 49 6d 3b
       -0.0019498264 0.0065775528 -0.001497201 0.0036207053
0003e0 99 78 50 b9 bd 71 8e ba 9b 26 57 3a de e9 8a bb
       -0.00019881352 -0.0010867637 0.0008207352 -0.004239305
0003f0 94 1f 55 3c 73 26 05 3b 2f 86 cc 3a ba 4c c1 3b
       0.013008017 0.0020317107 0.0015603955 0.005899039

action_model._continuous_distribution.log_sigma f4 [1, 5]
000000 d0 74 87 3c ab 62 b2 3c 62 a6 48 3c 33 5e 2e 3c
       0.016535193 0.021775564 0.0122467 0.010642576
000010 eb 65 87 3b
       0.0041320226

action_model._continuous_distribution.mu.weight f4 [5, 64]
000000 4b 87 c4 bc 4e 6e 4a bc d9 8f a8 bc 80 ce 9b ba
       -0.023990294 -0.0123554 -0.020576404 -0.0011887103
000010 95 55 0c 3d 41 58 40 3c a9 a5 76 bb df 0d 54 bc
       0.034261305 0.011739791 -0.0037635362 -0.01294276
000020 85 b3 c2 3d 59 c0 3a 3c ec e8 cd bc 76 30 1a bc
       0.09506897 0.011398398 -0.02513548 -0.009410968
000030 93 0f 5b 3a 86 d3 d3 bc 68 38 45 bc 86 22 ff bc
       0.0008356508 -0.025857698 -0.012037374 -0.031144392
000040 ab ba 88 bd 26 04 93 bd 71 40 d7 3b 8d 06 0e bd
       -0.06676229 -0.071785256 0.0065689613 -0.034674216
000050 8e 89 93 3c 72 2f f1 bb 07 a3 9e bd 0c 4f 4e 3d
       0.018009927 -0.0073603923 -0.07745939 0.050368354
000060 66 41 52 bd 77 ab 9a bd 89 56 49 3c 96 02 22 bc
       -0.0513319 -0.075522356 0.012288698 -0.009888312
000070 a6 1c bf bc aa 17 8d bc 74 db 9d bc 6a 79 8a 3c
       -0.02332909 -0.017223198 -0.019269682 0.016903598
000080 e6 ad 57 3c 27 5c 18 3d 1c 5a 49 bd 85 46 2f bc
       0.013164019 0.03719726 -0.0491582 -0.0106979655
000090 72 24 8c 3c 07 fb c4 bc 07 da 0b 3d a6 25 fb 3b
       0.017107222 -0.02404548 0.034143474 0.0076644
0000a0 22 c9 a7 3c 8c 9a b5 3c b2 84 a5 bc f9 7e 4e 3d
       0.02048165 0.02216842 -0.020204876 0.05041406
0000b0 c8 6b 4f bd 8b 38 c3 3c 76 42 a1 3c f9 18 1d bd
       -0.050639898 0.023830673 0.019685011 -0.038353894
0000c0 49 c3 2b bc 5b d6 c7 3c 0b f5 d8 bb 59 46 d1 3b
       -0.010483571 0.024394205 -0.0066210083 0.00638656
0000d0 e1 df 4b 3c 00 df 3c 3c 7a a2 f1 bc a9 e2 4a bd
       0.012443514 0.011527777 -0.02949642 -0.049532566
0000e0 cd d2 9e 3d 02 6e 31 bc b2 fa 63 3c bc de 33 3d
       0.07755051 -0.010829451 0.013914751 0.043913588
0000f0 87 53 37 3d 6d 96 53 bc 50 b4 c6 3c 70 e9 9e bd
       0.044757392 -0.012914282 0.024255902 -0.077593684
000100 3c 24 02 3d 90 42 a6 3c b8 df 2e 3c 8a 1b 11 3b
       0.031772837 0.020295411 0.010673456 0.0022141659
000110 f4 3f 2b bd f6 9e bb 3c ce 7b 3c 3d 84 5f 05 3d
       -0.041809037 0.022902947 0.046016507 0.032561794
000120 2d ff 53 3b 85 f0 dc bc 82 64 12 3c d4 56 0b bd
       0.0032348142 -0.026970157 0.008935096 -0.034018353
000130 48 0c 25 bc 0a f8 67 3d 2e 44 de bc ce 44 da 3c
       -0.010073729 0.056633033 -0.02713212 0.026644137
000140 53 86 25 3d c6 9a 68 3b 3c 4c a8 bb 75 be 49 bc
       0.040411305 0.0035492643 -0.005136041 -0.012313475
000150 07 cc 95 bc 2c 3a 5d 3d 39 a4 3b bd ae 43 2d bd
       -0.018285764 0.054010555 -0.04581091 -0.042300873
000160 06 49 13 3c 25 9e 0f 3d fb 00 ab 3c 69 9f a7 bc
       0.008989578 0.035062928 0.020874491 -0.020461755
000170 e7 27 0d 3c aa 58 16 bd b8 a9 37 3d 55 32 a3 bc
       0.0086154705 -0.03670565 0.04483959 -0.019921461
000180 c1 00 a6 bc d0 e0 18 bd fd 56 f6 bc fc 06 08 3c
       -0.020264031 -0.037323773 -0.030070776 0.008302446
000190 0d 86 5b 3d 7f 95 14 3c ff df 2a bc 75 d4 c6 bc
       0.053594638 0.009068846 -0.010429381 -0.02427123
0001a0 e0 5f 00 bc 5b 99 4a 3c 6e 41 9e 3b fd 7b b9 3c
       -0.007835358 0.012365664 0.004829577 0.02264213
0001b0 0d bf 09 bd ae c2 47 3b ed a0 00 bd 33 71 ea 3c
       -0.033629466 0.0030481028 -0.03140347 0.02861843
0001c0 2a 62 32 3d 60 7f 92 3c 94 aa 81 bd 9e fc 48 3d
       0.043550648 0.017883003 -0.06331363 0.04906904
0001d0 3c 4d 31 bd bf 69 e7 3c 80 67 26 3b 02 20 ac bc
       -0.043286547 0.028248666 0.002539128 -0.021011356
0001e0 a0 36 9d 3c 6e ec 8d 3d 80 2f 0b 3d 93 6f 9f bb
       0.019191086 0.06929861 0.033980846 -0.0048655956
0001f0 34 59 95 3c 35 13 2d bd 02 69 b7 3c b8 9b 47 bd
       0.018231012 -0.042254645 0.022388939 -0.04873249
000200 8b 31 7a bc e6 18 bb 3c c3 c7 12 3d 76 b6 25 3c
       -0.015270601 0.022839021 0.03583504 0.010114303
000210 80 28 89 bc 09 b7 3d bd 5d e4 cd bc 3e f6 2d bd
       -0.016742945 -0.046317134 -0.025133306 -0.042471163
000220 ab 7d 71 3c 02 22 94 bb 61 09 b3 bc ee 65 3f bc
       0.014739434 -0.0045206556 -0.021855058 -0.011682017
000230 b7 6b 86 3c 39 07 64 3c 49 7e 28 3d a4 6f 74 3d
       0.016408784 0.013917738 0.04113606 0.05967678
000240 b1 c5 20 bd d9 6a 82 bd f0 13 16 bc 2a 75 1d 3d
       -0.039251033 -0.06368036 -0.009160027 0.038441814
000250 d4 99 d8 3c 3e be 71 bc bd 99 d5 3b da 56 ce 3c
       0.026440538 -0.01475483 0.006518571 0.025187898
000260 2d ce bd bd b9 5e fa bc e5 d1 38 bd 1c 6d d7 bc
       -0.092678405 -0.030562745 -0.045122046 -0.026297145
000270 f7 d6 9a bb 11 31 b6 3c 0c 52 df 3b 5a db 13 3d
       -0.004725333 0.022240194 0.0068152007 0.03609786
000280 41 9a c1 3c 10 d6 04 bd 8c 3a 13 3d 46 b3 c8 3b
       0.023633124 -0.03243071 0.035944507 0.0061248867
000290 04 0f 3a 3a b3 00 b8 bc 97 89 02 3d 0b c3 66 3c
       0.00070975744 -0.02246127 0.031869497 0.014084588
0002a0 c5 15 9f 3c 3a d5 4d bc b4 20 82 3b 79 f8 13 3d
       0.01941956 -0.012563044 0.0039711837 0.036125634
0002b0 60 69 b7 bb 89 d1 f5 3b bb 96 94 ba 9c 3f e5 3c
       -0.0055972785 0.007501785 -0.0011336425 0.027984433
0002c0 5d 52 08 bc 5c db ad bc 3e b5 76 3c c4 a3 ff 3c
       -0.008320418 -0.021222763 0.01505786 0.03120602
0002d0 ed 7f 01 bd 50 b6 46 3d 8b 70 d6 bc 55 06 4d 3d
       -0.03161614 0.04851371 -0.026176712 0.050054867
0002e0 c5 00 a2 3c 08 25 e1 3c 58 b7 02 bd b4 8b 42 ba
       0.019775758 0.027483478 -0.03191313 -0.000742133
0002f0 35 b8 cd bc d3 e0 6a bd 64 86 03 3c 9a 71 f5 3c
       -0.02511225 -0.057343315 0.008027647 0.029961396
000300 22 91 26 bc 9c bc 31 bd 29 1a 8d bd b6 43 11 3d
       -0.010166438 -0.043392763 -0.06889755 0.035464965
000310 09 55 99 bc b1 92 81 3d e8 7b cd bb 13 26 b1 bb
       -0.018717306 0.06326807 -0.0062708743 -0.00540615
000320 5f 15 09 bd d5 0a bc bc e5 27 10 bd 50 f5 a3 bc
       -0.033467647 -0.022954384 -0.035194296 -0.020014435
000330 3d 2f a3 bb 33 10 84 3c 99 09 65 bd ba 62 84 bc
       -0.0049799965 0.016121006 -0.055917356 -0.016160358
000340 9c 29 7a bc c4 de 65 3d 88 ca dd 3c da 94 e4 bc
       -0.0152687095 0.05612065 0.027074113 -0.02790301
000350 ff 74 a3 bd d8 8e 5e bd 44 86 f1 bb 8d fb fa 3c
       -0.079812996 -0.054335445 -0.007370742 0.030637527
000360 e6 4d b8 3c b4 3a fe bb d0 07 13 3d 4d 0f d3 3c
       0.022498082 -0.007758463 0.035896122 0.025764132
000370 ae ba 21 3d 14 0f 3e bd 9d b7 85 3d 2f 47 cb 3c
       0.039484672 -0.0464011 0.06529162 0.024814216
000380 45 0c 38 3d 53 04 6b 3c de be 49 3d c9 f8 9f 3c
       0.044933576 0.014344293 0.04925429 0.01952781
000390 4e 79 9d 3d 71 26 98 bb 5e 4d b3 3b e0 ce 54 bd
       0.07689153 -0.0046432544 0.0054718694 -0.051955104
0003a0 1d 14 32 3d 7d 99 8c 3c 14 c7 79 bd 37 4d c8 bc
       0.043476213 0.017163033 -0.06098087 -0.024450881
0003b0 7d 72 83 bd 3a f7 89 3d bb f3 47 bc fc d7 83 bd
       -0.06418321 0.06736608 -0.012204106 -0.0643768
0003c0 09 89 b9 3c 5d 0b 78 bc e9 da 05 bd cf e4 78 3c
       0.022648351 -0.015139428 -0.032679472 0.015191271
0003d0 4b 30 7a 3d d2 62 5c bc b4 e5 05 bb 6b d9 df 3c
       0.061081212 -0.013451295 -0.0020431103 0.027325353
0003e0 db b8 17 3c 6d df 5e bd 43 b3 03 bd 3f a8 71 bc
       0.009260382 -0.054412294 -0.03215338 -0.014749586
0003f0 4d a0 21 3c 50 e3 08 3d fb e5 97 3d 41 10 bf 3a
       0.009864879 0.033419907 0.07416912 0.0014576988

action_model._continuous_distribution.mu.bias f4 [5]
000000 33 c7 c0 3a a9 5d 33 bb dd fe 81 bc a5 8e 02 3d
       0.0014707803 -0.0027369058 -0.015868599 0.031874318
000010 f5 c7 db bb
       -0.0067071863

onnx::LSTM_100 f4 [1, 256, 256]
000000 59 96 c1 bd 95 ad e7 3d b4 24 ae 3d cc ff cd bd
       -0.09452505 0.11312405 0.08503094 -0.10058555
000010 bb ae b9 3d 60 0c 07 be cf 37 4f bc b5 fd 5c bd
       0.0906653 -0.13188314 -0.012647583 -0.05395289
000020 05 55 d7 bc 8c 14 1c bd da d0 fe 3d 1c dd 03 bd
       -0.026285658 -0.038105533 0.12442179 -0.03219329
000030 9a 77 bb bd 7a 65 04 bc 5d 9f 97 bd 74 2c 5e 3d
       -0.091536716 -0.0080808345 -0.07403443 0.054241613
000040 f7 ac f3 3d 43 5e 28 3d 88 1d 89 bc 9e 5e 95 38
       0.11898225 0.04110552 -0.016737714 7.1224975e-05
000050 53 c8 12 bc e9 8f 54 bd 3b 06 47 bd 4c 18 0d 3e
       -0.008958894 -0.051895056 -0.048589926 0.137788
000060 ea 7b 81 3b 53 ef 92 3d e6 f7 07 3d a0 c1 58 bd
       0.0039515393 0.07174554 0.0331954 -0.05291903
000070 f5 d1 fa 3d 59 cc 57 bd d3 54 4b bd 2c 60 51 bc
       0.122470774 -0.052685115 -0.04964144 -0.012779277
000080 8c 8f 23 bd 4b bb 8b bd 91 c9 c4 bd e4 f3 bd bd
       -0.03993182 -0.06822833 -0.09608758 -0.09275034
000090 fb ee 0c 3e a9 b7 93 bd 86 ed a3 3c 5a de 33 3c
       0.13763039 -0.07212765 0.020010721 0.010978306
0000a0 27 62 1a 3c ee 6d 19 3b 68 9b de 3c e6 5a 05 3e
       0.009422815 0.002341147 0.027173713 0.13022956
0000b0 d1 e3 bc 3d 25 52 a9 bd 7c 00 a4 bc 20 19 06 bd
       0.0922314 -0.08267621 -0.020019762 -0.032738805
0000c0 f4 27 de bd 92 2a 88 bd 66 d1 b7 bd a2 cf d2 bc
       -0.10847464 -0.06648745 -0.089754865 -0.025733773
0000d0 d9 8d bd 3d 5d 52 30 3d 89 77 81 bd bd b3 f5 3d
       0.09255571 0.043047298 -0.06321628 0.11997173
0000e0 ed e5 79 3d c9 8a da bd 4b be 07 3d 60 e9 c2 bc
       0.06101029 -0.106710024 0.033140462 -0.023792922
0000f0 cc 62 84 3d 61 3b 33 bc 9b 41 8d 3d 48 85 97 3d
       0.064641565 -0.01093945 0.06897279 0.07398468
000100 c1 9c 91 bc 2f 9d f9 3d 60 cc 3e bc 2f 1f c2 bc
       -0.017774941 0.121881835 -0.0116454065 -0.02369651
000110 46 1c db 3d e3 e0 10 3d 05 71 ca 3d cf 86 00 be
       0.10698752 0.03537072 0.09884838 -0.12551425
000120 dc 3b 7d 3d 76 10 11 3e a2 37 84 3d 44 ba fc bc
       0.061824664 0.14166436 0.064559236 -0.030850537
000130 40 f5 91 bd 6d be e4 bd 00 71 3f 3b b1 a4 a4 bd
       -0.07126856 -0.11169133 0.002921164 -0.08039225
000140 a8 08 a3 3d ad 62 2f 3d 3a c6 04 3c e1 d5 89 bc
       0.079606354 0.042818714 0.0081039015 -0.016825618
000150 37 4d 99 3c 4d 80 c9 3c c9 a1 3a bc 25 38 d0 bd
       0.018713577 0.024597311 -0.011391112 -0.10166959
000160 bd 89 b5 bc 50 3d 32 3d 8a 78 d2 3d 3d 0c 8c 3c
       -0.022160405 0.043515503 0.10276897 0.01709568
000170 87 da e2 bd e8 6b 91 3d 04 9d ef 3c 82 ff 0c be
       -0.11076837 0.071006596 0.029249676 -0.13769343
000180 a8 0f c0 3d 14 25 5d bd 1f a1 03 be 73 de 08 bd
       0.09377986 -0.05399044 -0.12854432 -0.03341527
000190 68 e5 02 be 4f 07 d6 3d cc 66 88 3d d1 e9 91 bd
       -0.12782824 0.10450613 0.06660232 -0.07124675
0001a0 0e 86 c0 3d 89 f6 63 3d 0b a3 ce bc e7 32 fe 3d
       0.09400569 0.055655036 -0.02522423 0.124120526
0001b0 b6 c9 b4 3c e8 de 88 bc a5 89 c6 bd ce 76 81 bd
       0.02206884 -0.016707852 -0.09694222 -0.06321488
0001c0 d0 6c 06 3b 8f 89 98 3c 2e 46 5d 3d 9b ac dd bd
       0.0020511635 0.01862028 0.054022007 -0.108239375
0001d0 8d 08 88 bd 8c 21 9d bd 84 01 04 3d df e5 c6 3d
       -0.06642256 -0.07672414 0.032228008 0.09711813
0001e0 50 c6 cd bd 52 00 89 3d 04 cb 5f bd 2d c6 dc bd
       -0.10047591 0.06689514 -0.05463697 -0.107799865
0001f0 57 91 96 bd 5e 13 e3 bd 22 db 44 3c 4d 53 ee bb
       -0.0735194 -0.110876784 0.012015136 -0.007273114
000200 98 7f 6e 3d 0f ac e8 bd f2 a4 1a 3b 86 94 ee bd
       0.05822715 -0.113609426 0.002359685 -0.11649422
000210 5d 92 04 3d 20 08 a4 bd b9 40 97 3d b9 84 db bd
       0.032366145 -0.08009362 0.07385392 -0.10718674
000220 fe 70 80 bb be 98 fb bc 92 22 cd 3d 6d 3a 4b bd
       -0.0039197197 -0.030712482 0.100163594 -0.049616266
000230 7d 86 fd 3d 5d 33 f2 bd d9 1d ec 3d 10 0e ea 3d
       0.12379167 -0.11826203 0.115291305 0.114284635
000240 9f 6a 03 3c b3 57 02 3e 66 85 b9 3d 31 c0 ca 3c
       0.008021026 0.12728767 0.09058647 0.024749847
000250 78 48 05 3d 92 cc e5 3d c7 f9 e9 3d 6b 53 ef bd
       0.032539815 0.11220659 0.11424594 -0.116858326
000260 01 ca a2 bd be 6b 84 bd b8 b2 6b 3d a0 49 4f 3c
       -0.079486854 -0.06465863 0.057543486 0.012651831
000270 3e 54 3c 3d 22 62 de bd 4f 19 6e 3b 4b 9f e1 bd
       0.045978777 -0.10858561 0.0036331003 -0.11016711
000280 c9 1f be 3c 4c 42 ad bd 3d 9c e5 3c df 84 a6 3d
       0.023208516 -0.08459911 0.028028602 0.08130812
000290 80 f7 6f bd a9 62 f1 3d 6a 06 9f 3c 73 da 05 3e
       -0.058585644 0.11786396 0.019412238 0.13071613
0002a0 15 cb 74 3d 29 50 a8 bc 7d 63 f4 3c cf 9f 88 bd
       0.059763987 -0.020546036 0.029832596 -0.06671106
0002b0 ee 47 d7 3d f5 b3 21 bd 6f 02 e2 3d 5d 3d 61 bc
       0.105117664 -0.03947826 0.110356204 -0.01374754
0002c0 d6 03 01 be bc 85 ab bc 6f 37 e7 bd 71 98 28 3d
       -0.1259912 -0.020937793 -0.1128987 0.041161004
0002d0 09 8a ab bb ff 64 75 bc 2f 3f e9 bd 29 8c 89 3d
       -0.005234961 -0.014977693 -0.113890044 0.067161866
0002e0 ae dc a2 3d f3 9b cb bb 6a d9 c1 bd 63 e9 bd 3d
       0.079522476 -0.006213659 -0.094652966 0.092730306
0002f0 12 df bf 3c 73 90 f9 bd 76 0c eb bd 4e 89 a5 bc
       0.023421798 -0.121857546 -0.11476986 -0.020207074
000300 fe e6 0e bd 29 98 01 bc 3e 38 02 3e 63 5d 1c 3e
       -0.03488826 -0.007909813 0.12716767 0.15269999
000310 7a bb 73 3d 69 e6 61 3d eb 90 78 bc 71 3a d2 bd
       0.059504963 0.055151377 -0.01517127 -0.10265053
000320 b3 1f 8d 3d ee e2 93 3d 45 fd 74 3d 96 1b 8a bd
       0.06890812 0.07221018 0.05981185 -0.06743543
000330 c3 4a ce 3d 94 21 f4 3c 08 c2 5d bc 94 a5 34 3a
       0.100728534 0.029801168 -0.01353503 0.0006891128
000340 2b 2c 57 3d 9c 44 48 bd 5a 16 f1 3d 8f f4 11 be
       0.052532356 -0.048893556 0.11771841 -0.14253448
000350 98 bc b9 bd e1 cb e4 3d 92 8b 28 3b 41 2c ff 3d
       -0.090691745 0.11171699 0.0025717956 0.12459613
000360 db 6d d0 bd c5 fc 98 3d 1a 9f ea 3d 83 17 d3 3c
       -0.10177203 0.07470087 0.114561275 0.025768047
000370 65 98 29 bd 2a 21 a5 3c c7 fe dd bc 3b a4 ec 3d
       -0.0414051 0.020157415 -0.027099026 0.11554762
000380 47 0f 47 3d cf 1b c9 bd ef 57 3c bd 4d dc 0c 3e
       0.048598554 -0.09819757 -0.045982298 0.13755913
000390 84 97 54 3d a0 73 aa 3d 5f b4 5b 3d 4b be 01 3e
       0.05190231 0.08322835 0.053638812 0.12670247
0003a0 93 a1 bc 3c 0f e4 b1 bd b3 ca e0 bd 58 a3 64 3d
       0.023026263 -0.08686077 -0.10976162 0.05581984
0003b0 34 21 f1 3d a3 7c ee bd b6 80 fa bd 15 72 06 bd
       0.11773911 -0.11644866 -0.12231581 -0.03282364
0003c0 ad 55 cf 3d 81 73 16 3e 0c ba 9c bd 5e b9 b0 3d
       0.10123763 0.14692499 -0.07652673 0.08629106
0003d0 e7 06 83 bd 1d 49 74 bb 6f 55 9c 3d 93 3f 47 bd
       -0.06397801 -0.0037275024 0.07633483 -0.048644613
0003e0 9d 2e 4e 3d 23 ab 41 3d af 09 b9 bc e9 30 ab 3c
       0.050337423 0.04728235 -0.022587625 0.020897346
0003f0 8b 3e 87 3c 08 74 fb 3c 12 8d 86 bd 24 47 e5 3c
       0.016509315 0.030694976 -0.06569876 0.027988024

onnx::LSTM_101 f4 [1, 256, 64]
000000 bf 57 93 3d f7 e1 d6 3d df a0 db 3d 99 20 12 be
       0.071944706 0.10492318 0.10724043 -0.14270248
000010 13 82 92 bc af 3c 4b bd c9 e4 ca bb 28 e5 18 3d
       -0.01788429 -0.04961842 -0.006191824 0.037327915
000020 b1 9c 46 3e 4c f5 34 bd e0 f6 15 3e 11 c8 a0 3d
       0.1939571 -0.044179246 0.14644957 0.0785066
000030 35 1a 57 be 83 c5 26 3e c9 56 f0 bc 50 f1 56 bc
       -0.21006091 0.16286282 -0.029338257 -0.013119057
000040 3e 0f 52 be 99 7f 65 3c e4 1e 87 3d 18 93 2b 3e
       -0.20513627 0.014007472 0.06597689 0.1675533
000050 55 9f 0e 3e b0 f7 4b 3e b7 b7 87 3b 0f 26 5d 3e
       0.13927968 0.19918704 0.0041417736 0.2159655
000060 97 0b 90 3c 19 83 84 bd 4a 8b 4d be 86 d2 91 ba
       0.017583651 -0.064703174 -0.20072666 -0.0011125363
000070 78 d1 6a 3d 6f 7c 7e 3d 98 f6 ce 3c aa 3a 11 bd
       0.05732867 0.062130388 0.02526407 -0.035456337
000080 68 54 13 3d ba 18 be 3d f9 08 a7 3d 3b 18 49 3e
       0.035969168 0.0928206 0.08156008 0.1963815
000090 41 d2 5c bd 00 9b d7 3d 1b a7 10 3e 2c 31 f8 3d
       -0.05391145 0.10527611 0.14126246 0.12118754
0000a0 74 72 e0 3b 48 7e ba bd 57 0a 11 3e 44 3b a8 3d
       0.0068495814 -0.091061175 0.141641 0.08214429
0000b0 dc 2c 64 3e 14 3b bb bd ce c0 11 be d3 16 35 bd
       0.22282737 -0.09142128 -0.14233705 -0.04421122
0000c0 bb b2 b5 3d ef 85 36 bc c9 5e 1c be 94 ae 01 3b
       0.08871981 -0.011140331 -0.15270533 0.0019787895
0000d0 e1 12 c8 3d 84 1a 2a 3e cd 68 ae bd e8 9a 4a be
       0.09769226 0.16611677 -0.08516083 -0.19785655
0000e0 e8 0e a4 3d 1b c0 02 bd 69 a2 2c 3e e2 54 17 3e
       0.08010656 -0.031921487 0.1685883 0.14778474
0000f0 8c ee 42 3e 20 c7 57 3e 79 4c 39 bd 53 8a 33 be
       0.19036311 0.21072054 -0.045238946 -0.17533235
000100 2b 74 4f be 15 b3 e3 bc 32 8a 66 3e 30 96 5a be
       -0.20259158 -0.027795354 0.22513655 -0.21346354
000110 73 bb 57 bd a1 38 87 3d de 0e 30 be 9e 27 eb 3d
       -0.052669 0.06602598 -0.17193171 0.11482166
000120 63 b3 33 3d 18 f4 ec bd b4 dd 1e be 5f 73 c5 3d
       0.04387225 -0.11569995 -0.1551426 0.09641146
000130 04 5d c7 bd cb c1 1d 3e b3 5d c3 3c 26 67 3a be
       -0.09734538 0.15405957 0.02384839 -0.1820341
000140 b3 82 47 3e c5 bb 6a 3c 2b e7 16 3c de 23 6c 3e
       0.19483452 0.014326994 0.009210388 0.23060557
000150 97 4a f9 bd 0e a3 09 be 4d b6 00 3e 3a 76 dd 3d
       -0.1217243 -0.13441107 0.12569542 0.108135656
000160 01 0c 3a bd 2e 06 61 bd ff 99 4a 3e d6 df 4c 3e
       -0.045421604 -0.054937534 0.19785307 0.20007262
000170 39 eb 90 3d 63 c8 45 3e 09 83 43 3e e8 9b 8d bc
       0.07076115 0.19314723 0.19092955 -0.017286256
000180 4f 37 8a bd 24 73 81 3c 8c 15 04 3e 0c 88 09 3d
       -0.067488305 0.015801974 0.12898844 0.03357701
000190 a3 29 4a 3e 60 68 49 bb 4c 92 7d 3d 5f e4 fb 3d
       0.19742446 -0.0030732378 0.061907098 0.12299418
0001a0 86 06 a0 3c 34 6f c5 3d a9 32 46 3e ce eb 88 3c
       0.01953436 0.09640351 0.19355263 0.016714003
0001b0 5b ae 10 be 97 35 13 bd 75 c3 5a bb a1 ed 1c 3d
       -0.14129011 -0.03593978 -0.0033380662 0.038312558
0001c0 4a 78 7a 3d fd 0f 32 3e da 4e ee bd a6 b6 3b bd
       0.061149873 0.17388912 -0.116361335 -0.045828484
0001d0 6e 3e 1e 3e df ba 56 3d 3e 89 09 3e 0e 78 0d 3e
       0.15453503 0.052424308 0.1343126 0.13815328
0001e0 30 2e 66 3d 8a a9 ad 3d 3f bd 4f be 65 46 00 3e
       0.05619639 0.08479603 -0.20287035 0.12526853
0001f0 29 8b 01 3e 49 0d 10 3e bb 91 1e be af b7 0e 3e
       0.12650742 0.14067568 -0.1548528 0.13937257
000200 15 0f 0a 3e d7 ee b5 3d 87 12 c3 bd 47 14 9c 3c
       0.13482316 0.08883446 -0.09525018 0.019052638
000210 65 fb 11 3e 60 89 40 be c6 85 f7 3d 2e b5 51 3e
       0.14256056 -0.18802404 0.12086062 0.20479271
000220 6e 93 22 bd bd 81 a8 3c 84 2a ad 3d f7 8a a7 3d
       -0.03969138 0.020569677 0.08455375 0.08180802
000230 0f 4c 59 3e 19 79 e2 bd d3 7f a2 bd 8c f3 47 bd
       0.2122042 -0.11058254 -0.07934537 -0.04881625
000240 1f a5 3a 3e 76 7d 01 be 1b fd 15 3e c5 b4 3a be
       0.18227051 -0.12645516 0.14647333 -0.1823302
000250 9a 4e 27 be 75 03 bb 3c e7 a9 da bd c9 83 22 3e
       -0.16338578 0.022828797 -0.106769376 0.15870585
000260 25 85 3f be 22 ea ac 3d 26 b6 9b 3d 97 26 26 3b
       -0.18703134 0.08443095 0.076031014 0.0025352591
000270 11 ba c9 3d 0e 35 c5 bd 71 1f c3 3d f7 7e 24 bd
       0.098499425 -0.0962926 0.09527481 -0.040160146
000280 dc 07 06 3d 8a ca d2 ba dc 03 59 be 82 01 54 3e
       0.03272234 -0.001608209 -0.21192878 0.207037
000290 76 3c 50 be a9 a0 76 bd 3c e2 60 3e 83 cd 42 3e
       -0.20335564 -0.06021181 0.21961302 0.19023709
0002a0 79 ff 3e 3e 2f e1 cd bd a2 6e e6 3d 18 69 92 3d
       0.18652143 -0.10052716 0.1125157 0.07148951
0002b0 4a ca 40 be b9 96 42 3e eb 72 d9 3d 02 f2 be bd
       -0.18827167 0.19002809 0.10617622 -0.09323503
0002c0 9e a3 1e be f2 83 c9 bd d4 06 fa bd 27 9d d1 bd
       -0.15492103 -0.0983962 -0.122083336 -0.102350526
0002d0 f2 bc 1d be e3 12 24 3e 1d 9f ea 3d f0 8f 2c be
       -0.15404108 0.1602283 0.1145613 -0.16851783
0002e0 1d d5 40 be ec 2b 1d be b1 71 29 bd af 05 52 be
       -0.18831296 -0.15348786 -0.04136819 -0.2050998
0002f0 12 73 14 bd 55 33 18 3d a7 94 cc bd 4c ca 3d 3e
       -0.036242552 0.03715833 -0.09989291 0.18534201
000300 57 02 d3 bd 4a 10 85 3c 50 c4 51 3e c1 e3 96 bc
       -0.10303181 0.016243119 0.20485044 -0.018419148
000310 28 fa d9 3d 70 db 01 3d b6 ec 28 be 3f 36 43 be
       0.10643417 0.031703413 -0.16496548 -0.19063662
000320 ad 48 cf bd f3 49 49 be d5 da 12 3e 6a 5c 37 3e
       -0.10121284 -0.19657116 0.1434129 0.17906347
000330 0b 17 19 be be ef 0d 3e 8e 7c 3b be fe 2b 0a be
       -0.14950196 0.13860986 -0.18309233 -0.13493344
000340 78 6d c1 3d 2d ca 4c be 00 35 36 be d8 18 4a 3e
       0.09444708 -0.19998999 -0.17793655 0.1973604
000350 7b 34 1a bd 13 43 d7 bb 27 5a a7 3d 3e 09 e2 bd
       -0.037647706 -0.006569275 0.08171492 -0.11036919
000360 2d 32 c8 3d d4 94 5d be 5e a0 01 3e df a5 a3 bd
       0.09775195 -0.21638805 0.12658831 -0.07990622
000370 45 24 54 be 9e 99 06 3e 8f cf e0 bb aa 21 5a be
       -0.2071696 0.13144538 -0.0068606804 -0.21301904
000380 49 a8 25 bd b5 0b 76 bc ac e5 01 3e 0f 5e 2c 3e
       -0.040443692 -0.01501744 0.12685269 0.16832756
000390 76 1b c4 3d 4c be 9e 3d 41 74 6e bd a8 95 40 bd
       0.0957555 0.0775114 -0.058216337 -0.047017723
0003a0 c7 bd 54 be 46 86 43 bd a8 ee 20 3e ba da ec 3d
       -0.2077552 -0.047735475 0.1571604 0.11565156
0003b0 74 4d 41 3e f9 18 a9 bd 17 b5 47 3e a7 28 84 bd
       0.18877202 -0.08256716 0.19502674 -0.06453066
0003c0 e7 d3 28 bd d8 9f 3d be c7 cf 8a 3d e9 ca e6 bd
       -0.04121771 -0.18518007 0.06777912 -0.11269171
0003d0 9a a9 50 3e ba c8 07 3c 49 86 4e be da f3 9d 3c
       0.20377198 0.008287603 -0.20168413 0.019281317
0003e0 2e f5 d2 bd 18 d9 17 bd 8b b4 ed 3d 85 ef 9f bd
       -0.103006706 -0.03707227 0.116067015 -0.078093566
0003f0 76 d9 11 be 47 d2 20 be 27 51 a2 3c 37 7f 27 be
       -0.14243111 -0.15705214 0.019814087 -0.16357122
