Project/results/Test2_1Wall_01/Test2/checkpoint.pt (torch, 565538 bytes, 36 tensors)

network_body._body_endoder.seq_layers.0.weight f4 [128, 46]
00000000: ba55 32bc 018c 073e 6fa3 cabc 9f80 fdbd
00000010: 507d 583e 3fda 85bc 2e68 463d 93c3 e7bd
00000020: b2fe c6bd 28cc 943c e134 043d b8e7 a9be
00000030: 9530 813e 7a14 fcbe bf29 1abd 743f a93c
00000040: 2908 11be 4383 7fbd 2af3 873d bb67 a4bd
00000050: 72b2 debd 0ee7 8c3d 5f03 8f3e 1084 8ebb
00000060: 2886 6bbe 565d 4cbd 7092 473e 6c7d ab3e
00000070: 8653 563c d138 893e 7dc4 b83d af25 e8bd
00000080: 2f94 533e c45b 70be 92f8 fdbd 1c80 51bd
00000090: 1247 b33c c89c dfbd 91a5 353d 263f 5dbe
000000a0: 4ba1 303e 5c27 a1be c033 63bb 7f16 72ba
000000b0: 8d7c af3c 59ad 7cbb 0fee 2dbe 7ef6 fbbc
000000c0: 6f71 76be 8c2f 26be 6a05 f03d 1163 ff3d
000000d0: dc76 923c 1d19 4bbb e408 543e c221 2dbe
000000e0: ea19 643e 7680 783e d32a d8bd c5f2 a6bd
000000f0: 9552 d23d b2b4 193e 0d83 be3d e851 8f3e
00000100: 281d 2e3c b047 e43b 040f b63e c416 ae3d
00000110: 7239 dabe 6326 4cbe 224e fb3d c1c3 153e
00000120: f6cc 633d 5d5f 063e 9c7e bbbb 5b0a 1bbd
00000130: 2803 76be 6770 4e3e 111f 3cbb 94c5 b3bd
00000140: e555 5c3e e097 143e e4ee c6bd 3846 2a3d
00000150: 88a3 0c3e cf6b 853d 6192 303d f791 273e
00000160: ae07 d03e ca68 0bbd 623e 813e 1498 d03c
00000170: 863b 083d e3e1 9c3d b752 1b3e d5a3 4d3c
00000180: e278 0dbe 03b2 40be bc35 2c3d 399f ff3d
00000190: 822d 21be 4709 95bb 2a16 f63d 22a8 ab3d
000001a0: 409f 6dbe 1551 80be 3a78 34bd 597b adbc
000001b0: ae4a ffbc a7a9 9abe 3a97 c9bd 4c50 5e3e
000001c0: 6d5d a3be bced a83e b345 7abe 5397 a0be
000001d0: 78e6 babe 4241 ee3c f1a9 5dbd d841 983e
000001e0: 8bc6 54bd 6cdd 21bb cd55 82bb 8652 333e
000001f0: 54a1 acbe f3f1 1a3d 42b9 f4bd 93bc f53c
00000200: 0a13 c0bc b68e 09be 752a 4f3c 7020 823e
00000210: 2caa 86b9 1b6f 5ebd 5b31 cb3e 5f7d 6e3e
00000220: d6bb 36be 04cb 553d b500 1bbd 36e8 5ebe
00000230: 6857 d9bd 5296 cf3c 52be b3bd bc75 36be
00000240: ff9f 923e cf68 423d face 583e 7ede babd
00000250: da32 e93d 5c29 d23b 3fd7 a93d 71b1 9ebd
00000260: 3e1c 533b 1e5d acbe 74ae 153d 56bc 9abd
00000270: b91d c6bc c882 03be 5658 543e da64 75bd
00000280: 7f46 c13d d0f5 a43d 3327 253e 1053 103e
00000290: c530 773e a994 f73d 2477 1dbd becd 2a3e
000002a0: 79c9 983d d017 8cbd e1cc db3d 6ca6 47be
000002b0: 62ea 413e 6bb0 c23d b240 9bbd 0417 5e3e
000002c0: 95bd 2cbe 5350 813e 4828 68be bca8 0f3e
000002d0: e3ac 8abe 80c7 acbd a292 013e 59de 90bd
000002e0: 813d 123e 9a28 083e 10d4 083d d7dd 4d3c
000002f0: f238 663d 83df c43b 81e2 ae3e 3ed7 bcbd
00000300: ff78 cb3d 5be8 143d 8e7d 9abd 106f 2e3e
00000310: 6cc0 6e3d ce67 8fbd b5aa 983d bc58 98be
00000320: 1b9d 5dbe fa3d ddbc 250b 4ebe 1cff 8cbd
00000330: 80be 2c3e fa1a a5bc 7594 023e e40d c1bc
00000340: ae75 973d f71f a93d 7b0e a6bc 99cd 963e
00000350: 1257 50bb 565e ee3d f082 abbd 9b90 823d
00000360: 6cdf e73d 25b1 313e 3fc2 c0be 9a18 a23d
00000370: 8e0e f1bd 0b41 393e 16ac 4c3e 8f83 f8bd
00000380: 6288 863a d3e0 633e 8ca2 1a3f 3e1d 493e
00000390: b8fa 383e 2e87 0d3d 52e1 afbd 40cc cc3e
000003a0: 03d5 acbc d7c8 8b3e 1375 ab3c c920 c5bd
000003b0: 3390 263d 9d29 34be 990b 303d e6a6 4bbe
000003c0: f941 f73e 4a47 5ebb 8eb8 f9bb 193a 6a3d
000003d0: 95cf a83d c79f ac3d 6872 613d c29b b03b
000003e0: 4495 11be a850 aabe b89e 61bc 9c90 653d
000003f0: 51c4 04be 904b 2fbe da50 91ba b176 0bbe
-0.010884697 0.13237001 -0.024736134 -0.12378048 0.21141553 -0.01633942 0.048439197 -0.113166
-0.09716548 0.018163756 0.03227699 -0.331846 0.25232378 -0.49234372 -0.03763747 0.02066014
-0.14163269 -0.06238104 0.06638177 -0.080275975 -0.108738795 0.06880008 0.2793226 -0.004349239
-0.23000395 -0.0498937 0.19489455 0.33494127 0.013081437 0.2680116 0.09021852 -0.113353126
0.20661996 -0.23472506 -0.12400927 -0.051147565 0.021884475 -0.109185755 0.04434735 -0.2160612
0.17249028 -0.3147534 -0.0034668297 -0.00092349196 0.021421695 -0.0038555472 -0.16985343 -0.030757185
-0.24066709 -0.16229075 0.11719783 0.12470067 0.017878942 -0.003099031 0.20706517 -0.16907409
0.2227551 0.24267754 -0.10555043 -0.08151773 0.102696575 0.15010336 0.0930234 0.27992177
0.010627069 0.0069665536 0.3555833 0.08500436 -0.42621952 -0.19936518 0.12270762 0.14625455
0.055615388 0.13122316 -0.00572188 -0.037851673 -0.24024642 0.20160066 -0.002870504 -0.087779194
0.21517141 0.1451106 -0.097135335 0.041570872 0.13734257 0.065147035 0.043108348 0.16364275
0.4063086 -0.03403548 0.25242907 0.025463142 0.03325989 0.07660272 0.15168272 0.012551268
-0.13815644 -0.18817906 0.042043433 0.12481541 -0.15740016 -0.004548225 0.12015946 0.08381678
-0.2320528 -0.2506186 -0.04405997 -0.02117698 -0.03116354 -0.3020756 -0.09843297 0.21710318
-0.31907216 0.32993877 -0.2444065 -0.3136545 -0.3650396 0.029083852 -0.054117147 0.29737735
-0.051947158 -0.0024698628 -0.0039775134 0.17511949 -0.33716834 0.037828397 -0.119493976 0.029997146
-0.023446579 -0.13433346 0.0126444 0.25415373 -0.0002568526 -0.054305177 0.39686093 0.23290013
-0.17845091 0.052195564 -0.03784247 -0.21768269 -0.106123745 0.025340233 -0.08776535 -0.1781835
0.28637692 0.047463235 0.21172705 -0.09124468 0.11386652 0.006413622 0.08293008 -0.07748688
0.0032212879 -0.33664793 0.036543325 -0.075554535 -0.024184095 -0.12842858 0.20736822 -0.059910633
0.09437274 0.080546975 0.16128235 0.14094186 0.24139698 0.120889015 -0.0384437 0.16680047
0.07460303 -0.068404794 0.10732437 -0.19497079 0.18937066 0.09506305 -0.07580699 0.21688467
-0.16869195 0.25256595 -0.22671616 0.14029211 -0.27085027 -0.08436489 0.12653592 -0.070736594
0.14281274 0.13296738 0.033405364 0.012565098 0.05620665 0.00600809 0.34157184 -0.09220742
0.099351875 0.036354404 -0.07543479 0.17034554 0.058288977 -0.07002221 0.07454435 -0.297552
-0.21641962 -0.027007092 -0.20121439 -0.06884596 0.16869545 -0.020154465 0.12751944 -0.023566194
0.073954925 0.0825805 -0.020270577 0.29453734 -0.003179018 0.11639087 -0.08374584 0.063752376
0.11321911 0.17352732 -0.37648198 0.079148486 -0.11770354 0.18091218 0.1998752 -0.12134468
0.0010264034 0.22253732 0.60404277 0.19640061 0.18064392 0.034552746 -0.08587898 0.3999958
-0.021097666 0.27301666 0.020929849 -0.09625394 0.040664863 -0.17593999 0.04297981 -0.19887885
0.4829252 -0.0033917003 -0.0076208776 0.057184312 0.08242718 0.084289126 0.055040747 0.0053896615
-0.14217097 -0.3326466 -0.013770752 0.056046113 -0.12965514 -0.17118669 -0.0011086718 -0.13619496

network_body._body_endoder.seq_layers.0.bias f4 [128]
00000000: f2c1 0fbd a8fa cebc 1c29 53bd 6137 acbc
00000010: 4c42 543d 2310 96bc d19e aabd 5a96 49bc
00000020: 7b38 1cbd d4c0 b4bd 63d6 77bd 6c3e 84bd
00000030: 32f4 3ebe 3b01 9abd af71 b6bc 916a cc3c
00000040: ea04 3b3d cb38 93bc fd3f 1dbe 7cc0 b5bc
00000050: b923 a5bc 0e59 3bbd 4506 bfbd 1e47 6bbd
00000060: 2c19 6a3c de51 04bd b035 c13c 86f2 463c
00000070: d255 92bd 7fac 2dbd 022d aabd 58c2 143d
00000080: 9daf 09bd 4d23 903c 92d2 c73c 370d 743a
00000090: d330 2ebc ab5d 2cbd a06e 86bd c210 29bd
000000a0: 51d2 c8bc 406f 4cbd c266 35bb 2290 fcbc
000000b0: dc68 d8bc 987e 44bd c9ef 003c e475 79bd
000000c0: 79f1 88bc 4e59 453d cb5a c93c 1035 7fbd
000000d0: c53f 25bc d5cf 503b 801c 41be 3924 933c
000000e0: 3e56 d0bb d9be 81bc 9a95 1bbe f307 17be
000000f0: dcb9 4dbd e91e 8a3d 6833 08be cc43 1c3d
00000100: 8949 f9bd b68c 7fbd 7292 29bd 6b72 b63c
00000110: 9168 54be 3226 ccbb 6a4e e3bd 58d8 f7bb
00000120: 2155 23bd 9ecc e0bc 3b3c 63bd ec37 943c
00000130: 55e5 6e3d 8bb4 e43d c5c6 5f3d b63a 22be
00000140: ac86 19be 5692 ae3c 5344 8bbc cf34 5ebe
00000150: 4e70 0d3d 40ee 47be 88d1 01bd c983 50bc
00000160: 1ec8 9a3c d047 9bbc cbbb b9bd 9168 fcbd
00000170: 1bfb d1bd b761 edbc f166 9ebd 5d45 5bbe
00000180: c0cf c73c 447e 59bc 7250 46bd d118 81bd
00000190: 818f 033a 8fde f63c df78 06be 9c6d 973c
000001a0: 4831 183c 5db2 4bbd 7b8f 19be 9397 10be
000001b0: 10f7 d7bd 4077 94bc a2eb 203b 3752 a1bd
000001c0: 5d5c e9bc 3a08 bd3c 5a16 02be c762 00bb
000001d0: adc8 19bd c59f 1a3d 7efb 2bbd 1183 56bd
000001e0: 5455 13be d7b9 b7bc 3f1d f2bd 2e32 3abe
000001f0: f293 aabc 826e 01bd f749 663c 6839 b8bb
-0.03509707 -0.025266007 -0.051552877 -0.0210225 0.051821038 -0.018318241 -0.08331073 -0.012303913
-0.0381398 -0.088258415 -0.06050719 -0.064572185 -0.1864784 -0.07519766 -0.022271005 0.024953159
0.045658983 -0.017971417 -0.15356441 -0.02218651 -0.020158635 -0.045739226 -0.09327368 -0.05744087
0.014288228 -0.032304637 0.02358517 0.012142783 -0.07145275 -0.042400833 -0.08309366 0.036318153
-0.033614744 0.017594958 0.0243924 0.00093098305 -0.010631758 -0.042081516 -0.06564069 -0.041275747
-0.02451435 -0.049910784 -0.0027679657 -0.030830447 -0.026417188 -0.04797229 0.007869669 -0.060903445
-0.016716706 0.04818087 0.024579426 -0.062306464 -0.010086005 0.0031862159 -0.18858528 0.017961608
-0.006357937 -0.015838074 -0.15193787 -0.14749126 -0.050226077 0.06744177 -0.1330086 0.038150594
-0.12172229 -0.06239005 -0.041399427 0.022271356 -0.20743014 -0.006230139 -0.11098941 -0.007563632
-0.039876107 -0.02744132 -0.055477362 0.018093072 0.058324177 0.11167248 0.05463292 -0.15842709
-0.1499278 0.021310013 -0.017000353 -0.21699832 0.03453093 -0.19524479 -0.031693965 -0.0127267325
0.018894251 -0.018955141 -0.09069022 -0.12324632 -0.10252973 -0.028977258 -0.07734478 -0.21413179
0.024391055 -0.013274733 -0.048416562 -0.063035615 0.0005018637 0.030135421 -0.13132046 0.018484883
0.009289093 -0.049730647 -0.1499614 -0.14120321 -0.1054517 -0.01812327 0.002455451 -0.07877009
-0.028486425 0.023075212 -0.12703839 -0.0019590126 -0.037544895 0.037750024 -0.04198789 -0.05237109
-0.14388019 -0.022427483 -0.118219845 -0.18183205 -0.020822499 -0.03159953 0.0140557205 -0.0056220777

network_body._body_endoder.seq_layers.2.weight f4 [128, 128]
00000000: 1675 473c d37d 763c 137f 333d 4317 77bd
00000010: a745 c1bd 2cfe 34bd 05de 3a3e 82c3 4fbe
00000020: 36c5 ca3d 6b0c 603d 3a88 febd 61dd 37be
00000030: 0632 023d a888 54bd b1fc 4a3d f26f 84bd
00000040: 2f48 e23d a591 773c 344f 84bd e513 f23d
00000050: b287 8abb 2728 5f3d 159c 15bc ba2a 5f3d
00000060: 506d 09bd 0eeb 353e 1d53 e9bd 7a37 00be
00000070: d832 07be 2c78 003e 2de7 ba3d 1e65 213e
00000080: c467 983c b41e 75bd 087a 063d 80df 273e
00000090: 07cd c9bd bf5b 183d 59a5 5abc 4d1d 2f3e
000000a0: 69a4 593d 21f7 f8bc b804 223d d9b9 4e3b
000000b0: 164f 4dbd dffc c6bc cfa0 e6bc 908e 8abd
000000c0: f986 4ebc f780 113e 1e60 873d 2bb4 a0bc
000000d0: d275 c9bd 656b 03be 62c1 c3bd 0367 63bd
000000e0: 3b95 88bd 1105 d638 c5c6 53bc 53bf 863d
000000f0: dfb8 403e 48cd d03d 4b61 d43d a234 d9bd
00000100: 2b49 93bd 3a23 bf3d ff4d 2ebd a86c 1abe
00000110: 7be5 043d aa7e 053d 70a2 d33d ee57 cfbd
00000120: b4c3 efbd 713d e7bc 38de 3cbb 756b 21be
00000130: d5bb a4bb 339c 113e 8430 debd 77a7 2bbd
00000140: c6bb 64bd 5eb9 9c3d f1ce 063b 16b0 8cbd
00000150: 9e22 eebc ce4e c3bc 1201 e1bd 507e 11bb
00000160: 25c7 a6bd ab67 223d e4eb c5bd b56b 9c3d
00000170: 6fd8 9ebd da06 973b c57a f3bb 32ef 153e
00000180: 99c9 cebd 9558 a63c 12e4 1abc 909d 4ebd
00000190: f7cf 10be 164a edbd 5aaa df3c 088e ab3d
000001a0: 9dd4 84bd efa0 2b3e 893c 12be 39ad ba3d
000001b0: c109 6bbd a0a7 a33d 2a2c cbbd 0f27 f0bd
000001c0: 35ab 01bb b306 af3c 4dce adbc 7ea8 a0bd
000001d0: 0813 863c f1d1 aebd 3c04 05be d3ad 26be
000001e0: 82de db3b 01b6 80bc 56af a03c 2e17 ce3d
000001f0: d9e9 f63c 7c4b a83d abfb 4f3d b9b6 ecbd
00000200: 25a6 383d b6f2 acba 9373 05bd 2ad3 02be
00000210: abe8 29be 5582 283c ea9d c7bc 55c4 553d
00000220: 44aa 3d3c 0870 fabc d1e3 a53d d580 7c3d
00000230: f272 87bc 1135 393e 257a d03b 77f3 313e
00000240: 0a07 08bd 58a1 babd 6c4f 9a3d 0ea8 8bbd
00000250: 4126 063d 2f4b 523d 58ad 543b afe6 e83c
00000260: bf66 843d 0715 3a3e 6ba9 42bd 8262 cebd
00000270: 3333 603d fd63 39be 7105 0a3e 826a b53d
00000280: 947f c43d 9853 183e 5312 c93d 0f0a 373c
00000290: 669c acbd ec64 f9bc 0821 7f3c a673 423b
000002a0: f799 f63c 6711 e5bb 9c5b fd3d f986 df3d
000002b0: 8f80 17bd e471 ab3d 8be0 c13c 1c35 9a3d
000002c0: b81d a5bd 190b 4c3b 55b9 043e 9c2c 963d
000002d0: 95cd 0dbe e1d4 46be eb01 de3b 5291 7b3d
000002e0: 8b95 0a3d 76c7 283d c1a8 173e 7ee2 973c
000002f0: 2484 b73d 2add 353d fa8f 0ebd fe16 25be
00000300: 45fa 47bd 83d4 6d3d dc52 50be 2ab1 63be
00000310: f5c7 cc3c 72ad 163e 3ffa 983d 77f7 1e3e
00000320: b2cb bb3d 7dc0 563c 9515 52bd 2581 683d
00000330: edde 39be 312c a6be 8935 1abe 646c d13c
00000340: 76dc 9a3d 0f58 0c3c f559 283d 0e5e 6ebd
00000350: 90c9 5b3d ae52 0bbe ea39 d93d be7b 04bd
00000360: 5ff4 0fbe c5c1 ba3c 1f68 5b3d 04b8 2fbd
00000370: 55b9 45bd afea 52be 3ec7 373d 5f51 45be
00000380: 81b9 3cbd c1af 3c3c 39ed 223d 577c cebc
00000390: 48de ffbd dc37 4ebe 6ace 0abe 45e5 d2bd
000003a0: 7abc 643d 4bea 22bd 51a0 823d 9258 1abe
000003b0: 8b39 733e 60f0 04be 3af9 07bd 9839 d3bd
000003c0: 5d23 383d dedd 323e d066 803d 525f f3bc
000003d0: 2b64 1a3e 54e6 6e3d 1945 293d 8cca e3b9
000003e0: 8c71 823d f604 323e da2c 5fbd 4bf8 b23c
000003f0: fe1b 10be 5290 c43d 8ac5 38bd 3404 0fbe
0.012173912 0.015044647 0.04382236 -0.06032492 -0.09437113 -0.04418771 0.18248756 -0.20289424
0.09900896 0.054699343 -0.12428327 -0.17955543 0.031785987 -0.051888138 0.04955739 -0.064666644
0.11048924 0.015110408 -0.06460419 0.11820201 -0.004227602 0.05448165 -0.009131451 0.054484107
-0.033551514 0.17765447 -0.11392806 -0.12521163 -0.13202989 0.12545842 0.091261245 0.1576123
0.018604167 -0.059843734 0.03283122 0.16393852 -0.09853559 0.03719687 -0.013345086 0.17101021
0.05313531 -0.030391278 0.03955528 0.003154388 -0.05012425 -0.0242905 -0.028152851 -0.06765473
-0.012605422 0.14209352 0.0661013 -0.01961716 -0.098369256 -0.12833937 -0.09558369 -0.05551816
-0.066690885 0.00010205259 -0.012925808 0.06579461 0.18820523 0.10195404 0.1037012 -0.10605742
-0.0719169 0.09332891 -0.04255485 -0.15080512 0.032445412 0.0325915 0.10333717 -0.10124193
-0.11707249 -0.02822754 -0.0028818976 -0.15763648 -0.005027274 0.14219742 -0.10849097 -0.041907754
-0.055843137 0.076525435 0.0020570124 -0.06869523 -0.029069241 -0.023841288 -0.10986532 -0.0022200532
-0.081434526 0.039649647 -0.09664133 0.07637731 -0.07756125 0.004608971 -0.0074304068 0.14642027
-0.100970455 0.020305911 -0.00945379 -0.050443232 -0.14141832 -0.115863964 0.02730291 0.083767
-0.06485865 0.1676061 -0.14280905 0.09115071 -0.05738235 0.07990956 -0.09920533 -0.117262
-0.0019785885 0.0213655 -0.021216536 -0.07844637 0.016366497 -0.08536137 -0.12989897 -0.16277246
0.0067098746 -0.015711786 0.019614857 0.10063015 0.030140804 0.082175225 0.05077712 -0.11558289
0.045080323 -0.0013194892 -0.032580923 -0.12775865 -0.16592662 0.01028498 -0.024367291 0.05218919
0.011576239 -0.030570999 0.08100093 0.0616463 -0.016534302 0.1808665 0.006362217 0.1737803
-0.033209838 -0.09112805 0.0753468 -0.06819163 0.032751326 0.051341232 0.0032451954 0.028430311
0.0646491 0.18172084 -0.04752485 -0.100773826 0.054736327 -0.18104549 0.13478638 0.088582054
0.09594646 0.14875638 0.09817948 0.011171832 -0.08428268 -0.030443631 0.01557184 0.0029670983
0.030102713 -0.0069906 0.12370989 0.10914416 -0.036987837 0.08371332 0.02366664 0.07529661
-0.08062309 0.0031134544 0.12961324 0.07332727 -0.13847955 -0.19417144 0.006775131 0.061417885
0.03383402 0.041205846 0.14810468 0.018540617 0.08960751 0.04440037 -0.034805275 -0.16122052
-0.04882266 0.058063995 -0.20344108 -0.22235551 0.02499769 0.14714602 0.07469606 0.15524088
0.09169711 0.013107416 -0.051290113 0.056763787 -0.18151446 -0.3245559 -0.15059485 0.02556438
0.07561581 0.008565917 0.041101415 -0.058195166 0.05365902 -0.13605759 0.10606749 -0.032344572
-0.14058064 0.022797475 0.053566094 -0.0429001 -0.04827245 -0.20597337 0.044867747 -0.19269322
-0.046075348 0.011516512 0.039777014 -0.025205774 -0.12493569 -0.20138496 -0.13555303 -0.10297636
0.055843808 -0.03977422 0.06378234 -0.1507285 0.2375242 -0.12982321 -0.033196665 -0.103137195
0.0449556 0.17467448 0.0626961 -0.029708538 0.15077274 0.058325127 0.041325662 -0.00043447723
0.063693136 0.17384705 -0.054486133 0.021846911 -0.14073178 0.095978394 -0.045110263 -0.13966447

network_body._body_endoder.seq_layers.2.bias f4 [128]
00000000: bc8f 5c3c 82a2 65bc 2176 4ebb d249 3fbd
00000010: f7c5 45bd c521 96bd c9d0 06be df78 08bd
00000020: 7459 80bd 8521 07be 6be1 b8bc 641a 833d
00000030: df16 24be 0207 2b3d 0c94 65bc cceb 02bd
00000040: 8db9 e4bc 01aa a0bb 7d53 35bd b9ec 43bd
00000050: b4bc 233d c5d7 edbd e289 82bd a850 0abb
00000060: 9c88 18bd 4bd1 40bd 12d8 44bd 9f41 7ebd
00000070: 4bdb 62bd 0437 38ba 6a53 ac3a b6be aebc
00000080: eba0 05be 0b1c 703d 863c acbd 5cce 39bd
00000090: 9014 96bc 5e16 4bbc c14e 9abc c8af e3bb
000000a0: 381c 39bd 95cb e2bc 17bf 85bd 783e 653b
000000b0: a4d7 63bd 1256 51bd 6d55 023d 2890 a2bd
000000c0: 29f0 a93c 47c9 93bb 9215 a7bd 7c5d 9abc
000000d0: 2f8e 0abe 36aa acbc 7f4c dabd 1ce1 c3bc
000000e0: a323 2bbd 1c61 00bc 70cc 593c 8326 e1bd
000000f0: d072 b0bd eb37 dabc a23f 6bbd 3d25 debd
00000100: f610 1dbd 2328 af3d cf66 04bd 753c 3dbd
00000110: cf79 4dbd 92dd 333d 2aea f4ba 2c5c babd
00000120: 9f1b 3dbd 94f5 92bc 31c9 4abd ab4c 703a
00000130: e281 2dbd ef1d d0bd 7190 63bd e3e2 0d3a
00000140: 45f9 8dbd fd8c 92bc 123e 19be e447 44bd
00000150: 772c 4fbc 09ea 0bbe a040 0dbc 65f9 ffbc
00000160: 0a04 8ebd 442c 333b 64dd 25bd c609 1ebe
00000170: c2ce a63c 2207 813d fdcf b2bc f421 1ebd
00000180: ae4b 7fbd 2a06 08be 024b 83bd 7907 fdbc
00000190: c343 cbbc cb5c 2cbc 9170 343d ead7 b3ba
000001a0: dddd 0dbe 40b9 f8bd 62cd 42bd 0c56 06bd
000001b0: 5a55 30bb cc9d c2bd f548 4fbc 67c9 88bd
000001c0: d0e5 9bbc bbb5 39bd da60 8b3c d622 c1bc
000001d0: 85b4 34bc 9d21 aabd 76ae 58bd 1ac0 5bbd
000001e0: c7b2 8c3d 986e 193b 1f08 f43c 0de5 f1bc
000001f0: 68a0 6fbd dd32 5dbd 0db4 0f3c d38d 793c
0.013462003 -0.014015796 -0.0031503516 -0.04670126 -0.048284497 -0.0733066 -0.13165583 -0.033318397
-0.06267062 -0.1319638 -0.022568425 0.06401518 -0.1602435 0.04175473 -0.014012348 -0.031963155
-0.027920509 -0.0049030785 -0.044269074 -0.04783318 0.039974883 -0.116134204 -0.06373955 -0.0021105204
-0.037239656 -0.047074597 -0.048057623 -0.0620743 -0.055384915 -0.0007027241 0.0013147418 -0.021331172
-0.13049667 0.058620494 -0.084099814 -0.045362815 -0.018320352 -0.0123954695 -0.01883638 -0.006948445
-0.045192927 -0.027684966 -0.06530588 0.0034979861 -0.055625573 -0.051107474 0.03181975 -0.07937652
0.0207444 -0.004510078 -0.08158411 -0.018843405 -0.13530801 -0.021077257 -0.10659122 -0.023911051
-0.041782033 -0.007835653 0.013293371 -0.10993674 -0.08615649 -0.026637992 -0.05743373 -0.108469464
-0.038346253 0.08552577 -0.03232461 -0.046200234 -0.050164994 0.043912478 -0.0018685509 -0.09099612
-0.04616892 -0.017939366 -0.049508277 0.0009166698 -0.042360194 -0.101619594 -0.055557672 0.0005412532
-0.0693231 -0.017889494 -0.14965084 -0.047920123 -0.012644879 -0.13663496 -0.008621365 -0.03124685
-0.06934364 0.0027339617 -0.040494338 -0.15433416 0.020362262 0.063001886 -0.021827692 -0.0386066
-0.062328033 -0.13283601 -0.06410791 -0.030887352 -0.024812585 -0.01052017 0.044052664 -0.0013720964
-0.13854165 -0.12144709 -0.04755915 -0.032796904 -0.0026906342 -0.095027536 -0.012651672 -0.066790394
-0.019030482 -0.045339327 0.017013956 -0.023576181 -0.011029367 -0.083071925 -0.052900754 -0.05365
0.068700366 0.0023411866 0.029789029 -0.029528165 -0.058502585 -0.054003585 0.008770955 0.015231567

action_model._continuous_distribution.log_sigma f4 [1, 2]
00000000: 7dd0 cebe bbc4 46bf
-0.4039344 -0.77643937

action_model._continuous_distribution.mu.weight f4 [2, 128]
00000000: a9b9 573a 2c6a 95bc 5510 e33c 7bc3 853b
00000010: 9f01 04bd bb4e 463c 359f a6bb a517 e33d
00000020: 12fd c93b 8f8d 89bc 0fa0 b13c fd69 133c
00000030: 5f42 8cbc 5677 34be e7fd 81bc b577 d5bd
00000040: 2b75 023d bfea 473a 2388 7b3d 1db9 a13c
00000050: 244b 43bd 2298 01bd 3fed 4b3c 65fe 2ebb
00000060: 1666 a4bc 553d 01bd e531 3ebb cd3a a8bc
00000070: 0b4a c73c dd51 bfbd ee46 5e3d f35a 92bd
00000080: cfb0 90bc e89d 5ebc d973 a93b efdc e53c
00000090: 8702 863d cc19 34bb 08f0 e4bd 3e0f 84bc
000000a0: 555f 133d 98ac c83a 0634 f7bb 4891 9abd
000000b0: c30d 1cbb 8f86 453a e4eb 393d bc7b 66bc
000000c0: ed51 80bd 5e4e 8e3b 0649 e83b 541a 893b
000000d0: 3864 03bb 3dee bb3b 18a8 87bd 045d c13d
000000e0: c3f7 a73b 640d d1bc 94e3 83bd 0a87 5e3b
000000f0: 2624 a3bc 3ca3 6b3d 626d 163b 4ab6 853b
00000100: 537b 1bbd 5350 07bd 1e78 0fbd 3e55 57bd
00000110: 8bd3 02bd 43e5 64bd 4bc2 6ebb f635 23bc
00000120: d324 39bd 0e11 a3bc 0eb8 733a c5f7 22bd
00000130: a0a2 f33c 5e27 d73b 3445 bb3c a379 9c3d
00000140: b597 a9bb 8820 5bbd 2873 aabc 76bf 0fbc
00000150: 365b f7bc 767a 98bb da5f 1d3d 9909 abbc
00000160: c852 803c 6a50 c4bd a0ae 053d e9b6 623b
00000170: d509 89bd 4c8d d03c e940 74bd 3f13 a13b
00000180: 8d8f e1bc bbcf bebc eaf8 0b3d af3b 9fbc
00000190: 877a 7dbd 3c8c 72bd 79ec bcbc 63ef e8ba
000001a0: 32e9 b3bb 704d 3bbc 7da5 4f3c 870b 673d
000001b0: c828 293d 846e 123c 9a1c 8c3c 5366 2fbd
000001c0: 937e 01bd 8eee 9e3c 09fe 2abc 1508 8ebb
000001d0: e607 bb3d 0e0a 713c 941d 16bc b16d a9bb
000001e0: 25bc abbb 6ed3 8f3c 53d0 3238 adba 313b
000001f0: d4c7 193d 7e4a c8bb abbb 60bd 1786 83bb
00000200: e6da 38bb 1b9f 15be 8b19 8cbc 9bf4 f7bd
00000210: 4442 adbd 44f7 a8bd 9186 64bd e7ad 2dbd
00000220: 931c d7bd ff0f c9bd 9a1c c0bc 739e cf3d
00000230: 5eba 7ebd 2bd4 dd3c 3f55 ddbd 7e99 28bd
00000240: 5a7e dcbd dd09 73b9 73dd 48bd eb05 f2bc
00000250: 7e9e 943d a86f 8fbd 9978 03be 9f1e 423b
00000260: d400 b7bd 8b15 d0bd 3c2a d1bd 4818 b0bd
00000270: 46f4 babd c5d2 95bb 81e0 173c c1a2 a3bd
00000280: 3a0f adbd 212f d33d e230 adbd 68de 8bbd
00000290: 26a1 23bd cd7b 333b a142 2b3c 23fb 093c
000002a0: 3e13 bfbd ab97 8539 3dd2 d5bd 9253 c4bd
000002b0: 5d44 c7bd 274a dabd a035 493d e8ed e2bd
000002c0: 038e 3c3d e9cd f13a 7a41 98bd ea94 15b9
000002d0: f67b a9bd 4e74 163b 8feb adbd 37e3 4fbd
000002e0: 03f9 ab38 7410 11be 603b ab3b fdbb 87bd
000002f0: 8562 adbd ab60 14bd dcf4 c6bd d47b 89bd
00000300: 5509 cebd 9f9e fb3d b50f 24bd e486 f0bc
00000310: 3af4 b9bd d7f7 bc3d c3e1 113a 8356 8ebd
00000320: 5a59 c5bd 9491 253b 03cf f9bd 1c75 1ebe
00000330: fce9 05bd 22a1 c6bd 3b4b dfbd 0863 d13b
00000340: df56 e6bd 07c9 febd 642b 82bd 5aaf 0cbe
00000350: d485 dabd bf1e 68bd 608c 27bc 0fee ddbd
00000360: a17e 03be 0399 91bc d136 bfbd d7d6 12bd
00000370: 79b7 1b3c c04e 083e 329c e5bd ad52 3c3a
00000380: 848f a3bd 1f41 66bd e319 c8bd 7a46 ffbd
00000390: 6686 dbbd 5bc4 c9bd 06b5 c73d b656 5fbb
000003a0: 9164 92bd b23b 94bd 3833 c1bd b498 24bd
000003b0: ef42 ae3c c7b9 d7bd 8cb8 3fbc f41d acbd
000003c0: ee29 933a 1dce c0bd b7bd 843d 6945 c5bd
000003d0: 7af4 4bbd 49c3 09bd 152a e7bd d8ab d3bd
000003e0: 72e8 da3d 15c2 bcbd 6dfe c6ba fbe3 d4bd
000003f0: e372 95bd 4a43 d0bd 424f 07be 028e 0abb
0.00082292646 -0.018239103 0.027717749 0.004082141 -0.03222811 0.012103732 -0.005084897 0.11088494
0.0061642015 -0.016791133 0.021682767 0.008997438 -0.017121492 -0.17623648 -0.01586814 -0.10423223
0.03185002 0.00076262275 0.061409127 0.01974159 -0.04767908 -0.031639226 0.012446701 -0.0026701924
-0.02006821 -0.03155263 -0.0029021439 -0.02053585 0.024327299 -0.09341786 0.054266863 -0.071462534
-0.017662434 -0.0135874525 0.005171281 0.02805945 0.06543451 -0.0027481196 -0.11178595 -0.01612055
0.035979588 0.0015310226 -0.0075440435 -0.075472414 -0.0023811914 0.00075350044 0.04539098 -0.0140675865
-0.06265626 0.004342838 0.007088783 0.0041840468 -0.0020048749 0.0057351873 -0.06623858 0.094415694
0.005125971 -0.02551908 -0.064398915 0.0033955001 -0.019914698 0.05752872 0.002295338 0.0040805684
-0.037959408 -0.033035588 -0.035026662 -0.052571528 -0.031940024 -0.055882704 -0.0036431726 -0.009961596
-0.045201134 -0.019905593 0.00092971406 -0.039787073 0.029740632 0.006565972 0.022860147 0.07640388
-0.0051755556 -0.05349782 -0.020806864 -0.008773675 -0.03019486 -0.0046532704 0.03842149 -0.0208786
0.015664473 -0.0958565 0.03263724 0.0034593886 -0.066913284 0.025458 -0.059632216 0.0049156244
-0.02753427 -0.023292413 0.03417293 -0.019437639 -0.06188443 -0.05921577 -0.023061978 -0.0017771538
-0.0054904455 -0.011432037 0.012673733 0.056407478 0.041298658 0.008937482 0.017103482 -0.042822193
-0.03161485 0.019400861 -0.010436543 -0.0043344595 0.09132366 0.01471187 -0.009162325 -0.005170547
-0.0052409344 0.017556872 4.2632524e-05 0.0027119324 0.037544087 -0.006112396 -0.054866474 -0.0040137875
-0.0028206646 -0.14611475 -0.017102024 -0.12107202 -0.08459905 -0.08250287 -0.055792395 -0.042402174
-0.10503497 -0.09817504 -0.023451138 0.10137644 -0.062189452 0.027078709 -0.10807275 -0.041162007
-0.10766287 -0.0002317796 -0.049039315 -0.029543838 0.072567925 -0.070037186 -0.12838973 0.0029620302
-0.08935705 -0.10160359 -0.10213134 -0.08598381 -0.09128623 -0.004572245 0.0092698345 -0.07990027
-0.0845017 0.103117235 -0.08456589 -0.0682953 -0.039948605 0.0027387023 0.010452897 0.008421692
-0.09329842 0.00025480738 -0.104404904 -0.09586252 -0.09729836 -0.10658675 0.049123406 -0.11080533
0.04603387 0.0018448207 -0.07434364 -0.00014265222 -0.08275597 0.0022957507 -0.08492195 -0.0507538
8.2002975e-05 -0.14166433 0.005225584 -0.06627653 -0.08466057 -0.036225002 -0.09714672 -0.067130715
-0.10060374 0.12286114 -0.040054042 -0.029361196 -0.09079786 0.09226959 0.0005564952 -0.069500946
-0.09636183 0.0025263773 -0.121976875 -0.15474361 -0.032693848 -0.096987024 -0.10903021 0.0063899793
-0.11247038 -0.12440687 -0.06355932 -0.13738766 -0.10670057 -0.056669947 -0.010226339 -0.10836422
-0.12841274 -0.017773157 -0.09336627 -0.03584942 0.0095041925 0.1331129 -0.112114325 0.00071839505
-0.07986358 -0.056214448 -0.097705625 -0.12464614 -0.10718994 -0.09851905 0.09751324 -0.0034078783
-0.07148088 -0.072379485 -0.09433597 -0.04018469 0.02127215 -0.10533481 -0.011701714 -0.084041506
0.0011227706 -0.09414313 0.06481498 -0.096323796 -0.049793698 -0.033633504 -0.112873234 -0.10335511
0.10688867 -0.09216706 -0.0015182026 -0.10395046 -0.072973035 -0.10169084 -0.13213828 -0.0021141772

action_model._continuous_distribution.mu.bias f4 [2]
00000000: 2e3f 443a 2267 de3d
0.0007486221 0.10859515

exp_avg f4 [128, 46]
00000000: 3e31 dd39 0400 0080 2975 9539 3e31 dd39
00000010: 0400 0000 259b 8139 3e31 dd39 0400 0080
00000020: b71a be39 3e31 dd39 0400 0080 6910 aa38
00000030: 3e31 dd39 0400 0000 5899 c239 3e31 dd39
00000040: 4e22 0080 f649 4437 f431 dd39 39bd 58aa
00000050: 82bc 9639 3e31 dd39 0400 0080 5459 38b8
00000060: 3e31 dd39 0400 0080 5d20 5ab6 3e31 dd39
00000070: 0400 0080 9aca 48b8 3e31 dd39 0400 0000
00000080: ead3 5236 3e31 dd39 0400 0080 32e4 8bb8
00000090: 3e31 dd39 5400 0000 4dd0 5237 3e31 dd39
000000a0: 0400 0000 609b d2b8 9b35 f3b7 220e 1b32
000000b0: 8ac1 dd39 deeb 743b 8e5b abba 0400 0000
000000c0: ee78 66ba 8e5b abba 0400 0080 4ec9 47ba
000000d0: 8e5b abba 0400 0080 93df 8eba 8e5b abba
000000e0: 0400 0080 19ba 91b9 8e5b abba 0400 0080
000000f0: 184c 92ba 8e5b abba 646d 0000 4244 a3b8
00000100: 145c abba 72b6 272b 0082 62ba 8e5b abba
00000110: 0400 0000 f40a 0739 8e5b abba 0400 0000
00000120: a773 9f37 8e5b abba 0400 0000 2b22 1339
00000130: 8e5b abba 0400 0080 664e 90b6 8e5b abba
00000140: 0400 0000 de85 4639 8e5b abba 4c00 0080
00000150: c6b7 0cb8 8e5b abba 0400 0080 61ad 8b39
00000160: a0ee 8838 bc54 d1b2 5da8 abba 5b88 3ebc
00000170: e926 8239 0400 0000 8e78 1539 e926 8239
00000180: 0400 0080 fcd0 0b39 e926 8239 0400 0080
00000190: b314 2639 e926 8239 0400 0080 9a49 9238
000001a0: e926 8239 0400 0080 5158 2439 e926 8239
000001b0: 1722 0000 c902 5f38 d325 8239 a229 212a
000001c0: c786 fe38 e926 8239 0400 0000 e3d1 3a36
000001d0: e926 8239 0400 0000 c6cd 5e36 e926 8239
000001e0: 0400 0000 f7eb 4f36 e926 8239 0400 0080
000001f0: 72df 7d36 e926 8239 0400 0000 d923 7536
00000200: e926 8239 4d00 0080 ebef f036 e926 8239
00000210: 0400 0000 9cd7 6b36 a245 0bb7 6b2c a030
00000220: 3c54 8239 b2e0 103b 6351 7fb9 0400 0080
00000230: 076d f5b8 6351 7fb9 0400 0080 7947 f6b8
00000240: 6351 7fb9 0400 0080 2179 d4b8 6351 7fb9
00000250: 0400 0000 88b9 bfb8 6351 7fb9 0400 0000
00000260: 8fdd c6b8 6351 7fb9 893f 0080 1a68 d1b8
00000270: 624f 7fb9 716b 3faa f5c4 99b8 6351 7fb9
00000280: 0400 0080 9ffb f4b7 6351 7fb9 0400 0080
00000290: 0bbf cab6 6351 7fb9 0400 0080 4751 05b8
000002a0: 6351 7fb9 0400 0000 3ea7 95b6 6351 7fb9
000002b0: 0400 0080 6969 39b8 6351 7fb9 1700 0000
000002c0: 6597 c7b6 6351 7fb9 0400 0000 b158 8bb8
000002d0: 243f 9fb6 9d5a 5a31 bf48 7fb9 fa3d 0fbb
000002e0: 23a6 d0ba 0400 0000 8704 79ba 23a6 d0ba
000002f0: 0400 0080 a5fe 5cba 23a6 d0ba 0400 0080
00000300: fb8b 85ba 23a6 d0ba 0400 0000 4093 f6b9
00000310: 23a6 d0ba 0400 0080 b29d 87ba 23a6 d0ba
00000320: b3f8 0000 c49e b0b9 7fa7 d0ba 9d7d 9c2b
00000330: 10f6 51ba 23a6 d0ba 0400 0000 c89e 8b37
00000340: 23a6 d0ba 0400 0000 d981 30b7 23a6 d0ba
00000350: 0400 0000 14b5 9b37 23a6 d0ba 0400 0080
00000360: cd10 a3b7 23a6 d0ba 0400 0000 3610 c237
00000370: 23a6 d0ba 6d00 0080 e826 32b8 23a6 d0ba
00000380: 0400 0000 b3aa d2b7 7a5b 0bb8 9fe9 e2b1
00000390: 46f5 cfba 49f7 69bc 3312 5336 0400 0080
000003a0: 8278 0437 3312 5336 0400 0080 18ac 0037
000003b0: 3312 5336 0400 0080 7cfb b037 3312 5336
000003c0: 0400 0000 023b 07b7 3312 5336 0400 0000
000003d0: f831 af37 3312 5336 3705 0000 59f7 63b7
000003e0: aef8 5236 306f 9a28 11d8 8737 3312 5336
000003f0: 0400 0000 afc7 f3b6 3312 5336 0400 0080
0.00042189093 -6e-45 0.00028506786 0.00042189093 6e-45 0.0002472039 0.00042189093 -6e-45
0.00036259528 0.00042189093 -6e-45 8.109288e-05 0.00042189093 6e-45 0.00037116813 0.00042189093
-1.2306e-41 1.1699731e-05 0.00042189623 -1.9250304e-13 0.0002875068 0.00042189093 -6e-45 -4.3952212e-05
0.00042189093 -6e-45 -3.250337e-06 0.00042189093 -6e-45 -4.7872403e-05 0.00042189093 6e-45
3.1415789e-06 0.00042189093 -6e-45 -6.670541e-05 0.00042189093 1.18e-43 1.2565474e-05 0.00042189093
6e-45 -0.00010042521 -2.899282e-05 9.025401e-09 0.00042296603 0.0037372033 -0.001307355 6e-45
-0.00087918236 -0.001307355 -6e-45 -0.00076212443 -0.001307355 -6e-45 -0.001090037 -0.001307355
-6e-45 -0.0002779521 -0.001307355 -6e-45 -0.0011161594 -0.001307355 3.9242e-41 -7.78516e-05
-0.0013073706 5.958351e-13 -0.00086405873 -0.001307355 6e-45 0.00012878684 -0.001307355 6e-45
1.9008132e-05 -0.001307355 6e-45 0.00014031741 -0.001307355 -6e-45 -4.300661e-06 -0.001307355
6e-45 0.00018932621 -0.001307355 -1.06e-43 -3.3549753e-05 -0.001307355 -6e-45 0.00026641323
6.529433e-05 -2.4369335e-08 -0.0013096441 -0.011629189 0.00024824523 6e-45 0.00014254657 0.00024824523
-6e-45 0.00013333926 0.00024824523 -6e-45 0.00015838705 0.00024824523 -6e-45 6.975532e-05
0.00024824523 -6e-45 0.00015673159 0.00024824523 1.2229e-41 5.3169937e-05 0.00024823713 1.4314117e-13
0.00012136768 0.00024824523 6e-45 2.783833e-06 0.00024824523 6e-45 3.3200354e-06 0.00024824523
6e-45 3.0982753e-06 0.00024824523 -6e-45 3.783e-06 0.00024824523 6e-45 3.652871e-06
0.00024824523 -1.08e-43 7.1804875e-06 0.00024824523 6e-45 3.514323e-06 -8.301258e-06 1.1654157e-09
0.00024858292 0.0022106585 -0.00024349014 -6e-45 -0.00011702818 -0.00024349014 -6e-45 -0.00011743507
-0.00024349014 -6e-45 -0.0001013151 -0.00024349014 6e-45 -9.1421476e-05 -0.00024349014 6e-45
-9.482644e-05 -0.00024349014 -2.2792e-41 -9.985287e-05 -0.00024348267 -1.7001484e-13 -7.3322946e-05 -0.00024349014
-6e-45 -2.9204237e-05 -0.00024349014 -6e-45 -6.0423095e-06 -0.00024349014 -6e-45 -3.1785366e-05
-0.00024349014 6e-45 -4.4600156e-06 -0.00024349014 -6e-45 -4.4205608e-05 -0.00024349014 3.2e-44
-5.948287e-06 -0.00024349014 6e-45 -6.6445566e-05 -4.74592e-06 3.1774683e-09 -0.00024345795 -0.002185701
-0.0015918653 6e-45 -0.0009499271 -0.0015918653 -6e-45 -0.0008430279 -0.0015918653 -6e-45
-0.0010188812 -0.0015918653 6e-45 -0.00047030486 -0.0015918653 -6e-45 -0.001034668 -0.0015918653
8.9216e-41 -0.00033687626 -0.0015919058 1.1119331e-12 -0.00080093835 -0.0015918653 6e-45 1.664403e-05
-0.0015918653 6e-45 -1.052065e-05 -0.0015918653 6e-45 1.8561761e-05 -0.0015918653 -6e-45
-1.9438938e-05 -0.0015918653 6e-45 2.3134151e-05 -0.0015918653 -1.53e-43 -4.247474e-05 -0.0015918653
6e-45 -2.5113439e-05 -3.3225377e-05 -6.6040253e-09 -0.0015865944 -0.014280149 3.1452043e-06 -6e-45
7.895871e-06 3.1452043e-06 -6e-45 7.669463e-06 3.1452043e-06 -6e-45 2.1097941e-05 3.1452043e-06
6e-45 -8.060366e-06 3.1452043e-06 6e-45 2.0884894e-05 3.1452043e-06 1.871e-42 -1.35878445e-05
3.143719e-06 1.7145654e-14 1.6193868e-05 3.1452043e-06 6e-45 -7.2652106e-06 3.1452043e-06 -6e-45

exp_avg_sq f4 [128, 46]
00000000: b1a7 0f38 80dd b431 04d3 9736 f55a 0e38
00000010: 4dd2 b632 2412 8e36 47b4 1138 799a ec2b
00000020: dfec 9036 eadc 1138 005c 7b32 1aeb 8a36
00000030: c8f6 1138 e4ee f617 550b 9c36 a629 1238
00000040: 768c 1c33 3cb1 8336 d970 1138 46ab 4e34
00000050: 2ba7 bf36 3895 1138 1383 cb31 a043 a636
00000060: 9b28 1138 742c bd32 6a37 9736 7f28 1238
00000070: cceb e431 8bad a236 9d5d 1238 498f 0a31
00000080: d541 9136 0f2b 1238 ca8d 1723 f4ac 9b36
00000090: 50b9 1038 ef87 d933 9bcb ab36 b225 1038
000000a0: 5fb7 7030 0a9d 8f36 2845 ee35 5654 2b2c
000000b0: 2c2d 0b38 15e1 1d3b 4ae6 1c39 12a6 7932
000000c0: 0487 0938 f276 2039 3d68 8934 4aab 0d38
000000d0: 0edc 2639 fd5f 942c 747e 0738 3c2c 2839
000000e0: 4b07 0534 6759 0b38 6852 2739 29a1 0819
000000f0: af08 f437 9a8a 2839 ed84 b934 ff50 ea37
00000100: b9b2 2739 a56c ea35 1358 e237 bd64 2839
00000110: a8d1 4e31 10ef 1f37 a112 2839 21e9 e932
00000120: b27a 0937 2359 2839 05af 2533 d826 2437
00000130: abd8 2839 819b 1f31 e82c 1b37 c185 2839
00000140: f686 1e28 06b7 3d37 e975 2739 a71a f533
00000150: 96ca 6037 30a1 2639 3e96 1630 8375 8437
00000160: 32e9 0237 7a07 772c 8075 2139 9db5 2e3c
00000170: dfe3 4337 b437 882f 0344 4736 6d28 5237
00000180: 0e75 2a33 9ef5 7336 d137 7e37 d372 a32a
00000190: 55c3 f335 4ce6 8337 0360 2932 61f9 cf36
000001a0: 8e84 8037 7266 c518 f65a 9935 34b8 8437
000001b0: d28d c233 8629 8f36 02f4 8137 3daf 4334
000001c0: 917d a735 6bbf 8437 c4cb 6e2e f581 3835
000001d0: 367e 8437 c04b cc32 ce00 2435 6d11 8537
000001e0: e3f9 1632 cd34 4f35 0a2c 8537 f67e 412e
000001f0: add6 0735 723d 8537 790b 6324 3caa 5d35
00000200: eafb 8437 d3d1 2d32 1a42 2135 d164 8337
00000210: 7640 952f 9626 9a35 7ed4 9935 50ec b52a
00000220: c56f 7337 8658 de39 6259 b037 0eb7 0130
00000230: f4d0 7736 8709 bb37 2719 8e32 756b 9c36
00000240: 4d01 e537 dd61 5a2c 1c8f 2d36 004a e637
00000250: 029a 9b32 29d4 1237 13c3 e537 6258 6c16
00000260: 343b f835 a5f4 e737 0ec2 0d34 ac31 d436
00000270: a4f7 e437 682c 4934 4de1 2d36 e976 e737
00000280: 5430 c930 7047 3136 f6a9 e737 7a64 0f32
00000290: 1d8e 1836 e74a e737 b278 d02f 6730 3236
000002a0: 3a48 e837 0e0c 842f 3428 fb35 961b e837
000002b0: 5b98 5425 40f8 3b36 ee69 e737 131d ea32
000002c0: 5e2a 0e36 cab1 e437 2938 cd2f 15c2 4c36
000002d0: 8aeb cb35 42a8 462b 89b5 d537 c7f3 703a
000002e0: b21f a539 008d 8732 4b20 9e38 53df 9f39
000002f0: 79a7 7735 92e9 a138 6e04 ba39 2375 4a2d
00000300: 8695 8138 db2d bb39 5bf6 1234 060a df38
00000310: 1d6d ba39 cceb 7819 a0cd 4f38 efff ba39
00000320: 4bf9 e135 f679 a138 11e5 b839 48c1 df36
00000330: 1621 5838 5ed4 ba39 ad1c c131 364e af37
00000340: a0f4 ba39 c04e c133 ee88 9737 5010 bb39
00000350: e891 5f34 d1d7 ab37 7b80 bb39 74c6 6030
00000360: 80ee 8f37 eb79 bb39 8616 0928 3f50 b537
00000370: e11c bb39 eef5 8934 b8be b937 c4c8 b639
00000380: e824 0732 40ac fe37 5cc5 8b37 2ab0 252d
00000390: fd68 b639 f963 803c 6474 4235 1634 612e
000003a0: 7390 2734 86f4 8c35 1b93 742d 17a0 8e34
000003b0: 0521 8d35 0ebf c528 3f06 4934 823e 9135
000003c0: 7e5d 0331 8715 9f34 5909 8e35 1c25 6e14
000003d0: ab35 1d34 4536 9135 758a 6a31 f95d 7034
000003e0: e513 9035 6b19 ce30 7351 1b34 9dba 9135
000003f0: 4ae5 082c 7886 5f33 fc90 9135 95b9 342f
3.425003e-05 5.263871e-09 4.524716e-06 3.394015e-05 2.1283222e-08 4.2340416e-06 3.473859e-05 1.6811683e-12
4.31911e-06 3.4776436e-05 1.4631041e-08 4.14009e-06 3.4800527e-05 1.5957682e-24 4.6504815e-06 3.48479e-05
3.644933e-08 3.924737e-06 3.467579e-05 1.9247554e-07 5.7117045e-06 3.4709665e-05 5.922979e-09 4.955058e-06
3.460851e-05 2.202271e-08 4.5066017e-06 3.4846827e-05 6.6624803e-09 4.8481793e-06 3.4896297e-05 2.0163091e-09
4.3290006e-06 3.4849214e-05 8.215751e-18 4.6394944e-06 3.450486e-05 1.0129576e-07 5.1199e-06 3.4367382e-05
8.757208e-10 4.280014e-06 1.7752509e-06 2.4347377e-12 3.3182252e-05 0.0024090458 0.00014963109 1.4531468e-08
3.278909e-05 0.000153031 2.5594082e-07 3.3776545e-05 0.0001591297 4.21707e-12 3.2304277e-05 0.00016038207
1.2389243e-07 3.3223445e-05 0.0001595706 7.063581e-24 2.909111e-05 0.00016073362 3.4555651e-07 2.793269e-05
0.0001599294 1.7465978e-06 2.6982312e-05 0.00016059256 3.0096121e-09 9.5328e-06 0.00016028668 2.7230785e-08
8.194404e-06 0.00016054935 3.8576236e-08 9.784206e-06 0.00016102444 2.322594e-09 9.2491755e-06 0.00016071556
8.800027e-15 1.1307891e-05 0.00015970286 1.14135496e-07 1.3398609e-05 0.0001589104 5.478319e-10 1.5790347e-05
7.802899e-06 3.5104961e-12 0.00015397929 0.010663417 1.1675961e-05 2.4777835e-10 2.9692899e-06 1.2526388e-05
3.968767e-08 3.635279e-06 1.51525755e-05 2.9034292e-13 1.816176e-06 1.5723657e-05 9.858925e-09 6.1981123e-06
1.5320515e-05 5.102675e-24 1.1425861e-06 1.5821402e-05 9.059626e-08 4.266566e-06 1.5491623e-05 1.8224542e-07
1.2479014e-06 1.5824762e-05 5.4295915e-11 6.8734454e-07 1.5794398e-05 2.3783173e-08 6.109593e-07 1.586295e-05
8.787967e-09 7.7190344e-07 1.5875343e-05 4.3995883e-11 5.0603813e-07 1.5883448e-05 4.9232496e-17 8.257664e-07
1.5852933e-05 1.0117634e-08 6.0073364e-07 1.5663363e-05 2.7148744e-10 1.1485124e-06 1.1461232e-06 3.2316034e-13
1.4509952e-05 0.00042409095 2.1022457e-05 4.7190063e-10 3.6927495e-06 2.2296574e-05 1.6542414e-08 4.661672e-06
2.7299533e-05 3.1033988e-12 2.586231e-06 2.7452596e-05 1.811441e-08 8.7516755e-06 2.7389766e-05 1.9091817e-25
1.849467e-06 2.7651267e-05 1.3202245e-07 6.323875e-06 2.7295035e-05 1.8735739e-07 2.5910151e-06 2.7592718e-05
1.463841e-09 2.6416637e-06 2.761649e-05 8.346541e-09 2.2732486e-06 2.7572225e-05 3.792074e-10 2.655224e-06
2.7690188e-05 2.4019225e-10 1.8712658e-06 2.76694e-05 1.8439689e-16 2.8009672e-06 2.7586673e-05 2.7254407e-08
2.118431e-06 2.7262508e-05 3.7329187e-10 3.051134e-06 1.519323e-06 7.0577235e-13 2.5476113e-05 0.0009191599
0.00031494867 1.5780188e-08 7.540042e-05 0.00030493233 9.2258375e-07 7.720584e-05 0.00035479985 1.150838e-11
6.17905e-05 0.00035701584 1.3686933e-07 0.00010635336 0.0003555798 1.2868918e-23 4.954415e-05 0.0003566737
1.683636e-06 7.699795e-05 0.00035265883 6.668419e-06 5.1529227e-05 0.0003563491 5.6202993e-09 2.0898045e-05
0.00035658944 9.0015874e-08 1.8064366e-05 0.00035679573 2.0821574e-07 2.0485286e-05 0.00035763145 8.1772744e-10
1.7157989e-05 0.00035758255 7.609912e-15 2.1614249e-05 0.00035688936 2.5697176e-07 2.2142529e-05 0.00034863327
7.866426e-09 3.035937e-05 1.6661994e-05 9.41828e-12 0.00034791967 0.01567267 7.244e-07 5.120534e-11
1.5605637e-07 1.0501979e-06 1.3902458e-11 2.6566042e-07 1.0514929e-06 2.195425e-14 1.8721856e-07 1.0821534e-06
1.9116153e-09 2.963172e-07 1.0582545e-06 1.2023248e-26 1.4641289e-07 1.0819136e-06 3.4130185e-09 2.2385929e-07
1.0734626e-06 1.4995697e-09 1.4465131e-07 1.0857653e-06 1.9454043e-12 5.2043532e-08 1.0845538e-06 1.6436837e-10

exp_avg f4 [128]
00000000: 3e31 dd39 8e5b abba ea26 8239 6651 7fb9
00000010: 25a6 d0ba 5412 5336 907a f836 3c8b 76b9
00000020: ebca a4bb 5cfd ddb9 be6f 8ab9 663c 98b9
00000030: ffff 9f36 99e9 1438 a80f 14b9 42b1 a4bb
00000040: 86ab f7b9 e986 dabb 5af8 2db8 c36c 5d38
00000050: 2d35 0539 bd5a 2d38 752d 3db8 407d e6b9
00000060: ff51 b6b8 343f d9b9 7adc 2dbb fbb9 7739
00000070: 863e 8e39 1dd0 74bb d540 6fb8 078e b6b9
00000080: 5636 deb8 dcd6 10b9 3281 41b8 e1a6 8cb7
00000090: 4056 b5bb db58 e6ba 0fa9 acb8 1bbb 8f39
000000a0: d366 993a f6e9 a939 0b2f 773b d9a7 5db9
000000b0: 88f0 a0b8 a248 b6b8 72c9 603a 8990 9dba
000000c0: a240 2fb8 0e18 893a 9b93 e3bb c2a5 7339
000000d0: 349e 4bbb 1209 3439 047f 5b37 c050 3ab9
000000e0: e21e f83a 9a0e 98bb 60c4 3eb8 bad6 adb7
000000f0: 0b34 14bb 7f15 bbb6 190d 7fb7 6800 6139
00000100: 7e2e 16b8 2833 22ba 54f2 b239 886a 9bba
00000110: f352 a1b6 2411 fdba 0903 4e35 fc93 f139
00000120: b067 ca39 29d7 05bb efe8 2c3a fa52 4ab9
00000130: 5227 77bb 1031 0abc 8de2 cebb 9e65 3fb8
00000140: 9b28 ddb7 087e 0aba 833f 813a f9e9 4e35
00000150: 7f60 d538 0109 5536 3ba7 bb39 e69a bebb
00000160: 8a09 c638 a93b 553a a5e3 1836 079e 33b7
00000170: 30a5 87b7 21b5 81b9 d51f dc37 bf6f 2ab7
00000180: 9510 6aba 592c 7fb9 b939 f9b8 885d 1bb9
00000190: b1e2 82b9 2b3f 5fb9 73cf cb38 5771 f3b8
000001a0: d9f7 25bb 22a2 11ba 0d94 22b9 852f f937
000001b0: 878d 40b9 d6ac 83ba e2ca 04bb 6061 4ab8
000001c0: 8ba5 6bba 6f72 25bb 5e41 e5b7 c629 333a
000001d0: 96de 8d38 4c21 8539 74c5 793a 94f3 c437
000001e0: 04e0 05b7 d45b 7fba 8beb b8b7 c0da b236
000001f0: f0ff c637 e4b2 d039 0206 55b9 7785 4bbb
0.00042189093 -0.001307355 0.00024824525 -0.00024349018 -0.0015918656 3.1452118e-06 7.405244e-06 -0.00023512257
-0.0050290725 -0.00042341172 -0.00026404666 -0.000290367 4.768371e-06 3.5503504e-05 -0.00014120212 -0.0050260136
-0.00047239306 -0.0066689146 -4.147771e-05 5.27918e-05 0.00012703678 4.133092e-05 -4.5103447e-05 -0.00043962337
-8.693709e-05 -0.00041436555 -0.002652912 0.00023625039 0.00027130934 -0.003735549 -5.704242e-05 -0.00034819564
-0.00010595906 -0.00013812952 -4.613511e-05 -1.676701e-05 -0.0055339634 -0.0017574088 -8.233089e-05 0.0002741449
0.0011703618 0.00032408506 0.0037717249 -0.0002113873 -7.674197e-05 -8.691965e-05 0.00085749396 -0.0012021224
-4.1783445e-05 0.0010459439 -0.006945086 0.00023236035 -0.0031069638 0.00017169517 1.308299e-05 -0.00017768424
0.0018930102 -0.0046404125 -4.548242e-05 -2.0723197e-05 -0.0022614028 -5.5755368e-06 -1.5202234e-05 0.00021457823
-3.5806086e-05 -0.00061874324 0.00034131354 -0.001185731 -4.8078305e-06 -0.0019307476 7.6745397e-07 0.0004607736
0.00038605696 -0.0020422435 0.0006595989 -0.00019295132 -0.0037712646 -0.008434549 -0.006313628 -4.5632587e-05
-2.6364161e-05 -0.00052830623 0.0009860847 7.7081455e-07 0.00010174605 3.1744714e-06 0.00035792016 -0.005816805
9.4431525e-05 0.0008134195 2.2782272e-06 -1.0706025e-05 -1.6170176e-05 -0.0002473975 2.6240867e-05 -1.01588075e-05
-0.00089288625 -0.00024335216 -0.00011883997 -0.00014816795 -0.0002496443 -0.00021290469 9.718435e-05 -0.00011608254
-0.002532473 -0.00055554707 -0.00015504677 2.9705241e-05 -0.0001836327 -0.0010046016 -0.002026253 -4.825124e-05
-0.00089892064 -0.002524521 -2.7329366e-05 0.0006834533 6.764864e-05 0.00025392545 0.0009528019 2.3478446e-05
-7.9795755e-06 -0.00097411615 -2.2044193e-05 5.3302792e-06 2.372262e-05 0.00039806135 -0.00020315501 -0.0031054893

exp_avg_sq f4 [128]
00000000: 234b 1238 2c9a 2839 5863 8537 be57 e837
00000010: a996 bb39 23df 9135 07e1 9535 f3f7 c536
00000020: 2ff9 5a3a 4a24 5b37 3470 af36 2def 3d36
00000030: cf25 3234 9faa 2536 6810 3335 e5e9 983a
00000040: e7e8 fc37 e21e de3a 080f aa34 4eb5 e037
00000050: 4a0a f636 fa8e ea35 7ca0 7636 e3fd 8e36
00000060: 52a3 6637 5cbe e236 d6f7 9b39 427b a037
00000070: 683a 7736 754c d239 a4ce 5d35 0f7e 8037
00000080: f258 9f35 8b6c 1e36 1ab3 d834 46c6 c234
00000090: 338c 9c3a 5ccc 8f39 ff72 0234 507b bc37
000000a0: eda4 9c38 e26e 3d38 6e1e 393a af6e c835
000000b0: 5d9d 1e37 8f9e 6b36 1fce c537 fcda 7338
000000c0: 129e 3c38 fc77 ac38 1e9e ee3a 3e2b 2d38
000000d0: 5d93 d239 592c 1e39 9fc3 2633 5f8f a337
000000e0: 3d61 033a f12d 503a 4099 e734 5813 1b34
000000f0: a593 3d39 ffd2 d035 6fcb d134 0bd6 5739
00000100: 69bd 2235 61ac 7838 7d89 f337 a0f6 a739
00000110: d727 5433 b9f2 2939 03ba 5334 feef af37
00000120: 3924 8b37 2f0a ec38 2997 3638 8969 8437
00000130: fc5f 243a 844b 323b f496 b03a 0920 e234
00000140: 860e a334 9096 2538 e8da bc38 8a92 c132
00000150: 61f0 e935 09e6 9233 53b9 0238 249a 823a
00000160: afd5 ac36 4312 d038 ccd3 4634 4358 0d33
00000170: 7f2c b834 5804 8037 ae77 7a34 4311 a534
00000180: 5135 7d38 9097 fa36 48f5 8837 ff21 d835
00000190: a628 7738 b9f4 ec38 01cf ff35 55b2 a238
000001a0: ce7e 123a 4495 1c37 291f 8637 75a4 3933
000001b0: da8e ac35 f016 4538 3b67 d838 f044 7235
000001c0: ae59 8c37 dbe9 7739 3f75 6d34 0487 0839
000001d0: 25d6 c835 4bcd 0f38 f0df 8838 be8f 7236
000001e0: ab89 3633 bfa0 ed37 7e3e d834 866a ff33
000001f0: 2614 0f35 62f8 1837 cc7c a636 f0cc d839
3.487909e-05 0.00016079162 1.5901096e-05 2.7697413e-05 0.0003577967 1.0868283e-06 1.1166857e-06 5.8999226e-06
0.0008353171 1.3061866e-05 5.2284686e-06 2.8302413e-06 1.6591297e-07 2.468623e-06 6.670657e-07 0.0011666386
3.0149195e-05 0.001694646 3.1675904e-07 2.6787307e-05 7.332569e-06 1.747597e-06 3.675027e-06 4.261486e-06
1.3747094e-05 6.7574856e-06 0.00029748556 1.9130883e-05 3.6839865e-06 0.00040111286 8.262962e-07 1.531749e-05
1.187231e-06 2.3607015e-06 4.036345e-07 3.627958e-07 0.0011943638 0.00027427345 1.2149029e-07 2.2468768e-05
7.4693795e-05 4.516438e-05 0.00070617243 1.4933374e-06 9.454173e-06 3.5110022e-06 2.3580213e-05 5.813966e-05
4.4969907e-05 8.223948e-05 0.0018205082 4.1286687e-05 0.00040164115 0.00015084575 3.8827803e-08 1.9497877e-05
0.0005011743 0.0007941416 4.3138607e-07 1.4442537e-07 0.00018079446 1.5558616e-06 3.90773e-07 0.00020583735
6.062533e-07 5.9288348e-05 2.903188e-05 0.00032036472 4.939633e-08 0.00016207517 1.9718577e-07 2.097338e-05
1.6586959e-05 0.00011255254 4.353296e-05 1.578477e-05 0.00062704063 0.0027205655 0.0013472722 4.211909e-07
3.0371683e-07 3.9479288e-05 9.005313e-05 2.2534795e-08 1.7429812e-06 6.840498e-08 3.1167012e-05 0.000996415
5.1508755e-06 9.9216144e-05 1.8517238e-07 3.2909394e-08 3.4305046e-07 1.5260812e-05 2.3326604e-07 3.0746205e-07
6.0369555e-05 7.468225e-06 1.6326681e-05 1.6103148e-06 5.8927246e-05 0.0001129894 1.9059227e-06 7.757979e-05
0.00055883534 9.333078e-06 1.5988555e-05 4.3223242e-08 1.2856574e-06 4.6989822e-05 0.00010318911 9.025234e-07
1.673106e-05 0.00023642874 2.2114999e-07 0.00013020268 1.4963485e-06 3.428505e-05 6.526697e-05 3.614448e-06
4.2500385e-08 2.8327455e-05 4.0278604e-07 1.1893739e-07 5.330097e-07 9.117737e-06 4.961714e-06 0.0004135142
