Project/results/Test1/Test1/Test1-121048.onnx (onnx, 73562 bytes, 7 tensors)

network_body._body_endoder.seq_layers.0.weight f4 [128, 3]
0	0x3f80f7b3	1.0075592
1	0xbea712fa	-0.32631665
2	0xbe6658c2	-0.22494796
3	0x3ebbee8a	0.36705428
4	0xbe0b98f5	-0.13632567
5	0xbde42277	-0.11139386
6	0xbf5ed941	-0.87050253
7	0x3e5659ac	0.20932645
8	0x3e58c356	0.21168265
9	0x3e926412	0.28591973
10	0xbf497789	-0.7869802
11	0xbeca14c0	-0.39468956
12	0xbeef6407	-0.46756002
13	0x3e32ca84	0.17460066
14	0x3e0d5f77	0.13805948
15	0x3e932fd2	0.28747422
16	0xbf1fe579	-0.6245952
17	0xbc96fc53	-0.018430864
18	0xbf13427c	-0.5752332
19	0xbea51d19	-0.32248762
20	0x3eedbae0	0.46431637
21	0xbee22fef	-0.44177195
22	0x3f2ef328	0.68339777
23	0xbbd33094	-0.006445
24	0xbea5f4be	-0.32413286
25	0xbeaa3c66	-0.33249205
26	0x3ee4c7d2	0.446837
27	0xbe93efc7	-0.28893873
28	0x3e10129e	0.14069602
29	0xbf019edf	-0.50633043
30	0x3f41fe94	0.7577908
31	0x3d8aa4aa	0.067696884
32	0xbeaf5d32	-0.3425079
33	0xbe9754f2	-0.29556996
34	0xbf340348	-0.70317507
35	0x3e711aaa	0.23545328
36	0x3dc1f94a	0.09471376
37	0xbdc61e88	-0.09673792
38	0xbe21b52f	-0.15791772
39	0xbea826ce	-0.32842106
40	0x3eeaea92	0.45882088
41	0xbf7f311e	-0.9968432
42	0xbeb6d67e	-0.3571052
43	0xbdf29b01	-0.11845971
44	0x3ed697d9	0.41912726
45	0xbf074086	-0.5283283
46	0x3ed86e34	0.42271578
47	0xbfb42223	-1.4072918
48	0x3f512b1c	0.81706405
49	0x3f027343	0.50957125
50	0xbf3fe9a3	-0.74965876
51	0x3f9fb52a	1.2477162
52	0x3fc07376	1.5035236
53	0xbf04b459	-0.5183769
54	0xbe902558	-0.2815349
55	0x3ed496e1	0.4152136
56	0x3f8ff20c	1.1245742
57	0xbf0bf707	-0.5467381
58	0x3f5ac331	0.8545409
59	0xbf22bff9	-0.6357418
60	0xbe459c1f	-0.19297837
61	0xbf52073e	-0.820423
62	0xbf132305	-0.5747531
63	0x3ea62787	0.32452032
64	0xbe577045	-0.21038921
65	0xbfe12daf	-1.7592067
66	0x3f047099	0.5173431
67	0xbf74aeb2	-0.95579064
68	0x3f6907b8	0.910274
69	0xbf975eba	-1.1825783
70	0x3deb0647	0.11475807
71	0xbec50e01	-0.38487247
72	0x3ecaea0e	0.39631695
73	0x3e8d10cb	0.27551875
74	0x3e9fc288	0.31203103
75	0xbf1435df	-0.578947
76	0xbf2d345b	-0.67658013
77	0x3e388b68	0.1802193
78	0x3f1b3aa8	0.6063638
79	0x3f252352	0.6450702
80	0xbfb6bc8b	-1.4276289
81	0x3f113a51	0.5672961
82	0x3ce2428c	0.027619623
83	0xbd63bf2a	-0.05560223
84	0x3ebe4e93	0.37169322
85	0x3e30563a	0.17220393
86	0xbe8da412	-0.27664238
87	0x3f3c4dd7	0.73556274
88	0xbd46c2d4	-0.048525646
89	0xbe8fb604	-0.28068554
90	0xbd634f8f	-0.055495795
91	0x3f26cdff	0.65158075
92	0x3f477fca	0.77929366
93	0xbf3a187f	-0.7269363
94	0xbece4f8a	-0.40295058
95	0x3f3ab9e9	0.72939926
96	0x3ede3178	0.43397117
97	0xbe01b00d	-0.12664814
98	0x3ec29213	0.3800207
99	0xbf869436	-1.051398
100	0x3e30d628	0.17269194
101	0xbf59a05b	-0.8501031
102	0xbe571c9e	-0.2100701
103	0x3ebf5a9f	0.37373826
104	0x3f5ac3f0	0.85455227
105	0x3efb3f3a	0.49071676
106	0x3eb9f303	0.36318216
107	0xbe59b401	-0.21260072
108	0xbf662855	-0.8990529
109	0xbf0b6ac6	-0.544598
110	0xbf4226ed	-0.75840646
111	0x3f5d8125	0.86525184
112	0x3ef0254b	0.46903452
113	0x3f004626	0.5010704
114	0x3f90588c	1.1277022
115	0x3dbbb19f	0.09164738
116	0x3f1bdf28	0.60887384
117	0x3e1ba4c1	0.15199567
118	0x3f56e5c8	0.8394437
119	0x3f0cc0da	0.5498177
120	0xbf16fa0c	-0.5897529
121	0xbddaf5a9	-0.10691387
122	0x3f631bf8	0.8871455
123	0x3e7287c0	0.23684597
124	0xbf51cc93	-0.8195278
125	0xbe189e38	-0.14904106
126	0x3f410e55	0.75412494
127	0xbf104cc5	-0.5636714
128	0x3e9082d7	0.28224823
129	0x3e6c6886	0.23086748
130	0xbf33d823	-0.70251673
131	0xbdf5c15a	-0.119997695
132	0x3e9c89da	0.30573922
133	0x3dc7b8fe	0.09752081
134	0x3da10240	0.07861757
135	0xbeca7a3a	-0.39546376
136	0xbec452bd	-0.38344374
137	0xbf234bee	-0.63787735
138	0x3f0357c4	0.51305795
139	0xbf315aab	-0.69278973
140	0xbe47fe82	-0.19530681
141	0xbf0f4d13	-0.5597698
142	0x3d292dce	0.04130345
143	0xbe859f2a	-0.26097995
144	0xbf0365ef	-0.51327413
145	0xbe7cebf5	-0.24699385
146	0xbfa20f88	-1.266099
147	0x3f02103d	0.5080603
148	0x3f13aeb8	0.57688475
149	0x3f599cee	0.8500508
150	0x3edfc8a3	0.4370776
151	0xbf363f98	-0.71190786
152	0xbf437e3e	-0.76364505
153	0xbeb90d4e	-0.36142963
154	0xbf1932e5	-0.59843284
155	0xbe6e80bb	-0.23291294
156	0xbc98a8ee	-0.01863524
157	0xbf45a803	-0.7720949
158	0xbea67035	-0.32507482
159	0xbe0869eb	-0.13321654
160	0xbe6482a2	-0.22315457
161	0xbf070490	-0.52741337
162	0xbf9afa09	-1.2107555
163	0x3f20aca7	0.62763447
164	0x3f8bd1c4	1.092339
165	0x3f4b3f09	0.7939306
166	0xbf555030	-0.8332548
167	0x3f554111	0.8330241
168	0x3f0d14f7	0.55110115
169	0x3f31189e	0.6917819
170	0x3ec2e6b8	0.3806665
171	0x3f3c6905	0.7359775
172	0x3ec2edef	0.38072154
173	0x3f3760b6	0.71631944
174	0xbe2484a9	-0.16066231
175	0x3ec7aa67	0.38997194
176	0xbf62e6cf	-0.88633436
177	0xbe2148b4	-0.1575039
178	0xbe3be942	-0.183507
179	0xbebbd4c0	-0.36685753
180	0x3f5e50d4	0.86842084
181	0xbedb00c9	-0.42774037
182	0x3f6eddec	0.93307376
183	0xbfa5ec61	-1.2962762
184	0xbe180e54	-0.14849216
185	0xbf3809b9	-0.71889836
186	0xbf610ac6	-0.87907064
187	0x3e0b0c44	0.13578898
188	0x3e065346	0.13117704
189	0xbead6e1e	-0.33873075
190	0x3ece012e	0.40235275
191	0xbe299824	-0.16561943
192	0xbef0edea	-0.47056514
193	0x3d879934	0.06621018
194	0xbf7d31e6	-0.98904264
195	0xbf8c5769	-1.0964175
196	0x3f31db33	0.69475096
197	0x3e88b4ff	0.2670059
198	0xbe06b1dd	-0.13153787
199	0xbe07faaa	-0.13279215
200	0xbdd68911	-0.10475362
201	0xbf476955	-0.778951
202	0x3ecbce1e	0.39805692
203	0x3efbc11a	0.49170762
204	0xbe6ca648	-0.23110306
205	0xbba3fef8	-0.00500476
206	0xbe76c468	-0.2409836
207	0xbf2c8cc4	-0.6740229
208	0x3e90040c	0.28128088
209	0xbdce80e0	-0.10083175
210	0x3f05eae3	0.52311534
211	0xbdcea661	-0.10090328
212	0xbf12f1da	-0.57400286
213	0xbddbb3c4	-0.10727647
214	0x3d56b38a	0.052417316
215	0x3f16bbb2	0.5888015
216	0xbe2b02f6	-0.16700348
217	0xbf45c712	-0.7725688
218	0xbd8fdea5	-0.07024888
219	0x3da34b80	0.07973385
220	0x3f753985	0.9579089
221	0x3da6a95b	0.08137771
222	0x3efa3ca0	0.48874378
223	0x3e8f3a7d	0.2797431
224	0xbe39cf36	-0.18145451
225	0xbeebb4ae	-0.46036285
226	0x3e4f6432	0.20253065
227	0xbdbf5287	-0.09341913
228	0x3e8efee9	0.27928856
229	0x3ea89ec9	0.32933643
230	0xbf5e6273	-0.8686897
231	0x3e66785a	0.22506848
232	0xbed2325f	-0.41054055
233	0x3f0ef81c	0.55847335
234	0xbe1bff0d	-0.15234013
235	0xbc5e6326	-0.0135734435
236	0xbea3f2ef	-0.3202128
237	0xbf6605bf	-0.8985252
238	0x3eedfcc0	0.46481895
239	0x3f6ebed6	0.9325994
240	0x3edd0315	0.43166414
241	0xbd4fc99c	-0.05072938
242	0x3e9ba3e7	0.30398485
243	0xbf53c90f	-0.82728666
244	0x3f844b9c	1.0335574
245	0xbeae3b2a	-0.34029514
246	0x3f84fc01	1.0389405
247	0x3f2a196d	0.66445047
248	0x3db50bab	0.08840116
249	0x3e992900	0.29914093
250	0x3e413a5d	0.1886992
251	0xbe99b34a	-0.300196
252	0xbf7eda52	-0.9955188
253	0xbf44ed67	-0.7692475
254	0xbb260962	-0.0025335182
255	0xbf6937bc	-0.9110067

network_body._body_endoder.seq_layers.0.bias f4 [128]
0	0x3d014b3d	0.031565893
1	0xbcee704c	-0.029106282
2	0x3d29549f	0.041340467
3	0x3cc9ab63	0.024617856
4	0xbc1eee6a	-0.009700397
5	0x3c4f2dd7	0.012645206
6	0x3d72753a	0.059193827
7	0x3d7a6187	0.061128166
8	0x3d4432ac	0.047899887
9	0xbca36fb0	-0.019950718
10	0x3cadc63a	0.021212686
11	0xbd1a62c8	-0.03769186
12	0xbdbbe619	-0.09174747
13	0xbcb43ef0	-0.022002667
14	0x3d74f242	0.059801348
15	0x3cb1063e	0.021609422
16	0x3c31e0d7	0.010856829
17	0xbc3ad2a5	-0.011402761
18	0x3d71ec21	0.05906308
19	0x3d0b93f8	0.03407666
20	0x3ce892cd	0.028390313
21	0x3c4e3b31	0.0125873545
22	0xbc13cb6b	-0.009020667
23	0x3d39bffa	0.0453491
24	0xbcc0004d	-0.023437643
25	0x3c7aee32	0.015315579
26	0x3cea8935	0.028629879
27	0x3c14f0f7	0.009090654
28	0x3ca4266a	0.020037849
29	0xbbb3e3ab	-0.0054897866
30	0xbc495a55	-0.012289603
31	0x3d70a643	0.05875231
32	0xbc341deb	-0.010993461
33	0x3ce6f133	0.028191185
34	0x3d24f2c4	0.04027058
35	0x3d876730	0.06611478
36	0xbcb3338b	-0.021875164
37	0xbb51d1f2	-0.0032016006
38	0xbcaa2a13	-0.020772016
39	0xbc8cd62b	-0.017191967
40	0x3d7079bf	0.058709856
41	0xbcdb6f5c	-0.026786499
42	0x3d01d464	0.031696692
43	0xb9db7ec5	-0.00041865386
44	0xbd68975f	-0.056784984
45	0xbce84068	-0.028351024
46	0xbbd66046	-0.0065422384
47	0x3c86f3de	0.016473707
48	0x3ce2b144	0.027672417
49	0xbc4921f7	-0.012276164
50	0xbccc0c05	-0.024908075
51	0x3d0c1604	0.034200683
52	0x3c98dce7	0.018660022
53	0x3d104174	0.03521867
54	0x3d5d574f	0.054038342
55	0xbc9ed798	-0.019389912
56	0xbcffec6c	-0.031240664
57	0xbcebdaa1	-0.028790774
58	0x3d39b983	0.045342933
59	0xbc41b4bc	-0.011822876
60	0xbc8e4660	-0.017367542
61	0x3d637f03	0.05554105
62	0x3d610a38	0.054941386
63	0x3a8d2841	0.0010769443
64	0xbb713a26	-0.003680834
65	0x3d62dab7	0.055384364
66	0x3ce949bd	0.028477544
67	0x3d6b7971	0.057488862
68	0xbca83f05	-0.020537863
69	0x3cf8c4e8	0.03036733
70	0x3d629ff8	0.05532834
71	0x3cee6efb	0.029105654
72	0x3ca0443c	0.019563787
73	0xbd21157c	-0.03932713
74	0xbbf29661	-0.0074031805
75	0x3d11a95f	0.035561915
76	0x3d4f8324	0.050662175
77	0xbc40ddfe	-0.011771677
78	0x3d40d250	0.04707557
79	0x3d6a5486	0.057209514
80	0xbcc59573	-0.024119115
81	0x3d1abdc8	0.037778646
82	0x3d458f02	0.048232086
83	0xbd07e764	-0.033179656
84	0x3d5b0971	0.0534758
85	0x3c86cc9c	0.016454987
86	0xbca26eb4	-0.019828178
87	0xbdbbdf91	-0.09173501
88	0xbd3c99a7	-0.04604497
89	0xbd0c2132	-0.034211345
90	0x3d395942	0.04525114
91	0xbd284d2a	-0.041089214
92	0x3cb08aa5	0.021550486
93	0x3c8f7055	0.017509619
94	0x3d38d634	0.045126155
95	0x3ba18abb	0.004929868
96	0x3d3bf73c	0.045890078
97	0x3b60e99b	0.0034318927
98	0x3d205f6f	0.039153513
99	0x3cf3ef35	0.029777149
100	0x3cd101ef	0.025513617
101	0x3b5a6f25	0.0033330407
102	0x3ce17089	0.027519481
103	0xbd5233d6	-0.051318966
104	0xbd8fd467	-0.070229344
105	0x3cc3473f	0.023837684
106	0x3cf8529c	0.030312829
107	0x3cd6767a	0.02617954
108	0x3c31573f	0.010824024
109	0x3cae3668	0.021266177
110	0xbc99c5b8	-0.018771037
111	0x3d47b551	0.0487569
112	0x3cd9e54a	0.026598591
113	0x3c4b01fc	0.01239061
114	0x3c533f8b	0.012893568
115	0x3d3a0ec2	0.04542423
116	0xbcf66620	-0.030077994
117	0x3cd0df52	0.025497112
118	0xbc3353f8	-0.010945313
119	0x3d85e57e	0.06537913
120	0x3d4be89c	0.04978238
121	0xbd24f576	-0.040273152
122	0xbd223557	-0.03960165
123	0x3cefcc1a	0.029272128
124	0xbd641bbf	-0.055690523
125	0x3cd3d512	0.025858436
126	0x3d858a09	0.06520469
127	0xbc82b244	-0.015954144

network_body._body_endoder.seq_layers.2.weight f4 [128, 128]
0	0x3da819b3	0.08208027
1	0x3e2f4d1f	0.17119263
2	0xbe65e211	-0.22449519
3	0x3e5d1876	0.21591362
4	0xbe90e2b0	-0.2829795
5	0xbc715006	-0.014728552
6	0x3d8c2751	0.068434365
7	0xbd35c6e2	-0.044379123
8	0xbe47ffe0	-0.19531202
9	0x3d3560b3	0.044281673
10	0xbb0a0168	-0.0021057967
11	0xbda44ca9	-0.08022434
12	0xbdb0f13f	-0.08639764
13	0x3ce825b3	0.028338289
14	0x3c11e9c2	0.00890583
15	0xbe3562d7	-0.17713486
16	0x3dbfc92c	0.09364542
17	0x3e4e7ddc	0.20165199
18	0xbe722bc5	-0.23649509
19	0x3de110f7	0.10989564
20	0x3d4e6449	0.050388608
21	0xbe28703f	-0.16449068
22	0xbd5be415	-0.053684313
23	0x3dc2e7be	0.095168576
24	0xbdd8d34d	-0.105871774
25	0xbe354520	-0.1770215
26	0x3e923651	0.28557065
27	0x3e5f2085	0.21789749
28	0xbdbbcc18	-0.09169787
29	0x3d473521	0.048634652
30	0xbab0ff91	-0.0013503899
31	0xbdc6bf2b	-0.09704431
32	0x3e371ea4	0.17882782
33	0x3cbdc366	0.023164462
34	0xbe1086fb	-0.14113991
35	0x3e5e5dac	0.2171542
36	0xbd33ded1	-0.043913666
37	0x3c16204b	0.009162973
38	0xbbaef143	-0.005338819
39	0x3ccfcf84	0.025367506
40	0xbce9abd0	-0.02852431
41	0xbe02549a	-0.12727585
42	0xbca1fe69	-0.019774633
43	0x3e5c03ea	0.21485868
44	0x3e25cf2c	0.16192311
45	0xbd66ca47	-0.05634525
46	0x3e2761e0	0.1634593
47	0xbdd52036	-0.104065344
48	0xbd988621	-0.07447458
49	0x3e2312bd	0.15925117
50	0x3e58202b	0.21106021
51	0xbd154b80	-0.036448956
52	0xbe0f00de	-0.13965175
53	0xbda64eb7	-0.081204824
54	0xbdc147c3	-0.094375156
55	0xbc41e116	-0.01183345
56	0x3de304de	0.11084913
57	0x3d9fc7bd	0.07801769
58	0x3e86466c	0.26225603
59	0xbcef8e31	-0.029242607
60	0x3e7f2539	0.24916543
61	0xbe1e276c	-0.15444726
62	0xbde5a952	-0.11213936
63	0xbe072ed9	-0.13201465
64	0x3d6c785d	0.057731975
65	0xbd873ac5	-0.06603006
66	0xbdf553ba	-0.1197886
67	0xbe397159	-0.18109645
68	0xbcefe87e	-0.029285666
69	0xbe3c8d47	-0.18413268
70	0x3e23f4cb	0.1601135
71	0xbdeaf619	-0.11472721
72	0xbd5ddfee	-0.054168634
73	0x3e060e48	0.13091385
74	0x3da6e1de	0.081485495
75	0xbd469700	-0.04848385
76	0x3cbf1384	0.023324735
77	0x3d0434bc	0.032276854
78	0xbc412cec	-0.011790495
79	0xbdbcfe4c	-0.09228191
80	0x3b3dafdf	0.0028943939
81	0xbe02d2bb	-0.127757
82	0x3dc906e1	0.09815765
83	0x3e0e5faf	0.13903688
84	0xbd8a9bb1	-0.06767977
85	0x3c3c73eb	0.011502246
86	0xbd1bf2b9	-0.038073275
87	0x3d92c983	0.071673416
88	0x3e152c4e	0.14567682
89	0x3d9dd93b	0.07707449
90	0x3a3c38ff	0.0007180124
91	0x3ddda5a4	0.10822609
92	0xbcdd9740	-0.02704966
93	0xbd5ecd82	-0.054395206
94	0xbd5711be	-0.052507155
95	0x3e2f5254	0.1712125
96	0x3e31af8f	0.17352127
97	0x3d9348a1	0.07191587
98	0x3e040eab	0.1289622
99	0x3e425e7d	0.18981357
100	0x3db224d4	0.08698431
101	0xbd475cce	-0.04867249
102	0xbe2ca0c8	-0.16858208
103	0x3e2d5a3d	0.16928954
104	0x3df842f1	0.12122143
105	0xbda9a2af	-0.082829826
106	0x3bbea3bf	0.00581786
107	0x3e85a129	0.26099518
108	0x3d996254	0.07489458
109	0xbe2394ee	-0.15974781
110	0x3d8f09da	0.06984301
111	0xbcbb6c63	-0.022878831
112	0xbd90709a	-0.07052727
113	0xbd88231d	-0.06647322
114	0x3db87c0e	0.090080366
115	0xbe30bc4f	-0.17259334
116	0x3e7ce6ee	0.24697468
117	0xbd8fcfdf	-0.0702207
118	0x3ccee407	0.025255216
119	0xbd8b0221	-0.067875154
120	0xbe4d55a1	-0.20052196
121	0xbe28ff97	-0.1650375
122	0xbd42d7e9	-0.04756919
123	0xbdd9755f	-0.1061809
124	0x3dba2588	0.0908919
125	0x3de5b5da	0.11216326
126	0xbdc53bf6	-0.09630577
127	0xbd98f43e	-0.074684605
128	0xbe5414a1	-0.20710994
129	0xbdf3d3a1	-0.119055994
130	0x3d61e8c8	0.055153638
131	0x3dc3823e	0.09546326
132	0xbcab5809	-0.020916002
133	0xbd3c5f7b	-0.045989495
134	0xbd010034	-0.031494334
135	0xbc520c63	-0.012820336
136	0xbb31725d	-0.0027076222
137	0xbcf498e8	-0.029858068
138	0x3d35df8b	0.04440264
139	0xbd96fb90	-0.073722005
140	0x3ddd6689	0.10810573
141	0xbcc00633	-0.023440456
142	0x3d165cc1	0.03670955
143	0x3d563eb1	0.05230588
144	0xbcc280eb	-0.023743114
145	0xbcf59108	-0.029976383
146	0x3bd77baa	0.006576021
147	0xbc6b3765	-0.014356469
148	0x3d43440c	0.047672316
149	0xbd558961	-0.052132968
150	0xbc56560a	-0.013082037
151	0x3e2f8e69	0.17144169
152	0xbd3bfc89	-0.045895133
153	0xbde0503f	-0.10952806
154	0x3e09a392	0.13441303
155	0x3d8921e5	0.06695918
156	0xbe3782df	-0.17921017
157	0x3d744b30	0.059642017
158	0xbd156fa9	-0.03648344
159	0xbe1de1d5	-0.1541818
160	0xbdd22945	-0.10261778
161	0x3d704be4	0.058666125
162	0x3d58803d	0.052856673
163	0x3dbcf6aa	0.09226735
164	0xbd50b4fc	-0.05095385
165	0x3cf3171d	0.029674107
166	0xbe42d825	-0.19027765
167	0xbe14523a	-0.14484492
168	0xbd498bf9	-0.049205754
169	0x3d0f5173	0.034989785
170	0xbdc0cc7c	-0.09414002
171	0xbd0a4dca	-0.03376559
172	0xbddaa557	-0.10676067
173	0xbdf13f83	-0.11779692
174	0xbc976dc2	-0.018484954
175	0x3c63ab60	0.013895839
176	0x3e14a3f1	0.14515664
177	0xbc968f22	-0.018378798
178	0x3dcef114	0.10104576
179	0x3d379652	0.04482109
180	0x3db93d4f	0.09044897
181	0xbc3a4f7d	-0.011371491
182	0xbb78ef40	-0.00379844
183	0xbe92e3dc	-0.28689468
184	0xbde5a383	-0.11212828
185	0xbe7f7e9e	-0.24950644
186	0x3e2e190a	0.17001739
187	0x3dce055b	0.10059615
188	0xbe0d066a	-0.13771978
189	0x3e1c7139	0.15277566
190	0x3b897791	0.0041951616
191	0x3e163272	0.14667681
192	0x3df1d163	0.118075155
193	0x3d831651	0.06400741
194	0x3e247ae2	0.16062501
195	0x3dc2e727	0.09516745
196	0xbafe7b17	-0.0019415346
197	0x3d404a7c	0.046946034
198	0xbe067aca	-0.13132778
199	0xbdf0b6d1	-0.117536195
200	0x3d98c838	0.07460064
201	0xbe8a139a	-0.2696808
202	0x3df3654f	0.118845575
203	0x3e181caa	0.14854684
204	0x3d368ba9	0.044566784
205	0xbe2840ff	-0.16431044
206	0xbaf63694	-0.0018784576
207	0x3dc69671	0.09696663
208	0xbdc3b101	-0.09555245
209	0x3e27f8fb	0.16403572
210	0xbd40f02c	-0.047104046
211	0xbd7ae73a	-0.06125567
212	0x3e7e93bd	0.24861045
213	0xbe4659fb	-0.19370262
214	0x3ce3d758	0.027812645
215	0x3d7a8c63	0.06116904
216	0x3c0bc240	0.0085301995
217	0xbe8083d4	-0.25100577
218	0xbe440f0f	-0.1914637
219	0xbe5417cb	-0.20712201
220	0x3d3e0873	0.046394777
221	0xbd98ff39	-0.07470555
222	0xbd80c717	-0.062879734
223	0x3bc40441	0.0059819524
224	0xbddae2d0	-0.10687792
225	0xbe071903	-0.13193135
226	0x3e63ab42	0.22233298
227	0xbe2f8160	-0.17139196
228	0x3dc590b0	0.096467376
229	0x3d14abee	0.036296777
230	0xbcd4cb8e	-0.025975969
231	0xbd814c7c	-0.06313416
232	0xbd508735	-0.050910193
233	0x3d3c3ded	0.045957495
234	0xbac507c2	-0.0015032219
235	0xbde6c3fe	-0.11267851
236	0xbd1d2f2d	-0.03837507
237	0x3e5e6189	0.21716894
238	0xbe0919a1	-0.13388683
239	0x3d8c0e67	0.068386845
240	0x3cd4b423	0.025964802
241	0x3e251935	0.16122897
242	0x3c5b93c0	0.013401926
243	0xbc745301	-0.014912368
244	0xbe185fb9	-0.14880265
245	0x3d6411cd	0.05568104
246	0x3cd2f9b9	0.025753843
247	0x3e043758	0.12911737
248	0x3c5561c0	0.013023794
249	0xbb91a81b	-0.0044450886
250	0x3d6bf90e	0.057610564
251	0x3ddbbb49	0.10729081
252	0xbdbab743	-0.09116986
253	0xbd17e6aa	-0.037085213
254	0x3d0f95a1	0.035054807
255	0x3da05c32	0.07830085

network_body._body_endoder.seq_layers.2.bias f4 [128]
0	0x3d048c2d	0.032360245
1	0x3d8d76d3	0.069074295
2	0xbc1a90a1	-0.009433896
3	0xbd358d08	-0.04432395
4	0xbcec064d	-0.028811598
5	0x3cdf48c5	0.027256379
6	0x3d48ecc0	0.049053907
7	0xbc10f223	-0.008846792
8	0xbd385194	-0.044999674
9	0x3d8427ad	0.0645288
10	0x3d44b316	0.048022352
11	0x3b84967d	0.00404626
12	0x3da1c40d	0.07898722
13	0xbc04377c	-0.008069869
14	0x3d104f33	0.03523178
15	0xbba94d46	-0.0051666824
16	0x3da6c6a6	0.08143358
17	0x3d5c4e77	0.053785767
18	0x3c87d824	0.016582556
19	0xbb62480b	-0.0034527804
20	0x3b031bce	0.0020005587
21	0x3ca426f4	0.020038106
22	0xbbb5f0d3	-0.00555239
23	0x3d301afb	0.04299448
24	0x3c1094c1	0.008824528
25	0x3d32f8c5	0.043694276
26	0x3d9ee5b0	0.07758653
27	0xbd5a887c	-0.053352818
28	0x3d941e7d	0.07232378
29	0x3d78be17	0.06072816
30	0x3b9ac4f7	0.004723187
31	0x3caa3466	0.020776939
32	0x3d5fc5bd	0.054631937
33	0x3cf97aea	0.030454118
34	0xbcd72686	-0.026263487
35	0x3b2aa35a	0.0026037307
36	0x3d03e74b	0.032203
37	0x3d0d9a0c	0.03457074
38	0x3cce992f	0.025219528
39	0x3ce2a264	0.027665325
40	0x3c5088e2	0.012727948
41	0x3da8d6ba	0.08244081
42	0x3d19c84f	0.037544545
43	0x3d65158d	0.055928756
44	0xbd01ea91	-0.03171784
45	0x3d34d494	0.044148043
46	0x3d4827d4	0.048866108
47	0xbc45fc8a	-0.012084136
48	0xbd30af57	-0.043135967
49	0x3c7b7b21	0.01534918
50	0x3d0f7e32	0.03503246
51	0x3c7f3481	0.015576483
52	0x3cb0cf8a	0.021583337
53	0xbd003ebc	-0.03130983
54	0x3d9cd295	0.07657353
55	0x3cced85c	0.025249653
56	0x3d5cedf3	0.053937864
57	0x3c9793bb	0.01850306
58	0xbcb9c444	-0.022676595
59	0x3db435d3	0.08799329
60	0x3ccc5fdc	0.024948053
61	0xbad1ff14	-0.0016021454
62	0xbc5eb913	-0.01359393
63	0x3d6e205d	0.058136333
64	0x3d4bd5f2	0.04976458
65	0xbc90b01e	-0.017662104
66	0xbc53212b	-0.012886326
67	0xbce590ef	-0.028023211
68	0x3d6abae0	0.057307124
69	0xbd153004	-0.036422744
70	0x3cf113bf	0.029428361
71	0xbbd884ac	-0.0066076126
72	0x3cb4fa0b	0.022091886
73	0xbc75a843	-0.01499373
74	0x3d9b65cc	0.075877756
75	0x3c56d270	0.013111696
76	0x3cc99579	0.024607407
77	0x3c8ad8f1	0.016949149
78	0xbca43b9b	-0.020047953
79	0x3d38d44f	0.04512435
80	0xbcc4a159	-0.024002718
81	0x3da4d4d8	0.08048409
82	0x3b4eb0f5	0.003153858
83	0xbcbab77d	-0.022792572
84	0x3d8eee33	0.06979027
85	0xbc8513b8	-0.016244754
86	0xb9687c68	-0.00022171589
87	0x3d6ccf12	0.057814665
88	0x3c9fe434	0.019517995
89	0x3c8ee8b1	0.01744494
90	0x3c3494b1	0.011021779
91	0xbc5af266	-0.013363456
92	0x3d6a0aa7	0.057139065
93	0x3d0210d5	0.031754334
94	0xbd3cdde2	-0.04611004
95	0x3d704fee	0.058669977
96	0xbcc6e474	-0.024278857
97	0x3b2fa99b	0.0026803974
98	0x3d8f2023	0.069885515
99	0x3d83e278	0.0643968
100	0xbc8374af	-0.01604685
101	0x3d559223	0.05214132
102	0x3d4a8b59	0.0494493
103	0x3d1a5467	0.03767815
104	0xbc68f347	-0.014218158
105	0x3ccb8cb5	0.024847368
106	0xbc45d5dc	-0.012074914
107	0x3d00c730	0.03143996
108	0xbcba75a3	-0.022761172
109	0xbb86c088	-0.004112307
110	0x3b909ab5	0.0044129738
111	0x3cf7fddc	0.030272417
112	0xbce114cc	-0.027475737
113	0x3d41879c	0.047248468
114	0xbca16159	-0.01969974
115	0xbc8f9f9f	-0.017532168
116	0xbcd6ac11	-0.026205095
117	0x3d54dff6	0.0519714
118	0xbc921f74	-0.017837264
119	0x3d67f84d	0.056633282
120	0x3d77f068	0.060532004
121	0xbd1d1915	-0.038354
122	0x3cc1811e	0.023621138
123	0x3c361917	0.01111438
124	0x3d2b0ae2	0.041758426
125	0x3bc11b52	0.0058931494
126	0xbd0d0ef0	-0.034438074
127	0x3d9ceef7	0.076627664

action_model._continuous_distribution.log_sigma f4 [1, 2]
0	0xbb64d3d9	-0.003491631
1	0x3bcc6234	0.0062372927

action_model._continuous_distribution.mu.weight f4 [2, 128]
0	0xbdd2242b	-0.10260805
1	0x3dce8595	0.100840725
2	0xbcd2992b	-0.025707802
3	0xbd094a5e	-0.033518188
4	0xbcc451c1	-0.023964765
5	0xbdd813e7	-0.10550671
6	0x3d7756b6	0.06038543
7	0xbbcb45f1	-0.006203406
8	0xbd0b805b	-0.034057956
9	0x3c183511	0.009289996
10	0xbd9b3758	-0.07578915
11	0x3c59bc49	0.01328952
12	0x3db05f55	0.08611933
13	0xbd4596bb	-0.04823945
14	0xbe000562	-0.12502053
15	0xbd3a7640	-0.04552293
16	0x3db695a4	0.089152604
17	0x3c5ba535	0.013406088
18	0xbdc9edb2	-0.0985979
19	0x3c07429b	0.008255626
20	0x3d16c42f	0.03680819
21	0x3baa66fa	0.005200264
22	0x3af32eb9	0.0018553353
23	0x3d67bf87	0.05657914
24	0xbd8ba11d	-0.06817839
25	0xbd8b971e	-0.06815933
26	0x3dddca82	0.10829641
27	0x3ad6a58c	0.0016376241
28	0x3ddd9656	0.1081969
29	0x3cdac618	0.026705787
30	0x3c04dff7	0.008110038
31	0x3d218490	0.039433062
32	0x3d430167	0.04760876
33	0x3bdeae95	0.006795714
34	0x3b111862	0.0022139777
35	0xbbc31934	-0.005953932
36	0x3d144959	0.036202762
37	0x3d54f139	0.05198786
38	0x3cc47fe6	0.023986768
39	0xbd3a8313	-0.04553516
40	0x3d1537ad	0.03643005
41	0x3dadb671	0.084820636
42	0x3d007618	0.031362623
43	0x3d12c07c	0.0358281
44	0x3b0a6099	0.0021114706
45	0x3d37177e	0.04470014
46	0x3d92afa2	0.071624056
47	0x3c8f5336	0.017495733
48	0xbcf631c7	-0.030053033
49	0x3c20d9ff	0.009817599
50	0xbd792c41	-0.06083322
51	0xbd989365	-0.07449988
52	0x3d469e7d	0.04849099
53	0xbcf36529	-0.029711323
54	0x3db4b594	0.08823696
55	0xbde95718	-0.11393565
56	0x3da10ce8	0.0786379
57	0xbdad43c6	-0.084601924
58	0xba3ab976	-0.0007122973
59	0x3dd7dd67	0.10540276
60	0xbd5487fa	-0.05188749
61	0xb9a0d0e6	-0.0003067322
62	0xbcfac5c0	-0.030611873
63	0x3d847018	0.06466693
64	0x3dae7086	0.08517556
65	0xbd3bb0db	-0.04582296
66	0xbda8e77a	-0.08247276
67	0x3c297b6d	0.010344368
68	0x3d9add93	0.07561793
69	0xbbf73eb3	-0.007545316
70	0x3cb63a0d	0.022244478
71	0xbd43e0ca	-0.047821797
72	0x3d259042	0.040420778
73	0xbd9577da	-0.072982505
74	0x3db3863f	0.0876584
75	0xbdb41a2f	-0.087940566
76	0x3c5f54a4	0.01363102
77	0xbddd1332	-0.10794677
78	0xbc240c99	-0.010012769
79	0x392c1b99	0.00016413479
80	0xbbc7c45d	-0.0060964064
81	0x3db7f3aa	0.08982022
82	0x3c1721ad	0.0092243375
83	0x3bc40b9c	0.0059828293
84	0xbd52bf50	-0.05145198
85	0xbc45153f	-0.012028991
86	0x3caee4c7	0.021349324
87	0xbc1c8c67	-0.009554959
88	0x3a9910b7	0.0011677955
89	0xbd0ba3ec	-0.034091875
90	0x3c937cc1	0.018003823
91	0x3c1d32d1	0.009594635
92	0x3d9655ca	0.07340582
93	0xbdc1ff5e	-0.094725356
94	0xbc359f1e	-0.0110853
95	0x3d9cb693	0.07652011
96	0x3b385f59	0.0028133004
97	0xbcdc8b47	-0.026921881
98	0x3db8bc0a	0.090202406
99	0x3d8bac99	0.0682003
100	0x398ee403	0.00027254233
101	0xbc65d9b1	-0.014028952
102	0xbda62b8b	-0.08113774
103	0x3c980789	0.01855828
104	0x3b0224aa	0.001985828
105	0x3d41c731	0.047309104
106	0x3c374db9	0.011187964
107	0x3d41822c	0.047243282
108	0xbca04817	-0.019565625
109	0x3aac7490	0.0013157297
110	0x3c8de82b	0.01732262
111	0xbdfe3d74	-0.12414065
112	0xbd642aa2	-0.05570472
113	0x3db51048	0.08840996
114	0xbcd26bb5	-0.025686124
115	0xbcc71dd1	-0.02430621
116	0xbd668813	-0.056282114
117	0x3cc5e4ab	0.024156889
118	0xbd414a0b	-0.047189754
119	0x3d9d271d	0.07673476
120	0x3cbfe1da	0.023423124
121	0x3a00a238	0.0004906985
122	0xbcaea181	-0.021317245
123	0x3c24c7b5	0.0100573795
124	0xbd847384	-0.06467345
125	0x3c504f33	0.012714195
126	0xbcf7105d	-0.03015917
127	0x3daafb03	0.08348658
128	0x3d472602	0.04862023
129	0x3ceb3237	0.028710468
130	0xbe11f3b3	-0.1425312
131	0xbdbcb701	-0.09214593
132	0xbdcf1b5f	-0.101126425
133	0x3c286708	0.010278471
134	0x3d5e6320	0.05429375
135	0xbe0035a3	-0.12520461
136	0xbd504917	-0.050850954
137	0x3dd29c76	0.10283749
138	0x3d9c2786	0.07624726
139	0xbdf49672	-0.11942758
140	0x3d2b5979	0.041833375
141	0x3c054a6b	0.008135418
142	0x3b966eb7	0.004590835
143	0x3cdbea0b	0.026844999
144	0x3d95ad90	0.07308495
145	0x3dac65bf	0.08417844
146	0x3ae0acca	0.0017141339
147	0xbdcc1405	-0.09964756
148	0xbdba90d8	-0.09109658
149	0xbde8b382	-0.113623634
150	0xba94f365	-0.0011364041
151	0xbd70fefe	-0.05883693
152	0x3cb04fcd	0.021522427
153	0x3d151377	0.036395516
154	0x3d1d8df5	0.03846546
155	0xbd9fe42e	-0.07807194
156	0x3ca692bc	0.02033364
157	0x3db0b7f6	0.08628838
158	0xbe14665f	-0.14492176
159	0xbd81282d	-0.06306491
160	0x3d823d64	0.063593656
161	0x3d862a2f	0.06551015
162	0xb8c8575f	-9.553017e-05
163	0xbde6b887	-0.112656645
164	0xbdc6674c	-0.09687671
165	0x3d171f42	0.036895044
166	0x3d56c468	0.0524334
167	0x3d4f97c5	0.050681848
168	0xbd7bc97c	-0.061471447
169	0x3d75eea1	0.060042027
170	0xbde86fd0	-0.113494515
171	0x3d9db14b	0.076998316
172	0xba2f794a	-0.00066937937
173	0x3d7237e9	0.05913535
174	0xbd891e97	-0.06695288
175	0xbd384714	-0.04498966
176	0xbd43a166	-0.047761343
177	0xbddd6cfb	-0.10811802
178	0x3da3b2b7	0.079930715
179	0x3d4de5fe	0.050268166
180	0xbdd063f0	-0.101753116
181	0xbddf3141	-0.10898066
182	0x3d1c7fa1	0.038207654
183	0xbd059f49	-0.03262261
184	0xbdd0f18d	-0.10202322
185	0x3d19cdab	0.037549656
186	0xb98623c6	-0.00025585125
187	0x3d0677e1	0.03282917
188	0x3d830eff	0.06399345
189	0xbe07f14c	-0.13275641
190	0xbdeebe69	-0.116574116
191	0x3d4d6672	0.050146528
192	0xbd07fb5d	-0.033198703
193	0xbdbd54a7	-0.09244662
194	0xbdf36045	-0.11883596
195	0xbd261f04	-0.040556923
196	0x3d0cd3fd	0.034381855
197	0xbdba90ba	-0.09109636
198	0xbda3ead4	-0.08003774
199	0xbdf1bfcc	-0.118041605
200	0xbb59e4ec	-0.003324802
201	0xbd85a078	-0.065247476
202	0xbc843299	-0.016137408
203	0x3c202e3f	0.009776651
204	0xbdfa590e	-0.12224017
205	0x3c406425	0.011742626
206	0xbdf070d3	-0.117402695
207	0xba47d9d4	-0.00076237065
208	0xbe02ebde	-0.12785289
209	0x3cfecb46	0.031102788
210	0xbdd8a202	-0.105777755
211	0xbdba4c1a	-0.090965465
212	0x3db6c219	0.0892374
213	0xbd9f8582	-0.077891365
214	0xbdd582a1	-0.10425306
215	0x3dc92764	0.09821966
216	0x3d672fab	0.056441944
217	0x3d3ed53a	0.046590067
218	0xbe0a7dba	-0.13524523
219	0xbdda6b4f	-0.10664999
220	0x3cc272fa	0.023736466
221	0x3d48b760	0.049003005
222	0xbd977659	-0.0739562
223	0xbd295a56	-0.041345917
224	0xbdb961b7	-0.09051841
225	0xbe05bdcc	-0.13060683
226	0xbdb303a4	-0.08740929
227	0x3d508343	0.05090643
228	0x3a57b63a	0.0008228753
229	0x3dba6eae	0.09103142
230	0x3dae941d	0.08524344
231	0x3d9785a9	0.073985405
232	0xbdd93188	-0.106051505
233	0xbd85252a	-0.06501229
234	0xbdce616b	-0.10077175
235	0xbd91467a	-0.070935205
236	0xbdde5f99	-0.108580776
237	0xba47658d	-0.000760638
238	0xbd9381bb	-0.072024785
239	0x3d25ca27	0.04047599
240	0xbdc0f6a7	-0.09422045
241	0xbc2c7f5e	-0.010528414
242	0xbdd7febb	-0.10546633
243	0xbdd978e8	-0.10618764
244	0xbdc968a6	-0.09834413
245	0x3d9ded7f	0.077113144
246	0x3c792d01	0.015208484
247	0x3c7e1ad4	0.015509326
248	0x3dae58ef	0.085130565
249	0xbd9e2a88	-0.07722956
250	0x3d47e0d8	0.048798412
251	0xbdfdc5a3	-0.12391212
252	0xbc4f06f3	-0.012635934
253	0xbdd1e8cd	-0.10249481
254	0xbbeda1d7	-0.007251959
255	0x3d0737f5	0.03301235

action_model._continuous_distribution.mu.bias f4 [2]
0	0x3c1737b7	0.009229592
1	0x3dbb8da1	0.09157873
