Project/results/Test3_NoWall_02/Test3/checkpoint.pt (torch, 567074 bytes, 36 tensors)

network_body._body_endoder.seq_layers.0.weight f4 [128, 46]
000000 07 b0 87 be e5 59 80 3c c3 c9 f4 be ab 69 55 be
       -0.26501486 0.015667865 -0.47810182 -0.2084109
000010 e8 6b c4 3b b2 9f d6 3c 0d 53 61 be 0e bc 9b bd
       0.0059943087 0.026199196 -0.22004338 -0.07604228
000020 34 69 80 be dc 89 11 bd 5d 10 fb 3d 22 6e 02 be
       -0.25080264 -0.035531864 0.122589804 -0.12737325
000030 9d 9a 5c be 16 db 24 be 49 96 90 be 25 69 1e be
       -0.21543355 -0.160992 -0.28239658 -0.15469797
000040 c8 7e 94 be 4c fc fc 3d ef 83 3d be 90 a4 93 be
       -0.29002976 0.12352809 -0.1850736 -0.2883649
000050 b4 b1 3f be 01 80 66 3d 8e 8b 42 ba dd b2 a8 be
       -0.18720132 0.056274418 -0.0007421308 -0.32948962
000060 0e b6 35 be 58 8b dd bd 68 36 52 be b7 a4 46 be
       -0.1774523 -0.10817593 -0.20528567 -0.19398771
000070 8b 8b 20 3e 34 6f 32 3e 69 02 6b be 43 30 72 3e
       0.15678231 0.17425233 -0.22950138 0.23651223
000080 82 02 40 3e 06 f3 0c bc bf 93 00 be b9 72 c7 3c
       0.18750957 -0.008602863 -0.1255636 0.024346696
000090 41 66 41 be b1 0a a7 bd f5 50 5e bd 3e 34 06 be
       -0.18886663 -0.08156336 -0.054276425 -0.13105866
0000a0 80 54 28 be 53 08 69 be 37 50 a3 be 75 a0 8b be
       -0.16438484 -0.22757082 -0.31897137 -0.27270856
0000b0 68 1d 20 3e 42 c4 18 be 38 df 11 bd b9 7b 91 3e
       0.15636218 -0.14918616 -0.03561327 0.28414705
0000c0 1e 37 b3 bc 88 72 24 be 27 ba 68 be 6b a0 ad 3d
       -0.021876868 -0.16059315 -0.22727261 0.08477863
0000d0 53 5d be 3d 40 fd 20 bd ea a2 4b 3e 43 90 5b be
       0.09295144 -0.039304018 0.19886366 -0.2144175
0000e0 8f 20 05 3e 64 82 06 3e 43 a3 89 3c 89 ac 1d 3c
       0.13000701 0.13135678 0.016801482 0.009623655
0000f0 12 eb 94 3d 37 1e bb 3b c1 8f 36 bc 0a 7a 0b 3f
       0.072713986 0.005710389 -0.011142672 0.5448309
000100 d4 f5 ab 3d bb ae 8e 3e c1 6c 3a 3e 97 35 82 bd
       0.08396497 0.27867684 0.18205549 -0.06357878
000110 c9 64 31 be ee 62 14 be ea 85 ae bd ee 46 56 be
       -0.17323603 -0.14490864 -0.08521636 -0.20925495
000120 93 df e1 3c 5c 31 bc 3e 0a 0c 8c 3d 08 9e 1f be
       0.027572429 0.36756408 0.06838234 -0.15587628
000130 fd 71 a3 bd 86 ad 04 be 42 bd 80 be 20 d6 8f be
       -0.07980726 -0.12956819 -0.25144392 -0.28093052
000140 e6 e7 d1 3d fa 54 15 be f1 06 c0 bb 63 96 37 3c
       0.10249309 -0.14583197 -0.0058602025 0.011205289
000150 c9 66 2c be cb 4b 89 be 2c 5c cb 3e b3 1e 86 3e
       -0.16836084 -0.26815638 0.3971876 0.26195297
000160 18 98 c5 3e a9 f4 56 3d 32 7d 58 3b 7b 9d ab 3c
       0.385926 0.05247942 0.0033033607 0.020949116
000170 51 27 2f 3d a0 37 b5 3d 0c 68 5f be 34 04 10 be
       0.042762104 0.088485 -0.21817034 -0.14064103
000180 c1 05 14 bc 9f ab 29 3e 96 20 74 3a 4b 15 0e 3e
       -0.009034575 0.16569375 0.0009312717 0.1387531
000190 95 5f 3e be 75 38 2c 3e f9 c5 45 3e 2a 0d 1d bd
       -0.18591149 0.16818412 0.19313802 -0.038342632
0001a0 8c ea 2a 3e 67 6c 6d 3a 3e c0 cc 3d b4 52 98 3e
       0.16691035 0.0009056986 0.09997605 0.29750597
0001b0 e8 f9 95 be 80 84 84 be 01 b3 c2 bd f4 e7 de 3d
       -0.29292226 -0.2588234 -0.095067985 0.10884085
0001c0 2d 8a a8 bd 39 19 cd 3d 39 77 8e 3e c1 f0 9b bd
       -0.0822948 0.100145765 0.27825335 -0.076142795
0001d0 02 42 d8 bd 29 03 92 bc ba 90 e5 3d 16 11 1c bd
       -0.10559465 -0.017823773 0.11209245 -0.038102232
0001e0 f1 b8 a1 3d 4d b3 10 3e 3d d9 a8 bd a4 6f 35 3c
       0.07896603 0.14130898 -0.0824456 0.0110739805
0001f0 7f 39 ba 3d b9 78 ba 3e 29 cb 43 3e 35 9e ac bd
       0.09092998 0.3642023 0.19120468 -0.08428613
000200 33 e9 00 3c 1e 61 85 bd 81 9f 35 bd c0 b9 a5 be
       0.007868099 -0.06512664 -0.044341568 -0.32368279
000210 a7 64 01 bd 52 dc 86 bd c8 95 ea be 91 62 a1 bd
       -0.03159013 -0.065849915 -0.458174 -0.07880128
000220 a4 76 df 3e 6a 6f 46 bc 66 8d 00 3e 54 a0 49 3b
       0.43645203 -0.012111524 0.12553939 0.003076573
000230 c8 a3 6d 3c 9d b6 af 3d 05 18 91 bd ea b3 27 be
       0.0145043805 0.085797526 -0.070846595 -0.16377226
000240 79 ad 9d be f2 43 42 3e 17 1d 85 be bf 10 ee ba
       -0.30796412 0.18971232 -0.25998756 -0.001816295
000250 1f 9c e6 bd 0b 73 fe 3d 1e 84 49 3d 35 e0 24 3e
       -0.112602465 0.124242865 0.049198262 0.16101153
000260 8e 1a d6 3d 0f 9c 82 be 26 ab 51 3e a5 3b d9 bd
       0.10454284 -0.25509688 0.20475444 -0.106070794
000270 60 d7 97 be 91 a7 8c bd 96 15 d2 bd 84 5b e9 3d
       -0.29656506 -0.06867898 -0.102580234 0.11394408
000280 40 bf 0e be a9 ba af be 36 83 46 bd 60 bc 9c 3e
       -0.13940144 -0.34322098 -0.048464976 0.3061247
000290 ff 9b 9c be ee 68 b8 3d 39 f3 04 be 62 00 e5 3c
       -0.30587766 0.09004389 -0.12983407 0.027954284
0002a0 ec ca 8f be fd f0 69 be 2f c4 85 bd 78 a5 72 be
       -0.28084505 -0.22845836 -0.0653156 -0.23695934
0002b0 37 3e 6b 3e 95 b0 84 be 1d 6f d0 bc 34 91 b3 bd
       0.22972952 -0.2591597 -0.025443608 -0.0876793
0002c0 32 32 97 bc de db 87 bd bb 8e 8b 3c 18 85 10 be
       -0.018456552 -0.06633733 0.017035833 -0.14113271
0002d0 6d ca 7e be 94 41 e3 bd 2b 3b ff 3b c8 65 9a 3d
       -0.24881907 -0.110964924 0.007789036 0.075389445
0002e0 b8 16 9a 3c 05 1b b7 bd a6 91 5a 3d 08 47 9c 3d
       0.018809661 -0.089407004 0.053361557 0.07630736
0002f0 e5 51 b3 bd 82 f7 c1 3e fc 95 64 bd 5e 86 df 3d
       -0.087558545 0.37884146 -0.0558071 0.109143004
000300 18 db 3c bc a2 88 5e bd 97 0d 83 bd a3 a8 0c be
       -0.011526845 -0.054329522 -0.063990764 -0.13736205
000310 34 62 32 3e c1 d1 83 bd e4 c1 4f be ee e3 04 3d
       0.17420274 -0.06436492 -0.20288807 0.032443933
000320 17 29 d4 3d 5a ff 8a bd 77 1e 0e bd 46 49 1b be
       0.103594 -0.06786986 -0.034697022 -0.1516467
000330 4f 97 41 3e 60 84 06 3e 80 c9 6d 3d 42 22 9f bd
       0.18905376 0.13136435 0.058053493 -0.07770206
000340 45 34 6c 3e a1 ea 97 be 09 90 0a 3e 13 79 39 3e
       0.23066814 -0.29671195 0.13531508 0.18112592
000350 2f e0 07 be ea 5e 7c 3d a4 2c 55 3e 1d 68 9f 3d
       -0.13269113 0.061613955 0.2081781 0.0778353
000360 4b e7 12 be 08 e4 47 be 6f f6 17 3d 75 af d7 bc
       -0.14346044 -0.19520581 0.03710025 -0.026328782
000370 83 ef d8 3d a9 9d 22 be f0 04 a9 3c cb f6 87 be
       0.10592558 -0.15880455 0.020632237 -0.26555476
000380 d0 26 af 3d 59 68 d0 3d 0e dc 83 3d 04 6e 42 be
       0.08552325 0.10176153 0.064384565 -0.1898728
000390 bf d1 1e bf b0 b3 d1 bb c0 03 6d bd 7a a5 c5 bd
       -0.620388 -0.0063995942 -0.057864904 -0.09650703
0003a0 0a 4a a1 3d b3 9a 0b be b4 65 9a bb 1c de 29 3c
       0.0787545 -0.13633232 -0.004711831 0.010367896
0003b0 9d 36 f7 bd 24 16 fd 3d 0b 3d 5e 3e 9c ae 3c be
       -0.120709635 0.123577386 0.21702974 -0.18425983
0003c0 2a f1 07 bd 1d 6e a4 be a5 4a 55 3d 52 8b 19 3e
       -0.033188976 -0.3211526 0.05207314 0.14994553
0003d0 3e 27 7d bd 7f 2c c4 bd 45 5b 27 bd d7 41 64 3d
       -0.061805002 -0.095787995 -0.040858526 0.055726852
0003e0 07 9a e6 bd c7 47 7b 3e 8b d2 87 bd 21 d4 71 bd
       -0.11259847 0.245391 -0.06631955 -0.059040193
0003f0 0a 29 74 be 57 bc af be 82 24 bb 3d ae a2 2d bc
       -0.2384378 -0.3432338 0.09137823 -0.010597868

network_body._body_endoder.seq_layers.0.bias f4 [128]
000000 f6 e9 dc bd 90 a4 2f bc 51 e6 f2 3c a0 2d 71 bd
       -0.10786812 -0.010720387 0.029650839 -0.058881402
000010 9d 1a 91 bd e3 4d 57 3c 8a 93 22 3c 20 87 95 3c
       -0.07085154 0.013141128 0.009922871 0.01825291
000020 91 94 71 3d 34 30 0c 3b 49 6e 04 bc 06 63 90 bc
       0.058979575 0.0021391036 -0.008082935 -0.017625343
000030 53 c6 6c 3c f8 b8 ca 3c e4 af 17 be 64 4d e4 bd
       0.014451581 0.024746403 -0.1481319 -0.111475736
000040 37 80 0b 3d e3 e2 14 3c 9f ca 66 bc 00 f2 8a 3d
       0.034057822 0.009087297 -0.014086395 0.06784439
000050 89 82 1e bd df d4 bb 3c ec b7 a7 bd c3 60 bf bc
       -0.038698707 0.022928653 -0.08189377 -0.02336157
000060 94 cf 82 3b e1 08 af bd 6d 07 ac ba 48 f1 8a 3c
       0.0039920304 -0.085466154 -0.0013124772 0.016960755
000070 79 49 34 ba f4 f5 52 3d d5 bb db 3b 0a 53 f8 bc
       -0.00068774034 0.05150409 0.006705741 -0.030313034
000080 a1 a6 0a bd 8b fc 10 bd d9 91 a1 3d e8 44 bc bc
       -0.033850316 -0.035397094 0.07889146 -0.022982076
000090 54 c6 4a 3d b8 ad 28 b9 3c 36 10 3c f8 39 9d bd
       0.049505547 -0.00016086444 0.008801993 -0.07677072
0000a0 15 df ad bd 0a c0 d7 bb 98 e3 c6 3c 7c 20 1d be
       -0.08489815 -0.006584172 0.024278447 -0.15344423
0000b0 ad 40 b6 3c b1 9a 9a bc e5 44 87 3c e9 c2 ed 3c
       0.022247637 -0.01887259 0.016512344 0.029023604
0000c0 3b db e5 bd 25 5a 0a 3d a7 1a 7f 3b db 3e dd 3c
       -0.112234555 0.033777375 0.0038925798 0.02700751
0000d0 85 ab db bd c3 78 c3 bd 4a f9 40 bd 62 f9 5f 3d
       -0.10726074 -0.09544518 -0.04711274 0.05468119
0000e0 87 fb d3 3c 95 fc aa 3a 6d 63 86 3d 9b 72 21 bd
       0.025876774 0.0013045246 0.06561933 -0.039415937
0000f0 e7 2a d7 3c 1b 0c a5 bb 80 22 2b 3c 02 82 3c bd
       0.026265575 -0.0050368435 0.010445237 -0.046022423
000100 44 c7 85 3d 49 75 d1 3c 75 76 50 bd ab 4f 8a bd
       0.065321475 0.025568621 -0.05089422 -0.06753477
000110 95 d8 81 bb ff e5 7e bd 0a 7c 5c 3d e5 71 db 3b
       -0.003962586 -0.06223106 0.05382923 0.006696927
000120 5f e9 ea bd 4c 82 ca bc 8e 1e d4 3c 7a 20 21 bd
       -0.11470293 -0.024720334 0.025893476 -0.039337613
000130 cc 93 6b 3c 44 ec ab bc ae 5a 23 be 41 79 28 bd
       0.014378499 -0.020986684 -0.1595256 -0.04113126
000140 74 33 4b bd 7e 1d 4b 3c b6 d6 4d 3d 44 20 00 3d
       -0.049609616 0.012397168 0.050253592 0.03128077
000150 25 30 ee bd 13 df 8c bd 57 82 b0 bd 04 8a 73 bb
       -0.116302766 -0.068784855 -0.0861861 -0.003716112
000160 9d 73 2f 3d 13 58 aa bd 8e f7 4b 3d 0f a4 85 bd
       0.042834867 -0.0831758 0.049796633 -0.06525432
000170 75 9b d2 bd 6f 95 23 bc 29 c4 08 be 82 b7 b0 3d
       -0.10283557 -0.009984358 -0.13356079 0.08628751
000180 90 95 9f 3d 25 58 47 bd 54 25 f4 bc db e5 5d bb
       0.07792199 -0.048668046 -0.029802956 -0.0033858928
000190 a1 19 d8 bb de 38 c9 bd 04 50 06 bc 61 cf 52 bd
       -0.006594852 -0.098253 -0.008197788 -0.051467303
0001a0 ff d2 65 3d e9 18 be bc e3 65 10 3d ef 07 2f bb
       0.056109425 -0.023205237 0.035253417 -0.002670761
0001b0 83 fc b0 bc 48 ea a8 bd 4d c3 aa bd ed 9b f8 bc
       -0.021604782 -0.082478106 -0.08338032 -0.030347789
0001c0 c0 44 bc bc 68 48 9c bc 41 e4 4b 3c c9 4c 12 bb
       -0.022982001 -0.019077495 0.012444557 -0.00223236
0001d0 e0 d0 36 bd 5b 77 22 bd 04 4a 2d 3c c5 22 be bd
       -0.044632792 -0.039664607 0.010576729 -0.092839755
0001e0 1b 0d 94 bd 15 7a 27 3d aa 90 13 be 7f 12 a5 bc
       -0.07229062 0.04088791 -0.14410654 -0.020150421
0001f0 81 69 82 3c 95 c2 9f bd 06 10 bf b9 53 d9 9c 3d
       0.015919449 -0.078007855 -0.00036442297 0.07658639

network_body._body_endoder.seq_layers.2.weight f4 [128, 128]
000000 c9 63 b9 3c cb 35 4d 3a b1 74 0c be c3 99 45 be
       0.02263059 0.0007828145 -0.13716389 -0.19296937
000010 d8 ed 91 bb 3f 2c 91 be ca 15 98 3d 55 35 62 bd
       -0.004453402 -0.2835407 0.07426031 -0.055226643
000020 0a 51 78 3b f6 cf f6 bd 7f 32 f5 3d c5 fd d7 bd
       0.00378901 -0.12051384 0.11972522 -0.105464496
000030 6e ff 81 3d 12 03 b6 3d 86 d1 90 bd 05 63 e2 bc
       0.063475475 0.08887304 -0.070712134 -0.027635107
000040 9a 5a 3f be ba c1 34 3e 43 2f f0 bd ab e0 12 be
       -0.18686906 0.17652026 -0.117277645 -0.14343517
000050 c0 73 52 3c 40 97 9f be 34 eb 23 3b a8 0d a5 3d
       0.01284498 -0.31170082 0.0025012018 0.08059245
000060 d7 74 bc 3d 9b b2 4c bd 28 89 6c 3d 4c 60 2a be
       0.09201973 -0.04997502 0.05774799 -0.16638297
000070 a1 e3 17 3e e0 df 05 be 7a 6d 6e be dd 62 37 3d
       0.14832927 -0.13073683 -0.2328395 0.044772018
000080 dd 23 89 be c9 8f da bc 50 eb 7e bd 2b 6a 16 3d
       -0.26785174 -0.02667989 -0.06223613 0.036722343
000090 37 11 c8 3a 01 c7 34 3e dc d4 f7 bc f5 98 01 3e
       0.001526392 0.17654039 -0.030252866 0.12656005
0000a0 84 4e f1 3d 6d 5d b1 3d 3c 81 63 be 6a 52 ca ba
       0.11782554 0.08660398 -0.22217268 -0.0015435938
0000b0 45 fa ca 3c 6a 90 1c be 92 e0 a9 bd e0 40 70 be
       0.024777541 -0.15289465 -0.082947865 -0.23462248
0000c0 ea f8 b6 bd 94 b0 18 be a4 70 5a 3d 62 d8 23 3e
       -0.08934195 -0.14911109 0.05333008 0.16000512
0000d0 40 12 b4 3c 44 e1 8b bd 56 e4 97 3d 29 4e 50 bd
       0.021981359 -0.068300754 0.074165985 -0.05085579
0000e0 00 30 0a be b5 c7 18 be 34 a3 82 bd 52 ec 0b be
       -0.13494873 -0.14919932 -0.06378785 -0.13664368
0000f0 a6 a9 58 3d 6c 7b dc bd 18 d5 0c bd 0d 42 32 be
       0.052896164 -0.10765728 -0.03438291 -0.17408009
000100 c4 4b 26 be e1 28 49 be 9b 2c 0d bd af 96 f5 3d
       -0.1623984 -0.196445 -0.034466367 0.11991631
000110 db a8 2d bd 15 5e ed bb 08 90 da 3d bb 0d 18 be
       -0.04239736 -0.0072438815 0.10672003 -0.14848988
000120 79 11 26 3e c2 b3 c4 3c 35 97 38 be 14 01 2f bd
       0.16217603 0.024011496 -0.18026431 -0.042725638
000130 2d d8 93 3d 45 bf c5 bd 88 ec 48 bd 88 18 ea bd
       0.07218967 -0.096556224 -0.0490537 -0.1143046
000140 6a e4 0f bb a5 08 83 3b 57 86 19 3e 8d 3f 2a be
       -0.0021956214 0.0039988332 0.14992653 -0.16625805
000150 0f eb 45 bd 59 ec d6 3d 13 4f 6b bb 3f 62 8a bc
       -0.048319872 0.104942985 -0.0035905286 -0.01689255
000160 48 f8 56 3c 74 8b 02 3e e8 e3 57 be 27 ce 74 be
       0.013120718 0.1274851 -0.21083033 -0.23906766
000170 e5 1f 12 3c 50 a4 bf bd 57 fc 91 bd 8d 9e 10 be
       0.008918737 -0.09357512 -0.07128208 -0.14122982
000180 36 e7 6f 3e b3 0c 26 3d ea 67 8e be 9e 93 a2 bd
       0.23428044 0.040539455 -0.27813655 -0.07938312
000190 19 89 76 bc 98 1e ca bd aa 8f 69 3c 15 48 c3 3a
       -0.015047335 -0.098691165 0.014255444 0.0014898801
0001a0 09 7d 03 bd c7 2c 61 bc b8 ae 37 3e 2f 8a f4 bd
       -0.032101665 -0.013743586 0.17937744 -0.11940419
0001b0 da a0 b6 3d ef 9c 44 3c ce 68 3a bd 7e 70 a8 bd
       0.08917399 0.0120003065 -0.045510106 -0.08224581
0001c0 f1 0d 46 3e 99 f9 39 3e cc f6 b6 bc 03 3e f3 bd
       0.19341256 0.1816162 -0.022334479 -0.11877062
0001d0 dd 4f b5 3d ec c8 2b 3d 74 6f 00 3e 8f 96 09 be
       0.08853123 0.04193966 0.12542516 -0.1343634
0001e0 2a 0d 0c bb 3f 86 ac bc e6 8e f4 bd 35 b0 47 be
       -0.002137015 -0.021060107 -0.11941318 -0.19500811
0001f0 50 33 98 3d b2 b0 fe bb 94 92 09 3e 65 c4 48 be
       0.07431662 -0.0077725286 0.13434821 -0.19606169
000200 ba 2b b4 3e 47 94 d0 bd cb c2 c3 bd 05 f0 25 3e
       0.3518961 -0.10184532 -0.09558638 0.16204841
000210 e9 5a 82 bd 94 86 6f 3d ce 38 04 bd 14 91 03 be
       -0.06364996 0.058477953 -0.032280736 -0.12848312
000220 9b f3 24 bd ec 13 4a be d9 05 2b be 27 74 95 bd
       -0.040271383 -0.19734162 -0.1670145 -0.07297545
000230 e8 20 93 3d db 29 43 3d fa a1 c7 3d 10 ff 34 3e
       0.07184011 0.04764734 0.097476915 0.17675424
000240 48 3c e2 3d df 09 98 bd 8e e7 97 3d 23 45 3d be
       0.11046654 -0.07423758 0.074172124 -0.18483405
000250 c3 5f 39 3d ad b9 9a be da 8a 2a bd bd 4c bd 3d
       0.04525734 -0.30219784 -0.041636325 0.09243152
000260 cc 95 31 be dd 67 80 3e 66 df 83 be 83 ce a2 3d
       -0.17342299 0.2507924 -0.25756377 0.07949545
000270 ac a1 53 be d9 3d 1f 3e 37 7e 26 bd 6b 9c 3b 3d
       -0.20667142 0.15550937 -0.04064771 0.04580347
000280 dd 1c e2 3c 00 74 2c be 80 4e 11 be 4f 06 31 3e
       0.027601654 -0.16841125 -0.14190102 0.17287563
000290 f6 4d ec bd 7a ff 1b 3e 2b 55 58 3d e5 5a 4f 3e
       -0.11538307 0.15234175 0.052815598 0.20249517
0002a0 71 fd 8f 3e 98 5d 78 be b6 4f 82 bd 57 84 6f 3e
       0.28123048 -0.24254453 -0.0636286 0.23390327
0002b0 90 7d 38 bd 6d 6f a1 bd 7d 40 2b bd d5 b0 5d be
       -0.04504162 -0.07882581 -0.041809548 -0.21649487
0002c0 b0 f7 f7 3d 2a ee 75 be d3 5a 41 be a4 23 87 be
       0.121077895 -0.24016634 -0.18882303 -0.2639438
0002d0 ed 30 04 3d b3 9a ba 3d 3f 4f ab bd 32 4f 71 be
       0.03227322 0.09111538 -0.08364724 -0.23565367
0002e0 2f 65 02 be a6 5e 30 3d 5a 7a 94 bd ca ff 2d 3e
       -0.12733911 0.043059014 -0.07249899 0.16992107
0002f0 e4 f2 58 bb 8b bc d4 bd 84 a3 19 3d b0 2b a0 3c
       -0.0033103758 -0.10387524 0.037509456 0.019552082
000300 75 19 d8 bd c6 a3 59 be 83 b8 c5 bc 7d 20 8a bd
       -0.105517305 -0.21253881 -0.024135834 -0.06744478
000310 b7 ea ba 3b 72 33 29 3e f3 0c 0c be 85 5b 48 bd
       0.0057042497 0.16523531 -0.13676815 -0.048915405
000320 3d 70 72 bd 56 7f 73 3c 92 ee ab 3d b8 ef 2d 3d
       -0.05918907 0.014861902 0.08395113 0.04246494
000330 12 b2 6c 3d 5b 8b 12 bd 70 d8 1b 3e cb e6 3c 3e
       0.05778701 -0.03577743 0.15219283 0.18447416
000340 5a 28 3d be 88 b5 a9 bd b3 a5 e6 bd 40 d9 6d be
       -0.18472424 -0.082865775 -0.11262073 -0.23227406
000350 aa 14 2c 3e c2 4f b6 3e 4a d0 ae bd 2f 8a e0 bc
       0.16804758 0.35607725 -0.08535822 -0.027409641
000360 e5 78 a0 bc 5f ef 5c 3e 27 4b 84 be 7a c5 84 3d
       -0.019588897 0.21575688 -0.25838587 0.06482978
000370 5c c4 9f bd 57 34 01 be 15 80 5e 3d 53 30 bd bd
       -0.078011245 -0.12617622 0.054321367 -0.09237733
000380 4e 3e 40 be 28 f4 5a 3e 6e be b5 3d 01 9e 01 3e
       -0.18773767 0.213822 0.08874212 0.1265793
000390 c9 44 a6 bc a6 48 bb 3e b7 4d bc bd 4d 43 85 3e
       -0.020296471 0.36578864 -0.091945104 0.2602791
0003a0 d5 9d 5d be d5 ca cf bd fc 31 42 be 1f 0e a8 bd
       -0.2164224 -0.10146109 -0.1896438 -0.082058184
0003b0 70 00 06 be 90 26 54 3e 4b 48 0d 3e 76 b3 ca bd
       -0.13086104 0.20717835 0.13797109 -0.09897511
0003c0 b3 b4 22 bd 63 c3 ec bd 16 ed 8a be f5 21 bc 3d
       -0.03972311 -0.115607046 -0.27134007 0.09186164
0003d0 0c 83 83 be d8 93 63 bd 12 77 08 3e b7 2a d9 bd
       -0.25685918 -0.055560917 0.13326672 -0.1060385
0003e0 5b f2 d5 3e 57 47 97 be 5c 0c 70 3e 2b bd 51 3e
       0.41786465 -0.29546615 0.23442215 0.20482318
0003f0 98 25 6b be d7 91 bc 3e be 6b 10 bd a1 19 8a be
       -0.2296356 0.36830017 -0.035259 -0.26972678

network_body._body_endoder.seq_layers.2.bias f4 [128]
000000 68 cc e2 3b ff 75 33 be 2f 2d a6 bd 69 6f 15 be
       0.00692134 -0.1752548 -0.08114087 -0.14593281
000010 cc 2a a9 3c 82 e8 b3 3c 37 b9 b6 3c cd 5a 80 bd
       0.02065029 0.021961454 0.022305114 -0.06267319
000020 7e 2b 66 bb 4b f5 da 3c 65 11 b4 ba 0b 0b 80 bc
       -0.0035121138 0.026728293 -0.0013738094 -0.015630266
000030 94 e6 94 3d 45 49 7a bd 96 3b 32 3d f4 65 16 be
       0.07270542 -0.06110503 0.043513857 -0.1468733
000040 11 5a 74 bd 9c 50 81 3d 2d e8 9b 3c bb 53 6e be
       -0.059656207 0.06314203 0.019031608 -0.23274128
000050 e4 18 61 be fe 07 12 bb 87 12 9e 3d a2 85 2d be
       -0.21982151 -0.0022282596 0.077183776 -0.16945508
000060 71 b4 f4 bd 4e f5 b9 39 96 66 8c 3d 18 5d 08 be
       -0.11948479 0.00035468716 0.06855504 -0.13316762
000070 03 41 2e bd fe 2b bd bd c9 b0 7e be 1d e3 1b 3d
       -0.04254247 -0.092369065 -0.24872126 0.03805839
000080 00 07 58 be bd f5 d6 3c c1 f8 08 3c 22 20 5d 3c
       -0.2109642 0.026240224 0.008360089 0.013496431
000090 0b a9 98 3c 8b f4 46 3d 8c a3 f5 bd fe ab 34 3d
       0.018635293 0.048573058 -0.11994085 0.044109337
0000a0 cb 9b 89 3d a6 73 11 bd 74 15 d3 bc a6 85 00 bc
       0.06719168 -0.03551068 -0.025767066 -0.007844364
0000b0 97 ba 93 3d c9 f7 3d bd bd da 15 3d a5 4d 99 3d
       0.072133236 -0.046378884 0.03658556 0.07485513
0000c0 36 46 21 3c 4d 3e 20 bd 19 4c 6f bc 9d 24 c7 3d
       0.0098434 -0.039121915 -0.014605545 0.0972378
0000d0 22 46 90 3c ac 8d ec bb 2a 51 81 3d e2 b8 51 be
       0.017611567 -0.007219037 0.06314309 -0.20480683
0000e0 bd 7f c2 bd e3 e6 3b bb c1 3f 28 3d 6c da 01 be
       -0.094970204 -0.0028671555 0.041076425 -0.12680978
0000f0 ac 94 27 be c4 7b 90 bc b0 52 11 bd 51 88 e5 bb
       -0.16365308 -0.017637141 -0.035479248 -0.0070047756
000100 4a 3e da bd e0 72 98 bb 7e f2 09 3d 0f 7e 2c be
       -0.10656412 -0.004652366 0.033678524 -0.16844963
000110 10 cf 2a bd fa 79 0e ba b3 5f 24 be 84 43 50 be
       -0.041701376 -0.0005435046 -0.16052131 -0.20338255
000120 95 05 15 bc e7 bf f3 bc 7e 1f 4e be d5 71 64 3c
       -0.009095569 -0.029754592 -0.20129201 0.013943155
000130 b2 c5 d5 3c 76 07 02 bd 5b 08 69 3d 2b 75 2d be
       0.026095245 -0.031745397 0.056892734 -0.16939227
000140 8d df af bc 38 23 27 be af db 5e be fb 4f b1 bc
       -0.021468902 -0.16322029 -0.2176349 -0.021644583
000150 1e 44 88 bd 37 b0 a2 3d 09 67 90 bb a2 1c 7d 3d
       -0.06653617 0.079437666 -0.004406814 0.061794885
000160 ad 65 f5 3c 7a 6e 46 bd 6f 40 72 bd 8b fb 4a 3d
       0.02995571 -0.048445202 -0.05914348 0.049556296
000170 9d 4f f5 3c 9f 74 28 bd cd 90 a2 3c 4b e3 18 3d
       0.02994519 -0.041126844 0.019844437 0.03732614
000180 52 25 84 bd f6 15 c0 bd 34 a1 dc bc 56 95 56 bd
       -0.06452431 -0.09379189 -0.026932336 -0.05238851
000190 74 62 20 be 42 1d 99 bd 77 8d 35 be 0a fe 5d 3c
       -0.15662557 -0.074762836 -0.17729746 0.013549337
0001a0 a4 a4 73 3b d5 af f9 bc ca 50 96 3d a0 54 e8 bc
       0.003717699 -0.030479351 0.07339628 -0.028360665
0001b0 40 60 9a 3c 3f 76 2b bd 68 b7 bc bc c4 e3 5c bc
       0.018844724 -0.041860815 -0.023036674 -0.013482038
0001c0 e9 6d 72 bd da 64 d7 3c 7e 72 0b 3d 9e bb 8b bd
       -0.05918685 0.026293207 0.034044735 -0.068228945
0001d0 33 44 92 3d 17 47 26 be 3b 9b 37 b9 0c 98 5d be
       0.07141914 -0.16238056 -0.00017510068 -0.21640033
0001e0 a2 95 35 be 77 83 16 bd 80 53 5d bd d6 de 90 bc
       -0.17732862 -0.03674647 -0.05403471 -0.017684381
0001f0 10 0e 38 be 25 24 cb bc bf f9 19 3c ba 7b 51 bb
       -0.17974114 -0.024797508 0.009397923 -0.0031964616

action_model._continuous_distribution.log_sigma f4 [1, 3]
000000 ef 42 c4 be 9a 30 e2 be 56 07 46 bf
       -0.38332316 -0.44177705 -0.77354944

action_model._continuous_distribution.mu.weight f4 [3, 128]
000000 3f a6 e0 bc 1d c2 3d 3c 4e a9 b4 bc d3 56 ac bd
       -0.027423022 0.011581925 -0.022053387 -0.08414998
000010 67 0d c8 3d a3 a0 74 bd e9 27 67 3d 27 a2 30 bd
       0.09768181 -0.059723508 0.056434546 -0.04312339
000020 d6 a1 62 bc 08 36 54 3c 84 6f 5b 3b d6 16 13 3d
       -0.01383253 0.012952335 0.0033483217 0.03591045
000030 c9 fd d1 3d d0 28 f7 bc 2d 38 f9 b9 00 e6 cf bc
       0.10253484 -0.030170828 -0.00047534835 -0.025378227
000040 b6 17 ed bc ae 8d 24 be 69 12 e8 bd ad fd 88 3b
       -0.02894197 -0.16069672 -0.113316365 0.004180631
000050 68 44 13 bd 17 1f 0e be 75 2b 29 3e b8 a8 96 bd
       -0.03595391 -0.13879047 0.16520484 -0.07356399
000060 7c c3 b0 3c 9d 51 d5 3c 9a b5 00 3e 66 3e 09 bd
       0.02157759 0.026039893 0.12569275 -0.033506773
000070 1d cc 0b bc e8 97 07 3d ee 20 0e bd 84 2d 57 be
       -0.008532551 0.033103853 -0.034699373 -0.21013457
000080 00 08 73 bd 6d 84 ff bd 04 85 ee bd 27 47 b0 39
       -0.0593338 -0.1247643 -0.116464645 0.0003362235
000090 14 96 b9 3c 9b 81 48 3e 1f 67 ac bb 2e c0 03 3e
       0.02265457 0.1958069 -0.0052613164 0.1286628
0000a0 82 78 00 3d aa c4 f7 3c 15 b3 22 bd f1 cf 85 bd
       0.031364925 0.030245144 -0.039721567 -0.06533802
0000b0 59 d4 33 3e e5 10 03 3d 6d e4 29 3e 6f b2 b6 3d
       0.17561473 0.031998534 0.16591044 0.08920752
0000c0 5f 5f 65 bd e8 f4 ce 3c 75 35 90 3c ce 3c 38 3e
       -0.055999156 0.025263265 0.017603615 0.17991945
0000d0 0c dd b4 bb 32 61 be 3b e9 08 6c be 35 ec 0b bd
       -0.005519515 0.0058099264 -0.23050274 -0.03416081
0000e0 64 d5 c7 bd b7 9e 38 bc 47 40 b2 bd fc cf 51 bd
       -0.09757498 -0.011268309 -0.08703666 -0.05122374
0000f0 cd fd 73 bd 44 3b 56 ba db a8 05 bc 65 ab 17 3c
       -0.059568215 -0.00081722834 -0.008157934 0.009257172
000100 c2 b0 69 bc d0 8f 95 bc 15 f6 15 be 8f 05 43 bd
       -0.014263334 -0.018257052 -0.14644654 -0.047612723
000110 ac 00 11 bd c5 5e 5f 3d 7b bb 6e bd 08 57 6b bd
       -0.03540103 0.05453374 -0.058284264 -0.057456046
000120 6b 3b 53 bc 42 43 90 3c 94 a8 cb bc ab c9 02 3e
       -0.012892584 0.017610196 -0.024860658 0.12772243
000130 40 51 93 bb 5c 88 a4 bb f5 a2 38 bc ba 01 a3 bb
       -0.0044957697 -0.005021138 -0.011269321 -0.004974571
000140 96 de 4b bd 24 87 56 bd e1 47 b8 bc 0b d3 0c bd
       -0.04977282 -0.052374974 -0.022495212 -0.034380954
000150 ec 2c 0f bb 0b 52 b3 bc cb 93 90 3d 7c 72 c3 3d
       -0.0021846844 -0.021889707 0.07059439 0.095433205
000160 5d 19 b6 bd 60 4b ea 3d f8 36 46 bc e8 79 c1 bd
       -0.088915564 0.11440158 -0.0120980665 -0.0944708
000170 de 6e 30 3c 3b 4a 31 bc 12 4e c6 3c 9a 42 46 be
       0.01076862 -0.010820921 0.024207149 -0.19361344
000180 be 32 8b 3d 74 89 f1 bd 56 96 c6 bc c5 3d b3 3c
       0.06796788 -0.11793795 -0.024241608 0.02188004
000190 10 36 1d bd 12 bb 00 bd 4f c3 88 bd 2a 7f b0 bc
       -0.038381636 -0.031428404 -0.06677877 -0.021545012
0001a0 97 31 fc 3d 09 c8 8c bb f6 74 53 3e c2 d6 87 bd
       0.12314146 -0.004296307 0.20650086 -0.06632759
0001b0 2f 60 b2 bd d0 b2 a7 3c 8c bd e5 3d e7 6d a4 3c
       -0.08709752 0.020471007 0.11217794 0.020071937
0001c0 31 f0 8e bc bd db f0 3d c5 46 f5 bc 43 66 83 3c
       -0.017448517 0.11760662 -0.029940972 0.016039973
0001d0 88 33 a0 bd 2d 5d a0 bd ed f2 2d 3d 95 9c 29 bd
       -0.07822329 -0.07830272 0.042468 -0.041409094
0001e0 d7 11 59 bd df 19 2e bc ad e0 36 bc 99 95 7a 3d
       -0.05299553 -0.010626285 -0.011161965 0.061177824
0001f0 f0 5a 67 bd 58 3c c5 bb f0 85 cb bd 75 f6 df 3c
       -0.05648321 -0.0060191564 -0.09937656 0.0273392
000200 1d 8d bc bd e2 9b b0 3d 2d 47 c3 bd 3d 7e 80 3d
       -0.09206603 0.08623482 -0.0953506 0.06274078
000210 7a 73 1c 3c 18 b9 8a bd 8f 59 f8 bc 1e bc 12 bd
       0.009549016 -0.06773585 -0.030316142 -0.035823934
000220 9d 4d 58 bd ad 4d 28 3e b0 d5 2c bd e5 b5 cf 3d
       -0.052808393 0.16435881 -0.042195976 0.101421155
000230 f1 5d 08 be 46 f9 97 bb c6 5f 42 be 82 78 82 3d
       -0.13317086 -0.00463787 -0.18981847 0.06370641
000240 96 92 61 bc 4a ad e0 bd 0c c0 e6 bb c5 ba bd bd
       -0.013767859 -0.10970552 -0.0070419367 -0.09264139
000250 10 4c 1d 3d 1b 1e a5 bc 4b 5a f4 3d c3 c9 18 3d
       0.038402617 -0.020155957 0.119312845 0.03730179
000260 bb 73 66 3c a2 bd e2 3d cc 93 99 3d 6a 32 ec 3c
       0.014065678 0.11071326 0.07498893 0.028832633
000270 53 d0 a0 bd 4f 09 26 3d d8 50 1f 3d 33 85 13 3d
       -0.07852235 0.04053622 0.038895458 0.0360157
000280 d7 32 a2 3c 20 a1 17 bd 38 79 5b 3d 92 77 f3 bd
       0.019799633 -0.037018895 0.0535824 -0.118880406
000290 05 b9 c3 bd 44 2c 9e 3a de e8 0b 3e cb 4e 04 be
       -0.09556774 0.0012067636 0.1366305 -0.12920682
0002a0 62 4b 34 3e 00 6c 82 bd 3b be 6e bd d0 10 cb bd
       0.17606881 -0.063682556 -0.058286887 -0.09915316
0002b0 c0 cf 5f 3d 00 28 b9 3b 0d e3 8e bd 7c 00 12 be
       0.054641485 0.0056505203 -0.069769 -0.14257997
0002c0 58 5f 1e 3e 4c dd 52 bd 44 23 ca 3d ba 98 95 bd
       0.15466058 -0.051480576 0.09870008 -0.07304521
0002d0 cd 6d d3 bd 3a c4 ef 3d 48 dd a4 3c 77 bc d4 3d
       -0.10323677 0.11707349 0.020125046 0.10387509
0002e0 62 19 c8 bc 7e 86 77 3c 4a 23 bd bd eb 8f 73 3d
       -0.024426166 0.015107749 -0.092352465 0.059463423
0002f0 b4 c7 1a 3d e6 09 5a 3a 83 82 d7 3d da 58 ad bd
       0.037788108 0.0008317515 0.1052294 -0.08464213
000300 55 0b 0f bd 7e b4 84 bd e0 61 72 3c 07 c8 2a 3c
       -0.034922916 -0.06479739 0.014793843 0.010423667
000310 f6 b4 1e 3d 1d cd cf 3d 64 f3 48 3d bc 02 33 bd
       0.038746797 0.10146544 0.04906024 -0.04370378
000320 01 84 0c 3e 79 16 20 3c 14 9c 31 3d 09 90 4f bd
       0.1372223 0.009770983 0.04336174 -0.050674472
000330 85 f6 7c bd 0c 66 20 3c 5a 35 4a 3e 50 6a 25 3d
       -0.061758537 0.009789955 0.19746915 0.04038459
000340 e5 a2 ed 3c 8d 90 ca 3c f3 52 71 bd 75 56 7c 3d
       0.029008338 0.02472713 -0.058916997 0.06160589
000350 d3 f2 17 3d 61 de 42 be 47 87 db 3d 82 59 09 be
       0.03709681 -0.19030143 0.107191615 -0.13413051
000360 aa 1f 1b 3e 80 88 9e bc 76 49 12 3d 6d 9a d3 bd
       0.15148798 -0.019352198 0.03571459 -0.10332189
000370 8b 8e f2 bd 35 b2 46 3d 7f 6e e2 3d b0 92 08 3d
       -0.11843594 0.048509795 0.11056232 0.033343017
000380 91 ef 96 3b b7 6e a0 3d 30 99 f2 3c cc d6 72 bc
       0.0046061953 0.07833617 0.029614061 -0.014821719
000390 c0 59 a4 3c c2 e8 05 3c c1 b1 45 3d 67 c4 0f bd
       0.020062327 0.00817317 0.048265222 -0.035099413
0003a0 90 61 98 3d b3 49 2a 3d 82 bb 72 3b b7 f4 23 bd
       0.074404836 0.04157419 0.0037038033 -0.0400283
0003b0 48 31 2d 3e f2 55 5d 3d 3e 98 50 3d 0f 3d 6e bd
       0.1691333 0.054037042 0.05092644 -0.0581637
0003c0 fc fa 33 3b 22 88 ea 3c a9 59 ed bd 1c 8d 4d bd
       0.002746283 0.028629366 -0.11589367 -0.0501834
0003d0 06 52 37 3e ab e2 96 3c c8 1d 12 3c 15 b8 76 3c
       0.17902383 0.01841863 0.008918233 0.015058537
0003e0 07 ce c3 3c ec 86 1b 3c fb 8c a2 3c 50 f3 40 3d
       0.023901952 0.009492617 0.019842615 0.04710704
0003f0 43 90 22 3d ba f9 e8 3d 95 50 87 3c 22 9b ef bc
       0.03968836 0.113757566 0.016517917 -0.029248778

action_model._continuous_distribution.mu.bias f4 [3]
000000 d5 bc a2 3c 44 d5 81 bc 0e d6 ea bd
       0.019865433 -0.015848763 -0.11466609

exp_avg f4 [128, 46]
000000 b1 d8 e4 b7 c3 bc cc 38 0c 54 05 39 d6 f1 be b8
       -2.7280623e-05 9.762638e-05 0.00012715178 -9.1049515e-05
000010 09 d4 0e 39 98 b1 2c 38 d5 93 5e 38 f4 31 9b b3
       0.00013621165 4.1173393e-05 5.3066604e-05 -7.2268364e-08
000020 96 b7 17 38 b0 2f 12 b7 4f 1f 04 b8 ac 35 a5 b7
       3.6172183e-05 -8.713381e-06 -3.150041e-05 -1.9694526e-05
000030 92 4d 9b 38 77 3b d1 b3 12 10 bc 37 5a 33 88 38
       7.4054245e-05 -9.7431375e-08 2.241883e-05 6.49455e-05
000040 c8 5d 92 38 0c e7 dc 38 66 bf 52 38 2d 9f d0 33
       6.9792906e-05 0.00010533453 5.0246155e-05 9.714709e-08
000050 28 fd 78 37 d8 c1 9b 38 30 4f eb 32 72 d4 f0 37
       1.4840894e-05 7.427082e-05 2.7393611e-08 2.8709157e-05
000060 41 4c 14 38 3f f1 66 ad 40 f2 96 37 77 2d d0 38
       3.5356967e-05 -1.3127554e-11 1.79942e-05 9.9266814e-05
000070 05 01 e4 b7 01 1e 91 37 ca ce 64 38 d6 df 5b ad
       -2.7180193e-05 1.7299319e-05 5.4552023e-05 -1.249841e-11
000080 37 27 19 38 96 6d 4b 38 8d 6c 8e 37 20 f1 fe b5
       3.6514564e-05 4.850103e-05 1.6978267e-05 -1.8994651e-06
000090 54 84 a0 38 b9 39 96 32 65 d2 20 38 f3 25 cd 38
       7.6540426e-05 1.7488547e-08 3.8342918e-05 9.78223e-05
0000a0 0b cd bf b7 0f d4 ba 37 32 49 bb b6 fc 64 a8 2d
       -2.2864455e-05 2.2271675e-05 -5.5815553e-06 1.9144235e-11
0000b0 9d 37 d4 37 ba 15 78 3a b9 51 33 bb bf fb 03 bb
       2.5298266e-05 0.0009463687 -0.0027361943 -0.0020139066
0000c0 9a e7 5c bb 4f 4a 53 bb 1c 6f 8c ba fe 15 22 bb
       -0.0033707381 -0.0032240336 -0.0010714266 -0.0024732347
0000d0 0b b2 92 bb 6a a1 25 34 13 bf 29 bb bb 4b 9e bb
       -0.004476791 1.5425545e-07 -0.0025901243 -0.004830805
0000e0 b0 56 6b 3a 21 04 29 bb b3 d9 98 bb 91 92 ec 34
       0.0008977456 -0.0025789815 -0.0046646236 4.4065067e-07
0000f0 a6 a6 1a bb 8e 9a 9c bb 3f ec d1 b8 8a 1d 85 bb
       -0.0023597865 -0.0047791665 -0.00010009901 -0.004062359
000100 72 43 92 bb b5 a5 53 b5 b2 02 01 bb d5 84 ab bb
       -0.0044636065 -7.884476e-07 -0.0019685444 -0.0052343407
000110 93 ab fb 33 55 99 3a bb ee 20 5b bb b1 f3 e2 29
       1.17193075e-07 -0.002847274 -0.0033436376 1.007869e-13
000120 93 0d 2c bb 66 a0 9d bb 64 4c 3e 39 54 56 79 bb
       -0.0026253208 -0.0048103807 0.0001814827 -0.003804584
000130 74 7a 6f bb c7 b5 0a ad c3 7b 39 bb 61 58 82 bb
       -0.0036541494 -7.8847545e-12 -0.0028302527 -0.0039778207
000140 90 64 2d ba 4f f9 6b bb 07 5e a2 bb f5 b1 80 b2
       -0.0006614411 -0.0036006754 -0.0049550566 -1.4982087e-08
000150 e6 43 2e bb af 29 e2 bb 7a 08 11 3b d5 1b 12 bb
       -0.0026590764 -0.0069019417 0.0022130297 -0.0022294421
000160 ee 63 b5 ba dd cb 9d ae 3b 82 8c bb 34 e3 9b bd
       -0.0013838985 -7.175747e-11 -0.0042879856 -0.07611695
000170 ef 6d 25 3b 80 a5 2e 3b cb d6 93 3b 1c 62 21 3b
       0.0025242527 0.0026648939 0.0045116893 0.0024625128
000180 de 00 23 3b ef d7 20 3b 2c c8 a7 3b f3 72 5e b5
       0.0024872343 0.002454277 0.005120298 -8.286872e-07
000190 b0 70 61 3b 3b 17 a0 3b 2c b8 cf ba a0 67 d6 3a
       0.0034399442 0.004885582 -0.0015847734 0.0016357787
0001a0 5b 7d be 3b 4a fb fd b5 03 f9 4a 3b 56 44 d6 3b
       0.0058132834 -1.8923104e-06 0.0030971176 0.006538908
0001b0 ac d9 da b8 e8 a7 a6 3b bc fa a5 3b 46 3f 5b 36
       -0.000104355946 0.005085934 0.0050652903 3.2670373e-06
0001c0 e1 3e 19 3b 5c 5b ce 3b 00 bf 94 34 e9 75 62 3b
       0.0023383426 0.006297512 2.770612e-07 0.0034555143
0001d0 4d 7d 45 3b ad 2b 53 ae eb 26 44 3b 34 3b c0 3b
       0.00301345 -4.8014637e-11 0.0029930423 0.0058664326
0001e0 e9 c6 4f ba 7e 99 95 3b 70 a3 54 3b af 0d c4 ae
       -0.0007926063 0.004565417 0.003244605 -8.915479e-11
0001f0 28 fd 78 3b 85 5a 99 3b a2 90 bf 39 52 6c 70 3b
       0.003799269 0.00467998 0.0003653812 0.0036685658
000200 77 fa ba 3b d4 05 8a 33 30 d7 6f 3b 32 b0 03 3c
       0.0057061273 6.427186e-08 0.0036596768 0.008037614
000210 f5 69 35 bb 4c 26 16 3b 26 c8 2f 3b 62 e3 1c 2f
       -0.0027681564 0.002291101 0.0026822179 1.42689e-10
000220 51 e5 b1 3b 66 6d bd 3d fc 2a 42 ba 9e f1 16 39
       0.005428948 0.09249382 -0.0007406918 0.00014395124
000230 39 fb f4 b9 b6 13 18 b9 a6 4b f0 b9 0f 60 20 ba
       -0.00046726482 -0.00014503193 -0.0004583273 -0.00061178295
000240 6e 98 0f ba 1d b3 82 32 f9 4c b2 b8 c2 fd 78 b8
       -0.0005477731 1.5215443e-08 -8.502039e-05 -5.9364138e-05
000250 fa f2 b2 b8 fc 69 b3 b9 42 57 10 ba 54 5b eb 31
       -8.532959e-05 -0.00034220505 -0.00055061665 6.849783e-09
000260 a8 03 b3 b8 9f 35 b4 b8 e3 08 1d ba 85 7c 31 ba
       -8.536066e-05 -8.5930566e-05 -0.0005990399 -0.0006770569
000270 87 99 0f ba 8d 49 87 b2 b7 94 87 b8 b0 a4 16 ba
       -0.00054778944 -1.5749515e-08 -6.465002e-05 -0.0005746586
000280 0f 47 1b b3 33 57 25 b9 5d 0c 2c ba a3 45 c2 2d
       -3.6153377e-08 -0.0001576811 -0.00065631216 2.2086171e-11
000290 f8 51 32 b9 f5 24 1e ba 16 ea 6c 36 2d 77 5f b9
       -0.00017005939 -0.00060327287 3.5302996e-06 -0.00021311334
0002a0 a4 44 26 ba e8 c3 a3 2d cf 10 7a b9 17 01 0d ba
       -0.0006342626 1.8617954e-11 -0.0002384812 -0.00053788855
0002b0 65 12 ce 38 b3 0d ac b9 c1 da 20 ba 31 35 73 31
       9.826272e-05 -0.00032816603 -0.00061361125 3.539139e-09
0002c0 48 21 2d b9 65 34 80 37 9e fd 23 ba b3 7d 89 ba
       -0.00016510964 1.5283187e-05 -0.00062557484 -0.0010489732
0002d0 ea e7 08 3a ce df 6b 2e 27 0f 8c b9 a0 36 cb bb
       0.0005222546 5.3631592e-11 -0.0002671417 -0.00620158
0002e0 5c 81 84 bb 7e 0f 29 ba 75 a5 80 bb 8a d6 4b bb
       -0.004043741 -0.0006449147 -0.003925974 -0.0031103217
0002f0 54 6a d9 ba e1 22 71 bb 27 b1 a7 bb da eb 1f 35
       -0.0016587474 -0.003679447 -0.0051175538 5.9575325e-07
000300 da 65 12 bb cc b1 15 bb e7 5e 54 38 b5 89 00 bb
       -0.002233854 -0.002284157 5.0633123e-05 -0.001961333
000310 05 f9 a8 bb 23 48 7e 35 76 3c ed ba 11 aa 80 bb
       -0.0051566386 9.4727346e-07 -0.0018099684 -0.0039265235
000320 8e c8 de ba 76 dc 97 bb 30 86 a1 bb 67 cb 3e b5
       -0.0016997026 -0.0046344353 -0.0049293265 -7.1076505e-07
000330 8e f2 ea ba 65 7a 95 bb 8f ce 82 32 13 97 2b bb
       -0.001792507 -0.0045617097 1.5227924e-08 -0.0026182577
000340 f7 50 96 bb 28 72 52 af b7 a6 09 bb f3 fa a0 bb
       -0.0045872885 -1.9139945e-10 -0.002100391 -0.004912728
000350 b7 58 fe 38 8b 3b 54 bb 85 4e 8d bb c5 11 08 af
       0.00012128188 -0.0032384123 -0.004312339 -1.2375441e-10
000360 1d 6b 15 bb 0b 67 91 bb 39 05 ac b8 74 f7 43 bb
       -0.002279944 -0.0044373325 -8.202572e-05 -0.0029902132
000370 f7 3a a1 bb 78 2b b0 b4 38 e1 28 bb fd 00 8b bb
       -0.0049203592 -3.2814182e-07 -0.0025769006 -0.004242061
000380 bc cc 20 ba 3a f7 89 bb 01 04 0d 3a bd 9d a9 b0
       -0.00061340234 -0.00421038 0.000537932 -1.23412e-09
000390 e5 17 81 bb 2a 67 8c bd 94 d5 d5 3b b7 1e 4e b9
       -0.003939616 -0.068556145 0.0065257046 -0.00019657133
0003a0 33 46 6b 3b d8 a0 d0 3b c1 7b e7 b8 16 c1 87 3b
       0.0035899996 0.0063668303 -0.00011037989 0.0041428907
0003b0 50 c0 e5 3b df c7 60 b4 2c 61 5d 3b 68 81 d7 3b
       0.007011451 -2.0934338e-07 0.0033779843 0.0065767057
0003c0 21 b2 a3 39 29 c1 9a 3b 82 20 f1 3b 77 1e a0 b5
       0.000312225 0.0047227335 0.0073586116 -1.1929795e-06
0003d0 90 87 49 3b d5 82 b6 3b 06 9e 7e 38 27 13 9b 3b
       0.0030750968 0.0055697956 6.070549e-05 0.0047325077
0003e0 43 8e e5 3b 58 c2 8a 35 ca a2 45 3b ff 20 cf 3b
       0.0070054843 1.0338363e-06 0.0030156844 0.006321072
0003f0 e7 59 7e 35 67 79 87 3b c5 2a ca 3b 44 59 12 2f
       9.47532e-07 0.0041343453 0.0061696493 1.3310336e-10

exp_avg_sq f4 [128, 46]
000000 00 24 02 36 0a 20 22 34 0b 45 69 35 2c 2f 01 36
       1.9392464e-06 1.5099081e-07 8.6899735e-07 1.9249956e-06
000010 7a a0 2d 34 e1 db 72 35 e7 ce 03 36 e6 74 0e 34
       1.6170262e-07 9.047199e-07 1.9640954e-06 1.3267308e-07
000020 fc 53 42 35 28 28 00 36 56 13 8c 34 cd de 87 35
       7.2392845e-07 1.909686e-06 2.60911e-07 1.0123127e-06
000030 2f 66 0e 36 ab 58 fa 33 6e 7b 48 35 77 ca fb 35
       2.1219128e-06 1.1657661e-07 7.468542e-07 1.8759882e-06
000040 a3 b8 9a 34 8b 11 9a 35 5c 38 05 36 d0 a1 6f 34
       2.8819076e-07 1.1479e-06 1.985135e-06 2.2317477e-07
000050 86 cc 4e 35 d0 aa 04 36 29 b2 35 34 c7 86 84 35
       7.70386e-07 1.9768959e-06 1.6921753e-07 9.873992e-07
000060 55 9f 01 36 fb 77 70 34 ef a3 69 35 63 dd 07 36
       1.9315241e-06 2.239539e-07 8.703782e-07 2.0245432e-06
000070 63 4a 76 34 0f 69 91 35 42 5b 05 36 28 7b 68 34
       2.2937597e-07 1.0833918e-06 1.9871663e-06 2.1651488e-07
000080 44 22 5e 35 c4 10 fa 35 3c 54 c3 34 df 79 8f 35
       8.275131e-07 1.8631331e-06 3.638287e-07 1.0689799e-06
000090 5d e9 05 36 a4 4b 5c 34 c8 a4 6a 35 47 b3 f4 35
       1.995438e-06 2.0516615e-07 8.741158e-07 1.8231593e-06
0000a0 f4 3f c4 34 19 11 9a 35 06 06 99 35 9e eb 1f 26
       3.6554377e-07 1.147887e-06 1.1401141e-06 5.548353e-16
0000b0 de 8a a5 35 ec 9a 8c 38 4a 36 97 39 88 f9 38 38
       1.2333874e-06 6.704577e-05 0.00028841413 4.4101413e-05
0000c0 e3 f8 37 39 fb c2 93 39 9f 6f 4e 38 dc ca 3d 39
       0.00017544958 0.00028183297 4.9218183e-05 0.00018100016
0000d0 de e6 9e 39 22 0d 08 38 71 42 25 39 62 83 96 39
       0.00030308118 3.2437158e-05 0.00015760378 0.00028708117
0000e0 f6 d0 5e 38 07 e4 50 39 e4 d4 a3 39 1d 16 ce 37
       5.3123535e-05 0.00019921373 0.000312484 2.4567411e-05
0000f0 f6 0e 11 39 5a c5 95 39 e5 f6 45 38 31 29 59 39
       0.00013833851 0.00028566533 4.71984e-05 0.00020710078
000100 09 4b a2 39 63 44 c4 37 bb 82 f6 38 5e c7 ac 39
       0.00030954953 2.3396866e-05 0.000117545445 0.00032954937
000110 bd 46 51 36 00 97 e1 38 05 30 a9 39 97 43 a2 36
       3.1184602e-06 0.00010756962 0.0003226997 4.8358447e-06
000120 c5 72 c5 38 98 84 a9 39 72 18 51 37 46 c7 07 39
       9.4150695e-05 0.00032332982 1.2463062e-05 0.00012948838
000130 a5 a2 ab 39 b3 48 aa 36 7f 2e b6 38 bf 1f 97 39
       0.0003273684 5.074858e-06 8.687097e-05 0.00028824617
000140 9c 05 3b 38 03 72 20 39 b4 43 aa 39 65 c3 30 37
       4.45895e-05 0.00015301262 0.0003247537 1.0535911e-05
000150 c1 36 c8 38 56 20 90 39 1b e7 7f 38 2a fa 35 39
       9.546942e-05 0.00027489912 6.101197e-05 0.00017354699
000160 58 b4 18 39 b1 d4 c7 26 bf e9 64 39 5e a2 12 3d
       0.00014563033 1.3866049e-15 0.00021830852 0.035799377
000170 03 b8 a3 3a fd 04 92 38 09 16 03 3a 73 b7 a2 3a
       0.0012490753 6.962752e-05 0.0005000537 0.0012414291
000180 35 ed a4 38 6b 71 ff 39 f7 94 a1 3a 44 48 ef 38
       7.864313e-05 0.00048721893 0.001232772 0.000114098686
000190 bb 41 00 3a 70 e1 a6 3a 84 e8 a1 38 41 33 07 3a
       0.0004892607 0.001273198 7.720388e-05 0.0005157479
0001a0 69 20 a7 3a f0 0a b7 38 38 5b 02 3a 3d f8 ae 3a
       0.0012750748 8.728157e-05 0.0004972699 0.0013349127
0001b0 67 c6 2b 38 3d 9f 0e 3a 31 c0 a1 3a df 2a de 38
       4.0954354e-05 0.00054405985 0.0012340603 0.0001059377
0001c0 2b da 07 3a fd 55 98 3a c2 67 5a 39 df ab 39 3a
       0.0005182351 0.0011622306 0.00020828753 0.0007082801
0001d0 15 04 92 3a b5 dc 73 39 75 7a 30 3a ba 5d a0 3a
       0.0011140133 0.00023256506 0.00067321147 0.0012234964
0001e0 3a d4 1a 39 79 3e 31 3a da aa 96 3a b6 c5 50 39
       0.00014765645 0.00067613233 0.001149501 0.00019910079
0001f0 40 de 20 3a 93 ff 9e 3a d8 57 33 39 10 b5 24 3a
       0.00061366335 0.001213061 0.00017103495 0.0006283084
000200 81 3e a0 3a 68 b7 15 39 41 af 22 3a 03 3e 9c 3a
       0.0012225659 0.00014278071 0.00062059244 0.0011920336
000210 19 b1 1b 39 8e 47 22 3a e0 67 31 3a 6e 4c 13 2a
       0.00014847926 0.0006190472 0.0006767493 1.308274e-13
000220 34 c7 3b 3a 5f 56 fa 3d 19 1a ba 37 53 62 90 36
       0.00071631675 0.12223505 2.218508e-05 4.302981e-06
000230 2d 5c 83 37 06 dd c1 37 c6 8c 36 36 b9 ce 50 37
       1.565934e-05 2.3110315e-05 2.7202054e-06 1.24458975e-05
000240 92 6f 67 37 cf 39 53 37 de af 8b 37 4e e0 c8 37
       1.379465e-05 1.259004e-05 1.6651986e-05 2.3946308e-05
000250 0d 85 18 36 b4 1d 22 37 19 83 8b 37 55 f6 14 37
       2.272721e-06 9.662868e-06 1.6631138e-05 8.878841e-06
000260 ca f5 82 37 a5 cc b8 37 11 42 90 36 3f dd 1b 37
       1.5611662e-05 2.2029804e-05 4.2992256e-06 9.290233e-06
000270 5c 39 a2 37 c3 09 dd 36 98 bf 83 37 d6 bd d2 37
       1.9338615e-05 6.5874497e-06 1.5705635e-05 2.512235e-05
000280 46 ed 7b 35 9a 75 ce 36 00 1b c7 37 a6 90 4c 36
       9.3850065e-07 6.152969e-06 2.3735221e-05 3.0482565e-06
000290 9a 54 f6 36 83 ff d5 37 96 8e 05 35 49 87 c7 36
       7.34122e-06 2.551056e-05 4.975385e-07 5.9464114e-06
0002a0 6c 41 c6 37 da 11 41 36 7f 49 00 37 61 a3 be 37
       2.3633904e-05 2.8769632e-06 7.646507e-06 2.2725844e-05
0002b0 6e 6e 43 36 46 ef e6 36 a9 b1 c7 37 57 e6 2d 36
       2.9121543e-06 6.8823892e-06 2.3805378e-05 2.5913084e-06
0002c0 7e eb 2a 37 64 f0 c2 37 79 1c 29 36 56 0d f2 36
       1.0187619e-05 2.3238543e-05 2.5199536e-06 7.2137145e-06
0002d0 67 8e 36 37 e6 00 92 26 f3 b5 8c 37 40 db f2 3b
       1.0881201e-05 1.0131029e-15 1.6774027e-05 0.0074113905
0002e0 63 f4 68 3a 93 41 82 38 10 c1 f1 39 9e aa 67 3a
       0.0008886514 6.211097e-05 0.00046110945 0.00088373746
0002f0 b9 af 8c 38 3d 5b ed 39 99 5e 5c 3a 35 39 c6 38
       6.708451e-05 0.0004527214 0.000840643 9.4520314e-05
000300 e7 83 dc 39 db b0 63 3a 3a cd b8 38 3d ac f4 39
       0.00042059945 0.00086857163 8.81203e-05 0.00046667634
000310 98 fb 6a 3a 5f ec 82 38 74 a3 c4 39 0a d4 67 3a
       0.0008963882 6.2429106e-05 0.00037505815 0.0008843547
000320 1f a3 c5 38 d5 71 00 3a d7 e6 6d 3a 47 73 52 38
       9.424076e-05 0.0004899775 0.00090752303 5.0175262e-05
000330 7f 6d c0 39 50 ea 6d 3a 81 98 5b 38 08 d4 cd 39
       0.00036702675 0.0009075748 5.23557e-05 0.00039258623
000340 0b 0a 66 3a 26 68 93 38 99 96 c1 39 85 20 6f 3a
       0.00087753 7.0289054e-05 0.00036924033 0.0009121972
000350 fd f5 54 38 2f ee d6 39 16 ef 69 3a fc 6c 66 38
       5.0773833e-05 0.0004099472 0.0008923871 5.4937773e-05
000360 94 4c ae 39 34 2a 57 3a 59 83 c2 38 9a ce dd 39
       0.0003324492 0.0008207888 9.275106e-05 0.00042306335
000370 83 74 6b 3a 37 2d 58 38 4f 88 b7 39 70 14 5b 3a
       0.00089819 5.1540523e-05 0.00035006038 0.00083572324
000380 f7 38 da 38 f4 9e ea 39 ad cc fa 39 89 d7 bc 29
       0.000104056606 0.00044750387 0.0004783621 8.3862665e-14
000390 ff 37 f5 39 65 8a 8b 3d 25 1d f2 39 e7 a0 16 38
       0.00046771762 0.06813506 0.0004617955 3.591264e-05
0003a0 78 ee 58 39 28 fb f4 39 0e 1a 16 38 2d f6 52 39
       0.00020688202 0.00046726433 3.5787052e-05 0.00020118868
0003b0 9c 20 ec 39 9d 0f 57 38 cb a6 5e 39 a7 93 fb 39
       0.00045037724 5.1274536e-05 0.00021233705 0.0004798446
0003c0 a1 8c c8 37 94 1c 55 39 b7 e7 f2 39 55 19 27 38
       2.3907343e-05 0.00020323909 0.00046330478 3.9839495e-05
0003d0 ab df 60 39 da d4 f6 39 b4 5c ee 37 0d 9d 63 39
       0.00021445627 0.00047079363 2.841498e-05 0.00021706913
0003e0 a9 db ef 39 f4 8a 23 38 19 7c 62 39 5b e4 f8 39
       0.00045749292 3.899164e-05 0.0002159927 0.00047472384
0003f0 7d 29 23 38 4b 54 67 39 b9 dd ed 39 d7 ac 76 38
       3.8900867e-05 0.00022061278 0.0004536936 5.881194e-05

exp_avg f4 [128]
000000 95 d3 9d 38 b4 d0 99 bb 12 8b ad 3b cb 2a 20 ba
       7.5257536e-05 -0.004694069 0.0052961195 -0.0006109892
000010 b7 b6 9f bb 7e 77 d3 3b 49 70 7c bb f6 91 97 3a
       -0.004874076 0.0064534536 -0.0038519076 0.0011563885
000020 aa c4 72 3c 5a 4c a1 3c cc f7 de bb 10 3a 5d 3a
       0.014817396 0.019689728 -0.006804442 0.0008439133
000030 82 d1 c1 bb a7 74 ba b8 1f 75 44 39 e0 b2 ab 38
       -0.005914868 -8.890899e-05 0.00018735648 8.1872335e-05
000040 42 57 ab 38 89 5f 62 bc 20 ca 6f 39 09 b1 df 3a
       8.1701684e-05 -0.013816723 0.00022868114 0.001706631
000050 63 cc 2b ba 43 eb 1d 3b 7b 1e 73 ba c9 99 50 39
       -0.00065535883 0.0024096526 -0.00092742563 0.00019893715
000060 0c 5c 85 bb d7 8c 3d b7 d7 c6 91 ba f1 71 d3 3a
       -0.0040698107 -1.129807e-05 -0.0011121881 0.001613198
000070 26 31 0e ba 2d c1 9f b8 f5 59 2a 3b 66 39 0f bb
       -0.0005424194 -7.6176926e-05 0.002599356 -0.002185428
000080 8d d7 83 ba 27 30 e1 3b 04 03 e0 3b 6f 66 b3 bb
       -0.0010058746 0.0068721953 0.006836297 -0.0054748575
000090 8a 25 cb ba cd 27 64 ba b0 50 80 bb 6a 93 c5 b8
       -0.0015498858 -0.00087034405 -0.0039158687 -9.42115e-05
0000a0 22 c8 da 38 5a b0 be 3b 76 a3 ed b9 ec aa 9d 38
       0.00010432328 0.0058193626 -0.0004532595 7.51818e-05
0000b0 34 83 54 39 ac 79 37 bb 1d e4 47 bc fc dd 3c 3c
       0.00020266772 -0.0027996106 -0.012200383 0.011527535
0000c0 8c 0c e5 ba b8 69 3b bc ca 65 a9 3a 37 5f 5e 3c
       -0.0017475053 -0.0114387795 0.0012924012 0.013572506
0000d0 41 5b 3a 39 56 88 3b 39 2e 53 3e 3c c5 45 53 3c
       0.00017772337 0.00017884499 0.011616511 0.012895052
0000e0 fc 36 cf 3a a8 ac 07 3c 1e 5b 73 3a c9 ed a4 bb
       0.0015809233 0.008280911 0.0009283292 -0.005033229
0000f0 f0 71 b0 38 9b e7 19 3c d8 94 0e bc ae 47 84 bb
       8.4135565e-05 0.009393598 -0.008702479 -0.004036865
000100 e2 85 e1 bb 47 d4 84 3c 1f b1 25 bb 8b 1e e3 ba
       -0.006882415 0.016214503 -0.0025282574 -0.0017327828
000110 71 9f ed bb f0 44 00 3a f8 b4 81 3b ef 53 da 39
       -0.007251673 0.0004893085 0.0039583407 0.00041642736
000120 45 2a 80 39 b4 c7 15 3a 0c 1e 81 3b 35 96 6b b9
       0.00024445556 0.0005713657 0.0039403494 -0.00022467303
000130 b8 7e b5 bb b6 b5 1c 3c 5f 30 e5 38 27 ae 00 38
       -0.0055387877 0.009564808 0.00010928581 3.067977e-05
000140 44 b2 51 3a 11 ee b8 3a ec 60 17 bc 1d f2 16 3c
       0.0007999281 0.0014109035 -0.009239417 0.009212998
000150 ab e4 be 37 51 38 5e b9 f0 73 8a 39 d3 e6 96 3a
       2.2756247e-05 -0.0002119255 0.0002640779 0.0011512883
000160 dc 15 ab 3b 94 54 4f 39 a9 20 8d 3c a4 fd 03 3c
       0.0052211117 0.00019772566 0.017227488 0.008056078
000170 25 49 0c b9 d0 7c 19 3a 1e 63 4f 39 a9 5d 05 3c
       -0.00013378689 0.00058550853 0.00019777982 0.008140006
000180 a3 00 08 bc 75 75 a0 b7 1e b4 d1 3b 3a 30 5b bb
       -0.008300933 -1.9128182e-05 0.0063996455 -0.0033445493
000190 91 34 9b b8 c6 92 e0 38 8e 3c 1e 3a 4a 71 a2 b9
       -7.400767e-05 0.00010708491 0.0006036245 -0.00030983455
0001a0 ce e2 1d 3c 77 80 aa ba 91 64 f1 bb bc 44 ef 3a
       0.009636594 -0.0013008256 -0.007366725 0.0018254737
0001b0 7b d3 c6 ba c6 cf 0c 3a 30 39 49 39 56 a6 9a b9
       -0.0015169227 0.0005371537 0.00019190158 -0.000294971
0001c0 61 50 a2 ba d6 27 4d ba f9 96 84 3a f5 17 f6 bb
       -0.0012383574 -0.00078260654 0.0010115794 -0.00751018
0001d0 e1 9c d6 3a 19 df 1d 39 65 81 88 b9 a8 1b 0c ba
       0.0016373658 0.00015055797 -0.00026036348 -0.0005344697
0001e0 13 b5 aa 38 74 46 8c 3c 05 9a 8f 36 8f 68 24 b9
       8.1399594e-05 0.017123438 4.2796623e-06 -0.0001567921
0001f0 2f 72 34 bc 2a 34 9f 37 56 51 83 3b 02 84 fd bb
       -0.011013552 1.8978568e-05 0.0040074987 -0.007736684
