Project/results/Test3_NoWall_02/Test3/Test3-499980.onnx (onnx, 96205 bytes, 7 tensors)

network_body._body_endoder.seq_layers.0.weight f4 [128, 46]
000000 5c e1 8b be bd ce 87 3d 4e c1 e8 be 5e bc 45 be
       -0.27320373 0.06631229 -0.4545998 -0.19310138
000010 1c 18 a8 bc 6b ec df 3c 91 1f 5a be 73 85 34 bd
       -0.020519309 0.027334413 -0.21301104 -0.04407258
000020 b2 8d 60 be 21 d6 51 bc 1c 0a dc 3d b6 2c f5 bd
       -0.21929052 -0.0128074 0.10744116 -0.119714186
000030 77 7a 48 be 4e b1 0a be 6a 76 7b be 7e 86 0f be
       -0.19577967 -0.13544199 -0.2455689 -0.14016148
000040 94 27 92 be 7d 39 fc 3d 45 6e 3d be e7 60 67 be
       -0.2854582 0.123156525 -0.18499096 -0.22595559
000050 49 ba 0b be f2 0c c5 3d 6b 7d 14 bd c4 ac a5 be
       -0.13645281 0.0962161 -0.03625242 -0.32358372
000060 6e c2 1d be c2 bf d2 bd 66 97 31 be 37 45 27 be
       -0.154062 -0.10290481 -0.1734291 -0.16334997
000070 f4 f3 07 3e aa a1 23 3e ff f8 62 be 10 a8 8d 3e
       0.13276654 0.15979639 -0.22165297 0.27667284
000080 58 55 5c 3e b9 d8 6b 3c 3f 57 29 be 83 84 1c 3c
       0.21516931 0.014394932 -0.16537188 0.009553078
000090 6e 5f 55 be 84 26 6a bc 56 d1 0c bd 2a 5c ea bd
       -0.20837185 -0.014291409 -0.034379326 -0.1144336
0000a0 a1 0b 13 be 73 73 62 be 0f a8 9c be 36 aa 86 be
       -0.14359905 -0.22114353 -0.3059697 -0.26301736
0000b0 63 04 06 3e 9c fb 0f be af c6 62 bd 21 da 90 3e
       0.13087611 -0.14060825 -0.05536526 0.2829142
0000c0 32 f5 2c bd 49 d5 4e be fa 5a 3f be 04 7c 91 3d
       -0.042226024 -0.2019855 -0.18687049 0.07103732
0000d0 d1 f7 97 3d 4a 15 04 bd 10 5e 39 3e 27 7d 84 be
       0.07420314 -0.032246865 0.18102288 -0.25876734
0000e0 39 2c 28 3e 61 1e 00 3e 79 83 4b 3c c8 41 d4 bc
       0.1642312 0.12511589 0.012421482 -0.025910273
0000f0 3e 3f 60 3d f1 7d 66 bc da be 19 bd 39 5c 05 3f
       0.054747812 -0.014068113 -0.037535526 0.52093846
000100 98 f8 a1 3d 49 2c 70 3e a3 85 1b 3e 0a 6a a8 bd
       0.079087436 0.23454393 0.15187697 -0.0822335
000110 6a 2f 2f be 3f 8a 31 be b2 54 cb bd d8 33 87 be
       -0.17107931 -0.17337893 -0.09928264 -0.2640674
000120 b6 5c 0c bc 88 a1 aa 3e d9 70 bf 3d 67 a9 42 be
       -0.008567026 0.33326364 0.09347696 -0.19009934
000130 0c 7d b9 bd 11 76 2c be 3b e2 8f be 73 69 9e be
       -0.09057054 -0.16841914 -0.28102288 -0.30939826
000140 87 2c e8 3d c0 82 21 be a5 83 90 bc 23 e7 24 bc
       0.11336618 -0.15772533 -0.017640898 -0.010064873
000150 a4 2b 53 be c4 04 85 be 32 5d b8 3e b3 d6 7f 3e
       -0.20622116 -0.25980198 0.36008602 0.24984245
000160 7c 1b bb 3e 02 a4 18 bc ea 79 ca 3c 21 c7 9c 3c
       0.36544406 -0.009316446 0.024716336 0.01913792
000170 ab 1b 0a 3d 18 b6 9a 3d d3 39 56 be d9 9a 11 be
       0.033717792 0.07554263 -0.20920496 -0.14219226
000180 ed 4e 88 bd 1a 66 20 3e 23 3d 87 bb a5 4a 14 3e
       -0.06655679 0.15663949 -0.004127161 0.144816
000190 ea 7a 30 be 22 62 28 3e 6d 0f 36 3e 4a 3d 0d bd
       -0.17234388 0.16443685 0.17779322 -0.034482278
0001a0 7c e4 26 3e db 91 40 3d 5f 76 e9 3d e4 72 99 3e
       0.16298097 0.0470141 0.113995306 0.29970467
0001b0 ea 63 8b be 1e fd 83 be 67 6d ee bd 2b 6d 23 3e
       -0.27224666 -0.2577905 -0.116419606 0.15959613
0001c0 a7 7d 89 bd 8a 13 fd 3d 3a 34 61 3e c3 53 ca bd
       -0.067134194 0.123572424 0.21992579 -0.098792575
0001d0 d6 58 b7 bd 76 69 29 bd 01 82 e9 3d 6e 87 d1 bc
       -0.08952491 -0.04136034 0.114017494 -0.025577273
0001e0 e5 f2 5f 3d 2c 36 f5 3d 8c 8d b3 bd 4c 86 45 bb
       0.054675 0.11973223 -0.08767232 -0.0030139862
0001f0 fc b5 a3 3d c7 e5 bd 3e e2 a1 0d 3e bf 02 d3 bd
       0.07993695 0.3708937 0.13831285 -0.10303258
000200 ed c0 6c bc 79 c9 e7 bc 06 74 46 bd bd 2d b0 be
       -0.014450294 -0.028294312 -0.048450492 -0.34409896
000210 36 a4 9e ba ce e0 90 bd bb 71 df be 18 d8 6b bd
       -0.0012103382 -0.07074128 -0.43641457 -0.05757913
000220 46 e0 d3 3e 9f 45 2b bc 74 80 d0 3d 9e 1b 1a 3d
       0.41382045 -0.010453611 0.101807505 0.037623994
000230 da cf f4 3c 88 47 8d 3d a3 e0 38 bd ad 85 2c be
       0.029884268 0.06898409 -0.045136105 -0.16847868
000240 ba 73 b0 be a3 3e 72 3e 1a 27 77 be 24 3c 90 bc
       -0.34463292 0.23656707 -0.2413601 -0.017606802
000250 cd 82 9a bd 3c 6e cf 3d 8a 6a 06 3d e8 ee 38 3e
       -0.075444795 0.101284474 0.032816447 0.18059886
000260 a7 60 07 3e dd 8b 61 be 3b 77 f8 3d cb fc 0d be
       0.13220464 -0.2202601 0.121321164 -0.13865964
000270 99 f0 9c be f0 bd 32 bd b2 9c b3 bd c0 bd e6 3d
       -0.3065231 -0.04363817 -0.08770122 0.11266661
000280 1a d8 c7 bd 41 6c ab be e2 83 6d bd 7f 65 a2 3e
       -0.09758015 -0.3348103 -0.0579871 0.3171806
000290 27 1e a2 be a0 a1 b4 3d 34 1f 00 be 30 d0 aa 3c
       -0.3166363 0.0881989 -0.12511903 0.020851225
0002a0 08 12 8c be 3d 6a 5e be 5c af 7a bd 7e 22 62 be
       -0.27357507 -0.21720214 -0.061202392 -0.2208347
0002b0 03 1b 59 3e 9b 64 95 be d4 bc 28 bd 7c e2 86 bd
       0.2120171 -0.29178318 -0.041195706 -0.06586167
0002c0 6f f4 ef bc 22 4f 29 bd cb 87 28 bd bb 3d 36 be
       -0.02929136 -0.041335233 -0.041145127 -0.17796986
0002d0 34 6a 5a be 77 56 cd bd 1e 42 d7 3b 37 4a bd 3d
       -0.21329576 -0.100262575 0.006569161 0.09242671
0002e0 a7 64 ba 3c 27 ea 56 bd 0d 9d 8a 3d 7c 85 8a 3d
       0.022753073 -0.0524694 0.06768236 0.067637414
0002f0 a1 8d 95 bc 37 d4 cd 3e b6 8f 1e bd 14 84 c3 3d
       -0.01825601 0.4020097 -0.038711272 0.09546676
000300 27 93 2f 3b 6f 8b cd bc 97 c0 c0 bd ef 48 08 be
       0.002679059 -0.025090901 -0.094117336 -0.13309072
000310 08 70 43 3e b3 3b dd bd 86 05 52 be f0 4b b9 3c
       0.19085705 -0.10802402 -0.2050992 0.022619218
000320 a0 2f 11 3e 51 2c 64 bd 3f e6 4d bc a2 e0 44 be
       0.14178324 -0.055706326 -0.012567102 -0.19226316
000330 03 07 46 3e 11 b0 01 3e 72 71 c2 3d 6e a4 82 bd
       0.19338612 0.1266482 0.09494294 -0.06379019
000340 09 fc 6f 3e 7d 76 82 be d2 a6 0f 3e a4 15 2c 3e
       0.23435988 -0.25481024 0.1402848 0.1680513
000350 84 02 d6 bd 48 54 9e 3d ba c5 50 3e 56 76 d5 3d
       -0.104496986 0.07730919 0.20387927 0.104229614
000360 26 2a 0e be 50 dd 35 be f1 72 6b 3d 5c 12 d6 bb
       -0.13883266 -0.17760205 0.057482664 -0.0065329503
000370 67 65 07 3e 00 97 52 be e6 c1 e7 3c 61 8b 75 be
       0.13222276 -0.20565414 0.0282907 -0.2397895
000380 2b b0 43 3d e7 e8 d2 3d 8d b5 6a 3d cb 6c 29 be
       0.04777543 0.10298329 0.057302047 -0.16545407
000390 56 e2 14 bf af 9e e8 ba d0 2a a5 bd 0f cf 97 bd
       -0.5815786 -0.0017747487 -0.080648065 -0.0741254
0003a0 74 ba a8 3d 7b 5f 08 be 36 f9 9c bd b2 c8 9e bb
       0.08238688 -0.13317673 -0.07664721 -0.004845702
0003b0 0e 9c 11 be 45 95 1b 3e b2 4d 59 3e 83 83 3c be
       -0.14219686 0.1519366 0.21221045 -0.18409543
0003c0 ef b2 4f bd b2 63 a7 be fe 00 ad 3c b4 99 3e 3e
       -0.050707754 -0.3269325 0.021118637 0.1861332
0003d0 02 13 a6 bd 3c 90 b0 bd 04 e9 8c bd df e9 5e 3d
       -0.08109094 -0.086212605 -0.06880382 0.054422256
0003e0 07 20 1f be 51 51 97 3e 0d 1f c1 bd b6 da 52 bd
       -0.15539561 0.29554227 -0.094297506 -0.05147811
0003f0 f4 f6 92 be a8 5a b2 be 3a 84 91 3d cf b9 a5 3c
       -0.28704035 -0.3483479 0.07105298 0.020230202

network_body._body_endoder.seq_layers.0.bias f4 [128]
000000 a6 37 b3 bd e9 82 08 bd ed 0a de 3c f6 5d 75 bd
       -0.087508485 -0.03332797 0.02710482 -0.05990406
000010 15 3f 71 bd c4 16 b4 3a 83 96 9e 3c cb 37 1a 3c
       -0.05889805 0.0013739695 0.019358879 0.009412716
000020 9c 1f 8b 3d 1a 66 34 3b a1 56 b4 3a 4f 77 92 bd
       0.067931384 0.0027526678 0.0013758728 -0.071516626
000030 e2 be 16 3c f3 b8 c0 3c 2c a9 0e be c3 3b cd bd
       0.009200783 0.02352569 -0.13931721 -0.10021164
000040 78 a3 b3 3c 01 20 91 3b 65 84 48 bc 37 d6 81 3d
       0.021928534 0.004428864 -0.012238597 0.06339686
000050 16 b0 3d bd 2b 39 09 3d dd 55 a3 bd bf 54 20 bc
       -0.046310507 0.033501785 -0.079753615 -0.00978583
000060 be 82 8c bc 54 21 c1 bd 7d 7e 83 3c b7 7a c0 3c
       -0.017152186 -0.09430185 0.016051525 0.023496015
000070 30 95 71 3b df de 44 3d 1e d5 38 bb 04 e2 0f bd
       0.0036862604 0.04806411 -0.00282032 -0.035127655
000080 23 e8 70 bd d8 8c 0f bd 36 98 95 3d 22 c7 97 bc
       -0.058815133 -0.03504643 0.073044226 -0.018527571
000090 0a fa 69 3d 42 7c ed 3b 41 3b 49 3c eb fb 8b bd
       0.05712322 0.0072474787 0.012282194 -0.06835159
0000a0 e0 50 a4 bd fd 6f 6a bc 7f db 4a 3c 9f 2c 03 be
       -0.08023238 -0.014308927 0.0123814335 -0.1280999
0000b0 ce cf 09 3d e3 e3 73 bc 23 3e ad 3c bd 94 0a 3d
       0.033645444 -0.014885875 0.021147793 0.033833254
0000c0 5d c8 0c be a9 b2 e7 3c 3f a4 8a bb 90 f5 a4 3c
       -0.13748308 0.028283434 -0.0042310054 0.020136625
0000d0 e1 b7 ab bd 6a 53 ba bd 3a 8b 49 bd f2 03 48 3d
       -0.083846815 -0.09097941 -0.049205042 0.048831888
0000e0 33 59 85 3c 28 d9 93 bb 50 f5 81 3d ae a3 32 bd
       0.016277885 -0.004511971 0.06345618 -0.04361313
0000f0 2d d8 d9 3c bc 48 d5 bb 69 08 4e 3c c6 c0 4f bd
       0.026592338 -0.0065089148 0.012575247 -0.050720952
000100 87 0d 8a 3d dd 04 de 3c 19 1e 3d bd d9 2c af bd
       0.067408614 0.027101928 -0.04617128 -0.08553476
000110 99 14 ca bb ed b0 c0 bd 98 f6 43 3d ac d3 0b 3c
       -0.006167006 -0.09408746 0.047842592 0.008534353
000120 bb 0c 01 be 60 0c a2 bc 8b 16 ca 3c 1a 82 02 bd
       -0.12602513 -0.019781291 0.024668952 -0.031862356
000130 82 74 be 3c aa 70 c3 bc d6 05 f7 bd 52 93 42 bd
       0.023248915 -0.023857433 -0.1206166 -0.047503777
000140 1d 09 90 bd cd 83 e0 3c 8f 86 43 3d 3e 0b 15 3d
       -0.07032988 0.027406598 0.047735747 0.036387675
000150 a8 7e bf bd 17 3b 98 bd 31 b6 c3 bd b2 7c 35 3c
       -0.0935033 -0.074331455 -0.09556235 0.011077093
000160 7f d3 33 3d 11 4e a3 bd 39 f2 56 3d 08 57 91 bd
       0.04390287 -0.07973874 0.052477095 -0.07096678
000170 8c 7a d6 bd a3 4a d0 3a d3 50 cb bd 14 43 a3 3d
       -0.10472593 0.0015891384 -0.09927525 0.079717785
000180 b5 80 a3 3d e6 30 9e bd 63 29 07 bd 69 63 87 bc
       0.07983533 -0.077241704 -0.032998454 -0.016526895
000190 f7 73 0f bb e8 49 91 bd b2 58 85 bb 1b 70 b6 bd
       -0.0021889189 -0.070941746 -0.004069411 -0.08908101
0001a0 7d 06 5c 3d 30 c6 c9 bc 58 f5 13 3d 73 21 d9 ba
       0.053717125 -0.024630636 0.03612265 -0.0016565755
0001b0 79 04 7a bc e8 f4 b4 bd 53 28 a8 bd 88 a5 a8 bc
       -0.015259855 -0.08835775 -0.08210816 -0.020586744
0001c0 19 4f a7 bc bc 14 91 bc 1b da 4d 3c da 6f a3 ba
       -0.020423459 -0.017710082 0.012564207 -0.0012469247
0001d0 95 3d 33 bd dc 90 4c bd b2 46 16 bd 3e 2f da bd
       -0.0437599 -0.049942836 -0.036688514 -0.10653542
0001e0 2d 82 84 bd a5 9a 37 3d 97 6a d8 bd d8 1c e0 bc
       -0.064701416 0.044825215 -0.105672054 -0.027357504
0001f0 0d 9b 13 3c 68 cc 9c bd eb 6a c1 bb a7 c5 96 3d
       0.009009135 -0.07656175 -0.005902638 0.07361918

network_body._body_endoder.seq_layers.2.weight f4 [128, 128]
000000 f1 f1 a4 3b ba e9 cc bc eb b8 00 be c8 c7 51 be
       0.0050337245 -0.025013793 -0.1257054 -0.20486367
000010 8b 19 9f ba d0 3e 69 be fa b0 d2 3d 5a 51 38 bd
       -0.001213835 -0.22777867 0.10287662 -0.044999458
000020 b3 20 e8 3c 71 96 c5 bd 44 36 16 3e 53 72 fb bd
       0.028335905 -0.09647835 0.14669138 -0.12277665
000030 e2 cd a8 3d 6d c3 89 3d cd f2 bb bd 5c 5e 32 bd
       0.08242394 0.06726728 -0.0917717 -0.04354702
000040 b9 d6 50 be 11 52 36 3e 8e 1b 01 be a6 61 0b be
       -0.2039441 0.17804743 -0.12608168 -0.13611469
000050 fb 76 4c bb 99 d6 9d be 30 b4 1a 3d aa 22 cd 3d
       -0.0031198848 -0.30827788 0.037769496 0.10016377
000060 cf 33 51 3d a2 7c 9a bd e9 8b 77 3d b3 29 03 be
       0.0510748 -0.07543303 0.060436163 -0.12808876
000070 52 cf 23 3e ea 8b 2f be 86 24 56 be bc 1f 8c 3d
       0.15997055 -0.17143217 -0.2091237 0.0684199
000080 be ee 88 be 3a e5 e9 3b 2f 21 a0 bd 4c 75 0b 3d
       -0.26744646 0.0071379216 -0.07818829 0.03404741
000090 64 d0 13 3c 5d dc 2e 3e 23 8c 89 bc a9 2b ea 3d
       0.009021852 0.1707625 -0.016790455 0.11434109
0000a0 74 05 cb 3d 45 b4 f8 3d 81 54 52 be cc 96 c3 bc
       0.099131495 0.12143759 -0.20540048 -0.023875616
0000b0 de 9d cf 3c 58 38 15 be b9 04 93 bd df 54 54 be
       0.025343832 -0.14572275 -0.07178635 -0.20735501
0000c0 1c 3d 19 bd b5 c4 14 be 32 60 6c 3c 0e cd 23 3e
       -0.037411794 -0.14528163 0.014427232 0.15996191
0000d0 a2 a5 f0 3a 1e 18 c2 bd 44 fa 15 3e 87 de 0d bd
       0.0018359909 -0.09477256 0.1464625 -0.034636047
0000e0 36 c9 f9 bd 4f d1 f2 bd 4d fb 2f bd c2 de e1 bd
       -0.12196581 -0.11856329 -0.04296427 -0.11028816
0000f0 52 9c 23 3d d6 eb bd bd 1c d8 89 bc 62 6f 2d be
       0.039944 -0.09273498 -0.016826682 -0.1693702
000100 88 9c 36 be 9f ec 2e be cc 6c a7 bb c0 76 0e 3e
       -0.1783315 -0.17082451 -0.005109405 0.13912487
000110 07 af df bc 23 d0 99 bc 0d 67 cc 3d b6 3c 04 be
       -0.02730514 -0.018776005 0.09980593 -0.12913784
000120 6e 99 42 3e 8e 10 b4 3c da 19 0b be 5a 4e 23 bd
       0.19003841 0.02198055 -0.1358408 -0.039869644
000130 10 d4 d0 3d 24 fe 39 bd d0 e5 af bd 71 9b f8 bd
       0.10196698 -0.045408383 -0.08588755 -0.12139023
000140 67 cf 0b 3d ae 31 7b 3d f1 c4 12 3e 51 b0 50 be
       0.03413334 0.061326675 0.1433294 -0.2037976
000150 13 3a 91 bd 5c 77 aa 3d c8 10 ce bc 33 39 1e 3c
       -0.07091155 0.08323547 -0.025154486 0.009657192
000160 a3 36 df 3c fe ad dd 3d cb ce 3c be 93 67 66 be
       0.027247733 0.10824202 -0.1843826 -0.22500448
000170 fd ee 98 bc c1 4e 71 bd d1 4e c4 bd 98 75 12 be
       -0.018668646 -0.058912996 -0.095853455 -0.14302671
000180 89 d6 7c 3e 45 58 a9 3c 83 22 92 be c6 9c 26 bd
       0.24691214 0.020671973 -0.28541955 -0.040676855
000190 08 8d f6 3c 88 f3 eb bd ad fb 71 3c 2b be 1a bc
       0.030096546 -0.11521059 0.014769477 -0.009444754
0001a0 f4 68 1d bd 40 a2 4a bc af 32 36 3e 9f 39 db bd
       -0.03843017 -0.012367785 0.17792772 -0.1070435
0001b0 d3 c5 7f 3d 40 83 e8 ba a6 4a 5c bd 11 9d de bd
       0.06244452 -0.0017739311 -0.053782128 -0.10869802
0001c0 e7 ac 55 3e 34 9a 26 3e 73 5b e8 bc 6d 91 d5 bd
       0.20866738 0.16269761 -0.028363919 -0.104281284
0001d0 68 80 ac 3d 04 6d 4b 3c de 2b f2 3d 6c a4 14 be
       0.08422929 0.012416128 0.11824773 -0.14515847
0001e0 87 d4 8d bc c5 e3 32 3c 0c 43 19 be 6c 2b 46 be
       -0.017313255 0.010918562 -0.14966983 -0.19352502
0001f0 29 af b2 3d 5c 71 c5 bc eb 52 22 3e 76 31 37 be
       0.087248154 -0.024101906 0.15851943 -0.17889962
000200 59 6f af 3e 41 51 09 be 51 00 bb bd bd da eb 3d
       0.3426464 -0.13409902 -0.0913092 0.115163304
000210 8b b9 a0 bd ba d5 dc 39 5d 25 e9 bc b4 76 b9 bd
       -0.078478895 0.0004212091 -0.028460199 -0.09055844
000220 8b 6f 61 bd 83 36 3f be 02 f3 3e be 50 d3 73 bd
       -0.055038016 -0.18673138 -0.18647388 -0.059527695
000230 d4 a2 9c 3d 1e cb 34 3d a8 d4 ce 3d 00 73 36 3e
       0.076482445 0.04413902 0.10099155 0.17817307
000240 42 90 ec 3d 76 6d 59 bd c2 3d 7a 3d 77 19 44 be
       0.115509525 -0.053082906 0.061094053 -0.19150339
000250 75 4b 86 3d 9f 8c 9b be 1f f0 2f bd c4 ec 9b 3d
       0.06557361 -0.30380723 -0.042953607 0.07613519
000260 ef 8a 56 be bb 13 79 3e d5 7e 64 be 1f 6c 54 3d
       -0.20951436 0.24323933 -0.22314008 0.051860925
000270 d7 7d 4f be 7e 0b 2b 3e 83 7a 6e bd 8d ea 19 3c
       -0.20262848 0.16703603 -0.058222305 0.0093943
000280 15 f3 e3 3c 08 39 2b be e1 93 02 be 0a 30 2d 3e
       0.027825871 -0.16720974 -0.12751724 0.16912857
000290 0c 6a 06 be b5 5e 00 3e ee 66 de 3d cd 31 41 3e
       -0.13126391 0.12536128 0.10859476 0.18866654
0002a0 0c 8b 85 3e 13 5c 5c be 72 93 9d bc e8 2a 5e 3e
       0.26082647 -0.21519499 -0.019235346 0.21696055
0002b0 1c 5b c7 bc b9 75 bb bd 57 58 09 bd b6 80 65 be
       -0.024335437 -0.09153313 -0.033531513 -0.2241238
0002c0 a2 8b 74 3d 0e 40 5f be b0 a1 3e be 8c 36 7b be
       0.059703477 -0.21801779 -0.18616366 -0.24532527
0002d0 a1 9a 5d 3c 00 c1 b8 3d a9 1b f1 bd 51 6c 6f be
       0.013525636 0.09021187 -0.11772854 -0.23381163
0002e0 49 2b e1 bd 39 2c a1 3c ae 31 4d bd 84 cd 02 3e
       -0.10994584 0.019674407 -0.050096206 0.1277371
0002f0 19 cf a3 bb fd 3d 18 be d0 23 af 3c c7 06 1f bb
       -0.004999053 -0.14867397 0.021379381 -0.0024265514
000300 10 57 9b bd 2b 1f 50 be 2b 92 2a bd 4a e7 d0 bd
       -0.07584965 -0.2032439 -0.041643303 -0.10200365
000310 6b a9 02 3d 75 b3 26 3e 77 7b 0f be 56 81 41 bd
       0.03189985 0.16279395 -0.14011942 -0.047242485
000320 6b d6 80 bd dc 47 15 3d b4 db e7 3c 5c 5a a5 3d
       -0.06290897 0.036445484 0.028303005 0.08073875
000330 d7 e6 3c 3d 4f aa 82 bd 66 82 05 3e 0f 7d 18 3e
       0.046118584 -0.0638014 0.13038024 0.14891456
000340 7a 67 54 be e6 54 da bd 70 f5 e8 bd 2d 1f 54 be
       -0.20742598 -0.10660724 -0.113749385 -0.20715018
000350 6a 36 29 3e b3 ca ad 3e e3 31 a2 bd 56 33 35 bd
       0.16524664 0.3394371 -0.079196714 -0.04423841
000360 95 49 0d bd e7 10 40 3e e1 f8 88 be 23 d5 5c 3c
       -0.034494 0.18756448 -0.2675238 0.01347855
000370 89 44 93 bd 36 73 15 be 7c 57 2a 3d 0b 8e 9f bd
       -0.071908064 -0.1459473 0.041587338 -0.077907644
000380 3b 87 41 be 12 6c 4c 3e 4c f9 4e 3d 0b 6b b6 3d
       -0.18899243 0.199631 0.050530717 0.089071356
000390 d5 af df bc fc a2 b6 3e 7c 20 a0 bd 8c 7c 73 3e
       -0.027305523 0.35671222 -0.07818696 0.2377798
0003a0 04 d6 6b be 8b c0 d2 bd cb c4 2d be f7 d2 c0 bd
       -0.23030859 -0.10290631 -0.16969602 -0.09415238
0003b0 98 8f 2d be d3 b2 4e 3e 62 b7 fb 3d 5a 3f f3 bd
       -0.16949308 0.20185404 0.12290837 -0.11877318
0003c0 f5 96 3d bd 93 95 09 be cc fc 86 be bb 12 46 3d
       -0.046286542 -0.13435964 -0.26364744 0.048357707
0003d0 18 4c 80 be ad 20 82 bd c1 83 03 3e 04 67 f1 bd
       -0.25058055 -0.06353889 0.12843229 -0.11787227
0003e0 93 d4 d0 3e 7c 9f 94 be 35 5c 66 3e 7d 23 4c 3e
       0.4078718 -0.29027927 0.22496112 0.19935413
0003f0 c9 18 4d be 7e 18 b0 3e 09 44 5b bd 52 71 6d be
       -0.20028986 0.34393686 -0.05353168 -0.2318776

network_body._body_endoder.seq_layers.2.bias f4 [128]
000000 a9 13 a7 3c 06 e2 34 be 72 91 61 bd b3 51 13 be
       0.020395117 -0.17664346 -0.055070348 -0.14386635
000010 0f 42 d3 3c 5a af e8 3c 08 46 00 3d cf 0b 11 bd
       0.025788335 0.028403927 0.031316787 -0.035411652
000020 63 1c 67 3c 58 4b 89 3c a3 d1 85 bc e8 df c7 bc
       0.014105889 0.01675956 -0.016335314 -0.024398759
000030 3d f4 6b 3d e5 82 5a bd 36 70 08 3d 72 bd 10 be
       0.05760597 -0.053347487 0.033310138 -0.14134768
000040 c1 59 78 bd 20 0a 88 3d 0c e3 c5 3c 4f f3 63 be
       -0.06063247 0.06642556 0.024156116 -0.22260784
000050 44 c7 50 be f1 df 26 3a d6 b6 9f 3d 12 01 27 be
       -0.20388514 0.00063657673 0.07798545 -0.16309002
000060 78 10 b2 bd d3 3c 5d 39 47 dc 85 3d 48 1f f8 bd
       -0.086945474 0.00021098861 0.06536155 -0.121153414
000070 d8 7a fa bc 19 7d bb bd b2 9e 6b be 15 fe 1a 3d
       -0.030576155 -0.0915472 -0.23009756 0.037839968
000080 81 25 40 be 6b 5e fa 3c 95 86 13 3c a8 21 39 3c
       -0.18764307 0.0305626 0.009004255 0.011299528
000090 ad 98 a5 3c 5b 2d 19 3d a3 45 f7 bd 89 83 06 3d
       0.020214403 0.03739677 -0.12073829 0.032840285
0000a0 ff 6d 81 3d 90 77 c5 bc f6 0e 1b bc 89 25 8a 39
       0.06319808 -0.024104863 -0.009464016 0.00026349377
0000b0 fc 8b 84 3d 81 4c 87 bd 2b 4b 12 3d ab dc 62 3d
       0.064720124 -0.06606389 0.035716217 0.055386227
0000c0 88 23 48 3b f5 d5 2e bd ec 32 4d bc 63 ec ad 3d
       0.0030538756 -0.042684514 -0.012524348 0.08492353
0000d0 08 34 26 3c 77 84 1d bb bf df 79 3d d9 d7 56 be
       0.010144241 -0.0024035254 0.061004397 -0.20980777
0000e0 82 bf 5d bd ea 8c 65 bc 65 86 3e 3d 62 97 07 be
       -0.054137714 -0.014010647 0.046514887 -0.13241342
0000f0 a6 6a 15 be ed 00 17 bc c2 6e 0a bd b7 be a6 bb
       -0.14591464 -0.009216529 -0.033797033 -0.005088653
000100 2f c5 08 be 11 b3 3f 3b 95 57 0c 3d 5e ac 19 be
       -0.1335647 0.002925102 0.034263212 -0.15007159
000110 fe ca 03 bd 97 8d 44 bc ff 82 1b be a7 69 30 be
       -0.03217601 -0.011996648 -0.1518669 -0.17227803
000120 ca 2c 39 bc 5a 4c aa bc 93 b3 3c be 1e 81 de 3b
       -0.011302182 -0.02078836 -0.18427877 0.0067902943
000130 48 33 b9 3c 87 aa f2 bc d1 31 68 3d c3 6b 16 be
       0.02260746 -0.02962233 0.056688134 -0.14689545
000140 72 c6 3e bd c5 76 11 be 0f 37 50 be 95 23 19 bc
       -0.04657597 -0.14205463 -0.20333503 -0.009346862
000150 55 5e 64 bd 31 3d 89 3d 0c 19 5b 3c df 6d 50 3d
       -0.055754025 0.067011245 0.013372671 0.05088603
000160 eb 97 67 3c a7 c9 67 bd 2e 38 7f bd 34 2f 51 3d
       0.014135341 -0.056588795 -0.062309437 0.051070407
000170 32 fa bb 3c 5c 06 23 bd 8f e2 22 3c d7 2f f9 3c
       0.02294645 -0.039800987 0.009941711 0.03041832
000180 be 26 94 bd 2d c5 5a bd 92 16 44 bd cf 12 0c bd
       -0.07233952 -0.053410698 -0.047873087 -0.034197625
000190 66 b8 04 be eb 91 89 bd c7 bc 1e be d6 e5 7e 3c
       -0.12960967 -0.06717285 -0.155017 0.015557727
0001a0 75 0b 8c 3c cf ab ed bc 85 cb 76 3d d2 4b 2c bc
       0.017095307 -0.029012589 0.060252685 -0.010516124
0001b0 49 56 37 3c b0 7f 3a bd 54 38 41 bc 5a 1b 52 bc
       0.011190006 -0.04553193 -0.011793215 -0.012823904
0001c0 5a c9 5f bd e6 ea 94 3c 67 95 fc 3c 2a 1f 53 bd
       -0.054635383 0.018178415 0.03083296 -0.051543392
0001d0 00 ac 8f 3d 3f 45 1a be d2 92 09 bc 90 1b 47 be
       0.07015228 -0.15065478 -0.008396821 -0.19444108
0001e0 0d 93 2e be cb 0e 02 bd 4d 68 42 bd d3 21 41 bd
       -0.17048283 -0.03175239 -0.04746275 -0.047151398
0001f0 7e e6 2c be 1e d5 af bc b1 3b 62 3c d0 b9 ff bb
       -0.16884801 -0.021463927 0.013808177 -0.007804133

action_model._continuous_distribution.log_sigma f4 [1, 3]
000000 b9 ef 9b be 7e e0 de be 80 c6 2e bf
       -0.3045633 -0.4353065 -0.68271637

action_model._continuous_distribution.mu.weight f4 [3, 128]
000000 95 2a 24 bd 8c 94 a5 3c 66 89 88 bc 31 a5 81 bd
       -0.040079672 0.020212434 -0.01666708 -0.06330336
000010 f8 9d 92 3d c6 66 83 bd ed 53 a7 3d ca 3c 97 bc
       0.071590364 -0.06416087 0.081703044 -0.018461604
000020 7c f7 5d bd af 95 c7 3c 11 e8 a7 3b 79 b4 22 3d
       -0.054191098 0.024363367 0.0051241 0.039722893
000030 71 95 c0 3d 25 7d 93 bc 2d 04 0a ba c2 09 00 bb
       0.09403504 -0.01800401 -0.00052649045 -0.0019537066
000040 16 d4 e0 ba 59 73 24 be 07 88 cd bd b2 11 6e bc
       -0.001715305 -0.16059627 -0.10035711 -0.014530586
000050 1d 33 8b bc 1f 89 03 be 31 b0 1b 3e c6 85 60 bd
       -0.016992146 -0.12845276 0.1520393 -0.054815076
000060 5f 31 99 3c b9 02 e0 3c 21 85 ee 3d 52 98 7e bc
       0.0187003 0.027345048 0.11646486 -0.015539246
000070 74 3a ba bc 93 29 06 3d f8 9a 8b bc 8b 70 4a be
       -0.02273295 0.032754492 -0.017041668 -0.19769494
000080 e3 61 12 bd 98 97 f3 bd c4 b1 bd bd 0b b6 1c bc
       -0.035737883 -0.118941486 -0.09262422 -0.009564887
000090 14 40 2e 3c 78 cb 3f 3e 1e bf 63 3c 0a c4 fc 3d
       0.010635395 0.18729961 0.013900546 0.12342079
0000a0 77 46 12 3d a0 8b c9 3c b5 86 32 bd d6 a7 83 bd
       0.03571173 0.024602711 -0.043585498 -0.064284965
0000b0 47 47 1d 3e 6a cc cf 3c 9b 86 21 3e 5a 46 9a 3d
       0.15359221 0.025366027 0.15774004 0.0753295
0000c0 11 2c 2c bd 57 85 8d 3c 78 6e c4 3c 67 2c 25 3e
       -0.042034212 0.017275495 0.023978457 0.1613022
0000d0 37 a1 0d bc 15 22 21 3c 7d 8c 5c be 2f ff 80 bc
       -0.008644394 0.009834786 -0.21537967 -0.015746681
0000e0 38 64 b2 bd 91 9e 19 3d 40 b0 a8 bd 92 91 0b bd
       -0.087105215 0.037504736 -0.08236742 -0.034074374
0000f0 9f 85 08 bd cb f7 68 bb 37 be 9f 3b 62 ce 6e 3c
       -0.033330556 -0.0035548087 0.0048749703 0.014575573
000100 d8 a9 2f bd 71 1d 86 bc 5b 3f 07 be 60 58 01 bd
       -0.042886585 -0.01637146 -0.13207762 -0.03157842
000110 e4 be 41 bc 8e 2d 4d 3d 57 05 17 bd 45 0b 67 bd
       -0.011825297 0.050092272 -0.036870327 -0.05640723
000120 e6 e2 12 bc 69 a2 65 3c 9d 66 1a bc f5 6c ec 3d
       -0.00896523 0.014015772 -0.009423879 0.115442194
000130 a5 e7 14 3c 17 9e c2 3b df 16 91 3a a4 af 02 3b
       0.0090884315 0.005939256 0.0011069438 0.0019941116
000140 c8 53 aa bc a8 7c 13 bd 74 5a ef bc bd cd 10 bd
       -0.020791903 -0.036007553 -0.029217936 -0.035352457
000150 4e 4b ab 3b a6 9f 00 bd 76 68 a2 3d de 7e a5 3d
       0.005227483 -0.031402253 0.079300806 0.080808386
000160 90 44 92 bd 46 ac d4 3d f9 8f db 3c c8 40 c0 bd
       -0.071419835 0.10384421 0.02680205 -0.09387356
000170 6a a0 e3 3a 01 a5 01 3d b2 11 e8 3c f1 fe 36 be
       0.0017366533 0.0316515 0.02832875 -0.1787069
000180 a6 83 3f 3d cc cb fc bd 10 7d 75 3c bb b4 85 3c
       0.04675641 -0.12343559 0.0149834305 0.01632153
000190 d0 dc 09 bd bc c3 01 bd 92 53 64 bd 99 83 b1 3b
       -0.03365785 -0.031680807 -0.05574376 0.005417299
0001a0 0c 86 8d 3d 7d 9e 1e 3d e4 bc 46 3e 08 e4 8a bd
       0.06910333 0.038725365 0.19407994 -0.06781775
0001b0 df ad 8d bd 0e 88 6c 3d ea 6b da 3d 94 85 fe 3c
       -0.06917929 0.05774694 0.10665114 0.031069554
0001c0 22 bf 49 bb 57 cb d7 3d 89 43 26 bd 24 df d9 38
       -0.003078409 0.10536831 -0.04059175 0.000103889295
0001d0 21 ce 80 bd 24 b0 80 bd 70 00 a8 3d 67 06 07 bd
       -0.06289316 -0.06283596 0.082032084 -0.03296509
0001e0 d7 1b 03 bd 42 8b 20 bb ca 41 dc 3b 14 15 8c 3d
       -0.032008972 -0.0024497067 0.00672171 0.06839958
0001f0 e0 ca 0a bd 5f f7 4b 3b ff d1 be bd c3 5b 13 3d
       -0.033884883 0.0031122786 -0.09317397 0.035976183
000200 fc 65 bd bd 99 15 81 3d 89 c9 b5 bd a8 fd 5c 3d
       -0.092479676 0.063029476 -0.088763304 0.053952843
000210 69 35 84 3b 03 bd 83 bd 95 89 52 bd 1c 50 67 bd
       0.0040346873 -0.064325355 -0.05140074 -0.056472883
000220 95 28 98 bd 6d 06 16 3e b0 53 53 bd 94 c9 c5 3d
       -0.074296154 0.14650889 -0.051593482 0.096575886
000230 54 ba 02 be c8 5c cc bc 47 10 3a be ca 84 3e 3d
       -0.12766391 -0.024946585 -0.18170272 0.046513356
000240 62 b8 1c bd e3 8a d5 bd ce 9b b8 bc 46 00 d7 bd
       -0.03826178 -0.10426881 -0.022535231 -0.10498099
000250 c1 75 14 3d f7 8e fb bc 54 ef 04 3e 45 0e 08 3d
       0.03624511 -0.03070782 0.12981921 0.033216733
000260 0d 3c 12 3c ec 21 03 3e 51 14 b7 3d e9 ae 81 3c
       0.00892545 0.12805909 0.08939422 0.015830474
000270 12 6b 7e bd 1e 4f 57 3d 0d a8 11 3d b5 81 0d 3d
       -0.06211383 0.052565686 0.035560656 0.034547526
000280 0b 57 be 3c 7f a0 3b bd 1c a7 2c 3d d8 dd f4 bd
       0.023234865 -0.045807358 0.042151555 -0.11956376
000290 8f 96 bb bd bd a0 48 ba b2 ae 01 3e 99 d0 03 be
       -0.09159576 -0.00076533464 0.12664297 -0.12872542
0002a0 fa 5d 2d 3e 1a eb 19 bd 83 da 97 bd cd 87 d4 bd
       0.1693038 -0.037577726 -0.07414725 -0.103774644
0002b0 63 1f 90 3d 01 cd 12 3a b1 d8 7c bd f4 83 11 be
       0.070372365 0.0005600006 -0.06173009 -0.14210492
0002c0 a7 79 1f 3e 89 34 17 bd 60 a5 87 3d 5c fe 8a bd
       0.1557375 -0.036915336 0.0662334 -0.067867965
0002d0 99 29 cb bd ff 37 d6 3d 90 f7 73 3c 75 a7 b7 3d
       -0.099200435 0.10459899 0.0148905665 0.08967487
0002e0 03 11 21 bd 77 c0 04 bd 1e 7c c8 bd de 62 59 3d
       -0.039322864 -0.03241011 -0.097892985 0.053072803
0002f0 cc c5 07 3d 8b f1 48 bb e9 b5 c0 3d 94 46 b6 bd
       0.03314762 -0.003066155 0.094096966 -0.089001805
000300 35 b8 e9 bc 05 c5 82 bd 55 12 b9 3b 23 e7 0a 3c
       -0.02853022 -0.06385235 0.0056479373 0.008477959
000310 cc b6 73 3d 4a 9f cf 3d 28 c1 3f 3d 11 e8 3e bd
       0.0595005 0.10137804 0.046815068 -0.046608035
000320 ad 35 13 3e 0a ad 21 ba 3f 22 fd 3c 56 85 41 bd
       0.14375944 -0.00061674474 0.030900119 -0.0472463
000330 12 27 8b bd 6b 90 38 bc 47 3d 3c 3e 42 dd d9 3c
       -0.067945614 -0.011264901 0.1838275 0.026594762
000340 6c 9e bd 3c f2 87 c0 3c 17 ce 8b bd f7 f7 c6 3d
       0.02314683 0.023502324 -0.06826418 0.09715264
000350 70 1b 04 3d 58 a7 3c be be d5 b9 3d da 24 f1 bd
       0.03225273 -0.18423212 0.09073971 -0.11774607
000360 c0 c1 0e 3e 78 01 56 bb 18 53 d4 3c d3 ee ca bd
       0.13941097 -0.0032654684 0.025918528 -0.09908833
000370 87 7b f2 bd 14 36 95 3b 1b 4f c0 3d 2c 6c a7 3c
       -0.11839967 0.0045535658 0.09390088 0.020437323
000380 c7 54 8d b9 18 1b 2f 3d 89 87 71 3b 9c 27 fe bc
       -0.0002695678 0.042750448 0.0036854467 -0.031024747
000390 e6 0d 2f 3c 7b 2d b0 3c 6f ec 3d 3d a6 21 87 bd
       0.010684466 0.021506062 0.04636806 -0.06598215
0003a0 1b c1 d0 3d 71 f6 53 3c db 65 a3 3b fd bd bc bc
       0.10193082 0.012937174 0.0049865074 -0.023039812
0003b0 3d bd 19 3e 14 2e e1 3b 18 24 05 3d c9 18 97 bd
       0.15013595 0.006871948 0.032505125 -0.07377774
0003c0 1a ab 8c bc e3 06 03 3d cf a4 c1 bd e9 02 0c bd
       -0.017171431 0.03198899 -0.09455263 -0.034182463
0003d0 2f d6 31 3e 47 d1 bb 3c bb 4e b1 bc ea 44 38 3c
       0.17366861 0.02292694 -0.021643987 0.011246899
0003e0 cb 65 b4 3c 27 60 32 3b 26 81 9f ba c8 44 22 3c
       0.022021195 0.0027217956 -0.0012169227 0.009904094
0003f0 94 c1 06 3d d1 47 ce 3d e0 a7 8b 3c ff ad 92 bc
       0.032899454 0.10072292 0.017047822 -0.017905233

action_model._continuous_distribution.mu.bias f4 [3]
000000 09 9b 8f 3c e7 66 fd bb 69 d6 d2 bd
       0.017529981 -0.007733214 -0.10294802
