Project/results/hb_02/Hummingbird/Hummingbird-2499968.onnx (onnx, 649088 bytes, 10 tensors)

network_body._body_endoder.seq_layers.0.weight f4 [256, 46]
000000 26 76 89 3e c5 ce 37 bd ef b2 cd 3e c4 e3 74 3e
       0.26847953 -0.044874925 0.40175578 0.2391501
000010 0c 92 9c bd a0 92 3a be 8c 2a 2a bd f3 73 4f bd
       -0.07645044 -0.18219995 -0.041544482 -0.050647687
000020 0e 89 2a 3d 70 64 fd 3d 24 d6 57 bd 92 28 e3 3d
       0.04163461 0.123726726 -0.052694455 0.110917225
000030 0c f8 02 3e 9a 6b 24 3d 2d f5 b2 3e fe 32 1e 3c
       0.12789935 0.04014168 0.3495268 0.009655712
000040 37 20 2f 3e 20 32 19 3e 24 f2 67 bc 87 9e 2b 3d
       0.17102133 0.14960527 -0.014156852 0.04189923
000050 16 30 6a bd c7 1a ce 3c 00 ca bf 3b 36 a6 cd bd
       -0.057174765 0.025159253 0.0058529377 -0.10041468
000060 63 cd c1 3d d1 9b 9b bd 91 11 1c bd 0f 1f 4b 3e
       0.094630025 -0.07598079 -0.03810269 0.19836067
000070 c7 39 cd 3e 54 f5 00 bd 0d 30 3f 3a 48 a0 b3 3d
       0.40083143 -0.031483963 0.0007293232 0.087708056
000080 f5 13 34 3e f7 25 8d 3e df b4 89 bd 28 73 f5 3d
       0.17585738 0.27568027 -0.067239515 0.11984855
000090 92 7e 15 be 07 bf 97 be e8 2b 2a be eb cc 9b bd
       -0.14599064 -0.2963793 -0.16618311 -0.076074444
0000a0 ad 81 24 3e ee ba e7 3d ff 92 58 bd e3 81 4e bd
       0.16065092 0.11314951 -0.05287456 -0.05041684
0000b0 7a 55 7a bd 92 9a 77 3e 24 f6 83 3e 23 ba 10 3e
       -0.061116673 0.24180058 0.25773728 0.14133506
0000c0 0d 05 8d bd 14 ce 92 3d 39 69 fe bd dd c0 cc 3d
       -0.06885729 0.071682125 -0.124224134 0.09997723
0000d0 b2 b2 08 be 3e 81 0a bd ab a1 7a 3e 64 39 9c 3d
       -0.13349417 -0.03381466 0.24475734 0.07628134
0000e0 89 ec ee 3d 55 0c 63 be 40 9d c9 bb f3 50 79 3e
       0.11666209 -0.22172673 -0.006152779 0.24347286
0000f0 04 75 1d bd 35 af 6f 3c f6 e5 33 be ff e7 60 be
       -0.038441673 0.014629175 -0.17568192 -0.219635
000100 96 28 c4 bd b8 01 c0 bd 88 b0 07 3e 06 7f 4c bc
       -0.09578054 -0.09375328 0.13250935 -0.012481457
000110 94 10 a5 bd 02 6b f2 3c 2a f8 9b bc a8 90 37 3e
       -0.08059803 0.02959204 -0.019039232 0.17926276
000120 b7 e9 58 3e 00 6c 3e bd 51 73 2b 3e fc ed 89 3e
       0.21182905 -0.046489716 0.16743208 0.2693938
000130 25 b7 74 be a1 3f 27 bd dc bf 04 be 53 fa e3 bd
       -0.23897989 -0.040832166 -0.12963814 -0.1113173
000140 88 77 02 3e 7a 96 3f 3e ee 40 39 bd d0 80 43 be
       0.1274091 0.18709746 -0.045227937 -0.19092107
000150 68 8d 01 3e 2b ab 60 3e 66 74 ae be 03 64 29 3e
       0.12651598 0.21940295 -0.3407318 0.16542058
000160 5f 8a 31 3b a2 b1 65 be 6c 59 bf 39 06 ad 58 bd
       0.0027090532 -0.22431043 0.00036496983 -0.052899383
000170 e7 a5 83 3e 6b bd db bd 62 9d 95 3d d6 a9 89 3e
       0.2571251 -0.10729488 0.07305409 0.26887387
000180 3e c1 3a be 7d 3e 89 3e 2f a7 e9 bd 51 19 6e 3e
       -0.18237779 0.26805487 -0.11408841 0.23251845
000190 a7 f9 ae bc 3f 69 3f 3d 6a 25 66 bd 74 a5 11 be
       -0.021359278 0.04673123 -0.056188025 -0.14223272
0001a0 ee 04 9d 3e b7 48 12 be 13 3f 05 3e 7c f7 7f 3d
       0.30667824 -0.14285551 0.13012342 0.06249188
0001b0 bf 15 bf bd ca 16 10 3d 99 c4 b0 3e 64 d1 9a 3c
       -0.093303196 0.035177983 0.34524992 0.018898673
0001c0 38 03 98 3d b3 71 be bd 67 0b 79 3e be 4d 67 bd
       0.07422489 -0.0929903 0.24320756 -0.056470625
0001d0 88 3b dd bd 37 e8 86 3d 2d ab bd 3d df 77 9e 3e
       -0.1080237 0.0658726 0.09261165 0.3095083
0001e0 e1 27 20 bd 44 a6 51 3d e0 9a 3b bd f1 71 51 3d
       -0.03910053 0.051183954 -0.045801997 0.051134054
0001f0 c6 ad 3f be 81 61 12 be 52 73 2c 3d c3 a8 96 3b
       -0.18718633 -0.14295007 0.042102166 0.0045977547
000200 5f 98 0f be ee eb 61 3d 9a 36 3c 3d 84 52 10 3e
       -0.14022969 0.05515664 0.04595051 0.14093977
000210 bc c4 c3 3c 7c fd bc be eb 3c 07 3d 59 b6 e1 3c
       0.023897521 -0.36912143 0.03301708 0.02755277
000220 e9 03 9e 3e 2e 80 a2 3e 05 e2 ab 3d 2f 8a 09 3b
       0.30862358 0.31738418 0.08392719 0.0020986905
000230 3a 98 10 bd 04 3f 02 3e 69 83 de bd b7 e9 2a 3d
       -0.035301425 0.12719351 -0.10864908 0.041726794
000240 8e 03 76 3e ac cb a3 be b0 e1 89 be 34 18 27 3e
       0.24024794 -0.31991327 -0.26929998 0.16317827
000250 2c 84 9b bd 88 e5 5f bd ca a1 58 3e 95 2b 26 3c
       -0.07593569 -0.054662257 0.21155468 0.010142227
000260 44 f8 1f bd 06 4c 9a be db 76 35 3c b2 2e 87 be
       -0.039055124 -0.30136126 0.011075701 -0.26402813
000270 08 a8 97 3c 4f 5f 07 3e e1 ce 38 3e 3d 8a 2b bd
       0.01851274 0.13219951 0.18047668 -0.04187988
000280 5c 53 14 bd 03 b7 ab 3e 72 4d c5 bd c8 e3 27 be
       -0.03621231 0.33538064 -0.09633912 -0.16395485
000290 bb c2 32 be 5c 87 9b 3e 95 5e 87 bd 96 a8 04 3e
       -0.17457096 0.30376709 -0.06609837 0.12954935
0002a0 3a cf ee bd 42 4b df 3d 0b 46 2e be 8b 23 ae bd
       -0.11660619 0.10903026 -0.17018907 -0.08502873
0002b0 30 26 98 3d a3 28 84 bd bc 79 d7 3d e2 5c 87 3e
       0.07429159 -0.06453063 0.10521266 0.2643805
0002c0 fe 8a 60 3d 76 fc 3e 3a 41 9d e9 bd 90 ee 1a bc
       0.054820053 0.00072855444 -0.11406947 -0.009456292
0002d0 27 de 9c be 8e e4 87 be 72 0e 1d 3e 46 a2 17 3c
       -0.3063824 -0.2654156 0.15337542 0.009254998
0002e0 3b 5f 2f 3e 19 61 ba bc f1 f6 13 3e 1a c8 41 bd
       0.17126171 -0.022751378 0.1444967 -0.047309972
0002f0 ff 1f 33 be 4e 85 f0 bc ea c1 03 3c e2 3a 89 be
       -0.17492674 -0.02936044 0.008041838 -0.26802737
000300 e5 f4 88 3e 72 08 85 bd b9 09 05 be b8 e8 37 3e
       0.2674934 -0.064957514 -0.1299199 0.17959869
000310 01 12 96 bc bf 32 12 be 77 64 4f bd 8d 27 22 3d
       -0.018319132 -0.1427717 -0.05063292 0.0395885
000320 f0 c7 44 be a2 72 15 3e b2 24 b9 3c 32 53 18 3e
       -0.19216895 0.1459451 0.022600506 0.14875486
000330 03 68 d7 3d ac cd 3f bd fd 77 47 bd 38 24 b4 3e
       0.105178855 -0.046827003 -0.048698414 0.35183883
000340 a7 7e f1 3d 39 c8 78 3c d2 de 9e 3d 70 e3 ae 3d
       0.11791735 0.015184456 0.07757343 0.08539474
000350 0c ba 30 be 12 8e 12 bc c2 d8 4b 3c d1 e5 41 3e
       -0.17258471 -0.008945005 0.012441816 0.18935324
000360 d7 a7 2d bd 36 7e 1b 3e 96 d0 a1 bd 54 a4 94 3d
       -0.042396393 0.15184864 -0.07901113 0.072579056
000370 e3 9b 0a 3e f9 b3 1e 3d eb a8 19 3d d2 d6 2b be
       0.13536029 0.038745854 0.03751461 -0.16781166
000380 9f a3 c4 bd 7b ed 5e be e7 ef 70 be 47 d3 5c 3e
       -0.09601521 -0.21770279 -0.23529015 0.21564971
000390 e4 c8 97 be 85 76 71 3e 66 5d e1 bc 9d 18 bd 3b
       -0.29645455 0.23580368 -0.027510356 0.0057707564
0003a0 66 9b 1f 3d 66 d5 5b bc 8c 51 05 be 91 61 3a be
       0.03896656 -0.013417577 -0.13019389 -0.18201281
0003b0 5f 80 37 3d a6 fc 29 3d 52 7e 67 3e 6b 42 44 bd
       0.04480016 0.04150071 0.22606781 -0.047914904
0003c0 f4 b5 f5 3d 05 e1 27 3e 1a c8 1b 3e 42 04 34 be
       0.119975954 0.16394432 0.15213051 -0.17579749
0003d0 e7 25 37 3d 0e 19 42 3e 4a fd 9c 3d d3 4a 22 be
       0.04471388 0.1895487 0.076654986 -0.15848856
0003e0 20 62 04 3e d2 8e d5 3d ed f9 74 3d a2 54 d9 bd
       0.12928057 0.104276314 0.05980866 -0.106118456
0003f0 50 15 00 3d 2a 7b f4 bd 09 a3 b8 3d eb 6c 7d bc
       0.031270325 -0.11937554 0.090154715 -0.015467863

network_body._body_endoder.seq_layers.0.bias f4 [256]
000000 9a 17 b4 bb 6b fa bf 3c df 1b 31 bc 5f 4c e3 3c
       -0.0054959776 0.023434838 -0.010809868 0.027746378
000010 92 b0 87 3c 66 0a 97 3c ea 4b 4a 3a 9d e1 0f bc
       0.016563687 0.018437576 0.00077170006 -0.008781818
000020 bf 9c 10 3c fd b0 09 3c f6 cd 26 3d cc f0 42 3c
       0.008826434 0.008404014 0.040723763 0.011898231
000030 9a 63 e5 3b 42 6c 10 3b 28 8d d4 3c 64 af 47 3c
       0.007000399 0.0022037183 0.025946215 0.0121878125
000040 ff e3 2f 3d 39 1e 6c 3c ed 3b f7 3b 28 96 b1 3c
       0.042942043 0.0144115025 0.0075449855 0.021678045
000050 37 69 a3 3c aa ee 9b 3c ec 5c bf bb d6 a1 9b 3c
       0.019947631 0.019034702 -0.0058399346 0.018998068
000060 80 e0 0d 3c c0 fc 3b bc 93 41 9a 3c b6 62 70 3c
       0.008659482 -0.0114738345 0.018830096 0.014671972
000070 b3 d5 d6 b9 8e d7 31 3c 03 77 f7 3c 4a aa 66 3b
       -0.0004097648 0.010854615 0.030208116 0.0035196715
000080 19 69 cb 3c 7a 60 26 3d 30 71 0a 3d 7b 29 38 3c
       0.024830388 0.04061935 0.03379935 0.011240358
000090 a5 d2 84 3c 9f e3 2d 3d 99 a7 e6 3c 44 7a 29 bc
       0.016213724 0.042453405 0.028156089 -0.010344092
0000a0 a1 b3 a2 3c 9f 3e 4a 3c b0 42 20 3c 3a 64 44 bc
       0.019861044 0.012344032 0.009781525 -0.0119867865
0000b0 b9 41 25 3c f1 bd f1 3b 9e 61 75 3c ae 3d 4d bc
       0.01008647 0.007377379 0.014976887 -0.012526913
0000c0 34 05 fc 3b f3 3b c2 3c a0 a4 70 3c d9 f2 8e 3c
       0.00769105 0.023710227 0.014687687 0.017449783
0000d0 fb e4 68 3b 0f 6c 92 bc fa f5 62 3c 58 84 3f bc
       0.0035536874 -0.017873792 0.013852591 -0.011689268
0000e0 b3 93 46 3c b4 f5 e5 bb 59 c1 34 3c 20 f9 b8 3c
       0.012120175 -0.0070178155 0.011032426 0.02257973
0000f0 0c ad 86 bb 47 81 7a 3c 11 1c f4 ba 0a 05 ae 3c
       -0.0041099843 0.015289611 -0.0018624087 0.021242637
000100 6c 32 30 bb c9 20 69 bc f6 4d da 3b a3 12 48 3c
       -0.0026885523 -0.014229008 0.0066621257 0.012211475
000110 ec b5 3d 3c b1 90 e7 3c 01 4b b5 3c 49 57 36 3d
       0.011579018 0.028267236 0.022130491 0.044516835
000120 ec af ae 3b 1f d2 ac bb db c7 b7 3c a9 ad 87 3c
       0.00533103 -0.005274072 0.022434166 0.0165623
000130 34 1d ac 3c 73 ab 5f ba a8 54 07 3d c7 18 dc 3b
       0.021010019 -0.0008532323 0.03303972 0.006716821
000140 27 b3 56 3c ea 3b df bb 18 e0 96 bc 15 24 1e ba
       0.013104237 -0.0068125622 -0.018417403 -0.00060325983
000150 9a 2c e9 3b 78 cf d3 3c b4 ee 66 3c d6 87 83 3c
       0.0071159126 0.025855765 0.014094997 0.016055983
000160 1e 03 73 3c 04 c5 d2 3b 31 60 dd 3c bc 9d c4 3c
       0.014832286 0.0064321775 0.027023407 0.024000995
000170 a9 8a 2a 3d f9 6d 66 3c 34 82 37 3d 77 2c fd 3b
       0.041636143 0.014064305 0.044801906 0.007726248
000180 c9 95 94 3b fa 05 10 3b 1c bb 4e 3c 29 0d a2 3c
       0.0045344573 0.0021976219 0.012617853 0.019781666
000190 f8 cf 84 3c 6c ea 1a 3c 68 6b 6a 3c ba 46 c9 3b
       0.016212448 0.009455305 0.014307834 0.0061424645
0001a0 86 6c 50 39 cb ef b4 3b ff 81 03 3d d8 8f 22 3c
       0.00019876854 0.0055217496 0.032106396 0.00992199
0001b0 a3 a4 c0 3b c5 b0 8d 3b f9 64 c4 3c 49 e1 8d 3c
       0.005879001 0.004324051 0.023973929 0.017319338
0001c0 23 f8 f1 3c b2 3b 77 3c 04 fc 58 3b 59 f2 b7 bb
       0.029537266 0.015089916 0.0033109197 -0.005613607
0001d0 91 46 14 bb de a6 b6 3c 86 f7 7b bb 5f 32 f5 3c
       -0.0022625069 0.022296365 -0.0038447096 0.029931245
0001e0 39 2b 60 bb 98 6d b6 3a 0c 13 ae 3c b4 15 72 bc
       -0.003420545 0.001391816 0.021249317 -0.014775682
0001f0 1d c9 ff 3b b3 36 70 3c 42 ce 29 3c a6 ae 9c 3c
       0.007805957 0.014661479 0.010364117 0.019126248
000200 b6 a5 02 3c 71 59 d2 3c 0e 71 fa 3b 35 eb 33 3c
       0.007974079 0.025677415 0.0076428717 0.010981371
000210 c3 c5 2b 3c 44 c4 d6 3c a5 7e 61 3c 46 1f 4e 3b
       0.010484162 0.026216634 0.013763105 0.0031451746
000220 94 63 42 3c a3 88 95 bb 55 ae 33 3d 44 3a 0e bc
       0.011864562 -0.0045634075 0.043867428 -0.008680884
000230 da 5b 8b 3a ed 39 b3 3c 25 ed f2 3b 9c 38 19 3c
       0.0010632232 0.021878207 0.0074135237 0.009351876
000240 ee 28 0a bd b0 d4 8f 3c 01 fe ba 3c ad a8 80 3b
       -0.03373044 0.017557472 0.022826197 0.0039263577
000250 94 8b f2 3c 6c 3f bd 3c 2f 15 2c bb 4d f9 47 3b
       0.029607572 0.023101531 -0.0026257744 0.0030513585
000260 12 0e c6 3c c6 a1 74 3c c5 be 58 3c 35 c4 18 3d
       0.024176631 0.014931148 0.013229077 0.037296493
000270 7e dc d2 3c 4e 7a 6d 3b 27 b9 a1 3c 46 f6 84 bc
       0.025739904 0.003623623 0.019741608 -0.016230714
000280 c9 9a d6 3b 62 2a 89 bb b2 92 81 3c d8 17 93 3c
       0.0065492135 -0.0041859606 0.01581702 0.017955706
000290 e9 0b b0 3c 36 26 b4 3c 09 72 c4 3b 28 9d 1f 3c
       0.021490054 0.021990877 0.0059950394 0.009742059
0002a0 ce b6 4e 3c 86 8c e9 3c 4f cb 94 b9 d2 69 37 3c
       0.012616826 0.02850939 -0.00028380236 0.011194663
0002b0 ab ca eb 3c c0 b0 3f 3c 3b 9a e2 3c 0e 44 4c bb
       0.028783163 0.011699855 0.027661433 -0.0031168493
0002c0 9f 59 a8 3c 37 52 07 bc 20 e4 13 3d 1c 94 e0 3c
       0.020550547 -0.008259348 0.03610623 0.027414374
0002d0 a3 8d 1a 3c 8d 9c 04 3d 41 f0 b8 3c 8f a3 96 3c
       0.009433183 0.03237586 0.0225755 0.018388538
0002e0 1c 3f fd 3c 7a 7c ec 3b c9 c9 8e bb 61 b0 54 3c
       0.030913882 0.007216987 -0.0043575508 0.012981505
0002f0 31 d7 98 3c 09 94 d0 bb 3a 4e 95 3c b7 1d 39 3c
       0.018657299 -0.0063653034 0.018225778 0.0112985885
000300 8e f1 aa 3c 27 6a 9c 3c dc b5 aa 3b 12 e7 6c 3c
       0.020867135 0.019093586 0.0052096676 0.014459388
000310 ac 3e b5 3c a3 11 c4 3c ff 9c 5b 3c 28 ee 56 3c
       0.02212461 0.023934191 0.01340413 0.013118304
000320 20 fd 05 3c 5f b6 71 bb b0 6b 98 3b 0f e8 d0 bc
       0.0081780255 -0.0036882383 0.004651509 -0.02550128
000330 b6 4f 27 3c 16 d3 92 3c 17 b5 b3 ba 96 67 84 3c
       0.010211876 0.01792292 -0.0013710585 0.016162675
000340 ac f1 4f bc 51 ed 18 3b d3 8e 9b 3c c2 1d 53 3a
       -0.012691896 0.002333481 0.018989002 0.00080534455
000350 42 09 56 3c ca 4c c1 3a e2 47 23 3d 56 2c ab 3b
       0.013063731 0.0014747616 0.039863475 0.005223791
000360 32 7f 3b 3c 64 75 a0 3c 5c d0 0c 3c fd ac 44 3b
       0.0114439 0.019587226 0.008594599 0.0030010336
000370 b5 7a 82 3c 95 7c e6 3c e7 ea 74 bc b2 67 9b 3c
       0.015927652 0.028135577 -0.014948583 0.018970344
000380 e6 e0 94 3c 05 0e 0e 3d 3f 32 fb 3b 64 dc 2d bc
       0.018173646 0.03468134 0.007665902 -0.010611627
000390 99 e1 21 3d 1f da 94 3c 4c a3 91 3b 03 c3 80 3c
       0.039521787 0.018170414 0.0044445153 0.015717989
0003a0 63 39 fa 3c dd f3 a1 ba 59 3d c8 3a 36 b9 49 bd
       0.030544942 -0.0012356002 0.0015277072 -0.049248897
0003b0 47 87 a4 3c 0a 2e 87 3b 8e 70 9b 3c 8d 9e 92 ba
       0.020084037 0.0041253613 0.018974569 -0.0011186168
0003c0 74 6b 63 3c 4a 79 b7 3c 14 bc be 3c 2f 6d e2 3c
       0.013880599 0.022396702 0.023283042 0.027639953
0003d0 81 61 03 3c de 78 46 3b e0 15 b5 bb 19 4a 10 3d
       0.008018852 0.0030284445 -0.0055262893 0.035226915
0003e0 62 cc ad 3b 0c da f3 3a c1 05 64 bb 5d e8 74 3c
       0.0053039053 0.0018604412 -0.0034793469 0.014947978
0003f0 68 23 84 3b 01 40 94 3c 66 d5 76 3b b5 bd 38 bc
       0.004032541 0.018096926 0.0037663816 -0.011275698

network_body._body_endoder.seq_layers.2.weight f4 [256, 256]
000000 01 42 3d bd 94 c3 b2 bc 53 e0 4b bd 76 53 4d 3d
       -0.046205524 -0.021821775 -0.04977448 0.050128423
000010 25 5a 90 3d 9c b8 45 bd 34 77 94 bd b0 ca 04 3e
       0.07048444 -0.04827176 -0.07249299 0.12967944
000020 c2 58 02 3d 25 8e 28 bd f1 02 7f 3c 21 98 06 3e
       0.031822927 -0.041151185 0.015564666 0.1314397
000030 e5 8c b3 bc 28 3c a0 bd 6e b6 4d bd 07 f9 0c 3e
       -0.02191777 -0.07823974 -0.050222807 0.13766871
000040 f5 df 34 bd 78 4f 48 3d 19 9b ef 3c 93 c1 bf bd
       -0.044158895 0.048903912 0.029248761 -0.09363093
000050 12 83 16 bd 90 42 a7 3c 95 7b ab 3c ba 19 75 3c
       -0.036746092 0.020417482 0.020932952 0.014959747
000060 6c 16 84 3d 86 58 14 bc 31 27 4a 3c b9 f4 16 3c
       0.06449589 -0.009054309 0.0123384455 0.00921362
000070 30 7b 82 3d 24 d0 98 bd 06 bd 65 3d 69 b0 fd 3c
       0.063711524 -0.07461575 0.05608847 0.030967908
000080 8f cf 84 bd af 4c e4 3d 7f 47 8f bc ee 66 3a bd
       -0.06484901 0.11147439 -0.017490147 -0.045508318
000090 56 99 fc 3b 5d 70 bf 3d 8f b7 36 3c 5a fa a9 3d
       0.0077087088 0.093476035 0.011152162 0.08299704
0000a0 92 3e b0 3d 6c 68 91 bd 89 53 6f bd 2d 89 68 3d
       0.08605684 -0.07099995 -0.058429275 0.056771446
0000b0 66 07 38 3c b3 45 c1 3d 0a 22 50 3c 22 01 61 3d
       0.011232233 0.09437122 0.012703428 0.05493272
0000c0 7d 13 fb bc d9 64 05 be df 52 fb 3d 8b c9 21 3c
       -0.030648941 -0.13026752 0.12271666 0.009874712
0000d0 81 70 37 bd 77 c6 a9 3d 49 39 41 3c 20 a2 5a bd
       -0.044785026 0.08289807 0.011793443 -0.05337727
0000e0 ae ba f2 3b 7d e6 ee bc 38 d2 e6 3c 75 01 b4 3c
       0.007407508 -0.02916264 0.028176412 0.021973351
0000f0 2a a6 3a 3c 29 80 1d 3a e0 7f 38 bd b6 27 87 3c
       0.011392156 0.0006008172 -0.045043826 0.016498428
000100 99 24 18 39 a2 c0 5c 3d d7 5d 35 bc 85 9b f6 3b
       0.00014509483 0.053894646 -0.011069736 0.0075258636
000110 ed 2a a1 bd c3 dd e4 bd 1e b0 f2 bc 36 72 6b bd
       -0.078695156 -0.1117511 -0.029624995 -0.057481967
000120 46 d0 c8 bd d5 04 29 3d bc 48 9b 3c 32 1a 79 3d
       -0.0980535 0.041264374 0.01895558 0.060815997
000130 98 3b 29 bd 9f d0 ba bc b6 88 94 3d b7 c3 8a bd
       -0.0413166 -0.022804556 0.07252638 -0.06775611
000140 ae 88 ad bd 0c ab 96 3d e0 5e bb bc ed 77 49 3d
       -0.08473335 0.07356843 -0.022872388 0.049186636
000150 a7 54 84 3d b3 7f c5 3c d8 40 c6 bb 86 ef e0 bd
       0.06461459 0.024108743 -0.0060502104 -0.109831855
000160 5b 30 e1 3d 8f bc 29 3d d4 d7 2a 3d e5 c5 e5 3b
       0.10995551 0.04143959 0.041709736 0.0070121163
000170 ce 28 60 3e 6b a3 5d bd 23 eb 92 bd 27 dd 6c 3d
       0.21890566 -0.054110926 -0.07173755 0.057828095
000180 ea a7 c2 3d f7 73 a5 bd 7a 8b 71 3d 5b 0c b0 3d
       0.09504683 -0.08078759 0.058970906 0.085961066
000190 4d dc f9 3c 4c 72 a7 bd 16 dc 94 bd e3 4e e2 3c
       0.030500555 -0.08176097 -0.072685406 0.027625507
0001a0 35 d7 3d 3d 15 e3 12 bd d2 17 20 bd cf cc 72 be
       0.046347816 -0.035861094 -0.039085217 -0.23710941
0001b0 80 a5 3e 3c 13 8f e7 3d 90 83 04 bd 2c 49 2f bd
       0.011636138 0.11306586 -0.03235203 -0.04279439
0001c0 e4 9d 4f 3d f4 e3 ac bb 43 18 b0 bd 6c ab 6b bd
       0.050687686 -0.0052761976 -0.085983776 -0.057536528
0001d0 fc fc 2e be 7e dc c1 b8 d9 ce 84 bd 5a b6 e8 3d
       -0.17088693 -9.244027e-05 -0.064847656 0.11362906
0001e0 12 c0 7b ba 45 83 59 3d 04 e7 eb bd 6b 22 95 bc
       -0.0009603511 0.053103704 -0.11518672 -0.018204888
0001f0 cd 94 7b 3d fe fa ba 3c 5e 91 b7 3d 87 9e c5 3c
       0.061421204 0.02282476 0.089632735 0.024123443
000200 47 e8 f4 bc 14 bc 12 3d e5 63 a3 bd 13 b8 f8 3c
       -0.029895915 0.035823897 -0.07978038 0.03036121
000210 2c aa 05 3e f6 d6 40 bd 9e 12 bd bd bc 2a 14 3d
       0.13053197 -0.047080003 -0.092320666 0.036173567
000220 a7 5c 12 bd 20 2c c8 3c 97 11 3e bd 10 63 10 3d
       -0.03573289 0.024435103 -0.046403494 0.035250723
000230 66 c8 3d 3d 66 44 d1 bc 99 ea a1 bd 26 4f e7 3c
       0.046333693 -0.02554531 -0.07906074 0.028235983
000240 bf 55 25 bd 6b c9 a9 3c ea c7 68 3c 91 da c9 3d
       -0.040364977 0.020725926 0.0142078195 0.09856141
000250 59 04 94 3d 89 39 2f be 29 2a 90 3d 86 1c 9f bb
       0.07227392 -0.17111792 0.070392914 -0.004855695
000260 5b c6 c1 bc 7b 45 d9 3c 72 a1 00 3d 04 67 a6 3d
       -0.023654154 0.026522389 0.031403966 0.081251174
000270 fb 65 dc 3c d4 cf 0a bd 0d d0 8f 3c 4f 97 be bd
       0.026904097 -0.033889607 0.017555261 -0.093062036
000280 be 0b 11 3d 68 a3 6c 3d dd 12 53 bc dd 87 06 bd
       0.03541159 0.057773024 -0.012882915 -0.032844413
000290 af 82 fd bc 71 bf 11 3d 19 bc fc bb 27 d1 87 bd
       -0.030946104 0.035582963 -0.0077128527 -0.066316895
0002a0 e2 fd 37 3d a8 23 38 3d a7 af 90 3c 26 f4 0a be
       0.044919856 0.04495588 0.017661883 -0.13569698
0002b0 45 b5 03 3d fc 77 3d bd 0b 5f 27 bd 65 41 3e bd
       0.032155294 -0.046257004 -0.040862124 -0.046449084
0002c0 54 1f d5 3d 27 7a 82 3c 0f 5b e1 3c 14 bb cf 3c
       0.10406366 0.015927387 0.02750924 0.02535776
0002d0 14 d4 e1 3c d3 19 ef 3c af db b4 3d a2 9b 1a 3c
       0.027566947 0.029187119 0.08830964 0.00943652
0002e0 16 85 39 bd 04 dd ae bd 65 46 bc bd b8 c1 db bd
       -0.045292936 -0.08538249 -0.09193114 -0.10730308
0002f0 84 78 a1 bd 6a 33 ec bc db 46 90 bc e2 f8 af bc
       -0.07884315 -0.02883311 -0.017611912 -0.021480981
000300 c1 f1 4b bd eb d1 56 3c d7 98 05 be db 56 ea bd
       -0.0497911 0.013111572 -0.13046585 -0.114423476
000310 1d 15 ad bd 40 35 76 be 4f fc ae 3d d1 57 aa 3d
       -0.08451293 -0.24043751 0.08544218 0.08317531
000320 ee 3c 51 3d 07 12 e7 bc 9c 12 18 3e a2 df 03 3d
       0.051083498 -0.028206838 0.14850849 0.032195695
000330 a4 f4 46 bd dd 8a 09 bd bc f9 0f 3e c5 59 81 bd
       -0.04857315 -0.033579696 0.1406011 -0.0631595
000340 61 61 99 3b 69 61 3c bd bf 1c 9e bc 2b 69 cc 3b
       0.004680798 -0.045991335 -0.019300817 0.006238123
000350 c6 a6 d0 3c f7 b3 2a 3b b2 f1 13 3c 20 40 9f bc
       0.025470149 0.0026047209 0.009029793 -0.019439757
000360 ab cb 8b 3d fd 4a 3a 3d 37 75 dc bc 81 23 55 bd
       0.06825956 0.04548167 -0.026911361 -0.052035812
000370 a7 04 df bd 8c e1 9d bd 6a 9f 3a 3d 1c e2 45 bb
       -0.10889559 -0.07709035 0.045562185 -0.0030194586
000380 08 52 cc 3d 05 e1 d2 3c bc 48 ce bc 69 4e 4c 3c
       0.09976584 0.025742063 -0.025181167 0.012469866
000390 65 56 a6 3b 79 60 73 3d 0a 4e e7 3c 3f bd f6 bb
       0.005076217 0.059418175 0.028235454 -0.007529884
0003a0 c7 ac 5f bd b9 eb 5a bc 9c 6c 0c bd 92 aa 32 bc
       -0.054608133 -0.013361865 -0.034283265 -0.010904925
0003b0 64 76 66 3c b8 22 cf 3c 0c fa e4 bd be a5 16 3e
       0.014066312 0.02528511 -0.11180505 0.14711663
0003c0 5c 4a 62 bc 54 b3 43 3d c5 ae 99 bd 07 98 77 bd
       -0.013811674 0.047778443 -0.07504038 -0.06044772
0003d0 06 a6 fe bc d6 7c 81 3c a2 fe 4b bc a4 27 04 3b
       -0.031085026 0.015806597 -0.012450846 0.002016523
0003e0 ab 96 98 3d 04 81 56 bd 47 b7 56 3d db c1 8b 3c
       0.07450613 -0.052369133 0.05242088 0.01706021
0003f0 3f 06 ef bc bd 5c d9 bd 01 9c 62 bd 08 12 90 3d
       -0.029177783 -0.106133915 -0.05532456 0.07034689

network_body._body_endoder.seq_layers.2.bias f4 [256]
000000 2b 14 4d bc b2 85 c1 3c 79 39 aa ba 74 2a b4 3b
       -0.012517015 0.023623321 -0.0012987099 0.005498225
000010 6f 73 d2 bb e4 5a 29 3c 01 93 f8 3b 99 45 cd 3c
       -0.006422452 0.010336611 0.0075858836 0.0250576
000020 e1 c5 c7 3c fb 42 02 3c 37 b0 0c 3c b1 cf 06 3a
       0.024386348 0.00795054 0.008586935 0.0005142643
000030 84 c6 e4 3c c2 5b ae 3a 78 be 8a 3c 70 11 16 3b
       0.02792669 0.0013302492 0.016936526 0.0022898577
000040 fa 15 84 3b 96 4c 28 bb ce 41 26 3c 2e 9f 29 3c
       0.00403094 -0.0025680414 0.010147525 0.010352893
000050 a2 ec 18 3c 17 a7 bc 3b b0 c9 b3 bb 41 eb 71 3b
       0.009333761 0.0057572233 -0.0054866895 0.0036913904
000060 04 31 6c 3b be ed 2e 3c 1a 4e 0b bc 93 6f 64 3a
       0.0036039958 0.010676799 -0.008502508 0.00087141356
000070 ca 0c ec 3c 8a c1 8e 3c de bc b5 3c 0a 27 bb 3c
       0.028814692 0.017426271 0.022184785 0.022845764
000080 cc e1 76 3c 4c 62 e6 3b 6a 28 d5 3a 9a 77 94 bc
       0.015068483 0.007030761 0.0016262655 -0.018123437
000090 5b b0 9a bb 66 3d 7a 3c 5d 0b 10 bc f2 2c e1 3b
       -0.0047207302 0.015273428 -0.008791772 0.006871813
0000a0 b9 6e c9 3c c3 9c 14 3c ea 26 e2 3c 11 53 f1 b8
       0.02458893 0.009070578 0.027606446 -0.00011507248
0000b0 f8 f6 28 bc 78 25 83 3c f9 31 7d 3c 79 ed cd 3b
       -0.010312788 0.016009077 0.015453809 0.0062844125
0000c0 be b9 ea b9 25 10 90 3c 4f cf 42 3b a1 66 0d 3b
       -0.00044770347 0.017585823 0.0029725616 0.0021576064
0000d0 3f 09 b2 bb 54 bc 32 3c 31 27 53 3a 50 83 1d bb
       -0.005433231 0.010909159 0.0008054851 -0.0024034567
0000e0 07 31 53 3b 07 08 16 3a 83 e8 7b 3c dd e6 96 3c
       0.0032225267 0.0005723242 0.015375259 0.018420631
0000f0 e9 26 ff bc f9 5a 25 3c c4 32 47 3c 36 56 a1 3b
       -0.031146483 0.01009249 0.0121581 0.004923607
000100 5d 39 45 3c 48 a0 ba 3c bc 64 86 3b ed af 37 3c
       0.012037602 0.022781506 0.004101364 0.011211378
000110 d4 f6 bf 3c 65 e6 83 3a 1c ea 24 3c 9d fe a3 3c
       0.023433127 0.001006317 0.010065582 0.02001887
000120 21 bc 74 38 d8 b7 9b 3c d4 77 7a 3c fc 03 88 3a
       5.8349342e-05 0.019008562 0.015287358 0.0010377164
000130 82 18 49 3c 16 ca e1 3c 80 1a 62 bc 9f 01 16 3c
       0.0122739095 0.027562182 -0.013800263 0.00915566
000140 f7 54 49 39 29 25 81 3b af 92 a2 3b 77 c9 bc bb
       0.00019200506 0.0039411974 0.0049613337 -0.005761321
000150 58 54 d7 ba a2 63 12 3c ab ad 29 3c cd a3 c3 3c
       -0.0016428335 0.008934887 0.010356347 0.023881817
000160 64 14 ad 3c 98 91 2e ba 98 3e 1e 3c 78 b1 9c 3c
       0.021127887 -0.00066592684 0.009658478 0.019127592
000170 ad 12 cc bb 43 24 63 3c d6 04 09 bc fd 02 0f 3b
       -0.0062278123 0.013863626 -0.008362969 0.002182185
000180 f0 b7 99 3a 7a ee 64 3c 55 16 34 3c 59 03 34 3c
       0.0011727791 0.013972873 0.0109916525 0.010987126
000190 f1 4a a4 3c 97 65 46 3c 2c 49 57 3c 5d 4e bb 3c
       0.020055266 0.012109182 0.013140004 0.022864515
0001a0 2e 0d 72 3c ca f4 cc 3c be a3 ac 3b dd 16 12 bc
       0.01477365 0.025019068 0.005268543 -0.008916584
0001b0 0d 91 98 3c 8f 9c 31 3c da 6e 78 bb 7b 01 77 3b
       0.018623853 0.010840549 -0.003790787 0.0037690091
0001c0 e6 52 98 3b db 2a f1 3c 43 81 35 bc 6f 34 4a 3c
       0.004648554 0.02943938 -0.011078182 0.012341603
0001d0 5e 59 bd 3c 7c 55 54 3c 9f 4a 24 bb a5 d7 a3 3c
       0.023113903 0.012959834 -0.0025068892 0.020000288
0001e0 a6 db 84 3c 4f fa 9b 3c c6 6b 20 bc cd 8e 21 3c
       0.016218018 0.019040255 -0.00979132 0.0098607065
0001f0 d4 14 81 3b 60 98 70 3b fd a0 94 3b 57 f5 a5 3c
       0.0039392505 0.0036711916 0.004535793 0.020258589
000200 df 3f b9 3c a3 ed e0 3b 5e ef d8 3c f5 f6 88 3c
       0.022613464 0.006864266 0.026481327 0.01671932
000210 a4 1f 27 3b b8 54 c9 3b 8f 6b 75 3c 38 22 58 3c
       0.0025501037 0.0061441325 0.014979257 0.013191752
000220 c7 21 18 bc 84 5a 7d 3b 84 1e 58 3c ed 7a 2f 3c
       -0.009285397 0.0038658688 0.013190869 0.01071046
000230 3e 11 40 3c cb e8 5b bc 44 2a cb 3a 44 85 41 bb
       0.011722861 -0.013422201 0.0015500267 -0.0029528895
000240 29 68 23 bc 5a 53 30 bc 2d 96 31 3c c7 d8 f2 3b
       -0.009973564 -0.01076206 0.010839027 0.007411096
000250 4b cc 84 3c 47 59 97 3c 08 fb 62 3c 9e a8 5c 3a
       0.016210696 0.018475188 0.013853796 0.000841746
000260 2a 24 24 3c 28 7b 05 3c a5 06 36 ba bc d4 37 3c
       0.010018388 0.0081470385 -0.0006943739 0.011220153
000270 79 da 43 bc ad 2a 66 3c 90 10 4d ba 4a 75 50 3c
       -0.011953943 0.014048261 -0.00078225974 0.012723276
000280 6d 01 02 bb 24 42 24 3c 83 4a 46 3c 7c d0 ed 3b
       -0.0019837276 0.010025535 0.012102726 0.0072575193
000290 1f d2 92 3c 60 0f 59 3c 25 42 b6 bc 2b 67 2e 3c
       0.01792246 0.013248295 -0.022248337 0.010644714
0002a0 46 85 3c bc e3 a0 50 3c 58 a4 87 3c 23 85 8f 3c
       -0.011506384 0.012733671 0.016557857 0.01751954
0002b0 58 d7 56 3b c1 23 4f 3b c1 7c 43 3c 5e f3 a0 3c
       0.0032782163 0.0031607004 0.011931599 0.019647297
0002c0 90 e6 b2 bb d6 90 e1 3a 0e 2a 07 3c 86 3f 8c 3c
       -0.005459614 0.0017209302 0.008249773 0.017120134
0002d0 5d da a4 3c a6 ca 7c 3c e1 c7 29 3c 6c bf 8f 3b
       0.020123655 0.0154291745 0.010362596 0.004386833
0002e0 6d ec 06 3d 1b da be bb b2 6a 64 3c f6 3b 79 3c
       0.032940317 -0.00582434 0.013941454 0.01521205
0002f0 b8 7a b2 3a bd 30 a1 bc e5 1d ff bb 2f e2 b8 3b
       0.0013616895 -0.01967656 -0.007785546 0.0056421976
000300 b1 70 3c ba 2b 18 cd 3b 83 aa fb 3b 27 eb 1d 3c
       -0.0007188423 0.0062589846 0.0076802387 0.009638584
000310 3c 9c 30 bc 3c e9 8f 3b c6 03 ad 3c 0c cc bb 3c
       -0.010779437 0.0043918174 0.021119963 0.022924446
000320 5f 0e 63 3c 77 e6 f6 3b 0c 57 09 3b e5 b3 8a 3c
       0.013858407 0.007534798 0.0020956425 0.016931484
000330 09 cf 1f bb 6a 2d d0 3a 5a d3 17 3c 01 31 e1 3b
       -0.0024384877 0.0015882675 0.009266699 0.006872297
000340 29 10 88 3a 6f 81 1a bc 9a c3 a6 3c 0f 3a 53 3b
       0.0010380793 -0.009430273 0.020356942 0.003223065
000350 23 34 87 3c f7 a6 b3 3c 4e c7 0b 3b 75 2e 9b 3b
       0.016504353 0.021930201 0.0021328512 0.0047357627
000360 84 19 bb 3c 7c de 26 3c 20 f9 71 bb 01 1e 00 3c
       0.022839315 0.01018488 -0.0036922172 0.0078196535
000370 7e 9f 95 3b dc 21 7c 3c 57 84 20 3c 99 7b 3f bc
       0.004566132 0.015388932 0.009797177 -0.011687183
000380 21 20 a3 3b e9 42 0d 3b c2 22 01 3d f8 cc 2f 3d
       0.0049781953 0.0021554774 0.03152729 0.042920083
000390 80 e9 1f 3c da 49 18 bc 63 82 e5 3c 01 c2 09 3b
       0.009760261 -0.009294951 0.028016275 0.0021020176
0003a0 31 23 c9 bb 28 33 b1 3c 6b f6 e6 3b 85 06 fc 3b
       -0.0061382283 0.021630839 0.0070484183 0.007691207
0003b0 93 93 85 3b 3f f5 81 3b 3b 6a e0 3b 48 7b 9a 3c
       0.00407643 0.003966003 0.006848601 0.018857613
0003c0 6e 65 08 3c 1a e7 b3 3c 19 3a 19 bc dc 80 ac 3a
       0.008324964 0.021960784 -0.0093522305 0.0013160962
0003d0 54 56 8f 3c 72 bb 1a 3c f1 83 93 ba b0 6b f6 3b
       0.01749722 0.0094441045 -0.0011254532 0.0075201616
0003e0 87 05 a0 3c d8 06 92 3c 73 50 78 3b 54 74 a7 ba
       0.019533886 0.017825529 0.0037889748 -0.0012775757
0003f0 6f 78 a1 3c 97 1e 1c 3b b9 4e d6 3b 7c e8 3e 3c
       0.019710748 0.0023821944 0.006540146 0.011652108

action_model._continuous_distribution.log_sigma f4 [1, 5]
000000 40 c0 25 be f0 5d a2 bd 14 e3 1a be 8b fc 4c 3c
       -0.16186619 -0.079280734 -0.15125686 0.012511383
000010 6a 06 59 bd
       -0.052984633

action_model._continuous_distribution.mu.weight f4 [5, 64]
000000 c8 cb 48 be ca c1 13 bd 22 83 19 bd df 1a e0 bc
       -0.19608986 -0.036073484 -0.037478574 -0.027356563
000010 f5 99 b8 bc bf 0e 22 3d 5d 02 23 3d f8 c0 d0 bc
       -0.02253435 0.039564844 0.039797176 -0.02548264
000020 34 f5 a2 3e b9 d0 bd bb d5 b0 16 bd 0a 5f ea 3a
       0.318277 -0.005792704 -0.036789734 0.0017881107
000030 c8 13 11 bd 44 4b 1e bd e3 39 86 bd a8 b2 fe bd
       -0.035419255 -0.038645998 -0.0655401 -0.1243642
000040 87 01 88 be 14 e2 47 be 6e 42 f2 3b 73 60 0f bd
       -0.26563665 -0.19519836 0.007393173 -0.03500409
000050 6d 58 0d 3d 9c 3e 15 bb 35 b7 05 be b2 c6 b5 3d
       0.034508158 -0.0022772914 -0.13058169 0.08875789
000060 03 58 f8 bd 51 2e cb bd 69 5b 68 3d 0b 11 3f bd
       -0.12126162 -0.099209435 0.0567278 -0.046647113
000070 59 73 ac bb de 4d 60 bd 53 f3 10 bd e6 0a 58 3d
       -0.005262774 -0.05476176 -0.035388302 0.05274477
000080 e8 8d d1 ba 0e c1 c7 3d 49 54 cf bd c8 16 54 3c
       -0.0015987726 0.09753619 -0.10123498 0.012944885
000090 11 41 33 3d 40 d9 57 bc 59 06 ad 3d dd cb 6a 3c
       0.043763224 -0.013174355 0.08448476 0.014330831
0000a0 e0 0c 1c 3d 95 02 10 3e af 5f 92 bd c4 29 2f 3d
       0.038098216 0.14063485 -0.071471564 0.04276444
0000b0 92 7c 88 bd f7 65 46 3d 92 6b 0b 3e 86 bd d3 bb
       -0.06664385 0.048437085 0.13615254 -0.006461802
0000c0 4b 9b 9c 3c 80 50 a5 3d 98 77 66 bd 7b 00 a9 3c
       0.019117018 0.08071995 -0.056266397 0.020630112
0000d0 b4 42 33 3d 2a 2e 7a bb 59 95 5e be 3c c2 a4 bd
       0.043764785 -0.0038174489 -0.21736659 -0.0804486
0000e0 8d 1b 83 3e e1 10 c3 bc e5 81 2c 3d 1e da da 3d
       0.25606957 -0.02381176 0.042116065 0.10686134
0000f0 fe 13 d2 3d 46 72 d8 bc 00 fa ca 3d 6f 33 7d be
       0.102577195 -0.026421677 0.09910965 -0.24726652
000100 70 21 d6 3d b7 9d 82 3d 6f c6 f4 3c 6f 23 a5 bc
       0.104555964 0.06377738 0.029879777 -0.020158498
000110 c8 4f ee bd cd 53 92 3d f1 85 72 3e 40 14 52 3e
       -0.11636311 0.0714489 0.23683907 0.20515537
000120 03 0c 6b 3c 2e 96 e7 bd fd 66 5d 3d fc 2c e2 bd
       0.014346126 -0.113079414 0.054053295 -0.11043736
000130 44 7d ab 3c 2b 05 25 3e 99 c9 1a bd 8a ea 9b 3d
       0.020933755 0.16115253 -0.037789915 0.07613094
000140 86 22 4e 3e bc cb ab bd e7 47 47 bd ef 91 29 bd
       0.20130357 -0.083884686 -0.048652556 -0.04139894
000150 07 88 11 3c e9 36 a2 3d f0 36 fa bd 5e c0 b8 bd
       0.008882529 0.079206295 -0.1221751 -0.09021066
000160 d2 a7 ba bc 32 a4 4f 3c 76 66 25 3d 60 44 a2 bd
       -0.022785101 0.012673425 0.040380917 -0.07923198
000170 bd ee 99 3c e5 b0 9f bd c7 b6 9a 3d ed 1a 4c be
       0.018790597 -0.07797412 0.07554393 -0.19932146
000180 44 65 35 be 38 7d 45 bd 06 8f 65 bd b4 a4 b2 3b
       -0.17714411 -0.04821512 -0.0560446 0.005451763
000190 b9 68 20 3e 9d a7 16 bd d0 08 fe bc 3c 0c 2e bd
       0.15664949 -0.036780942 -0.031010062 -0.042492136
0001a0 d4 e6 d8 3c f4 c0 12 3e d5 4d 81 3d 66 9f bd 3d
       0.026477255 0.14331418 0.063136734 0.092589185
0001b0 ec 56 09 be bf 72 85 bc 2d 48 35 be 7e 60 26 bb
       -0.13412064 -0.016290067 -0.17703314 -0.0025387104
0001c0 b6 4d 02 3e 8a e3 6b 3d 81 c9 6a be 48 35 9e 3d
       0.12724957 0.057590045 -0.2292843 0.07725006
0001d0 02 bb 39 be d2 7b 25 3e e3 a6 09 3d 8a 20 4b bd
       -0.18137744 0.16160515 0.03360642 -0.04959158
0001e0 6d d5 19 3e 18 32 8f 3e f9 16 c8 3d 39 d1 77 3c
       0.15022822 0.27967906 0.09770007 0.015125566
0001f0 f5 aa a0 3c 11 f0 0c be 35 e6 2f bd 66 22 83 be
       0.019612769 -0.13763453 -0.042944152 -0.2561218
000200 39 2a f0 bd 62 c7 5c 3d 2a f4 6c 3d 30 8b 06 bd
       -0.11726803 0.053901084 0.05785004 -0.032847583
000210 e7 dc 21 bd 21 26 8a bd 16 6c 30 be e0 82 38 be
       -0.03951731 -0.06745554 -0.17228732 -0.18018675
000220 27 40 a0 3c 90 2b 83 bc 99 0b c7 bc de 60 2b bd
       0.01956184 -0.016011983 -0.024297522 -0.041840427
000230 cf b6 96 3d d3 a7 26 3d 7b 90 d3 3d db 6f 81 3e
       0.07359087 0.040687393 0.10330292 0.2528065
000240 ba ed c4 bb 27 fa 88 be 8f 46 96 3b f1 06 91 3d
       -0.0060097845 -0.2675335 0.004586048 0.07081402
000250 12 15 7e 3d 88 dc 42 bd 99 4d 08 3d 61 05 4e 3d
       0.062031813 -0.047573596 0.033277128 0.0502981
000260 2d 40 8b be 19 8c 5a bc d8 26 bf bd 5d a8 8e bd
       -0.271974 -0.013339066 -0.09333581 -0.069657065
000270 32 80 05 bd 0b 39 48 3d c5 6a 88 3d 80 62 99 3d
       -0.03259296 0.048882525 0.0666099 0.074894905
000280 6f 0d 9f 3d b0 fe 95 bd 7a ed 91 3d db 71 12 3c
       0.07766234 -0.073239684 0.07125373 0.008938278
000290 8f 57 ae 3c 23 00 01 bd e0 e8 47 3d d6 b6 35 3d
       0.021281986 -0.03149427 0.04880607 0.04436382
0002a0 a4 ce 56 3d 44 6d a9 bd 6d f3 88 3c 8d 40 50 3e
       0.05244316 -0.08272794 0.016717637 0.20337124
0002b0 9a 9f 5e bd 2b 28 0f 3b 86 be 66 3c 2e 83 4b 3d
       -0.054351427 0.002184401 0.01408351 0.04968565
0002c0 e4 af 0a bd 1a 22 c1 bd 6f 1e 37 3d 9d cb 5f 3d
       -0.03385915 -0.094303325 0.044706758 0.05463754
0002d0 e6 32 f8 bd fd 41 17 3e 1e 46 e9 bd 76 95 c7 3d
       -0.12119083 0.14771266 -0.11390327 0.09745304
0002e0 90 ad 92 3d 84 4f d9 3d b1 4d 5d bd 89 de db 3b
       0.07162011 0.106108695 -0.05402917 0.006709878
0002f0 06 b9 a2 bd bd 07 2c be 01 6b 71 3c 73 2a a4 3d
       -0.07945447 -0.16799827 0.014734984 0.08015909
000300 4e 94 df bc 8b c9 56 bd a5 00 b8 bd 5e 05 38 3d
       -0.027292397 -0.0524383 -0.08984498 0.044926994
000310 5a b4 69 bd 9f da 83 3d 5b 97 3c bd ed ed 07 bd
       -0.057056762 0.06438183 -0.04604278 -0.033185888
000320 8c a1 da bc 1c a7 ae bb ba 3b 76 bd 96 12 ff bb
       -0.02668836 -0.0053299796 -0.060115553 -0.007784198
000330 aa 42 a0 bc a2 92 8f bc 28 4c 98 bd 64 71 9c bc
       -0.019563038 -0.017525975 -0.07436401 -0.019097038
000340 83 a7 5d bd c6 3b 78 3d 44 40 30 3d 0b 12 0a bd
       -0.05411483 0.06060388 0.04303004 -0.033708613
000350 04 06 d2 bd 5d 61 8a bd b9 ed 12 3c 75 1d 90 3d
       -0.10255054 -0.06756852 0.00896781 0.070368685
000360 57 80 8e bb 2a d4 00 bb 19 f3 5d 3d 1d d5 48 3d
       -0.0043487954 -0.001965771 0.054186914 0.049031366
000370 82 57 72 3d f6 5d 72 bd c9 da b6 3d ce 09 4a 3d
       0.059165485 -0.05917164 0.08928449 0.049325757
000380 8b 20 d6 3d 15 d5 9a bb 0d 76 77 3d 01 1e f1 3c
       0.10455426 -0.0047251084 0.060415316 0.029433252
000390 4b ba 8d 3d f6 64 1d 3c b0 db f6 3c db e1 bf bd
       0.06920298 0.0096065905 0.030134052 -0.093692504
0003a0 60 e0 e2 3c 39 37 96 bb e0 31 b3 bd 25 d2 1a 3c
       0.027694881 -0.00458422 -0.08749747 0.009449516
0003b0 35 18 d7 bd a1 50 bf 3d 0e 96 32 3c da e9 81 bd
       -0.10502664 0.093415506 0.010900034 -0.06343432
0003c0 ff 7f 0c 3d 36 ae 15 bd e4 34 06 bd 8d 83 af 3c
       0.034301754 -0.036543094 -0.032765284 0.021425033
0003d0 04 2a b0 3d 25 d5 3e 3b 04 5f 5c bc c0 ca 03 3d
       0.08601764 0.0029118743 -0.013450388 0.03217578
0003e0 6e aa 8d 3c cf 67 99 bd ef 40 87 bd 1e 43 94 bc
       0.017293181 -0.07490503 -0.06604182 -0.01809841
0003f0 fc 45 79 3c 7e 99 ec 3b a1 ec fd 3d c5 00 ef 3c
       0.0152144395 0.007220446 0.12398649 0.029175172

action_model._continuous_distribution.mu.bias f4 [5]
000000 09 60 34 3b dc cc b5 bc c5 0b a0 bc 24 1a 54 3d
       0.0027523062 -0.022192411 -0.019536862 0.051782742
000010 55 e9 73 3a
       0.00093044835

onnx::LSTM_100 f4 [1, 256, 256]
000000 1c 3d 15 be e5 69 31 3e 4b bc 12 3e 71 3d 1b bd
       -0.14574093 0.17325552 0.1432964 -0.037900392
000010 45 1f 2f 3d 9e d5 a4 bd e3 10 f2 3c 29 ef da ba
       0.04275443 -0.08048557 0.029549068 -0.0016703355
000020 db 19 3e 3d 7d 85 fa ba 25 5d 0d 3e 16 96 4d bb
       0.046411376 -0.0019113269 0.13805063 -0.0031369976
000030 ae 49 c3 bc 34 c7 3d bd ce 68 7a bd 2f 17 d0 3d
       -0.023838844 -0.046332553 -0.061135106 0.10160672
000040 33 7f 37 3e b5 01 bc bc 91 c7 8b bd 85 d4 19 bd
       0.17919616 -0.022950033 -0.06825174 -0.03755619
000050 31 0b 24 3d c8 a5 24 bd fd ab 0e bc 1f b1 34 3e
       0.040049735 -0.040197164 -0.008707997 0.17645691
000060 16 56 86 bc fc 1f b3 3d 26 63 93 bc de 50 bd bc
       -0.01639847 0.08746335 -0.017991614 -0.02310985
000070 df ab 37 3e ef 8d 14 3c 40 d8 73 bd f3 94 1c 3d
       0.17936657 0.009067043 -0.059532404 0.038227987
000080 57 4a 27 3d 16 94 d4 bd f0 f5 10 be 0e 45 0f be
       0.04084238 -0.10379808 -0.14156318 -0.13991186
000090 7e 75 be 3d a6 66 35 bd a5 b7 46 bd 62 96 b4 3d
       0.092997536 -0.044287346 -0.04851498 0.08817746
0000a0 97 81 73 3d 46 48 86 3d e8 3e 00 3e a9 f7 04 3e
       0.05944976 0.06556754 0.12523997 0.129851
0000b0 02 0a 35 3d f0 d2 96 bc ce f7 49 3d 20 ed aa 3c
       0.044198997 -0.01841113 0.04930859 0.020865023
0000c0 a7 62 0b be 2e 90 b4 bd 9f 3c 1b bd 60 8e 32 bd
       -0.13611852 -0.088165626 -0.03789961 -0.04359281
0000d0 6b 90 8a 3d 46 4f cb 3d 26 8b 86 bd b6 5c d0 3d
       0.06765827 0.099272296 -0.06569509 0.10173933
0000e0 84 d7 93 3d 67 c5 ef bc be b8 67 3d b8 a4 52 3d
       0.07218841 -0.029268933 0.05657267 0.05142662
0000f0 5c d8 7d 3c df 09 57 3d 52 c3 f2 3d 3f 42 98 3d
       0.015493479 0.05249965 0.11853661 0.074345104
000100 e2 dc ed 3c 8e b7 3d 3e 27 74 04 3d dd 27 8d bd
       0.02903599 0.18527052 0.032337334 -0.06892369
000110 ac a4 26 3e 5f a2 a8 3c 26 40 fa 3d 8e da ad bd
       0.16273755 0.020585237 0.122192666 -0.084889516
000120 eb 75 5e 3d 3d 30 3f 3e 25 5b 9d 3d f9 e9 a3 bb
       0.054311674 0.18670745 0.076834 -0.005002257
000130 6d 35 0a 3c b2 3f 7c bd 9b 1e 23 bd ba 64 30 bd
       0.008435589 -0.061584182 -0.03982411 -0.04306481
000140 6a c1 9a 3d 63 a7 ae 3d 62 06 d9 3c f5 41 38 bd
       0.07556422 0.0852802 0.026492301 -0.044984777
000150 17 26 8e 3c 62 3f 24 3d 60 6a 1f bd 4e d3 1b bd
       0.017352147 0.04009951 -0.038919806 -0.038043313
000160 30 df 6a 3d d4 6a 2d 3d 3a 32 30 3e ab 63 85 3d
       0.057341754 0.042338207 0.1720666 0.06513151
000170 3a 87 1d be 86 73 23 3e 75 75 da bb 8c 8c ec bd
       -0.15383616 0.15962037 -0.006666834 -0.11550245
000180 04 23 cb 3d 3d d9 22 bb c5 8e fd bd d2 cc a2 bb
       0.09918788 -0.0024848722 -0.12380747 -0.004968264
000190 0d 53 4c bd e7 01 54 3e 3f 11 fa 3d 73 db 6d bd
       -0.04988389 0.2070385 0.12210321 -0.05807061
0001a0 73 a4 1a 3e 34 01 ca 3d 23 e3 68 bc b6 b6 1c 3e
       0.15101795 0.09863511 -0.01421431 0.15304074
0001b0 5f 7d db 3d 7b df 47 3b 78 84 0d be fd ba 0d bd
       0.10717272 0.0030498195 -0.13820064 -0.034602154
0001c0 d9 57 81 3d 3d 51 91 3d be 7a 56 bb c5 97 d3 bd
       0.06315584 0.07095573 -0.0032726969 -0.10331682
0001d0 92 0d 0e bd 08 81 b5 bc c0 63 61 3d 1c 46 1f 3e
       -0.03468091 -0.022156253 0.05502677 0.15554088
0001e0 1f 48 a3 bd 91 96 07 3e 2d 61 22 bd 6b 62 96 bd
       -0.079727404 0.1324103 -0.039643455 -0.073429905
0001f0 ca 40 88 bc 80 7d 90 bd 33 57 5a 3d ab 74 a5 3d
       -0.016632456 -0.07055187 0.053305816 0.08078893
000200 3c 4a 20 3e c5 28 94 bd 99 a2 5e 3d 45 4b 90 bd
       0.15653318 -0.07234339 0.054354284 -0.070456065
000210 fb 05 39 3d 8a 5f 00 bd 19 7e ec 3d 29 7e da bd
       0.04517172 -0.031341113 0.11547489 -0.106685944
000220 f1 8c 28 3c 54 70 0c 3d 6e 8f f5 3d 3c c8 60 3c
       0.010287509 0.034286812 0.11990248 0.013719615
000230 f1 aa 2c 3e 2d 7f 2b be 47 b3 13 3e 35 31 3c 3e
       0.16862084 -0.16747732 0.14423858 0.18378146
000240 1d ca 0e bd d5 2a e2 3d c9 27 0b 3e a3 e9 ea 3d
       -0.03486072 0.11043326 0.13589396 0.11470344
000250 79 c3 a4 3d 5d 98 3a 3e 11 37 2c 3e be ae 92 bd
       0.08045096 0.18222184 0.16817881 -0.07162236
000260 d2 5b 04 bd 0c fc 68 ba 3d cd d4 3c b6 98 94 3d
       -0.03231413 -0.00088876556 0.025976771 0.0725569
000270 78 61 30 bd 4c bd 62 bd 20 b9 1d bd c3 5d 8b bd
       -0.043061703 -0.05535631 -0.038506627 -0.06804993
000280 b5 a5 19 3d fb 03 08 bd 2c bc 9c 3d a9 e7 11 3e
       0.037511546 -0.03320692 0.076530784 0.14248528
000290 7a 09 7d 3c 7d 8f 2e 3e e5 85 de bc d2 d0 44 3e
       0.015444154 0.17046924 -0.027163455 0.19220284
0002a0 bd f0 6c 3c 61 29 a7 3c de 86 c2 3b 8f 20 86 bc
       0.014461693 0.020405473 0.0059364876 -0.016372947
0002b0 19 51 0b 3e af b0 c7 3c 91 c4 d9 3d 4d 7c 73 3d
       0.13605155 0.024376241 0.10633195 0.059444714
0002c0 77 de fa bd 21 7b 26 3c e6 79 91 bd 4d 90 98 3d
       -0.12249463 0.010161192 -0.071033284 0.07449398
0002d0 a8 27 3e 3d fa d0 0b 3d ed ab 6a bd 87 8c 1e 3e
       0.046424538 0.034134842 -0.057292867 0.15483294
0002e0 c7 e3 0e 3e ca 8f 58 bd 49 2e c2 bd 22 ab 22 3e
       0.13954078 -0.052871503 -0.094814844 0.15885594
0002f0 3b 2d c5 bc 1d d2 3c be 25 f9 a6 bd ca a9 12 3c
       -0.02406942 -0.18439527 -0.08152989 0.008951614
000300 db 7c 49 bc 7f 69 ad bc 2c b2 02 3e cc c5 37 3e
       -0.012297834 -0.021168469 0.1276328 0.17946547
000310 21 4f 3c 3c 91 cf ee 3c 6e 6f ee 3c 68 f9 c4 bc
       0.011493475 0.02915171 0.029105868 -0.024044707
000320 7b 90 09 3e 7d 89 e9 3d fb ab 8b 3c 72 97 29 bc
       0.13434021 0.11403177 0.01704978 -0.010351049
000330 04 a6 37 3d 5a 20 7d 3d d7 1e 16 bd 15 ef 06 3d
       0.04483606 0.06179843 -0.036650505 0.03294285
000340 c9 e2 96 3d c4 fe f8 bd 4f 45 43 3e 24 25 d9 bd
       0.073674746 -0.12157968 0.19069408 -0.10602787
000350 87 83 71 bd bc 12 23 3e a0 35 40 bd b0 5f 27 3e
       -0.058963325 0.15925115 -0.04692614 0.16345096
000360 d1 77 9e bd 39 78 d6 3d 72 a8 10 3e 61 b6 da 3d
       -0.07737697 0.104721494 0.14126757 0.10679317
000370 03 2b 32 3c 2f 90 cd 3d 5e 83 b3 3b f3 f7 0e 3e
       0.010874513 0.100372665 0.0054783067 0.13961773
000380 23 fd b8 3d 60 78 f8 bd dd 92 85 bc 1a 89 25 3e
       0.09032657 -0.12132335 -0.016305381 0.16165581
000390 da 53 0d 3d df 6e 0c 3e 49 7c df 3d 69 60 b3 3d
       0.034503795 0.13714169 0.109123774 0.08758623
0003a0 47 e3 96 bc ea 7a c9 bc e3 dd 51 bd c9 a0 b3 3d
       -0.018418921 -0.024594743 -0.051237 0.08770902
0003b0 1d 6a c8 3d 0f fb 9a bd 55 57 b6 bd 23 7e 98 3c
       0.097858645 -0.07567417 -0.08903376 0.018614834
0003c0 1e be 49 3e 80 67 64 3e 5c 32 9f bd b3 05 b5 3d
       0.1970143 0.22305107 -0.07773277 0.08838978
0003d0 c9 a4 5b bd 6f e9 03 3d 53 5d 7d 3d 83 ca 7e 3c
       -0.05362395 0.03220504 0.06185658 0.015551212
0003e0 37 c5 ce 3d 14 1d b9 3d 49 5f e3 3c 98 43 9e 3d
       0.100962095 0.09038749 0.027755396 0.07727736
0003f0 76 ab 55 3d 48 d1 ef 3c 7e 5f 16 bd 16 12 9d 3d
       0.05216547 0.029274598 -0.036712162 0.07669465

onnx::LSTM_101 f4 [1, 256, 64]
000000 75 0b 89 3d b9 1a 85 3d e6 e1 81 3d 84 00 b5 bd
       0.066916384 0.064992376 0.06341915 -0.08837989
000010 b8 f7 0c bd 10 56 b6 bd 76 c6 0b bd c8 8a 9e bb
       -0.03441593 -0.08903134 -0.034124814 -0.0048383214
000020 31 ae 44 3e a4 20 71 bb f4 ba dc 3d 58 f8 f9 3d
       0.19207074 -0.0036793137 0.10777846 0.12205571
000030 16 b1 81 be 30 51 ef 3d 76 1b 9b bd 10 7b cb bb
       -0.25330418 0.11685407 -0.07573597 -0.0062097386
000040 82 25 36 be 5b 8a a7 bb 03 f8 ea 3d bd d6 4d 3e
       -0.17787746 -0.005112929 0.11473086 0.20101447
000050 39 db c3 3d bd e9 7b 3e 8f de 3f 3d c9 4b 7e 3e
       0.09563298 0.24600883 0.046843108 0.24833597
000060 82 1d 8a 3c 35 a8 79 bd 86 74 27 be e3 e6 1e 3d
       0.016859774 -0.06095143 -0.16353044 0.03879441
000070 13 89 cd 3d 6f 97 e3 3c 16 f8 3d 3d 87 cf d8 bc
       0.100359105 0.02778217 0.04637917 -0.026466144
000080 a5 dd 9d 3d bb cc 40 3d 7d b0 00 3e f8 14 1b 3e
       0.07708291 0.047070246 0.12567325 0.15144718
000090 b7 d1 b7 bd f0 6a f0 3d da 48 43 3e 93 91 1f 3e
       -0.08975547 0.11739147 0.1907076 0.15582876
0000a0 4b 4d f9 bc 29 f0 d4 bd d6 61 bc 3d 9e a4 be 3d
       -0.030432364 -0.103973694 0.09198348 0.09308742
0000b0 9c 69 77 3e b6 f4 36 bd fc f8 cb bd 94 a0 e0 bc
       0.2416138 -0.04466697 -0.099595994 -0.02742032
0000c0 45 4b e6 3d 14 03 67 bd f8 fc 09 be 17 a8 1d 3d
       0.11244825 -0.05639942 -0.13475406 0.03849038
0000d0 f9 78 da 3d 94 f9 13 3e 7f c9 9b bd 7a 73 20 be
       0.10667605 0.14450675 -0.07606792 -0.15669051
0000e0 ab fe 81 3d 61 14 6a bd c1 df 03 3e 23 4d 2a 3e
       0.06347402 -0.05714834 0.12878324 0.16630988
0000f0 e4 15 64 3e eb 13 4b 3e 40 c2 b9 bc 0d 1c e2 bd
       0.22273976 0.19831817 -0.022675633 -0.110405065
000100 59 60 4c be 31 f0 0b bd 90 fb 68 3e 87 66 4e be
       -0.19958629 -0.03416461 0.22752213 -0.20156299
000110 ef 37 dd bd 48 b1 64 3d cf ee 57 be b1 27 a4 3d
       -0.10801684 0.05583313 -0.21087192 0.08015383
000120 55 44 b7 bb a7 eb 00 be 8b 21 0f be 2c c8 bf 3d
       -0.0055928626 -0.12589894 -0.1397764 0.09364352
000130 dc 1d c1 bd 7e 2a 2e 3e f8 af 44 3d 6e fa 22 be
       -0.09429523 0.17008397 0.04801938 -0.15915844
000140 6c 52 58 3e a7 3f 9a 3c 62 ac 51 bc 07 2b 74 3e
       0.21125191 0.01882918 -0.012797447 0.23844539
000150 41 b0 e9 bd 05 e8 2a be 12 a2 00 3e a7 ed f8 3d
       -0.11410571 -0.16690071 0.12561825 0.121547036
000160 ae c0 73 bd 2e bb f5 bd 7a 51 59 3e 82 7d 38 3e
       -0.059509926 -0.11998592 0.21222487 0.18016627
000170 0e f8 77 3d 5d aa 2d 3e de d9 04 3e 17 8a ae bc
       0.060539298 0.1695952 0.12973735 -0.02130608
000180 c3 cd 85 bd 34 c9 0c 3b 7e 07 04 3e 63 0a c6 3c
       -0.065333866 0.002148223 0.12893483 0.024174875
000190 24 dc 50 3e ad 0b 85 bd 86 a1 05 3d c1 9c 07 3d
       0.20396477 -0.064963676 0.032624744 0.033108477
0001a0 32 6c 6e 3c 22 e6 cf 3d 81 6b 56 3e 2e 1c 85 3d
       0.014552163 0.10151316 0.20939447 0.064995155
0001b0 38 e2 00 be 24 ca 3f bd 82 73 84 3c e0 6c 02 3d
       -0.12586296 -0.046823636 0.01616836 0.031842113
0001c0 78 f9 4e 3d 80 68 29 3e cc 40 e4 bd 5c d8 28 bd
       0.05053088 0.1654377 -0.111451715 -0.04122196
0001d0 88 75 0b 3e 47 4c e1 3d 2d 4f 5a 3e 94 bb 0d 3e
       0.13619053 0.11000877 0.21319266 0.13841087
0001e0 70 87 56 3c e3 89 a7 3d 60 94 5c be 16 8c 92 3d
       0.013093814 0.08180597 -0.21540976 0.071556255
0001f0 98 a0 b9 3d 37 4b fe 3d bb 93 2d be 68 a7 15 3e
       0.09063834 0.1241669 -0.16950886 0.14614642
000200 e6 c4 0a 3e 6a 13 b8 3d ab 09 cb bd cf 54 a3 3c
       0.13551673 0.08988078 -0.099139534 0.0199379
000210 28 a4 08 3e f0 d4 42 be 28 23 f8 3d 0e 41 51 3e
       0.1334387 -0.19026542 0.121160805 0.20434973
000220 88 42 0a bd 22 3a 9b 3c a6 53 a8 3d b4 c2 a8 3d
       -0.033754855 0.018948618 0.0821908 0.08240262
000230 6a 4a 57 3e 5d 11 e3 bd a5 bd ac bd ff 34 2a bd
       0.2102448 -0.11087296 -0.08434609 -0.041554447
000240 4f ed 42 3e db 7e 06 be 0e 9d 16 3e 50 bd 33 be
       0.19035839 -0.13134329 0.14708349 -0.17552686
000250 34 b9 2a be 13 be d9 3c c0 be d9 bd 3c c3 21 3e
       -0.16672212 0.026579892 -0.10632086 0.15797132
000260 0e 48 3f be cd 61 a9 3d 1e 19 a4 3d e2 f3 84 3b
       -0.1867983 0.08270607 0.08012603 0.0040573934
000270 b2 d7 d5 3d b9 1f cc bd d6 17 ca 3d 98 0d 31 bd
       0.10441531 -0.09966988 0.098678276 -0.043225855
000280 de c8 f6 3c 27 4a fa bb 1e 28 56 be b8 4a 58 3e
       0.030125078 -0.007638234 -0.20913741 0.21122253
000290 e9 2b 4e be dd f5 83 bd 43 10 64 3e 49 da 43 3e
       -0.20133938 -0.06443379 0.22271828 0.19126238
0002a0 f7 4d 3c 3e 38 be c9 bd 5a 7d e5 3d 96 7f 9b 3d
       0.18389116 -0.098507345 0.112055495 0.075926945
0002b0 d4 14 47 be 81 78 46 3e ea 93 d9 3d 46 28 b6 bd
       -0.19441539 0.19381906 0.106239155 -0.088944
0002c0 cb f5 15 be 0e d0 d1 bd 43 5b 03 be 4d a7 c9 bd
       -0.14644544 -0.102447614 -0.12827782 -0.09846363
0002d0 e2 22 27 be af f9 29 3e a3 ff e8 3d 45 a3 2a be
       -0.163219 0.16599153 0.11376884 -0.16663845
0002e0 bb 10 39 be 68 b8 13 be 67 a0 38 bd 89 4f 4c be
       -0.18072788 -0.14425814 -0.045074847 -0.19952215
0002f0 5e 8e 0d bd 75 28 0c 3d 44 2e c6 bd aa 20 34 3e
       -0.0345596 0.03421827 -0.09676793 0.17590585
000300 a3 78 53 be 03 7c df 3c a6 c7 4f 3e 51 03 78 bb
       -0.20651488 0.027280813 0.20291004 -0.0037843774
000310 88 5f 25 3e 7f 54 80 3c 32 0e 6a be 82 9e 92 be
       0.16149724 0.01566529 -0.22856978 -0.28636557
000320 66 30 a9 bd 32 e8 40 be 25 43 16 3e 57 c5 39 3e
       -0.082611844 -0.18838575 0.14674051 0.18141685
000330 44 2a e4 bd 35 1b 0c 3e 19 3b 35 be fe 96 2a be
       -0.11140874 0.13682254 -0.17698325 -0.16659161
000340 ac eb fa 3c 6c 23 50 be 54 31 50 be 89 6d 44 3e
       0.030629955 -0.20326012 -0.20331317 0.1918241
000350 a5 d9 ca bc d8 28 64 bd f8 de 9f 3d 87 2a aa bd
       -0.024761984 -0.055703014 0.078062 -0.08308893
000360 7d 9f 23 3d b9 9a 8e be 7d a7 a2 3d ba 42 b3 bd
       0.03994702 -0.2785242 0.07942102 -0.087529615
000370 b3 11 5b be 1f 9e 08 3e 7b c1 59 bd e4 01 24 be
       -0.2139347 0.13341568 -0.053163033 -0.16016346
000380 69 41 05 3d 50 06 22 bc 8f 6b e8 3d 36 52 35 3e
       0.032533083 -0.0098892 0.1134864 0.17707142
000390 8e a7 c5 3d 10 5e a0 3d 0c ac 41 bd db 83 cf bc
       0.09651099 0.07830441 -0.047283217 -0.025331428
0003a0 2a 73 4a be 5a 4a 21 bd 14 a4 1c 3e b7 12 3d 3e
       -0.19770494 -0.039377548 0.15296966 0.1846417
0003b0 22 9a 05 3e 75 7a b8 bd 62 fe 63 3e 71 ed f5 bd
       0.13047078 -0.09007732 0.22265008 -0.12008179
0003c0 81 7d 4d bd 37 04 44 be 02 70 d4 3d 4c 3c d7 bd
       -0.050168518 -0.19142233 0.10372926 -0.105095476
0003d0 e2 ac 78 3e 0b 1a 9a 3d 72 9c 8a be 66 fb b2 3b
       0.242847 0.075244986 -0.27072483 0.005462098
0003e0 8a 80 1e bd 85 0a 84 bd 1e 47 ef 3d 32 15 b5 bd
       -0.038696803 -0.06447319 0.116834864 -0.08841933
0003f0 c0 7c 1e be 52 78 3a be c1 16 1d 3d 5a 07 18 be
       -0.15477276 -0.18209961 0.038351778 -0.14846554
