Project/results/hb_02/Hummingbird/Hummingbird-1999896.onnx (onnx, 649088 bytes, 10 tensors)

network_body._body_endoder.seq_layers.0.weight f4 [256, 46]
0	0x3e89d819	0.26922682
1	0xbd4106f1	-0.04712576
2	0x3ecdb2ef	0.40175578
3	0x3e7e7ca0	0.24852228
4	0xbd9b979c	-0.075972766
5	0xbe3aa1de	-0.1822581
6	0xbd2a2a8c	-0.041544482
7	0xbd444582	-0.04791785
8	0x3d300b5f	0.042979594
9	0x3e00b554	0.12569171
10	0xbd57d624	-0.052694455
11	0x3df003e0	0.11719489
12	0x3e033fa9	0.12817253
13	0x3d274bd0	0.040843785
14	0x3eb2f52d	0.3495268
15	0x3c7e5f86	0.015525704
16	0x3e2fcf26	0.17168865
17	0x3e16b546	0.14717588
18	0xbc67f224	-0.014156852
19	0x3d4c0626	0.04981055
20	0xbd69c395	-0.057071287
21	0x3cc425e2	0.023943845
22	0x3bbfca00	0.0058529377
23	0xbdbafd11	-0.091303
24	0x3dc21203	0.09476092
25	0xbd934fcb	-0.07192954
26	0xbd1c1191	-0.03810269
27	0x3e52502d	0.20538397
28	0x3ecda845	0.40167442
29	0xbd2acc43	-0.041698705
30	0x3a3f300d	0.0007293232
31	0x3dc30481	0.095223434
32	0x3e325cbe	0.17418191
33	0x3e8da74f	0.2766671
34	0xbd89b4df	-0.067239515
35	0x3df43b19	0.119253345
36	0xbe15019b	-0.14551394
37	0xbe9605ff	-0.2930145
38	0xbe2dadbe	-0.16960809
39	0xbd996e7e	-0.07491778
40	0x3e1f22bb	0.15540592
41	0x3deae537	0.114695005
42	0xbd56c422	-0.05243314
43	0xbd3a8c25	-0.04554381
44	0xbd800071	-0.06250084
45	0x3e7e2c49	0.24821581
46	0x3e82b6bd	0.25530043
47	0x3e14d5b7	0.1453465
48	0xbd8d050d	-0.06885729
49	0x3d9c0448	0.07618004
50	0xbe02c515	-0.12770493
51	0x3dccbef5	0.0999736
52	0xbe08b2b2	-0.13349417
53	0xbd02c0dd	-0.03192221
54	0x3e7b4c7a	0.24540892
55	0x3d9c38f7	0.07628053
56	0x3deeec89	0.11666209
57	0xbe5627b2	-0.2091358
58	0xbc1ec22a	-0.009689847
59	0x3e740f99	0.23834075
60	0xbd1d7504	-0.038441673
61	0x3c431da5	0.011908923
62	0xbe34de35	-0.1766289
63	0xbe5ba86b	-0.21450965
64	0xbdc42896	-0.09578054
65	0xbdb37b5b	-0.087637626
66	0x3e08059d	0.13283391
67	0xbc8cc4d9	-0.017183708
68	0xbda51094	-0.08059803
69	0x3d081aa9	0.03322855
70	0xbca4f72f	-0.020137398
71	0x3e32f5a6	0.1747652
72	0x3e58e9b7	0.21182905
73	0xbd3573f6	-0.044300042
74	0x3e2af1d5	0.16693814
75	0x3e87bfdd	0.26513568
76	0xbe74b725	-0.23897989
77	0xbd06135f	-0.032733317
78	0xbe02dc07	-0.12779246
79	0xbde8c7e7	-0.11366253
80	0x3e027788	0.1274091
81	0x3e3fac1a	0.18717995
82	0xbd40a585	-0.04703285
83	0xbe4286bf	-0.18996714
84	0x3e00c0ba	0.1257352
85	0x3e5d2ac2	0.21598342
86	0xbeab3e13	-0.33445796
87	0x3e2ba54f	0.16762279
88	0x3b787b20	0.0037915185
89	0xbe61e396	-0.22059473
90	0xba6d0277	-0.00090412
91	0xbd40cf20	-0.04707253
92	0x3e8464de	0.25858206
93	0xbde182fa	-0.1101131
94	0x3d959d62	0.07305409
95	0x3e84394a	0.25824958
96	0xbe3cb961	-0.18430091
97	0x3e8972b0	0.26845312
98	0xbde9a72f	-0.11408841
99	0x3e670b31	0.22562863
100	0xbcc0ff64	-0.02355928
101	0x3d2d0f8b	0.04225115
102	0xbd66256a	-0.056188025
103	0xbe1fd9e2	-0.1561046
104	0x3e9c4a3e	0.30525392
105	0xbe11890c	-0.14212435
106	0x3e053f13	0.13012342
107	0x3d652053	0.05593903
108	0xbdbf6b8e	-0.09346686
109	0x3cf8d4ee	0.03037497
110	0x3eb0c499	0.34524992
111	0x3c152d9c	0.009105112
112	0x3d97ed94	0.07418361
113	0xbdbe4094	-0.09289661
114	0x3e790b67	0.24320756
115	0xbd8acef0	-0.067777514
116	0xbddab5e4	-0.10679224
117	0x3d7bc406	0.06146624
118	0x3dbdab2d	0.09261165
119	0x3e9b316c	0.30311143
120	0xbd1fd384	-0.039020076
121	0x3d6de989	0.058084045
122	0xbd3b9ae0	-0.045801997
123	0x3d22d85a	0.03975711
124	0xbe3e4737	-0.18581854
125	0xbe124aca	-0.14286342
126	0x3d2c7352	0.042102166
127	0x3b99ffb8	0.0046996735
128	0xbe0dbf99	-0.1384262
129	0x3d5d2911	0.053994242
130	0x3d3e7e85	0.046507377
131	0x3e123c59	0.14280833
132	0x3ca9a756	0.020709675
133	0xbebd50ab	-0.36975607
134	0x3d027578	0.03185031
135	0x3cb5f0a9	0.022209482
136	0x3e9ecf29	0.31017426
137	0x3e99ef8b	0.3006557
138	0x3da95938	0.0826897
139	0x3acd6560	0.0015670471
140	0xbd10983a	-0.035301425
141	0x3e04c49d	0.12965627
142	0xbddf77e4	-0.10911539
143	0x3d338d91	0.04383618
144	0x3e76038e	0.24024794
145	0xbea251a0	-0.317029
146	0xbe88ea62	-0.2674132
147	0x3e2bd06f	0.1677873
148	0xbd9b842c	-0.07593569
149	0xbd34f58a	-0.044179477
150	0x3e56ec25	0.2098852
151	0x3c24df5e	0.0100630205
152	0xbd1ff844	-0.039055124
153	0xbe9a97c2	-0.30193907
154	0x3c328e92	0.010898249
155	0xbe827f6c	-0.2548784
156	0x3c97a808	0.01851274
157	0x3e0fb717	0.14034687
158	0x3e377e26	0.17919216
159	0xbd1fd690	-0.039022982
160	0xbd14535c	-0.03621231
161	0x3eacb93b	0.3373507
162	0xbdc69fce	-0.09698449
163	0xbe285b4b	-0.16441076
164	0xbe32c2bb	-0.17457096
165	0x3e9d5758	0.307307
166	0xbd88de7f	-0.06683063
167	0x3dfeb43d	0.124367215
168	0xbdeecf3a	-0.11660619
169	0x3dea6ed2	0.114469185
170	0xbe3037ac	-0.17208737
171	0xbdaf7815	-0.08567826
172	0x3d982630	0.07429159
173	0xbd856b4b	-0.06514605
174	0x3dcfab4d	0.10140095
175	0x3e879cff	0.26486966
176	0x3d5cfe6a	0.053953566
177	0xbb8ae620	-0.004238859
178	0xbde7233f	-0.112860195
179	0xbbfddaf7	-0.00774705
180	0xbe99a302	-0.30007178
181	0xbe874e70	-0.2642703
182	0x3e1cb01c	0.15301555
183	0x3c98a0dc	0.018631391
184	0x3e3091cb	0.17243116
185	0xbcdf1dff	-0.027235983
186	0x3e13f6f1	0.1444967
187	0xbd58c211	-0.05291945
188	0xbe32080e	-0.17385885
189	0xbd1befdd	-0.03807055
190	0x3c03c1ea	0.008041838
191	0xbe8a7045	-0.2703878
192	0x3e885282	0.26625448
193	0xbd94ef14	-0.07272163
194	0xbe0509b9	-0.1299199
195	0x3e2d23f5	0.16908248
196	0xbc88eefc	-0.01671552
197	0xbe17d737	-0.14828192
198	0xbd4f6477	-0.05063292
199	0x3d23cd4a	0.0399907
200	0xbe46972e	-0.19393608
201	0x3e163d77	0.14671884
202	0x3cb924b2	0.022600506
203	0x3e0e52c1	0.13898756
204	0x3dd5fcee	0.10448633
205	0xbd50fb44	-0.051020876
206	0xbd4777fd	-0.048698414
207	0x3eb0849b	0.3447617
208	0x3df054a6	0.117348954
209	0x3c49eb6d	0.012324196
210	0x3d9eded2	0.07757343
211	0x3da26b46	0.07930617
212	0xbe3150c5	-0.17315967
213	0xbbcee412	-0.006313809
214	0x3c4bd8c2	0.012441816
215	0x3e37ac99	0.17936935
216	0xbd25ed9b	-0.0405098
217	0x3e1acae0	0.15116453
218	0xbda1d096	-0.07901113
219	0x3d9541ca	0.07287939
220	0x3e0a3d36	0.13499913
221	0x3d19e6df	0.03757369
222	0x3d1f84d3	0.03894503
223	0xbe2bd71a	-0.16781273
224	0xbdcce7ab	-0.10005125
225	0xbe5fbe62	-0.21849969
226	0xbe6f8909	-0.23392119
227	0x3e5a0ebe	0.21294686
228	0xbe96d945	-0.29462638
229	0x3e6c53a0	0.23078775
230	0xbcdaa383	-0.026689297
231	0x3aeb64e8	0.001795915
232	0x3d1f9b66	0.03896656
233	0xbc0c78f1	-0.008573757
234	0xbe051909	-0.12997831
235	0xbe362375	-0.17786963
236	0x3d37805f	0.04480016
237	0x3d31b7be	0.04338812
238	0x3e68184c	0.22665519
239	0xbd2c405e	-0.042053573
240	0x3df5b5f4	0.119975954
241	0x3e2f3c84	0.17112929
242	0x3e1c2bb5	0.15251048
243	0xbe31e146	-0.17371091
244	0x3d3725e7	0.04471388
245	0x3e427974	0.18991643
246	0x3d9e6df3	0.07735815
247	0xbe213350	-0.1574223
248	0x3e046220	0.12928057
249	0x3dea19fc	0.114307374
250	0x3d7435c8	0.059621602
251	0xbdccc670	-0.099987864
252	0x3d001550	0.031270325
253	0xbdeac84a	-0.11463983
254	0x3db973d7	0.09055298
255	0xbc411f0f	-0.01178719

network_body._body_endoder.seq_layers.0.bias f4 [256]
0	0xbba7d762	-0.005122111
1	0x3cb59e02	0.02217007
2	0xbc29da2f	-0.01036696
3	0x3cd976fe	0.026545998
4	0x3c870c4c	0.016485356
5	0x3c980c57	0.018560572
6	0x3a89c28c	0.001051025
7	0xbc06980f	-0.0082149645
8	0x3c0d8a27	0.008638895
9	0x3c0c9616	0.008580705
10	0x3d2780d5	0.04089435
11	0x3c363c4d	0.011122775
12	0x3ba731bb	0.005102364
13	0x3b0df860	0.0021662936
14	0x3cbf07f9	0.023319231
15	0x3c3c87c1	0.011506976
16	0x3d2e11d1	0.04249746
17	0x3c60a84c	0.013712
18	0x3c1b89b1	0.009493277
19	0x3cb17fe6	0.021667432
20	0x3caaa362	0.02082986
21	0x3c99457a	0.018709887
22	0xbbd0eb20	-0.0063756853
23	0x3c949937	0.018139465
24	0x3bf7e1a0	0.0075647384
25	0xbc321fed	-0.0108718695
26	0x3c8d1f07	0.017226709
27	0x3c7bdb07	0.015372044
28	0xba26d3ad	-0.00063639396
29	0x3c28c327	0.010300434
30	0x3cf53c1c	0.029935889
31	0x3b3d975c	0.0028929329
32	0x3cca9b99	0.024732398
33	0x3d265f99	0.040618513
34	0x3d082d92	0.033246584
35	0x3c2c8b86	0.010531312
36	0x3c8323fd	0.016008371
37	0x3d2db7bf	0.042411562
38	0x3cdf3d53	0.027250921
39	0xbbecc04f	-0.0072250734
40	0x3c9eb70d	0.019374395
41	0x3c5290d1	0.01285191
42	0x3c2762b3	0.010216403
43	0xbc4f220c	-0.012642395
44	0x3be96947	0.0071231457
45	0x3bada869	0.005299617
46	0x3c6f0818	0.014589332
47	0xbc4b11fc	-0.0123944245
48	0x3ba345e4	0.004982697
49	0x3cb8c9c7	0.022557152
50	0x3c7a4e8f	0.015277519
51	0x3c8d1416	0.017221492
52	0x3b4083c8	0.0029375423
53	0xbc8eb2e0	-0.017419279
54	0x3c709170	0.0146831125
55	0xbc36eeea	-0.01116536
56	0x3c4d839c	0.012543585
57	0xbbe30e60	-0.006929204
58	0x3c3aa4aa	0.011391798
59	0x3cbad2b0	0.022805542
60	0xbbd2dbd8	-0.006434899
61	0x3c5f6442	0.013634743
62	0xbb0ff9da	-0.0021968991
63	0x3caf17ee	0.021373715
64	0xbb33a486	-0.0027411296
65	0xbc65723a	-0.0140042845
66	0x3ba86fbf	0.0051402743
67	0x3c286151	0.010277108
68	0x3c2edba0	0.01067248
69	0x3cd70bd9	0.026250767
70	0x3cb241e0	0.021759927
71	0x3d2f8480	0.04285097
72	0x3b90af8d	0.0044154585
73	0xbbb6eacc	-0.005582189
74	0x3cad6f04	0.0211711
75	0x3c8695bd	0.016428823
76	0x3ca7a627	0.02046497
77	0xbabaccab	-0.001425167
78	0x3d077c30	0.03307742
79	0x3bbf2c08	0.0058341064
80	0x3c59cdb6	0.013293674
81	0xbc0eeb24	-0.008723054
82	0xbc89f32f	-0.016839592
83	0xba39591e	-0.00070704694
84	0x3c002988	0.007822402
85	0x3ccc0d53	0.024908697
86	0x3c6c3f5f	0.014419406
87	0x3c7d3bca	0.015456149
88	0x3c68ce93	0.014209407
89	0x3b7ca19e	0.003854848
90	0x3cd71c8f	0.026258735
91	0x3cb8560e	0.022501972
92	0x3d298adf	0.041392203
93	0x3c5e26c6	0.013559049
94	0x3d3985eb	0.04529373
95	0x3bfd61b2	0.0077325935
96	0x3b89212e	0.0041848635
97	0x3a971248	0.0011525834
98	0x3c47c662	0.012193294
99	0x3c98c9ae	0.018650856
100	0x3c848784	0.0161779
101	0x3c0ff278	0.008785836
102	0x3c7822b3	0.015144992
103	0x3b4760c1	0.003042266
104	0xb8c316da	-9.302581e-05
105	0x3bab847e	0.0052343
106	0x3d054817	0.032539453
107	0x3c20763f	0.009793817
108	0x3bcff1d4	0.006345967
109	0x3b3a058e	0.0028384659
110	0x3cc38888	0.023868814
111	0x3c7c2bb9	0.015391284
112	0x3cf1850b	0.029482385
113	0x3c63cc3e	0.013903676
114	0x3b2f6b16	0.002676671
115	0xbc2173b3	-0.009854245
116	0xbb03e637	-0.0020126232
117	0x3cb2385a	0.021755386
118	0xbb6b1968	-0.0035873298
119	0x3cf17ad7	0.02947752
120	0xbb97400c	-0.0046157893
121	0x3b0153c3	0.0019733764
122	0x3ca73a1d	0.020413453
123	0xbc64515c	-0.013935413
124	0x3bc0c8a4	0.005883293
125	0x3c6604c1	0.014039219
126	0x3c1d3aeb	0.009596567
127	0x3c994c26	0.018713068
128	0x3bfbde26	0.0076863943
129	0x3cd058f1	0.025433036
130	0x3bf8dbb8	0.007594552
131	0x3c3b7e4d	0.011443687
132	0x3c23af43	0.009990516
133	0x3cd80e9f	0.02637416
134	0x3c7ca126	0.01541928
135	0x3b64ee2b	0.0034931998
136	0x3c3571dc	0.0110745095
137	0xbbf45935	-0.0074569234
138	0x3d35796b	0.044305246
139	0xbc11841a	-0.008881593
140	0x39262f34	0.00015848578
141	0x3caec23a	0.021332849
142	0x3c1a6967	0.009424544
143	0x3bf22024	0.0073890854
144	0xbd125ca2	-0.035732873
145	0x3c931b6d	0.017957414
146	0x3cba6864	0.022754855
147	0x3bd28a04	0.006425144
148	0x3ce846cd	0.028354073
149	0x3cb7bf5b	0.022430113
150	0xbbfecd6c	-0.007775953
151	0x3b390809	0.002823355
152	0x3ca4ca5c	0.020116024
153	0x3c6fb505	0.014630561
154	0x3c5186be	0.012788473
155	0x3d13197b	0.035912972
156	0x3cc10a35	0.023564437
157	0x3b6ecf46	0.0036439463
158	0x3c9b0439	0.018922912
159	0xbc70b058	-0.014690481
160	0x3bf394f4	0.007433528
161	0xbb4d833c	-0.003135874
162	0x3c79ab9c	0.015238669
163	0x3c8f5b82	0.017499689
164	0x3ca4401e	0.020050105
165	0x3cc10dfe	0.023566242
166	0x3bb1668a	0.005413835
167	0x3c189d8f	0.009314909
168	0x3c48d3d6	0.012257537
169	0x3cea6d27	0.028616501
170	0x3a903bf0	0.0011004191
171	0x3c3f1d6a	0.011664728
172	0x3ce170c8	0.027519599
173	0x3c3a9a5c	0.011389341
174	0x3ce54b6c	0.027990066
175	0xbb6ad6e4	-0.0035833651
176	0x3cc23ad4	0.023709692
177	0xbc1151eb	-0.008869628
178	0x3d0766bc	0.03305696
179	0x3cd77174	0.026299216
180	0x3c19a2f4	0.00937723
181	0x3cfee1e5	0.031113574
182	0x3cad1304	0.021127231
183	0x3c951a3f	0.018200992
184	0x3cf3be45	0.029753814
185	0x3bd27248	0.006422315
186	0xbb9842f0	-0.0046466514
187	0x3c4dff59	0.012573087
188	0x3c992f7c	0.0186994
189	0xbbf44c8c	-0.007455414
190	0x3c910299	0.017701434
191	0x3c3bc9be	0.011461673
192	0x3ca16e9d	0.019706065
193	0x3ca398c2	0.019970302
194	0x3b8e78be	0.0043478897
195	0x3c5d518d	0.013508213
196	0x3cb4c03f	0.022064326
197	0x3cc1e9b6	0.023671012
198	0x3c1b0896	0.009462496
199	0x3c517b07	0.01278568
200	0x3c1ee9d1	0.009699301
201	0xbb46392b	-0.0030246477
202	0x3b9dde69	0.004817773
203	0xbcbb663f	-0.022875903
204	0x3c3715db	0.011174644
205	0x3c9dbb46	0.019254338
206	0xbabdfd76	-0.0014495093
207	0x3c84c144	0.016205437
208	0xbc2d23b2	-0.010567592
209	0x3b17d6a9	0.002316872
210	0x3c958b49	0.018254893
211	0x3a91827d	0.0011101511
212	0x3c5bf6d4	0.013425548
213	0x3b0ae4fb	0.0021193612
214	0x3d2160a0	0.03939879
215	0x3bbcbeaf	0.005760036
216	0x3c3cb93b	0.011518772
217	0x3c97a0f1	0.01850936
218	0x3c119422	0.008885415
219	0x3b058eb0	0.0020379238
220	0x3c50c3cf	0.012741997
221	0x3cda16f7	0.026622279
222	0xbc525251	-0.012837009
223	0x3c9af29e	0.018914517
224	0x3c85e42b	0.01634415
225	0x3d0dc7bd	0.034614313
226	0x3be6f2c2	0.007047982
227	0xbc38c1be	-0.0112766605
228	0x3d1e0df4	0.038587525
229	0x3c93ca4f	0.018040804
230	0x3b882a63	0.0041554435
231	0x3c70dc79	0.014701002
232	0x3cf69630	0.030100912
233	0xbb214db8	-0.0024612974
234	0x3ad47910	0.0016210396
235	0xbd367c51	-0.04455215
236	0x3cac3467	0.021021081
237	0x3b87c805	0.0041437172
238	0x3c8c0413	0.017091786
239	0xbac24a88	-0.0014823237
240	0x3c6228d9	0.013803684
241	0x3cb451ce	0.022011664
242	0x3c9efbc9	0.01940717
243	0x3cdd6ce3	0.02702946
244	0x3c0d60c4	0.008629028
245	0x3b62be53	0.0034598305
246	0xbbbed529	-0.0058237505
247	0x3d12de2c	0.03585641
248	0x3b785505	0.0037892472
249	0x3a3327ec	0.0006834257
250	0xbb830e76	-0.0039995266
251	0x3c6f7353	0.014614898
252	0x3b8a09ba	0.0042125853
253	0x3c93065f	0.017947374
254	0x3b7222ea	0.003694708
255	0xbc1e7b47	-0.009672946

network_body._body_endoder.seq_layers.2.weight f4 [256, 256]
0	0xbd37a313	-0.044833254
1	0xbc733236	-0.014843514
2	0xbd43cf9e	-0.04780542
3	0x3d6a65a5	0.057225842
4	0x3d8b7fac	0.06811461
5	0xbd470f94	-0.04859884
6	0xbd8caabe	-0.06868504
7	0x3e09ceac	0.13457745
8	0x3d0554bb	0.03255151
9	0xbd264d63	-0.040601145
10	0x3ccc9174	0.024971701
11	0x3e087aa5	0.13328035
12	0xbc64b69a	-0.013959551
13	0xbd9c032e	-0.07617794
14	0xbd54b97b	-0.0519347
15	0x3e108fe4	0.1411739
16	0xbd466274	-0.048433736
17	0x3d3ac7dd	0.04560076
18	0x3cdcfcb8	0.026975974
19	0xbdcb8dce	-0.099391565
20	0xbd3e8ca8	-0.04652086
21	0x3ba7860a	0.0051124142
22	0x3caefe9a	0.021361638
23	0x3cce80a5	0.025207827
24	0x3d82a159	0.06378431
25	0xbc6e17ab	-0.01453201
26	0x3c29e7bd	0.010370192
27	0x3c41fbfe	0.011839865
28	0x3d72478b	0.05915026
29	0xbd949a8d	-0.07256041
30	0x3d758b7d	0.05994748
31	0x3d03ab2c	0.032145664
32	0xbd864b67	-0.065573506
33	0x3dd2a2d8	0.10284966
34	0xbca0ce51	-0.01962963
35	0xbd269901	-0.04067326
36	0x3c2a8e40	0.010409892
37	0x3db462d5	0.08807913
38	0x3b168a8a	0.002297076
39	0x3da7fdd9	0.082027145
40	0x3db47f1a	0.08813305
41	0xbd8c88de	-0.06862043
42	0xbd5e86d3	-0.054327797
43	0x3d5fcaf3	0.054636907
44	0x3c0a5e8c	0.008445393
45	0x3dd5882f	0.104263656
46	0x3c41b490	0.011822835
47	0x3d82ff22	0.06396319
48	0xbd16ef87	-0.036849525
49	0xbe06b2dc	-0.13154167
50	0x3df995ae	0.12186752
51	0x3c9e8d35	0.019354442
52	0xbd42f62d	-0.047598053
53	0x3db7b80b	0.0897065
54	0x3c3fba41	0.011702121
55	0xbd730666	-0.059332274
56	0xbb1fda86	-0.0024391725
57	0xbd0342ad	-0.03204601
58	0x3d0135a9	0.031545315
59	0x3cc0b24b	0.023522517
60	0x3c49a25f	0.012306779
61	0x3cafe347	0.021470679
62	0xbd207e8c	-0.039183185
63	0x3ca2903e	0.01984417
64	0xbc036ffc	-0.008022305
65	0x3d651240	0.055925608
66	0xbc654a27	-0.01399473
67	0x3be0a7e0	0.0068559498
68	0xbda28403	-0.079353355
69	0xbdee5fe3	-0.11639383
70	0xbcaebcad	-0.021330202
71	0xbd70d0ff	-0.058793064
72	0xbdbb3e1b	-0.09142705
73	0x3d2c10b3	0.042008113
74	0x3c9859c0	0.018597484
75	0x3d7d56e9	0.061850462
76	0xbd0e1bff	-0.034694668
77	0xbcdfd1a8	-0.027321652
78	0x3d8d69b9	0.069049306
79	0xbd8d269b	-0.06892129
80	0xbdab0d4f	-0.08352148
81	0x3d933b6a	0.07189067
82	0xbce573ac	-0.028009258
83	0x3d4c69e5	0.049905676
84	0x3d766475	0.060154397
85	0x3caf2171	0.02137825
86	0xbc2cc9d9	-0.010546171
87	0xbdda627c	-0.10663316
88	0x3ddf7311	0.10910619
89	0x3d27ba48	0.040949136
90	0x3d426c2c	0.047466442
91	0x3c76b4d4	0.015057761
92	0x3e5f82b2	0.218272
93	0xbd2dc05f	-0.042419787
94	0xbda18f66	-0.07888679
95	0x3d72d459	0.05928454
96	0x3dacddae	0.084407195
97	0xbd95516d	-0.07290921
98	0x3d94f015	0.072723545
99	0x3d9f6030	0.07782018
100	0x3d03a27f	0.03213739
101	0xbd8c4b15	-0.06850258
102	0xbd84350e	-0.06455432
103	0x3ca31375	0.019906739
104	0x3cfa71b1	0.03057179
105	0xbcfbb832	-0.03072748
106	0xbd16fd5e	-0.036862724
107	0xbe75264c	-0.2394039
108	0x3c2d4569	0.010575631
109	0x3dfc4af4	0.12318984
110	0xbcfc5e69	-0.030806737
111	0xbd188c3f	-0.037243124
112	0x3d4983d4	0.049197987
113	0x3a8eb125	0.0010886533
114	0xbdabf3c4	-0.08396104
115	0xbd6ef10d	-0.058335353
116	0xbe2a0c55	-0.16606267
117	0x3aec8ce8	0.0018047364
118	0xbd8451cf	-0.06460916
119	0x3de6aa49	0.11262948
120	0x3a9b5431	0.0011850653
121	0x3d59adb1	0.05314416
122	0xbdeca0fc	-0.11554143
123	0xbc978e7e	-0.018500563
124	0x3d9d7539	0.07688374
125	0x3c5b5a53	0.013388234
126	0x3db3cc28	0.08779174
127	0x3c76483c	0.01503187
128	0xbcfdd051	-0.030983122
129	0x3ce73fd4	0.028228678
130	0xbda1db4f	-0.07903158
131	0x3cf9c661	0.030490102
132	0x3e0c9541	0.13728811
133	0xbd2cf691	-0.04222733
134	0xbdb96d54	-0.09054056
135	0x3d05491c	0.032540426
136	0xbd175592	-0.03694684
137	0x3d047490	0.032337725
138	0xbd419863	-0.047264468
139	0x3d20d12f	0.039261993
140	0x3d3e36ad	0.04643886
141	0xbce0c92e	-0.02743968
142	0xbda4c023	-0.0804446
143	0x3ce3dcb9	0.02781521
144	0xbd365463	-0.04451407
145	0x3cbfe813	0.023426091
146	0x3ca069d7	0.019581718
147	0x3dbeacf0	0.09310329
148	0x3db9d8b8	0.09074539
149	0xbe2b4228	-0.16724455
150	0x3db96f81	0.09054471
151	0xbbb63bb0	-0.0055613145
152	0xbca678b5	-0.02032123
153	0x3d0a5b0a	0.033778228
154	0x3d1c8557	0.0382131
155	0x3dac83d5	0.084235825
156	0x3d0776c2	0.03307224
157	0xbcf75efb	-0.030196657
158	0x3ca10cdc	0.019659452
159	0xbdbb413f	-0.09143304
160	0x3d128cb9	0.035778735
161	0x3d8178b9	0.06321854
162	0xbc1952f3	-0.009358156
163	0xbcd3ee90	-0.025870591
164	0xbcab439d	-0.020906264
165	0x3d1bc5ed	0.038030554
166	0xbc3305f4	-0.010926712
167	0xbd7d741d	-0.061878312
168	0x3d39cae9	0.045359526
169	0x3d2bf286	0.041979335
170	0x3c91c005	0.017791757
171	0xbe0901ea	-0.13379636
172	0x3d457cc9	0.048214708
173	0xbd53ec6c	-0.05173914
174	0xbd179c7f	-0.03701448
175	0xbd2ada06	-0.04171183
176	0x3dd2e5ef	0.102977626
177	0x3c1e225c	0.009651747
178	0x3d0002ac	0.031252548
179	0x3cd0b206	0.025475513
180	0x3d0a9c22	0.033840306
181	0x3ce9813a	0.028504003
182	0x3db5f5aa	0.08884747
183	0x3bcc7a6b	0.0062401793
184	0xbd23cb3e	-0.03998875
185	0xbdaeb8f3	-0.0853137
186	0xbdada1d9	-0.084781356
187	0xbdc57cca	-0.09642942
188	0xbdac020a	-0.083988264
189	0xbd056ff0	-0.032577455
190	0xbc3b8568	-0.011445381
191	0xbd060bc0	-0.03272605
192	0xbd1b3054	-0.037887886
193	0x3c5085d7	0.012727222
194	0xbe01a106	-0.12659082
195	0xbde7ab16	-0.11311929
196	0xbda43404	-0.08017734
197	0xbe793a7a	-0.24338713
198	0x3db2a9d6	0.087238
199	0x3da5444b	0.080696665
200	0x3d50dccd	0.050991822
201	0xbceb8b21	-0.028752865
202	0x3e178df1	0.1480024
203	0x3cef2a5c	0.029195003
204	0xbd42d9a0	-0.047570825
205	0xbd1796c5	-0.03700902
206	0x3e0fc81d	0.14041181
207	0xbd71a039	-0.05899069
208	0x3c482bdc	0.012217488
209	0xbd2e2e2c	-0.0425245
210	0xbcc6b5f6	-0.024256688
211	0xbbf2209c	-0.0073891412
212	0x3ce850b8	0.028358802
213	0x3aeb8aae	0.0017970407
214	0x3c26da7c	0.010183927
215	0xbc9bf6e7	-0.01903863
216	0x3d6261d4	0.055269077
217	0x3d2184cf	0.039433297
218	0xbceecf21	-0.029151501
219	0xbd2222e4	-0.039584056
220	0xbdde0592	-0.10840906
221	0xbd8edd31	-0.06975783
222	0x3d3ded16	0.04636868
223	0x3ac0fe58	0.0014724238
224	0x3dd8c24f	0.105839364
225	0x3cbf8661	0.023379507
226	0xbcaea091	-0.021316798
227	0x3c4a9eec	0.0123669915
228	0xb8c3ef9a	-9.342954e-05
229	0x3d54e379	0.051974747
230	0x3cdec24c	0.027192257
231	0xbc1a1d28	-0.009406365
232	0xbd4413fe	-0.04787063
233	0xbbefd346	-0.007318887
234	0xbd02272a	-0.03177563
235	0xbc7b96ad	-0.015355748
236	0x3c014c3f	0.007891714
237	0x3cd459d4	0.02592174
238	0xbdd33349	-0.10312516
239	0x3e186359	0.14881648
240	0xbc509138	-0.012729935
241	0x3d54b632	0.051931567
242	0xbd993b55	-0.0748202
243	0xbd71cdd3	-0.05903418
244	0xbcd00857	-0.025394602
245	0x3ca331b3	0.01992116
246	0xbc6721ef	-0.0141072115
247	0x3a205fd4	0.0006117795
248	0x3d9190b1	0.07107676
249	0xbd528be9	-0.05140296
250	0x3d82e5ee	0.06391512
251	0x3c882a3d	0.016621703
252	0xbceb8970	-0.028752059
253	0xbdd589af	-0.10426652
254	0xbd796e9d	-0.060896505
255	0x3d9104ff	0.07081031

network_body._body_endoder.seq_layers.2.bias f4 [256]
0	0xbc080bec	-0.008303624
1	0x3cc71298	0.024300858
2	0xb9acb6e2	-0.00032942655
3	0x3bb32e15	0.00546814
4	0xbc3a8431	-0.011384056
5	0x3c204221	0.009781391
6	0x3bfd87ee	0.0077371513
7	0x3cbf3384	0.023339994
8	0x3cc6ef74	0.024284102
9	0x3bd728b9	0.006566134
10	0x3c11cb5e	0.008898584
11	0x3b48bfc9	0.003063189
12	0x3ce12399	0.027482795
13	0x3ab5aba0	0.0013860352
14	0x3c850095	0.01623563
15	0x3a24540c	0.00062686275
16	0x3b878d19	0.004136693
17	0xbb93eab9	-0.004514065
18	0x3c0b6aed	0.00850938
19	0x3bea36ed	0.007147661
20	0x3c097d3a	0.008391673
21	0x3bb32105	0.0054665827
22	0xbbe051e6	-0.0068457006
23	0x3b54a935	0.0032449488
24	0x3ae06834	0.0017120899
25	0x3c3f161b	0.011662985
26	0xbc3f25b3	-0.011666703
27	0xbaae6e90	-0.0013308097
28	0x3ce1fa2f	0.027585117
29	0x3c7f7158	0.015590988
30	0x3ca02727	0.01954992
31	0x3caf9ed1	0.021438034
32	0x3c6c7fd0	0.01443477
33	0x3b820877	0.0039682942
34	0x3b10783f	0.0022044329
35	0xbc564fc7	-0.013080544
36	0xbbb73d09	-0.0055919928
37	0x3c8359e8	0.016034082
38	0xbbf06dd1	-0.00733731
39	0x3bd8777d	0.006606041
40	0x3cc158c9	0.023601906
41	0x3c1c9358	0.009556614
42	0x3cdf1236	0.027230363
43	0xb9982269	-0.00029017337
44	0xbc28ef23	-0.010310921
45	0x3c6fd1ca	0.01463742
46	0x3c741553	0.014897662
47	0x3bc957cf	0.006144501
48	0xba65e1c2	-0.0008769297
49	0x3c8571c9	0.016289609
50	0x3b89a834	0.0042009596
51	0x3ad9c343	0.0016613979
52	0xbbb0f184	-0.0053998847
53	0x3c241a3a	0.0100160185
54	0xb9eb926d	-0.0004493179
55	0xbb2ae8ea	-0.002607877
56	0x3b7443fc	0.0037271967
57	0x39847092	0.00025260873
58	0x3c887e7a	0.016661871
59	0x3c99f55d	0.018793756
60	0xbcc08d38	-0.023504838
61	0x3c428a9f	0.01187387
62	0x3c6005db	0.013673271
63	0x3b994274	0.0046771113
64	0x3c46c84f	0.012132718
65	0x3cb76df6	0.0223913
66	0x3b9a59f4	0.0047104303
67	0x3c0a5365	0.008442734
68	0x3cb7edcf	0.022452263
69	0xba654e0a	-0.00087472855
70	0x3baed61f	0.005335584
71	0x3ca3768f	0.019953994
72	0xb796a371	-1.7957502e-05
73	0x3c9cb436	0.0191289
74	0x3c6bb8f7	0.014387361
75	0x3a924f91	0.0011162629
76	0x3c4f6a01	0.012659551
77	0x3cdc1be6	0.026868772
78	0xbc808c57	-0.01569192
79	0x3bcefb3f	0.006316572
80	0xba06551b	-0.0005124376
81	0x3bbf6768	0.0058411844
82	0x3b805848	0.003916774
83	0xbb940a56	-0.0045178337
84	0xbb1e87c4	-0.002418981
85	0x3c1912d1	0.009342865
86	0x3c2216ae	0.009893103
87	0x3cbf0618	0.023318335
88	0x3caa029c	0.020753197
89	0xbacf3806	-0.0015809543
90	0x3c139050	0.009006575
91	0x3c9db081	0.019249203
92	0xbbd4bad1	-0.006491997
93	0x3c805a70	0.015668124
94	0xbbc8189c	-0.0061064493
95	0x3ab73815	0.0013978506
96	0x3a679f31	0.0008835672
97	0x3c62f9da	0.013853515
98	0x3c2fef0e	0.010738147
99	0x3c2409c7	0.010012097
100	0x3c9a0bf0	0.01880452
101	0x3c19353a	0.009351069
102	0x3c43c9cc	0.011949968
103	0x3cc2c217	0.02377419
104	0x3c75afa1	0.0149954865
105	0x3cc65bea	0.02421375
106	0x3ba68083	0.0050812378
107	0xbbecb06e	-0.0072231805
108	0x3c91b95f	0.017788587
109	0x3c351c59	0.011054122
110	0xbc19e81a	-0.009393716
111	0x3b0b4edd	0.0021256723
112	0x3b95af74	0.004568035
113	0x3ce515df	0.02796453
114	0xbc34f952	-0.011045771
115	0x3c45df73	0.0120772
116	0x3cbdd75c	0.02317398
117	0x3c505f08	0.01271797
118	0xbb927c45	-0.0044703805
119	0x3c9e7ff4	0.019348122
120	0x3c85bcf6	0.016325455
121	0x3cb4ab11	0.022054227
122	0xbc4adbbe	-0.012381492
123	0x3be74a5d	0.0070584253
124	0x3b7d17f8	0.0038619023
125	0x3b4517c0	0.003007397
126	0x3b84b393	0.004049727
127	0x3caca8a4	0.021076508
128	0x3cb7310c	0.022362255
129	0x3bf221f8	0.0073893033
130	0x3cd6d3f8	0.026224121
131	0x3c80506a	0.015663344
132	0x3b3d88da	0.0028920681
133	0x3bfc1883	0.0076933517
134	0x3c5b7fac	0.013397139
135	0x3c70e54e	0.014703108
136	0xbc2aa6b7	-0.0104157245
137	0x3b8baded	0.004262677
138	0x3c591fa7	0.013252175
139	0x3c4be7cc	0.012445401
140	0x3c46bfab	0.012130658
141	0xbc48132a	-0.0122116
142	0x38fc813e	0.000120403696
143	0xbb96bf55	-0.0046004453
144	0xbc66d565	-0.014088963
145	0xbc0d026a	-0.008606533
146	0x3c04057e	0.00805795
147	0x3befce95	0.0073183277
148	0x3c855c72	0.016279433
149	0x3c96f5da	0.018427778
150	0x3c61c32e	0.013779445
151	0x3b309e14	0.002694969
152	0x3c059c3a	0.008154923
153	0x3c1f6d5e	0.009730665
154	0xba8f1e20	-0.0010919012
155	0x3c31cccf	0.010852053
156	0xbc2daaae	-0.010599775
157	0x3c47026b	0.012146573
158	0xbb909761	-0.004412577
159	0x3c767961	0.015043587
160	0x39b4984c	0.00034445745
161	0x3c31a7d8	0.01084324
162	0x3c457056	0.012050709
163	0x3becf58e	0.007231421
164	0x3c9b3d5e	0.01895016
165	0x3c62dfc9	0.0138473
166	0xbcd0c194	-0.02548293
167	0x3c298de9	0.010348775
168	0xbc5ea523	-0.013589176
169	0x3c3843e5	0.011246656
170	0x3c37d912	0.011221187
171	0x3c923e49	0.017851966
172	0x3b8edf73	0.0043601333
173	0x3b4efb18	0.003158277
174	0x3c324044	0.01087958
175	0x3c8763cf	0.016527085
176	0xbb989a7f	-0.0046570892
177	0x3b3a142e	0.0028393376
178	0x3c0cac3f	0.008585989
179	0x3c81c46b	0.01584073
180	0x3ca8960c	0.02057936
181	0x3c710860	0.014711469
182	0x3c1e0c56	0.009646496
183	0x3bb03b30	0.0053781494
184	0x3cf1302f	0.029441921
185	0xbbb4cf4a	-0.005517875
186	0x3c3280d3	0.010894972
187	0x3c6de49b	0.014519836
188	0x39c679e4	0.00037856319
189	0xbc85572f	-0.016276924
190	0xbc02bf90	-0.007980242
191	0x3bbf27ba	0.005833593
192	0xbaf5ae24	-0.0018743915
193	0x3bdde3d8	0.006771546
194	0x3bd2d365	0.0064338916
195	0x3c0e4fec	0.008686047
196	0xbbd90c80	-0.0066238046
197	0x3b819356	0.0039543314
198	0x3c957517	0.01824431
199	0x3cbddf10	0.023177654
200	0x3c7ee332	0.015557097
201	0x3c1e6c4e	0.009669377
202	0xbb0c6bf5	-0.0021426652
203	0x3c8fc2b5	0.017548898
204	0xba9550f9	-0.001139193
205	0x3b3e31da	0.0029021413
206	0x3c1874f4	0.009305228
207	0x3be32b99	0.0069326875
208	0xba07e446	-0.00051838567
209	0xbc1a6ab6	-0.009424856
210	0x3ca5ab7d	0.020223374
211	0xba8e66e3	-0.0010864403
212	0x3c83196f	0.016003339
213	0x3cade558	0.021227524
214	0xb9e4e06e	-0.00043654762
215	0x3b06225c	0.0020467257
216	0x3ca94d0e	0.020666625
217	0x3c3b356c	0.011426311
218	0xbb9b3777	-0.0047368365
219	0x3c1bce26	0.009509599
220	0x3bb03e9f	0.0053785588
221	0x3c81a95c	0.015827827
222	0x3c16296d	0.00916515
223	0xbc578ef6	-0.013156643
224	0x3bf46b5c	0.0074590873
225	0x3b120cf6	0.0022285557
226	0x3cfe8688	0.031070009
227	0x3d2e35d4	0.042531803
228	0x3c26eca0	0.010188252
229	0xbc1b1bbd	-0.009467063
230	0x3cd9394d	0.026516581
231	0x3ad3a986	0.0016148544
232	0xbbbe1da5	-0.0058018737
233	0x3cb48dc4	0.022040255
234	0x3bc9fb9b	0.006164027
235	0x3c045320	0.008076459
236	0x3b7f4ece	0.0038956883
237	0x3b5ad3b8	0.0033390354
238	0x3bf2cdc8	0.007409785
239	0x3ca1ea23	0.019764965
240	0x3bfbd6e4	0.007685529
241	0x3cb3be13	0.02194122
242	0xbbfacdfe	-0.0076539507
243	0x3a9360c3	0.0011244047
244	0x3c6e8d8a	0.014560113
245	0x3bb8961d	0.0056331293
246	0xba67256e	-0.0008817528
247	0x3bcdb136	0.0062772287
248	0x3c91402a	0.017730791
249	0x3c910611	0.017703088
250	0x3b851059	0.0040607867
251	0x3abddcb7	0.0014485334
252	0x3ca295c0	0.019846797
253	0x3b899ab7	0.0041993516
254	0x3bbc783e	0.0057516387
255	0x3c3ffe3c	0.011718329

action_model._continuous_distribution.log_sigma f4 [1, 5]
0	0xbe0f7c66	-0.14012298
1	0xbd7d30b8	-0.06181404
2	0xbdfa175a	-0.12211485
3	0x3bc9bb85	0.0061563873
4	0xbd3c3c8e	-0.045956187

action_model._continuous_distribution.mu.weight f4 [5, 64]
0	0xbe3d4b6f	-0.18485807
1	0xbd19ee2c	-0.037580654
2	0xbd134b76	-0.035960637
3	0xbcc9ffd2	-0.024658117
4	0xbbfa2710	-0.007634051
5	0x3d191e7f	0.0373826
6	0x3d08c6c2	0.033392675
7	0xbcb53d22	-0.022123877
8	0x3e960e01	0.2930756
9	0xbb87c286	-0.004143062
10	0xbd0f98be	-0.035057776
11	0x3a9e7868	0.0012090327
12	0xbcfe1086	-0.031013738
13	0xbd118fd5	-0.03553756
14	0xbd7e38a7	-0.062065747
15	0xbde74ccb	-0.11293944
16	0xbe8083be	-0.2510051
17	0xbe3de29b	-0.18543474
18	0x3c3dc695	0.01158299
19	0xbd1565b4	-0.036473945
20	0x3d00f0f8	0.031479806
21	0xbb402e69	-0.0029324538
22	0xbe01d3f5	-0.12678511
23	0x3db0928a	0.086217
24	0xbdef016b	-0.11670192
25	0xbdc8c088	-0.098023474
26	0x3d37511f	0.044755097
27	0xbd3ccbb5	-0.046092708
28	0xbbcbced9	-0.0062197265
29	0xbd4f1476	-0.050556622
30	0xbd05ef9d	-0.032699216
31	0x3d5cd353	0.053912472
32	0x3bb51fbe	0.0055274656
33	0x3dbdae60	0.09261775
34	0xbdc8afd1	-0.09799159
35	0x3c3de9e7	0.011591411
36	0x3d2ec6a6	0.042669915
37	0xbc81011e	-0.015747603
38	0x3daa5fea	0.083190754
39	0x3c9508f6	0.01819275
40	0x3d14a6d2	0.036291905
41	0x3e0833b6	0.13300976
42	0xbd89cb5a	-0.06728239
43	0x3d3be91f	0.04587662
44	0xbd8c36c0	-0.0684638
45	0x3d392345	0.04519965
46	0x3df507cd	0.119643785
47	0xbc4c9fd5	-0.012489279
48	0x3ca60355	0.02026526
49	0x3da1c4de	0.078988776
50	0xbd4dc52a	-0.05023686
51	0x3caffaea	0.02148195
52	0x3d201bce	0.039089017
53	0xbc02eae8	-0.007990576
54	0xbe51cd37	-0.2048844
55	0xbd9c4f97	-0.07632368
56	0x3e7f7d41	0.24950124
57	0xbcc0a714	-0.023517169
58	0x3d293265	0.041307826
59	0x3dd558bf	0.104173176
60	0x3dc4f18e	0.096163854
61	0xbcf92155	-0.030411402
62	0x3dbba714	0.09162727
63	0xbe70aa03	-0.23502354
64	0x3dc20ddd	0.094753005
65	0x3d67f93b	0.05663417
66	0x3cdb4a21	0.026768746
67	0xbc6dd7ff	-0.0145168295
68	0xbded3c8a	-0.115838125
69	0x3d870175	0.06592075
70	0x3e60536c	0.21906823
71	0x3e49088c	0.19632167
72	0x3c4b7c27	0.012419737
73	0xbdcc58cd	-0.09977875
74	0x3d4fa1da	0.050691463
75	0xbdd5ba56	-0.104359314
76	0x3c7f5ac9	0.01558561
77	0x3e19e498	0.15028608
78	0xbd176b82	-0.03696776
79	0x3d931154	0.071810395
80	0x3e3d47c0	0.18484402
81	0xbd976789	-0.07392795
82	0xbd2e215c	-0.042512283
83	0xbd3acbf4	-0.04560466
84	0x3ba6be0b	0.005088573
85	0x3da16d48	0.07882172
86	0xbde54719	-0.111952014
87	0xbdacded9	-0.08440942
88	0xbc48c3f6	-0.012253752
89	0x3c3ffcff	0.011718034
90	0x3d415d98	0.0472084
91	0xbd96d869	-0.07365496
92	0x3c7f250d	0.015572798
93	0xbd8c195e	-0.06840776
94	0x3d8ade17	0.067806415
95	0xbe3cdb29	-0.18442978
96	0xbe273640	-0.16329288
97	0xbd390f01	-0.045180324
98	0xbd5ae123	-0.053437363
99	0x3ba4b6c2	0.0050266692
100	0x3e1b95ee	0.15193912
101	0xbd013f18	-0.03155431
102	0xbcf1c48c	-0.029512666
103	0xbd4a8163	-0.0494398
104	0x3cbfc540	0.023409486
105	0x3e0666f9	0.13125218
106	0x3d69714d	0.056992818
107	0x3d9bdf7e	0.07610987
108	0xbe0759a0	-0.13217783
109	0xbc609283	-0.013706806
110	0xbe267549	-0.16255678
111	0x3afc61b2	0.001925519
112	0x3df0d8a0	0.11760068
113	0x3d5748e3	0.052559745
114	0xbe5e4222	-0.21704915
115	0x3d90d32b	0.07071527
116	0xbe2a059d	-0.16603704
117	0x3e12827b	0.14307587
118	0x3cf90a5b	0.030400446
119	0xbd4aa816	-0.049476705
120	0x3e0b4e07	0.13603984
121	0x3e834aa8	0.25642896
122	0x3dbc316d	0.09189115
123	0x3be3eb68	0.006955553
124	0x3ca897ce	0.020580199
125	0xbdf2866e	-0.11842047
126	0xbd24caad	-0.04023235
127	0xbe6d4775	-0.2317179
128	0xbde1768b	-0.110089384
129	0x3d4050a9	0.046951924
130	0x3d4d13c2	0.05006767
131	0xbca7ad7d	-0.020468468
132	0xbd141f0d	-0.036162425
133	0xbd8f2936	-0.06990282
134	0xbe2b161d	-0.16707654
135	0xbe3103d3	-0.17286615
136	0x3c25e0f6	0.010124436
137	0xbbab140a	-0.0052208947
138	0xbce4e1ae	-0.027939644
139	0xbd038a16	-0.03211411
140	0x3d83001a	0.06396504
141	0x3d08479e	0.033271424
142	0x3dc212bc	0.094762295
143	0x3e65728f	0.22406982
144	0xbb394fda	-0.0028276355
145	0xbe78999f	-0.24277352
146	0x3b861752	0.0040921355
147	0x3d89ec68	0.06734544
148	0x3d50c836	0.050972186
149	0xbd2428f0	-0.040078104
150	0x3d12672c	0.035742924
151	0x3d5066a0	0.05087912
152	0xbe802e80	-0.25035477
153	0xbc817a12	-0.015805278
154	0xbda7a696	-0.081860706
155	0xbd765f12	-0.06014926
156	0xbcdd6cf6	-0.027029496
157	0x3d28e83e	0.04123711
158	0x3d54469e	0.05182516
159	0x3d8fed84	0.070277244
160	0x3d99d357	0.07511013
161	0xbd9603b9	-0.07324929
162	0x3d96a44d	0.07355557
163	0x3ab31cf5	0.0013665246
164	0x3c9c0a15	0.019047776
165	0xbd06c131	-0.032899085
166	0x3d412666	0.04715576
167	0x3d1818a2	0.037132867
168	0x3d28e306	0.04123213
169	0xbd99ea7c	-0.075154275
170	0x3c307fd9	0.010772669
171	0x3e4124ab	0.18861644
172	0xbd472c7c	-0.048626408
173	0x3be55a24	0.006999271
174	0x3c889d2a	0.016676504
175	0x3d41fead	0.04736202
176	0xbcfa8636	-0.030581575
177	0xbdbe16b2	-0.092816725
178	0x3d2ae97b	0.04172657
179	0x3d7172ae	0.058947258
180	0xbdd360b0	-0.10321176
181	0x3e156243	0.14588265
182	0xbdc735c0	-0.09727049
183	0x3dc93700	0.098249435
184	0x3d64e633	0.055883598
185	0x3dc8ff8a	0.09814365
186	0xbd606c53	-0.054790806
187	0xbb50e577	-0.0031875053
188	0xbd92c304	-0.071661025
189	0xbe21ed67	-0.15813218
190	0x3c610e9b	0.013736392
191	0x3db01549	0.0859781
192	0xbcffa1c1	-0.03120506
193	0xbd88bb36	-0.06676333
194	0xbdba2285	-0.09088615
195	0x3d3db352	0.04631359
196	0xbd60049d	-0.0546919
197	0x3d6030ba	0.05473397
198	0xbd281c84	-0.04104282
199	0xbd0d3c03	-0.03448106
200	0xbcf82684	-0.030291803
201	0x3ad5e102	0.0016317668
202	0xbd84d5d0	-0.06486094
203	0x39f3325d	0.00046386095
204	0xbcce7662	-0.025202934
205	0xbca2586b	-0.019817552
206	0xbd9d0126	-0.07666235
207	0xbc9a496a	-0.018833835
208	0xbd20fd20	-0.0393039
209	0x3d753035	0.059860427
210	0x3d3571e7	0.04429808
211	0xbcb955a6	-0.022623848
212	0xbdd4a144	-0.103823215
213	0xbd7b2b3c	-0.06132053
214	0x3c6b5f64	0.014366005
215	0x3d8e0276	0.06934063
216	0xbbd9715c	-0.006635828
217	0xbbb15b2c	-0.00541248
218	0x3d570494	0.0524946
219	0x3d63cc75	0.055614907
220	0x3d75138b	0.05983309
221	0xbd6b6f42	-0.05747915
222	0x3d9aa547	0.075510554
223	0x3d44fd17	0.048092928
224	0x3dd0ad3a	0.1018929
225	0xbc0c7852	-0.0085736085
226	0x3d8ad90e	0.06779681
227	0x3cb399b5	0.02192388
228	0x3d617be9	0.05504981
229	0x3c8bfa62	0.017087165
230	0x3cfbc2f7	0.030732615
231	0xbda05bdf	-0.07830023
232	0x3cca7c32	0.024717424
233	0xbb8df943	-0.004332693
234	0xbdb8edc7	-0.090297274
235	0x3b8d9bd4	0.0043215547
236	0xbdccc26e	-0.09998022
237	0x3dc4348c	0.09580335
238	0x3b3d3eb3	0.0028876483
239	0xbd889604	-0.06669238
240	0x3d241913	0.040062975
241	0xbd1ddf39	-0.03854296
242	0xbcf35b37	-0.02970658
243	0x3ccf1f1d	0.02528339
244	0x3da931df	0.08261465
245	0x3b611b4b	0.0034348543
246	0xbc3b2860	-0.0114232
247	0x3d1a6ae2	0.037699588
248	0x3c51c5c5	0.0128035
249	0xbd90f34c	-0.07077655
250	0xbd8e4cfe	-0.06948279
251	0xbb5f70c6	-0.0034094318
252	0x3ca7372b	0.020412048
253	0x3c848f8d	0.016181732
254	0x3df12d8f	0.11776268
255	0x3d0421e5	0.032258887

action_model._continuous_distribution.mu.bias f4 [5]
0	0x3b141be0	0.0022599623
1	0xbca60be5	-0.020269344
2	0xbc674044	-0.014114443
3	0x3d654c27	0.055980828
4	0xbb1a4964	-0.002354228

onnx::LSTM_100 f4 [1, 256, 256]
0	0xbe0fb914	-0.14035445
1	0x3e2a121e	0.16608474
2	0x3e10b9eb	0.14133422
3	0xbd3027fe	-0.04300689
4	0x3d36f2da	0.044665195
5	0xbdacc471	-0.08435906
6	0x3cc102ad	0.023560846
7	0xbc18a844	-0.009317461
8	0x3d26f426	0.04076018
9	0xbbbafba7	-0.005706269
10	0x3e07a0a1	0.13244869
11	0xbb941508	-0.0045191087
12	0xbced565a	-0.02897184
13	0xbd35b6be	-0.04436373
14	0xbd8a2adf	-0.06746458
15	0x3dc937b0	0.09825075
16	0x3e35cb31	0.17753293
17	0xbc8530ef	-0.016258685
18	0xbd84d7d6	-0.0648648
19	0xbd1fa5b3	-0.038976382
20	0x3d09ed41	0.03367353
21	0xbd4434b5	-0.047901828
22	0xbc5db599	-0.013532066
23	0x3e2d83c8	0.16944802
24	0xbc56f25e	-0.013119308
25	0x3da9451a	0.08265133
26	0xbc62568f	-0.0138145825
27	0xbcea11f3	-0.028573012
28	0x3e2e4c94	0.170214
29	0x3a7d37b0	0.0009659482
30	0xbd83abef	-0.06429278
31	0x3d0468c9	0.032326493
32	0x3d1516eb	0.03639881
33	0xbdce47ff	-0.10072326
34	0xbe0ff911	-0.14059855
35	0xbe08e246	-0.13367566
36	0x3dbcfb11	0.092275746
37	0xbd490a65	-0.04908218
38	0xbd2e6b13	-0.042582583
39	0x3daf40f7	0.08557313
40	0x3d59aaca	0.053141393
41	0x3d7a27de	0.061073177
42	0x3df600b3	0.12011852
43	0x3e05b58f	0.1305754
44	0x3d4b8116	0.049683653
45	0xbccf8b9d	-0.025335127
46	0x3d321977	0.043481316
47	0x3c9f6f00	0.019462109
48	0xbe077423	-0.13227896
49	0xbdbb597a	-0.09147926
50	0xbd268804	-0.04065706
51	0xbd2ff2e9	-0.042956267
52	0x3d8c2914	0.068437725
53	0x3dbcf36f	0.09226119
54	0xbd7cc4c5	-0.06171109
55	0x3dd828c8	0.105546534
56	0x3d971155	0.07376353
57	0xbd06bfe9	-0.032897864
58	0x3d451e19	0.048124406
59	0x3d46a565	0.048497576
60	0x3ca24bd4	0.019811548
61	0x3d5c47ff	0.0537796
62	0x3de32f38	0.11092991
63	0x3d95a5a3	0.07306983
64	0x3cd46e91	0.025931628
65	0x3e3841f8	0.17993915
66	0x3ce4fc1e	0.02795225
67	0xbd8badfb	-0.068202935
68	0x3e217759	0.15768184
69	0x3cd6a9f9	0.026204096
70	0x3df2a4cc	0.11847839
71	0xbdba8e66	-0.091091916
72	0x3d742517	0.059605684
73	0x3e383d98	0.17992246
74	0x3d928a55	0.07155291
75	0xbbb9c06d	-0.005668691
76	0x3ba99cac	0.0051761474
77	0xbd896c4e	-0.067101106
78	0xbd0e174f	-0.034690198
79	0xbd517314	-0.051135138
80	0x3d940e71	0.07229317
81	0x3dae6dc4	0.0851703
82	0x3cd4ab93	0.02596072
83	0xbd203978	-0.039117306
84	0x3ca481c9	0.020081418
85	0x3d00665d	0.03134762
86	0xbd1f864c	-0.038946435
87	0xbd2f57f4	-0.042808488
88	0x3d5479db	0.051874023
89	0x3d34f641	0.04418016
90	0x3e2724bd	0.16322608
91	0x3d698829	0.057014618
92	0xbe1a41b8	-0.15064132
93	0x3e1c260d	0.1524889
94	0x3901e11a	0.00012386256
95	0xbdeb3e96	-0.11486547
96	0x3dd5d1a2	0.10440375
97	0xbbd17ea4	-0.0063932706
98	0xbe0535f1	-0.13008858
99	0xbc5e279f	-0.013559251
100	0xbd6613dc	-0.056171283
101	0x3e4e5502	0.20149615
102	0x3de77138	0.11300892
103	0xbd86d115	-0.06582848
104	0x3e122783	0.14272885
105	0x3dbc6639	0.09199185
106	0xbc35f2f5	-0.011105289
107	0x3e22f6fb	0.15914528
108	0x3dc8a0a9	0.097962685
109	0xbbc51a1d	-0.006015076
110	0xbe0ad6a8	-0.13558447
111	0xbd0ef0b6	-0.03489753
112	0x3d7a6d99	0.061139677
113	0x3d8a5cff	0.06756019
114	0x3b00327d	0.0019561343
115	0xbde398b6	-0.11113112
116	0xbd282bc0	-0.04105735
117	0xbce42c6a	-0.02785321
118	0x3d6e2ba6	0.058147095
119	0x3e1a29e6	0.15055045
120	0xbdb6e5b5	-0.08930532
121	0x3e03a74a	0.12856784
122	0xbd1f9feb	-0.03897087
123	0xbda95c32	-0.08269538
124	0xbcaf593f	-0.02140486
125	0xbd98f51b	-0.07468625
126	0x3d520dee	0.051282816
127	0x3d9997b2	0.07499637
128	0x3e195d11	0.14976908
129	0xbda91d08	-0.082574904
130	0x3d3cea42	0.046121843
131	0xbd9abca1	-0.07555509
132	0x3d3066d0	0.0430668
133	0xbd132d53	-0.035931896
134	0x3ddd1b89	0.107962675
135	0xbded1554	-0.11576334
136	0x3c2556ea	0.010091523
137	0x3d09847d	0.033573616
138	0x3dfaa014	0.12237564
139	0x3c44d496	0.012013575
140	0x3e28fbb0	0.16502261
141	0xbe25b56a	-0.16182485
142	0x3e1277c1	0.14303495
143	0x3e3a80f1	0.1821325
144	0xbd0086e1	-0.03137863
145	0x3dea2f65	0.11434821
146	0x3e04b2d4	0.12958843
147	0x3de18efb	0.110135995
148	0x3d9d89d9	0.07692308
149	0x3e32d98f	0.17465805
150	0x3e28862a	0.1645743
151	0xbd9a5935	-0.07536546
152	0xbcf59178	-0.029976591
153	0xbbeadb89	-0.007167284
154	0x3d03e2d1	0.03219873
155	0x3d89ba3b	0.06724974
156	0xbd186535	-0.037205894
157	0xbd7fc7a6	-0.06244626
158	0xbd0ffbf6	-0.035152398
159	0xbd953206	-0.07284932
160	0x3d26d6fb	0.040732365
161	0xbd1a3ffa	-0.03765867
162	0x3d9acf1f	0.075590365
163	0x3e0d424d	0.13794823
164	0x3c704da9	0.014666953
165	0x3e29871c	0.16555446
166	0xbcc408ea	-0.023930032
167	0x3e3ed50e	0.18635961
168	0x3c911ca7	0.017713858
169	0x3c822f57	0.015891714
170	0x3b9cedc9	0.0047890884
171	0xbca93574	-0.020655371
172	0x3e0a608a	0.13513389
173	0x3cb547d5	0.022128979
174	0x3dd0f52a	0.10203011
175	0x3d6431af	0.055711444
176	0xbdf04837	-0.11732524
177	0x3c10ac8f	0.008830204
178	0xbd9447a3	-0.07240226
179	0x3d8c0800	0.068374634
180	0x3d245179	0.04011676
181	0x3cec6d1a	0.028860617
182	0xbd84f8a3	-0.06492736
183	0x3e1918c0	0.14950848
184	0x3e074cc6	0.1321288
185	0xbd3da6ce	-0.046301655
186	0xbdd3c8cc	-0.10341033
187	0x3e1aa262	0.15101007
188	0xbccad6db	-0.024760654
189	0xbe359c8a	-0.17735496
190	0xbda421b8	-0.08014244
191	0x3c2416a1	0.010015161
192	0xbc4643f2	-0.01210116
193	0xbcbaa2a6	-0.022782635
194	0x3df92e6e	0.12167059
195	0x3e2e8176	0.17041573
196	0x3c9c522c	0.019082151
197	0x3cd2e0fe	0.02574205
198	0x3cca5f84	0.024703749
199	0xbce2c557	-0.02768199
200	0x3dfaac81	0.12239934
201	0x3de10d7c	0.109889
202	0x3c92dbb5	0.01792703
203	0xbc814d08	-0.015783802
204	0x3d52ecfa	0.05149553
205	0x3d740a0c	0.059579894
206	0xbd1e119e	-0.03859102
207	0x3cf72d13	0.03017286
208	0x3d91911e	0.07107757
209	0xbdef8d17	-0.116968326
210	0x3e3b79ae	0.18308136
211	0xbde0edc3	-0.109828494
212	0xbd89a54b	-0.0672098
213	0x3e1bed7d	0.15227313
214	0xbd302328	-0.043002278
215	0x3e26c823	0.16287284
216	0xbdb0b804	-0.08628848
217	0x3dd1f28f	0.102513425
218	0x3e108895	0.14114602
219	0x3dda52e9	0.10660345
220	0x3bd77590	0.006575294
221	0x3dc50718	0.09620494
222	0x3b7f2a16	0.0038934997
223	0x3e0c4a37	0.13700186
224	0x3db43d88	0.08800799
225	0xbdf46545	-0.11933378
226	0xbcc03538	-0.023462877
227	0x3e1ec495	0.15504678
228	0x3cf5463f	0.029940723
229	0x3e0cf6ee	0.13766071
230	0x3dcff931	0.10154951
231	0x3db69a13	0.08916106
232	0xbc715003	-0.014728549
233	0xbce7e8b0	-0.028309196
234	0xbd73bb3b	-0.05950473
235	0x3da3e74f	0.08003103
236	0x3dc2e32d	0.095159866
237	0xbda23f15	-0.07922188
238	0xbdc391a5	-0.09549264
239	0x3c46d905	0.012136702
240	0x3e44bd82	0.19212916
241	0x3e58e84f	0.21182369
242	0xbd936846	-0.07197623
243	0x3db7286f	0.08943259
244	0xbd8701cb	-0.06592139
245	0x3cec0dfd	0.028815264
246	0x3d7825ca	0.060582913
247	0x3c283f0f	0.010268941
248	0x3dc1f266	0.09470062
249	0x3da97287	0.082737975
250	0x3cd1a7af	0.025592653
251	0x3d92b716	0.07163827
252	0x3d3bcbf8	0.045848817
253	0x3d03c3a8	0.032169014
254	0xbd1b939e	-0.037982576
255	0x3da2fc33	0.079582594

onnx::LSTM_101 f4 [1, 256, 64]
0	0x3d821be8	0.06352979
1	0x3d949691	0.07255281
2	0x3d8933a6	0.06699304
3	0xbdc0c903	-0.0941334
4	0xbd095fe4	-0.033538714
5	0xbdb2eb2f	-0.08736264
6	0xbd0956a9	-0.03352991
7	0xbbf57524	-0.007490771
8	0x3e481955	0.19540913
9	0xbb5a0fa7	-0.003327349
10	0x3de34925	0.110979356
11	0x3df2f554	0.11863199
12	0xbe7ccccb	-0.24687497
13	0x3df9d4fe	0.12198828
14	0xbd92ecd9	-0.07174081
15	0xbc03800c	-0.008026134
16	0xbe39ae87	-0.18132983
17	0xbbf71d3c	-0.007541327
18	0x3de214a1	0.11039091
19	0x3e4e7bf8	0.20164478
20	0x3dca7ffb	0.098876916
21	0x3e775cbb	0.24156468
22	0x3d33da51	0.043909375
23	0x3e7caa29	0.24674286
24	0x3c74c612	0.014939802
25	0xbd81af3d	-0.06332252
26	0xbe2da1a2	-0.1695619
27	0x3d08c229	0.03338829
28	0x3dc6b488	0.09702402
29	0x3d00ec28	0.031475216
30	0x3d3e0a14	0.04639633
31	0xbcd1d74a	-0.025615353
32	0x3d96f369	0.073706456
33	0x3d4e1171	0.050309602
34	0x3df99a45	0.12187628
35	0x3e2098d0	0.15683293
36	0xbdb1f915	-0.08690087
37	0x3df4a4c8	0.11945492
38	0x3e40953b	0.18806927
39	0x3e1edabc	0.15513128
40	0xbce165fb	-0.027514448
41	0xbdd1e6fa	-0.102491334
42	0x3dc388fd	0.09547613
43	0x3dc28cc4	0.09499505
44	0x3e7b15f8	0.24520099
45	0xbd44d6cd	-0.048056412
46	0xbdd0837d	-0.101813294
47	0xbce8e619	-0.028430032
48	0x3de01e40	0.1094327
49	0xbd5ff597	-0.054677572
50	0xbe096e01	-0.1342087
51	0x3d1314f0	0.03590864
52	0x3dd28f67	0.10281258
53	0x3e154d6a	0.14580312
54	0xbda6395f	-0.081164114
55	0xbe26b0a0	-0.16278315
56	0x3d8bc771	0.0682515
57	0xbd629bfb	-0.055324536
58	0x3e06ef6f	0.13177274
59	0x3e2ae3de	0.16688487
60	0x3e61f3e4	0.22065693
61	0x3e49e3e5	0.19715841
62	0xbcd529da	-0.026020933
63	0xbde16ee6	-0.1100748
64	0xbe4ab22b	-0.19794528
65	0xbd0f58aa	-0.034996666
66	0x3e6d603b	0.2318124
67	0xbe50ef49	-0.2040378
68	0xbdc4a41b	-0.09601613
69	0x3d4732b5	0.048632342
70	0xbe5f834c	-0.2182743
71	0x3da77132	0.08175887
72	0xbc7414b9	-0.014897519
73	0xbdf321e5	-0.11871699
74	0xbe162d9c	-0.14665836
75	0x3dd70b9a	0.1050026
76	0xbdc7d4d1	-0.097573884
77	0x3e26bcca	0.16282955
78	0x3d4dd050	0.05024749
79	0xbe1c8e91	-0.1528876
80	0x3e595957	0.21225487
81	0x3ca45ec6	0.020064723
82	0xbc157846	-0.009122914
83	0x3e80adf9	0.2513273
84	0xbde5317c	-0.11191079
85	0xbe2a1e68	-0.16613162
86	0x3e08325f	0.13300465
87	0x3deb02a4	0.11475113
88	0xbd89a5af	-0.06721055
89	0xbddb0563	-0.10694387
90	0x3e51ac44	0.2047587
91	0x3e41e2af	0.18934129
92	0x3d79f576	0.061025105
93	0x3e37972a	0.17928758
94	0x3e0a40ad	0.13501234
95	0xbc40a9ab	-0.011759202
96	0xbd70eee9	-0.058821592
97	0xba4fa454	-0.000792091
98	0x3e0cbc32	0.13743666
99	0x3cb5cd25	0.022192547
100	0x3e44908e	0.19195768
101	0xbd3a5a84	-0.04549648
102	0x3d107b4d	0.03527384
103	0x3d73a7f5	0.05948635
104	0x3c82c587	0.015963329
105	0x3db583c5	0.08863024
106	0x3e54beb6	0.20775875
107	0x3d71ffde	0.059081905
108	0xbdf71e6d	-0.1206635
109	0xbd3f39ea	-0.04668609
110	0x3c0db55a	0.008649195
111	0x3d180e68	0.037123114
112	0x3d4803f0	0.04883188
113	0x3e22d191	0.15900256
114	0xbdd34850	-0.10316527
115	0xbd17a167	-0.03701916
116	0x3e133a1a	0.14377633
117	0x3dc98b79	0.098410554
118	0x3e541bd9	0.20713748
119	0x3e1d212c	0.15344685
120	0x3c0dbaac	0.008650463
121	0x3d9c5e6c	0.07635197
122	0xbe62fc7d	-0.22166629
123	0x3db50860	0.08839488
124	0x3db99733	0.09062042
125	0x3e0ad827	0.13559018
126	0xbe3364b4	-0.17518884
127	0x3e1d023b	0.15332882
128	0x3e09c0fd	0.13452525
129	0x3db61b1a	0.08891888
130	0xbdcd19c3	-0.10014679
131	0x3cadd059	0.021217512
132	0x3e08617f	0.13318442
133	0xbe422172	-0.18958071
134	0x3df91d73	0.1216382
135	0x3e50d070	0.20392013
136	0xbd05f7cc	-0.03270702
137	0x3c9aaac4	0.018880256
138	0x3da6f47b	0.081521
139	0x3da72251	0.08160842
140	0x3e5700da	0.20996419
141	0xbde5166b	-0.111859165
142	0xbdaebea2	-0.08532454
143	0xbd2d3cb1	-0.042294208
144	0x3e420493	0.18947057
145	0xbe0710ee	-0.13190052
146	0x3e1721cb	0.14758985
147	0xbe33e2f3	-0.17567043
148	0xbe2b0d97	-0.16704403
149	0x3cdafbd1	0.026731404
150	0xbdd8befc	-0.105833024
151	0x3e238d87	0.15971957
152	0xbe3fc354	-0.18726856
153	0x3da70bd2	0.081565514
154	0x3da485a1	0.080333
155	0x3b8c60f2	0.0042840177
156	0x3dd65d35	0.104669966
157	0xbdccaece	-0.09994279
158	0x3dca5c79	0.09880919
159	0xbd31a0d2	-0.04336626
160	0x3d01034b	0.03149728
161	0xbbf7a0a2	-0.0075569907
162	0xbe568131	-0.2094772
163	0x3e5875db	0.21138708
164	0xbe4d727c	-0.20063204
165	0xbd84482e	-0.0645908
166	0x3e6494c7	0.22322379
167	0x3e426212	0.18982723
168	0x3e3be6a1	0.18349697
169	0xbdc7af5a	-0.097502425
170	0x3de4d3d0	0.111732125
171	0x3d9c9af5	0.07646743
172	0xbe489ceb	-0.1959111
173	0x3e470e44	0.19439036
174	0x3dda67a9	0.10664303
175	0xbdb6f1c1	-0.0893283
176	0xbe15e3bf	-0.1463766
177	0xbdd19389	-0.10233218
178	0xbe046657	-0.12929665
179	0xbdc96ebd	-0.09835575
180	0xbe265fff	-0.16247557
181	0x3e2962da	0.16541615
182	0x3de89ff0	0.11358631
183	0xbe29f94e	-0.16599008
184	0xbe3876f7	-0.18014131
185	0xbe146b59	-0.14494075
186	0xbd3a4b68	-0.04548207
187	0xbe4c8fbf	-0.1997671
188	0xbd0aa029	-0.033844147
189	0x3d09900d	0.033584643
190	0xbdc2b8c1	-0.09507895
191	0x3e3409e9	0.17581905
192	0xbe47a04b	-0.1949474
193	0x3cb8efec	0.022575341
194	0x3e514d7f	0.20439719
195	0xbbfb816f	-0.007675342
196	0x3e1ea018	0.15490758
197	0x3ca16926	0.019703459
198	0xbe52b7f0	-0.20577979
199	0xbe887825	-0.26654163
200	0xbda62e2a	-0.08114274
201	0xbe471ef2	-0.19445398
202	0x3e165f48	0.14684784
203	0x3e39da9f	0.18149804
204	0xbdec6f8f	-0.115447156
205	0x3e0d3e0f	0.13793205
206	0xbe380dd0	-0.17974019
207	0xbe295604	-0.16536719
208	0x3d21ce63	0.039503466
209	0xbe544ce1	-0.20732452
210	0xbe5290e4	-0.20563084
211	0x3e451616	0.19246706
212	0xbcd18024	-0.025573798
213	0xbd3db956	-0.04631933
214	0x3d933062	0.07186963
215	0xbdaf073c	-0.08546302
216	0x3d357ed5	0.04431041
217	0xbe8741da	-0.26417428
218	0x3dafc371	0.08582199
219	0xbdb41ffb	-0.08795162
220	0xbe59fbd9	-0.21287479
221	0x3e047916	0.12936816
222	0xbd3627f2	-0.04447169
223	0xbe325677	-0.17415796
224	0x3c938c0e	0.01801112
225	0xbc380c46	-0.011233395
226	0x3de74c7f	0.11293887
227	0x3e339ab5	0.17539485
228	0x3dc56978	0.09639257
229	0x3d9bfe2b	0.07616838
230	0xbd41241d	-0.04715358
231	0xbcd67dd1	-0.02618304
232	0xbe4aa64f	-0.19790004
233	0xbcfce6ce	-0.030871775
234	0x3e1dc52f	0.15407251
235	0x3e38f246	0.1806117
236	0x3e06ba7b	0.13157074
237	0xbdb6acc0	-0.08919668
238	0x3e5dede4	0.2167278
239	0xbde1d507	-0.1102696
240	0xbd3a9bba	-0.04555867
241	0xbe3e6063	-0.18591456
242	0x3db78c22	0.08962275
243	0xbdd97aff	-0.10619163
244	0x3e718fa1	0.23589946
245	0x3d98a60b	0.07453545
246	0xbe8870fc	-0.266487
247	0xbba29ee4	-0.004962789
248	0xbd1bda34	-0.03804989
249	0xbd5d6f65	-0.054061312
250	0x3df636b7	0.12022155
251	0xbda67c21	-0.081291445
252	0xbe1cd794	-0.15316612
253	0xbe3c1084	-0.18365675
254	0x3d216c7d	0.039410103
255	0xbe28377c	-0.16427416
