Project/results/hb_02/Hummingbird/Hummingbird-1499968.onnx (onnx, 649088 bytes, 10 tensors)

network_body._body_endoder.seq_layers.0.weight f4 [256, 46]
000000 11 82 89 3e c5 4f 33 bd ef b2 cd 3e 00 7d 83 3e
       0.26857045 -0.043777246 0.40175578 0.25681305
000010 e8 f5 a1 bd f2 12 43 be 8c 2a 2a bd 2d d0 82 bd
       -0.07908231 -0.19050196 -0.041544482 -0.06387363
000020 ea cc 2d 3d 74 35 e6 3d 24 d6 57 bd bb 10 d9 3d
       0.04243175 0.11240664 -0.052694455 0.10598894
000030 55 b0 03 3e d7 4f fd 3c 2d f5 b2 3e 57 48 74 3c
       0.12860234 0.03092186 0.3495268 0.014909825
000040 e4 f6 2e 3e 95 3d 0f 3e 24 f2 67 bc d7 62 45 3d
       0.17086369 0.13988335 -0.014156852 0.048189964
000050 9a 83 5f bd c3 86 8b 3c 00 ca bf 3b cf 90 ac bd
       -0.054568864 0.017032033 0.0058529377 -0.084260575
000060 dc d6 c0 3d a6 41 92 bd 91 11 1c bd a7 98 54 3e
       0.09415981 -0.07141428 -0.03810269 0.20761357
000070 83 a3 ce 3e ad 6a 3f bd 0d 30 3f 3a 1e 88 d3 3d
       0.40359125 -0.046732593 0.0007293232 0.10328697
000080 4d 3b 38 3e b8 c3 8c 3e df b4 89 bd 90 1b f8 3d
       0.17991371 0.27493072 -0.067239515 0.12114632
000090 90 d8 17 be a8 2e 97 be 7f 5d 2d be 50 d1 9c bd
       -0.14828706 -0.29527783 -0.16930197 -0.07657111
0000a0 dc 43 18 3e 75 8a ea 3d e5 ef 61 bd 1a a4 18 bd
       0.14869636 0.1145219 -0.055160422 -0.037265874
0000b0 f2 d3 78 bd d9 75 82 3e 88 c8 81 3e 95 b0 0d 3e
       -0.060749 0.25480536 0.25348306 0.13836892
0000c0 0d 05 8d bd cb 58 9a 3d 64 c1 03 be 82 56 cf 3d
       -0.06885729 0.07536467 -0.12866741 0.10123922
0000d0 b2 b2 08 be ae a3 17 bd 4e b7 79 3e ce 9f a0 3d
       -0.13349417 -0.03702133 0.24386331 0.0784298
0000e0 89 ec ee 3d ea d4 4f be aa 9d 2d bc 44 08 75 3e
       0.11666209 -0.20296064 -0.010596672 0.23928934
0000f0 04 75 1d bd 4d 7f 56 3c 43 14 36 be 65 22 68 be
       -0.038441673 0.013091874 -0.17781167 -0.2266937
000100 96 28 c4 bd ad 8e b5 bd 58 8a 06 3e d5 8d 49 bc
       -0.09578054 -0.08865104 0.13138711 -0.012301882
000110 94 10 a5 bd e2 e1 12 3d 86 b7 af bc ef 3f 2c 3e
       -0.08059803 0.03585995 -0.021449815 0.16821264
000120 b7 e9 58 3e 8b 35 2e bd 68 60 27 3e 16 f0 8c 3e
       0.21182905 -0.04253153 0.1634537 0.2752692
000130 25 b7 74 be ae fd e4 bc ab 41 05 be 5e 89 ef bd
       -0.23897989 -0.027952995 -0.13013332 -0.116961226
000140 88 77 02 3e ce 02 3b 3e 2c 19 3d bd dc 7b 47 be
       0.1274091 0.18262789 -0.046166584 -0.19480842
000150 84 40 06 3e 94 9c 5e 3e 03 90 a8 be 5b 39 2d 3e
       0.13110548 0.21739417 -0.32922372 0.1691641
000160 46 d7 17 3b 35 0f 5e be a5 16 e1 ba 3e 8c bc bc
       0.0023169084 -0.21685489 -0.0017172886 -0.023016091
000170 7c 8b 85 3e c9 20 ea bd 62 9d 95 3d 4c 59 7f 3e
       0.2608298 -0.114320345 0.07305409 0.24936408
000180 5e 4f 3d be 1b 85 89 3e 2f a7 e9 bd c5 b4 6c 3e
       -0.18487307 0.26859364 -0.11408841 0.23115833
000190 42 8d ad bc 93 70 35 3d 6a 25 66 bd 05 71 21 be
       -0.021185521 0.044296812 -0.056188025 -0.1576577
0001a0 ff ad 9b 3e ed ab 11 be 13 3f 05 3e 77 8d 3f 3d
       0.30406186 -0.1422574 0.13012342 0.04676577
0001b0 ba 9c ba bd 88 38 25 3d 99 c4 b0 3e 72 51 9d 3b
       -0.091119245 0.040337116 0.34524992 0.004800969
0001c0 ce b5 97 3d e2 69 c6 bd 67 0b 79 3e af f5 a1 bd
       0.07407723 -0.09688164 0.24320756 -0.079081886
0001d0 9c fe d8 bd 71 57 89 3d 2d ab bd 3d bb f8 96 3e
       -0.10595438 0.06706131 0.09261165 0.2948664
0001e0 97 44 19 bd e9 e0 43 3d e0 9a 3b bd 22 ef e0 3c
       -0.037418928 0.047821913 -0.045801997 0.027457777
0001f0 7c f3 3a be 42 03 12 be 52 73 2c 3d 6b 11 c7 39
       -0.18256944 -0.14259055 0.042102166 0.00037969215
000200 bf 4b 0e be 61 91 74 3d a7 6d 2d 3d 24 c2 11 3e
       -0.13896082 0.059708957 0.0423409 0.14234215
000210 b8 88 b4 3c 48 ea bb be c8 e9 07 3d 75 b1 66 3c
       0.022037849 -0.3670218 0.033181936 0.014080395
000220 5c 85 9e 3e c3 34 90 3e 98 88 a6 3d fd cc ed b9
       0.3096112 0.28165254 0.08131522 -0.0004535689
000230 3a 98 10 bd 4d e4 07 3e 3c a5 e0 bd 58 8c 25 3d
       -0.035301425 0.13270684 -0.10969016 0.040417045
000240 8e 03 76 3e aa 05 a5 be 92 38 89 be 1e c8 28 3e
       0.24024794 -0.32230884 -0.26800972 0.16482589
000250 2c 84 9b bd 25 a2 25 bd d9 2f 56 3e 3f 77 8d 3b
       -0.07593569 -0.040437836 0.2091669 0.0043171938
000260 44 f8 1f bd f0 aa 99 be 0b 74 1f 3c 7e ac 86 be
       -0.039055124 -0.30013227 0.009732257 -0.26303476
000270 08 a8 97 3c b1 5c 14 3e de bf 36 3e bd 52 1d bd
       0.01851274 0.14488484 0.17846629 -0.038408983
000280 5c 53 14 bd 50 0d ae 3e 13 dc c8 bd 6d 3d 2d be
       -0.03621231 0.33994532 -0.09807601 -0.16917963
000290 bb c2 32 be b2 1f a0 3e 11 f0 8b bd 06 31 0a 3e
       -0.17457096 0.31274182 -0.068328984 0.13495263
0002a0 3a cf ee bd b2 6a f0 3d f2 e1 31 be af c2 b1 bd
       -0.11660619 0.117391005 -0.17371348 -0.08679711
0002b0 30 26 98 3d 79 9a 85 bd fa 69 cb 3d ee 7c 86 3e
       0.07429159 -0.06523604 0.09932323 0.2626719
0002c0 f1 b2 62 3d 01 ca e4 bb 83 7f e5 bd f2 00 1d bc
       0.055346433 -0.0069820886 -0.112059616 -0.009582745
0002d0 c8 76 95 be b8 e1 84 be 98 be 1c 3e 73 f9 09 3d
       -0.29192185 -0.2595346 0.15307081 0.03368516
0002e0 11 ec 30 3e f0 6d e5 bc f1 f6 13 3e 9e 83 55 bd
       0.17277552 -0.028006524 0.1444967 -0.052127473
0002f0 2a b3 2e be 9b 06 22 bd ea c1 03 3c c3 9b 85 be
       -0.17060533 -0.03955708 0.008041838 -0.260954
000300 92 b5 87 3e 75 88 94 bd b9 09 05 be 95 e2 2a 3e
       0.26505715 -0.072525896 -0.1299199 0.16687997
000310 db 34 7d bc fe 7b 16 be 77 64 4f bd fb 65 20 3d
       -0.015454496 -0.14695737 -0.05063292 0.039159756
000320 ae 62 48 be 2e 9a 24 3e b2 24 b9 3c de 80 08 3e
       -0.19568893 0.1607444 0.022600506 0.13330409
000330 aa 5d d4 3d 75 2e 5a bd fd 77 47 bd 08 4e ab 3e
       0.103694275 -0.05326696 -0.048698414 0.3345797
000340 1e ed ed 3d 62 13 cd 3c d2 de 9e 3d 45 38 93 3d
       0.11617492 0.025033657 0.07757343 0.07188467
000350 97 58 31 be 55 b0 93 bc c2 d8 4b 3c 58 58 2e 3e
       -0.1731895 -0.018028418 0.012441816 0.17025888
000360 05 79 39 bd fb 6e 1c 3e 96 d0 a1 bd 95 76 95 3d
       -0.04528143 0.1527671 -0.07901113 0.07298008
000370 5b 49 0b 3e a1 1e 20 3d 10 09 1a 3d 2c 5b 2a be
       0.13602202 0.03909171 0.0376063 -0.16636342
000380 eb 77 d4 bd 80 9e 5d be a8 35 6e be 10 cc 54 3e
       -0.10374435 -0.21642494 -0.23262656 0.20780969
000390 25 17 96 be f1 a9 5d 3e cc e7 e1 bc 0b 4c fb 3a
       -0.29314533 0.21646859 -0.02757635 0.0019172443
0003a0 66 9b 1f 3d 25 66 c6 bb 62 09 09 be 31 99 3b be
       0.03896656 -0.006054657 -0.13382486 -0.18320157
0003b0 5f 80 37 3d bc 95 01 3d 36 e2 67 3e a0 a1 46 bd
       0.04480016 0.03163694 0.22644886 -0.04849398
0003c0 f4 b5 f5 3d bd 63 2c 3e 0e d8 1a 3e 9f ff 3b be
       0.119975954 0.16834922 0.15121481 -0.1835923
0003d0 e7 25 37 3d 23 59 42 3e 07 a9 9d 3d de 17 29 be
       0.04471388 0.18979315 0.07698255 -0.16513011
0003e0 20 62 04 3e 05 5b fa 3d 93 06 75 3d 6e 01 c9 bd
       0.12928057 0.12224392 0.059820723 -0.09814726
0003f0 50 15 00 3d 32 82 db bd f8 5f b9 3d d2 66 a3 bc
       0.031270325 -0.10718192 0.09051508 -0.01994649

network_body._body_endoder.seq_layers.0.bias f4 [256]
000000 a7 54 93 bb 1f 62 97 3c 8c a5 13 bc 49 73 cb 3c
       -0.0044961753 0.018479405 -0.009011637 0.024835246
000010 74 60 86 3c ec df 94 3c a9 33 ab 39 6c ff 29 bc
       0.016403414 0.01817318 0.0003265415 -0.010375839
000020 03 63 12 3c 1e 53 fd 3b 54 05 1e 3d 60 85 24 3c
       0.008934739 0.0077308556 0.0385793 0.010041565
000030 77 02 2c 3b 5d ef a8 3a 51 70 b4 3c 2a d0 15 3c
       0.0026246586 0.0012888719 0.022026213 0.009143868
000040 81 27 24 3d 6c 58 57 3c 18 f1 18 3c 06 b5 91 3c
       0.040076736 0.01314364 0.009334825 0.017786514
000050 a8 34 b2 3c 3c a4 91 3c 52 df 89 bb 70 9d 96 3c
       0.021753624 0.017778508 -0.00420753 0.018385619
000060 0e 6f 7b 3b 52 d3 3b bc 22 60 4e 3c b3 73 83 3c
       0.0038365754 -0.011463957 0.012596162 0.01604638
000070 b4 05 ce ba d7 32 21 3c 5d e4 e6 3c c2 7d 2e 3b
       -0.0015718252 0.009838781 0.028185064 0.002662525
000080 c7 20 c7 3c 3e e1 16 3d ce cc f2 3c 23 aa 2c 3c
       0.024307622 0.0368359 0.029638674 0.010538611
000090 3f b4 85 3c 0a bb 24 3d 78 4b d5 3c 9f f4 bc bb
       0.0163213 0.040217437 0.026036963 -0.005766466
0000a0 86 26 a0 3c fe 6b 34 3c d0 7f 1d 3c ee 90 cb bb
       0.01954962 0.0110120755 0.009612992 -0.0062123453
0000b0 c9 77 b8 3b fb 36 3f 3b cf 4b 7b 3c 81 61 58 bc
       0.005629514 0.0029177058 0.015337898 -0.0132068405
0000c0 7c 6c 6e 3a 8f 90 ae 3c 41 93 7a 3c 1d ba 84 3c
       0.0009095145 0.021309165 0.015293897 0.016202027
0000d0 ad a0 4e 3b 06 56 76 bc 2e df 83 3c ed e5 27 bc
       0.0031528876 -0.015035158 0.016097631 -0.01024769
0000e0 ad 23 39 3c 4c f2 d3 bb e7 61 17 3c b1 11 b0 3c
       0.01130001 -0.006468093 0.00923965 0.02149281
0000f0 0e ab fe bb a1 53 50 3c 78 0a cf ba 49 1c b0 3c
       -0.007771856 0.012715251 -0.0015795967 0.021497862
000100 45 04 d2 ba 14 a4 41 bc d4 ad 9c 3b bf 26 2f 3c
       -0.0016023001 -0.011818904 0.004781464 0.01069039
000110 96 d7 e7 3b 48 19 cb 3c 62 10 a7 3c 54 bf 25 3d
       0.0070752604 0.024792328 0.020393554 0.040465668
000120 9e 48 7b 3b 5a 0b 8a bb 9f e5 94 3c 67 e3 86 3c
       0.0038342844 -0.004212779 0.018175898 0.016465856
000130 cc c5 99 3c 1a 35 63 ba 5b 13 01 3d f2 45 8c 3b
       0.018771075 -0.00086672755 0.0315126 0.004280799
000140 8e 55 4a 3c 69 60 21 bc 06 ce 87 bc dd 94 bb ba
       0.012349499 -0.009849646 -0.016577732 -0.0014311332
000150 99 43 0b 3c 91 7d d1 3c 98 1c 81 3c a9 5d 4c 3c
       0.008500003 0.02557257 0.015760705 0.012473502
000160 96 c5 61 3c 16 b7 f3 b9 e0 3a c1 3c bc 49 ba 3c
       0.013780018 -0.0004648498 0.023587644 0.022740237
000170 b6 7d 21 3d af ee 59 3c f1 6b 33 3d 64 c4 0c 3c
       0.039426528 0.0133015355 0.043804113 0.008591745
000180 9a a3 64 3b 7e df 34 3a dc 7b 4c 3c 8d a3 86 3c
       0.0034887553 0.0006899758 0.012480702 0.016435409
000190 02 df 68 3c 99 18 0e 3c 8b 41 7e 3c 74 d6 2c 3b
       0.014213325 0.008672857 0.015518556 0.0026372941
0001a0 0f 6a b1 39 1e e9 a6 3b 01 54 fa 3c cd e5 05 3c
       0.0003383909 0.0050937077 0.030557634 0.008172465
0001b0 62 c2 d3 3b 8e 37 9c 3b d6 81 ba 3c a7 40 72 3c
       0.006462381 0.004767365 0.022766989 0.014785922
0001c0 77 8e d7 3c 84 cc 5c 3c 76 57 1c 3b 7c d4 6c bc
       0.02631305 0.013476495 0.0023855842 -0.014454957
0001d0 ce dc 0d bb 55 a4 9e 3c 27 78 86 bb e2 0b dd 3c
       -0.0021646502 0.019365469 -0.0041036787 0.026983205
0001e0 90 36 9d bb 7c 17 86 3a 5f 43 9b 3c e1 67 51 bc
       -0.004797764 0.0010230388 0.018953023 -0.012781114
0001f0 42 d3 8f 3a 81 e5 38 3c 9a fd 31 3c d5 77 8a 3c
       0.0010972994 0.011285187 0.010863686 0.016902843
000200 13 79 e3 3b ba 68 b9 3c 9f e5 d0 3b 83 b9 2e 3c
       0.0069419234 0.022632945 0.006375029 0.010664347
000210 89 c5 1c 3c c6 60 c9 3c 81 ea 8c 3c 30 f9 07 3b
       0.00956858 0.024582278 0.017201664 0.0020747893
000220 11 10 2b 3c 85 3b aa bb 41 cf 38 3d 01 1c 0f bc
       0.010440842 -0.0051950836 0.045119528 -0.008734704
000230 db 09 0f 3a 47 af 65 3c 95 58 0c 3c 00 14 2c 3c
       0.00054564857 0.01401884 0.0085660415 0.010502815
000240 31 32 00 bd 4d 35 90 3c 1a 3d b0 3c 28 2a bc 3b
       -0.031297866 0.01760354 0.02151351 0.00574233
000250 b2 95 e9 3c bb f3 bd 3c 97 43 00 bc df 8e 10 3b
       0.028513763 0.023187509 -0.007828615 0.0022057814
000260 74 6f 7c 3c 66 21 65 3c 5b 6e 4a 3c 8a 2f 11 3d
       0.015407432 0.013985014 0.012355412 0.035445727
000270 4a 4a a9 3c ae 32 b0 3b cf 7b 9b 3c bd e0 5a bc
       0.020665307 0.0053771352 0.018979935 -0.013359246
000280 ae 13 0c 3c 91 e3 d9 ba b0 00 5a 3c b5 27 83 3c
       0.008549614 -0.0016623606 0.013305828 0.016010145
000290 e3 a4 93 3c c3 a1 c7 3c 61 3c 6d 3b cd a0 04 3c
       0.01802296 0.024369126 0.0036199319 0.0080949785
0002a0 9a 17 29 3c f7 5e d2 3c 6d 7d 79 3b 16 db 5a 3c
       0.010320568 0.025680048 0.0038069144 0.013357898
0002b0 25 8d e1 3c 6c e7 42 3c cf 6f f3 3c 83 10 4f bb
       0.027533123 0.011895996 0.0297164 -0.0031595535
0002c0 5f d6 a4 3c c2 71 19 bc 4e 6c da 3c 99 55 bd 3c
       0.020121751 -0.009365501 0.026662972 0.023112105
0002d0 cf 9e 10 3c 60 ef d5 3c 10 47 a7 3c cb a1 8f 3c
       0.008826925 0.02611512 0.020419627 0.017533204
0002e0 c0 33 ee 3c 15 6f dd 3b 94 78 db bb b6 17 21 3c
       0.02907741 0.006757627 -0.0066977236 0.009832313
0002f0 85 9c 88 3c a3 60 18 bc 51 11 91 3c e9 61 2a 3c
       0.016676197 -0.009300384 0.017708452 0.01039932
000300 ca 2c 7f 3c c9 eb 6f 3c 4f 82 8f 3b 0c 2e 65 3c
       0.015574643 0.014643618 0.0043795477 0.013988029
000310 0e 73 c0 3c 6d 0d b0 3c ab fc 04 3c d5 f4 5e 3c
       0.023492362 0.021490777 0.008116881 0.013608177
000320 de 69 30 3c 04 fa 97 bb ff af 72 3b fa b2 87 bc
       0.010767428 -0.0046379585 0.0037031171 -0.016564835
000330 61 82 2a 3c c4 eb a4 3c fa dd ba ba a1 b5 86 3c
       0.010407061 0.020131953 -0.0014256828 0.01644403
000340 76 08 2a bc 86 ad 43 3b 5d 93 87 3c 51 04 2b 3b
       -0.010377994 0.0029858067 0.01654976 0.0026095102
000350 f8 26 57 3c 5b db a5 3a f1 29 11 3d 5a 39 ba 3b
       0.0131318495 0.0012653874 0.03544039 0.0056831064
000360 7c ec 29 3c f5 26 79 3c d4 d8 0d 3c 9e 35 5d 3a
       0.010371324 0.015207042 0.008657653 0.00084384705
000370 33 f2 4b 3c 86 96 d1 3c b1 b5 57 bc 25 82 9a 3c
       0.0124478815 0.02558447 -0.013165877 0.018860886
000380 c1 9d 40 3c 56 38 0b 3d d0 81 d0 3b f5 ac 31 bc
       0.011756361 0.033989273 0.006363131 -0.010844459
000390 2d d4 14 3d ff 7f 83 3c b4 d6 52 3b f4 ee 2b 3c
       0.03633516 0.016052244 0.003217143 0.010493983
0003a0 6a 84 f1 3c fb ce b9 ba e8 19 9d 3a 24 20 2d bd
       0.029482085 -0.0014176065 0.001198587 -0.04226698
0003b0 0f b2 a6 3c 6f 2c 6b 3b 1e 9e 7b 3c 76 39 9f ba
       0.020348577 0.0035884639 0.015357522 -0.0012147862
0003c0 95 6b 29 3c 2a 50 b0 3c bc ad 42 3c 45 e1 dc 3c
       0.010340591 0.0215226 0.011882242 0.026962886
0003d0 df e0 17 3c 9b 49 3d 3b fa eb 9a bb 32 16 0d 3d
       0.009269922 0.0028882984 -0.0047278376 0.034444995
0003e0 6a 2f 5f 3b 96 61 3b 3a da 75 f9 bb 90 ac 6d 3c
       0.003405536 0.00071480253 -0.007612926 0.014506474
0003f0 61 40 a1 3b a9 3c 97 3c d8 f1 3c 3b 23 6e 17 bc
       0.0049210046 0.018461542 0.0028830674 -0.009242567

network_body._body_endoder.seq_layers.2.weight f4 [256, 256]
000000 80 ca 39 bd c0 dd c4 bc ef 43 5d bd 46 15 41 3d
       -0.045359135 -0.02403152 -0.054019865 0.04713943
000010 99 88 85 3d 3c fc 45 bd 85 81 8e bd 6f 98 fc 3d
       0.065201946 -0.048336253 -0.06958298 0.12333762
000020 d4 2f 05 3d 9f e2 1d bd 7c 33 7f 3c 1c 17 08 3e
       0.032516316 -0.0385462 0.01557624 0.13290066
000030 59 72 99 bc 82 bd a0 bd 96 13 2d bd 22 d1 0f 3e
       -0.018731283 -0.07848646 -0.042255007 0.14044622
000040 05 af 42 bd 8d 1e 1c 3d 68 ef df 3c cb 0b c9 bd
       -0.047530193 0.038115073 0.027335837 -0.098167025
000050 b8 11 3f bd 05 10 40 3c 7a 44 8d 3c 33 2c b6 3b
       -0.046647757 0.011722569 0.017244566 0.005559468
000060 64 7e 78 3d 14 cd 46 bc b7 71 6d 3c 5d a2 b7 3c
       0.06066741 -0.012133855 0.014492444 0.022416288
000070 c3 f4 71 3d 77 16 99 bd 60 c9 65 3d 8b e7 d5 3c
       0.059071314 -0.07474988 0.05610025 0.026111385
000080 4e bb 8e bd 01 87 c4 3d c9 34 27 bc 13 05 1a bd
       -0.06969319 0.095960625 -0.010205456 -0.037602495
000090 df 1b 51 3c 2f 17 b0 3d 19 ad 3b 3c 14 f0 ab 3d
       0.012762993 0.08598172 0.011454844 0.08395401
0000a0 42 07 a9 3d 32 6a 7a bd c8 77 5f bd a3 97 6c 3d
       0.082533374 -0.061136432 -0.05455759 0.0577618
0000b0 71 e4 15 3c 65 b1 db 3d 0c 55 6e 3c c8 8e 5e 3d
       0.009148703 0.10727195 0.014546644 0.054335386
0000c0 c1 52 15 bd 4b 9a 05 be 16 41 f9 3d 46 18 8a 3b
       -0.036455873 -0.1304714 0.12170617 0.0042143194
0000d0 a6 3b 78 bd 2f 4d b5 3d 74 8b 41 3c 2a 70 3f bd
       -0.06060376 0.08852612 0.011813033 -0.046737827
0000e0 88 be 60 bc f7 51 23 bd b8 67 18 3d 73 a6 6b 3c
       -0.013717301 -0.03987309 0.03720829 0.014382946
0000f0 75 83 62 3c e7 0f 88 3c 68 c8 1f bd de 68 27 3c
       0.013825287 0.016609145 -0.03900948 0.010217873
000100 3e 10 c0 bb 82 af 4e 3d 7c 26 97 bc dc bd d0 3b
       -0.005861311 0.050460346 -0.018450968 0.0063702893
000110 0d 16 aa bd 18 c9 d1 bd 4b 71 c4 bc e1 b4 4f bd
       -0.08304987 -0.10243434 -0.023979804 -0.05070961
000120 a2 11 c3 bd 17 51 2f 3d f0 aa bd 3c 77 83 7d 3d
       -0.095248476 0.042801943 0.023152798 0.061892953
000130 35 e7 31 bd 69 e7 f5 bc d4 cb 7b 3d 3b 01 6b bd
       -0.043433387 -0.030017572 0.061473683 -0.05737422
000140 31 57 ae bd 8f b0 5e 3d 92 14 c2 bc 94 d7 41 3d
       -0.08512724 0.0543676 -0.02369145 0.047324732
000150 49 d9 7a 3d 6d e7 f4 3c 2d 25 22 bc ae 6f d6 bd
       0.061242376 0.029895509 -0.009896559 -0.1047052
000160 1a e8 e3 3d 8d 4a 40 3d 72 b9 3d 3d 2f 23 3d 3c
       0.11128254 0.046946097 0.046319433 0.011544033
000170 f1 d4 52 3e 96 29 4a bd 08 d7 92 bd 00 8f 54 3d
       0.20589043 -0.049356066 -0.0716992 0.051894188
000180 87 7d a4 3d 1b 01 b6 bd 66 8e 5e 3d 00 cb ab 3d
       0.08031755 -0.088869296 0.05433502 0.083883286
000190 a2 c0 08 3d 02 fb 99 bd aa 0a 8f bd 4e 32 aa 3c
       0.033386834 -0.07518579 -0.06984456 0.02077594
0001a0 33 d1 11 3d f3 a8 21 bd f0 70 2f bd c8 0f 75 be
       0.0355999 -0.039467763 -0.042832315 -0.23931801
0001b0 47 a2 0f 3c 1b 82 e8 3d 46 a0 cb bc 87 2b 14 bd
       0.008766717 0.11352941 -0.024856698 -0.036174323
0001c0 45 0d 3d 3d c2 81 4c 3c a0 61 a3 bd e0 0c 6b bd
       0.046155233 0.012482109 -0.07977605 -0.057385325
0001d0 aa c8 31 be 00 67 df 39 48 de 77 bd 96 c9 f1 3d
       -0.17361704 0.00042610615 -0.06051472 0.118060276
0001e0 a3 1e e3 38 7a 16 3e 3d 15 86 da bd 73 a5 86 bc
       0.0001082991 0.046408154 -0.10670105 -0.016436314
0001f0 73 e7 a4 3d 87 1f 9e 3c 65 5d ad 3d fb 41 1f 3c
       0.08051958 0.019302143 0.08465079 0.009720321
000200 5e f9 0e bd 19 5c 15 3d 81 a5 84 bd 0a 4d e6 3c
       -0.034905784 0.036464784 -0.0647688 0.028112907
000210 7a ab 02 3e fc e2 37 bd 0f 5c b9 bd 3e bc 96 3c
       0.12760726 -0.044894204 -0.09050762 0.018400308
000220 06 05 04 bd 1a 59 f7 3c 3e b2 39 bd c5 c8 e5 3c
       -0.032231353 0.030193854 -0.045336 0.028049836
000230 f8 80 1f 3d 91 b9 d4 bc 07 74 a6 bd 3c 5d e9 3c
       0.038941354 -0.025967391 -0.08127599 0.02848684
000240 d7 27 2c bd 03 41 be 3c 62 cc 88 3c e6 e6 bb 3d
       -0.04203018 0.02322436 0.01669902 0.091749
000250 4d 25 b0 3d 4c 42 29 be 2d a7 ac 3d ce b3 82 bb
       0.086008646 -0.16529197 0.08430324 -0.0039887195
000260 a9 41 5e bc e9 f9 e8 3c 85 d8 10 3d 50 ea a0 3d
       -0.013565459 0.028439479 0.03536274 0.078571916
000270 46 53 16 3d b3 1a c9 bc ad c0 9d 3c 54 89 ba bd
       0.03670051 -0.024548864 0.019256914 -0.091082245
000280 f9 54 1d 3d 17 fa 7c 3d db a2 91 bc 61 91 e1 bc
       0.038411114 0.06176194 -0.01777785 -0.027535142
000290 b9 5a d7 bc 07 b0 13 3d f9 80 43 bc f2 aa 45 bd
       -0.026288377 0.036056545 -0.011932605 -0.04825873
0002a0 01 a6 41 3d 3b 79 3f 3d aa f3 7e 3c 06 98 09 be
       0.047277454 0.046746474 0.015561024 -0.13436899
0002b0 45 de 1a 3d e3 75 42 bd 13 29 13 bd 49 66 3b bd
       0.03780963 -0.047475707 -0.035927843 -0.045751844
0002c0 e3 3a d7 3d 98 c3 91 3a 42 64 af 3c 38 12 03 3d
       0.105092786 0.0011120914 0.021410111 0.031999797
0002d0 f1 39 64 3c 03 c5 c9 3c 7c d1 bd 3d d7 2f 9f 3b
       0.01392983 0.024630075 0.092684716 0.004857998
0002e0 df 65 40 bd b5 18 b4 bd e6 e4 b6 bd 22 db c6 bd
       -0.04697215 -0.08793775 -0.08930378 -0.09709765
0002f0 d5 26 9b bd 6f c2 06 bd 53 a8 b7 3a c6 c4 0a bd
       -0.07575766 -0.03290027 0.0014011957 -0.033879064
000300 34 50 1b bd b3 ce 68 3c 3f d9 f3 bd ce 1e e1 bd
       -0.037918285 0.014209437 -0.11906671 -0.10992204
000310 fb 42 80 bd b9 de 71 be b2 c3 c0 3d cb 7b a4 3d
       -0.062627755 -0.23620118 0.09412326 0.08031424
000320 8f c8 3c 3d f8 df 0d bd bc 04 0d 3e ff be 06 3d
       0.046089705 -0.03463742 0.13771337 0.03289699
000330 bc 48 53 bd 9c 57 0b bd 58 1f 0a 3e c5 6a 77 bd
       -0.051583037 -0.034019098 0.13488519 -0.060404558
000340 ea 80 af 3a 49 0c 2e bd 2f 29 06 bc 91 74 63 bb
       0.001338986 -0.042492185 -0.00818853 -0.003470693
000350 7f 5f d7 3c 4c a4 97 3a 70 2f 2f 3c ca 14 83 bc
       0.026290653 0.001156935 0.010692462 -0.016001124
000360 1e 54 65 3d 85 65 2c 3d 01 5d ca bc 6c 1b 4f bd
       0.055988424 0.042089004 -0.02470255 -0.05056326
000370 27 f0 dc bd ed c8 7c bd 61 fd 3e 3d 10 d4 5e b8
       -0.10787993 -0.061715055 0.04662836 -5.3126423e-05
000380 c2 72 9f 3d 0b 27 7a 3c eb 50 e6 bc 71 bc 1d 3c
       0.0778556 0.015268098 -0.028114757 0.009627447
000390 69 43 8c ba 91 23 73 3d 36 dd f4 3c 59 d0 24 bc
       -0.0010701242 0.05936009 0.029890638 -0.01005944
0003a0 62 15 78 bd 27 77 12 bc e0 1c 13 bd 2f 07 56 bc
       -0.060567267 -0.008939541 -0.03591621 -0.013063236
0003b0 b4 9d 6b 3c fb 2f a8 3c 20 af c0 bd 5a 5e 16 3e
       0.014380861 0.020530691 -0.094084024 0.1468443
0003c0 be 8d 28 bc ce 5a 44 3d e4 f9 94 bd ea c1 6d bd
       -0.0102877 0.04793816 -0.07274225 -0.05804626
0003d0 d1 51 ee bc 9c 13 92 3c 91 67 36 bc f3 52 94 39
       -0.029091747 0.017831616 -0.011133091 0.00028290562
0003e0 82 8d 8c 3d 09 d0 57 bd a9 2a 8d 3d ee 70 be 3c
       0.06862928 -0.052688632 0.068929024 0.023247208
0003f0 3e 55 08 bd d6 ac c5 bd 85 dd 83 bd 5e 96 95 3d
       -0.03328442 -0.096521065 -0.06438736 0.07304071

network_body._body_endoder.seq_layers.2.bias f4 [256]
000000 84 16 2a bc c7 a3 b5 3c 61 3c 1d bb 10 ec bd 3b
       -0.010381345 0.022172822 -0.0023992287 0.005795963
000010 00 50 46 bc 34 b9 1b 3c 77 9e e8 3b 45 59 a5 3c
       -0.012104034 0.009504605 0.0070989686 0.020184169
000020 eb b0 ca 3c 72 df e4 3b 19 70 f7 3b 21 a8 c0 b9
       0.024742564 0.0069846446 0.007551205 -0.0003674636
000030 64 c8 da 3c 69 77 d6 ba df e5 78 3c 3d 63 d2 3a
       0.026706882 -0.0016362491 0.015191524 0.0016051304
000040 f4 5c ca 3b cb 96 cb bb ff 02 fe 3b 6f a6 33 3b
       0.0061756317 -0.0062130443 0.007751822 0.0027412435
000050 3e 02 12 3c fc e9 a2 3b 91 57 c8 bb 18 65 44 3b
       0.008911667 0.004971741 -0.0061139544 0.0029967483
000060 3d 60 04 3b c0 f2 0e 3c dd 25 11 bc 63 fc 2f ba
       0.0020198964 0.008724868 -0.008859125 -0.0006713329
000070 23 79 d8 3c c6 5f 58 3c b8 d6 88 3c 41 99 ad 3c
       0.02642495 0.013206428 0.016703948 0.021191241
000080 b9 21 70 3c d6 63 6c 3b 7a cd 2d ba 0d 31 5d bc
       0.014656478 0.003607025 -0.00066300447 -0.013500464
000090 94 7c 00 bc 02 e1 82 3c 0d 9b 28 bc 76 58 9f 3b
       -0.007842202 0.015976433 -0.010290873 0.0048628403
0000a0 5c bc a6 3c 5f 97 35 3c 91 28 db 3c 88 56 99 3a
       0.020353489 0.011083453 0.026752742 0.0011698762
0000b0 2e 08 d6 bb 36 79 4e 3c ca bb 4b 3c 8f e2 fe 3b
       -0.006531737 0.012602141 0.012434909 0.0077784727
0000c0 ce c0 24 3b ed 7d 5f 3c b5 4b cd 3b af bf 5f 3b
       0.0025139335 0.013640863 0.0062651285 0.0034141352
0000d0 fc 6d 0f bc 33 b5 10 3c ea f5 13 39 be 45 33 ba
       -0.00875425 0.008832264 0.00014110623 -0.00068387005
0000e0 b2 5b 82 3b 14 0b 22 3b 4f 3b 74 3c 99 50 99 3c
       0.003978216 0.0024725841 0.014906718 0.01871519
0000f0 d9 93 d1 bc cb d8 36 3c 04 a0 69 3c c1 0f bb 3b
       -0.025583195 0.011160086 0.014259342 0.005708665
000100 e1 2b 3d 3c 47 6c b2 3c 51 ac b7 3b d0 6c 91 3b
       0.011546106 0.021780146 0.0056052585 0.0044380203
000110 6c 60 b1 3c 4a 7d 4a 3a b1 4f 8e 3b 9d d2 9b 3c
       0.021652423 0.0007724358 0.004342996 0.019021327
000120 01 53 eb 39 dc e0 8a 3c f6 0c 6f 3c b6 1f 51 3a
       0.00044884536 0.016952924 0.0145904925 0.00079774426
000130 20 b8 49 3c 36 ef ce 3c 5c 9d 79 bc 6f a2 b6 3b
       0.012311965 0.025260549 -0.015235271 0.005573563
000140 45 4a 74 3a 4f bd d5 3b 0b 0d 9b 3b 02 85 64 bb
       0.00093189284 0.0065228115 0.0047317795 -0.0034869318
000150 a2 8a cf ba 49 19 c6 3b 82 09 1e 3c 12 7c af 3c
       -0.0015834162 0.0060454947 0.0096458215 0.021421466
000160 87 0c a1 3c 72 08 5e bb e6 09 15 3c 08 c1 86 3c
       0.019659294 -0.0033879546 0.009096598 0.016449466
000170 ad de 1b bc ef 61 68 3c 80 72 9f bb cd 1d 23 3b
       -0.009513539 0.014183505 -0.0048659444 0.0024889589
000180 49 af 7e 3b 61 b7 36 3c a1 21 16 3c f6 33 e4 3b
       0.0038861802 0.011152119 0.009163291 0.006964202
000190 6a 8b 97 3c 55 e9 34 3c 0d 82 1b 3c 8f a8 a4 3c
       0.018499095 0.011041959 0.009491456 0.020099906
0001a0 0d 4b 5c 3c 88 75 bb 3c 95 e4 d5 3b 05 73 eb bb
       0.013445628 0.022883192 0.0065274932 -0.0071853423
0001b0 ba 2b 8f 3c c8 c3 0b 3c 1a 42 01 bc 6f 49 f8 38
       0.017476905 0.008530565 -0.007889295 0.000118392396
0001c0 88 16 93 3b e7 4e e4 3c d5 2d 4b bc 4e 6c 24 3c
       0.00448877 0.027869655 -0.012401064 0.0100355875
0001d0 69 5d b7 3c 63 4c 1c 3c 38 3a 6c bb e4 de 99 3c
       0.022383409 0.009539696 -0.0036045443 0.01878304
0001e0 8d e2 6c 3c 9e 9b bc 3c 4a 5e 2e bc f0 fb 01 3b
       0.014458311 0.023023423 -0.010642597 0.0019834004
0001f0 34 f2 94 3b b8 ee 60 3b 44 c1 9c 3b f1 56 a6 3c
       0.0045454744 0.0034321975 0.0047837812 0.020305129
000200 d2 9f b5 3c eb 3d 09 3c 16 3b c4 3c 25 fe 62 3c
       0.022170935 0.008376579 0.023953956 0.013854538
000210 93 dd 8c b9 dc de af 3b 63 48 1c 3c af f7 11 3c
       -0.00026867967 0.005367143 0.009538743 0.00890915
000220 38 32 1f bc b4 48 96 3b 60 dd 3d 3c bb e1 39 3c
       -0.009716563 0.0045863036 0.011588424 0.011345322
000230 ca 0f 3e 3c fb 32 09 bc 05 69 6c ba 2f 63 4b bb
       0.011600444 -0.008373971 -0.00090183347 -0.003103446
000240 ad 86 aa bc 97 68 af bb 73 64 e0 3b d8 74 f6 3b
       -0.020816172 -0.0053530443 0.006847912 0.007521253
000250 37 4c 81 3c eb fd 82 3c 2b b3 5c 3c 5e ca 27 3b
       0.015783412 0.015990218 0.013470451 0.0025602798
000260 a6 ce 07 3c d8 0f dc 3b 06 24 a2 ba f3 f5 33 3c
       0.008289015 0.006715756 -0.0012370355 0.010983932
000270 64 58 40 bc 94 c8 2d 3c cc 71 8e bb 32 a7 5c 3c
       -0.011739824 0.010606904 -0.0043470617 0.013467597
000280 a9 68 5d b9 9c 7a 23 3c 60 67 38 3c a7 f3 03 3c
       -0.00021115191 0.009977963 0.011255115 0.008053697
000290 26 0c 9b 3c 22 58 3a 3c d2 7c bf bc 9c b1 30 3c
       0.018926691 0.011373552 -0.023374949 0.010784533
0002a0 c3 dd 18 bc 6a 34 3a 3c 71 82 4a 3c b3 2d 69 3c
       -0.009330216 0.011365036 0.012360201 0.014232087
0002b0 fc 88 ab 3b 16 24 80 3b 4d 3d 17 3c c1 51 8e 3c
       0.0052348357 0.003910552 0.009230924 0.017372968
0002c0 bf 99 50 bb d9 24 18 3b 77 6c 03 3c 70 37 7b 3c
       -0.003182992 0.0023215322 0.0080214655 0.015333042
0002d0 57 9d a0 3c ba 2a 62 3c 9f 5a c9 3b 23 b4 b8 3b
       0.019606275 0.013804132 0.006144836 0.0056367083
0002e0 5f a4 f7 3c e0 85 5d bb 27 c4 bf 3b dc 07 5f 3c
       0.030229745 -0.003380172 0.0058522406 0.013612714
0002f0 f7 99 c0 ba 78 c0 87 bc 02 da 08 bc f7 f7 c9 3b
       -0.0014694323 -0.016571268 -0.008352758 0.006163593
000300 27 eb 12 bb 61 b6 c1 3b 57 da d7 3b b7 e6 eb 3b
       -0.0022417994 0.005911634 0.0065873074 0.007199134
000310 c8 35 0b bc 0d 8c 30 3b 23 ee 8e 3c b5 2f ba 3c
       -0.008496709 0.0026938946 0.017447537 0.022727827
000320 8b 34 44 3c 2c f8 02 3c dd ae 16 bb 6e 2b 87 3c
       0.011975418 0.007993739 -0.002299241 0.016500201
000330 de 78 67 bb 4b 5b 00 3b 98 da d7 3a 21 64 12 3c
       -0.0035319845 0.0019585665 0.0016468344 0.008935005
000340 03 ff 5f bb b3 87 45 bc 0e ea 9f 3c da f5 21 bb
       -0.0034179098 -0.012056279 0.019520786 -0.002471319
000350 d7 b5 60 3c 92 ec 97 3c 0a 9a 49 bc ed b3 a3 3b
       0.013715229 0.018545423 -0.012304792 0.004995814
000360 5e 7e 99 3c 9a 41 4d 3c c6 fc e3 bb ea 2d 24 3c
       0.018737014 0.012527848 -0.006957623 0.010020712
000370 b4 18 d5 3b 97 0b 87 3c 31 7e 26 3c eb e0 49 bc
       0.006503189 0.016485019 0.010161922 -0.012321691
000380 33 f0 0b 3c c2 8e 2e 3b ae 21 e6 3c 89 a5 2c 3d
       0.008541155 0.0026635383 0.028092232 0.042150054
000390 c1 0a 0a 3c cd 45 f6 bb 3d 97 bd 3c 47 fe 04 bb
       0.0084254155 -0.007515645 0.023143405 -0.0020293163
0003a0 97 e0 1d bc 05 88 a9 3c 52 8f c8 3b 47 80 f8 3b
       -0.009636066 0.020694742 0.0061206007 0.007583651
0003b0 f6 01 05 ba ca 75 92 3a 9a 2c 69 3b c3 a9 85 3c
       -0.00050738396 0.001117402 0.0035579563 0.0163163
0003c0 e5 71 00 3c f3 eb a7 3c 61 18 bd bb 9b a3 e7 3a
       0.007839655 0.020498252 -0.0057707285 0.001767266
0003d0 3f 82 57 3c 54 cb 04 3c 44 fb 83 bb 00 b2 c7 3b
       0.013153612 0.008105118 -0.004027756 0.0060942173
0003e0 12 22 91 3c af df 81 3c 77 c7 4e 3b 0d bf c4 3a
       0.017716441 0.015853731 0.0031551996 0.0015010551
0003f0 5e e5 97 3c b7 76 d1 3b 1a bf b9 3b 0b 48 37 3c
       0.018541988 0.0063923257 0.005668533 0.01118661

action_model._continuous_distribution.log_sigma f4 [1, 5]
000000 09 d5 ca bd 07 d1 3f bd c6 f6 b1 bd e9 c7 cb bb
       -0.099039145 -0.046830203 -0.086896464 -0.0062188995
000010 4e 3d 06 bd
       -0.03277331

action_model._continuous_distribution.mu.weight f4 [5, 64]
000000 f5 f4 24 be 6c 45 06 bd f7 fd fd bc 1c 70 b1 bc
       -0.16109069 -0.03278105 -0.031004889 -0.021659903
000010 16 8a a5 3b 3d 2f 16 3d a4 db e2 3c ba 97 c0 bc
       0.0050518615 0.036666144 0.027692623 -0.023509849
000020 4e 48 84 3e 4d fe 30 bb 01 9b f3 bc 45 ec a6 bb
       0.25836414 -0.0027007044 -0.029736998 -0.0050940835
000030 32 d0 cf bc ae 0b 02 bd bc 39 5a bd 0c 94 c8 bd
       -0.02536783 -0.03174942 -0.053277716 -0.09793863
000040 cb 38 70 be 0c c3 2b be 3b 0d 8b 3c 4d 25 1e bd
       -0.23459165 -0.16773623 0.016974082 -0.03860979
000050 65 fb e1 3c 01 f8 08 bc 5c fc fa bd 56 4d a5 3d
       0.027585695 -0.00835991 -0.12255165 0.08071391
000060 61 80 cb bd 0b 1a ab bd c2 42 2f 3d 57 e6 3f bd
       -0.09936596 -0.08354577 0.042788275 -0.04685053
000070 c0 97 38 bc d5 ad 48 bd cb de 05 bd 19 ae 38 3d
       -0.011266649 -0.048993904 -0.032683175 0.045087907
000080 be fd 20 3b 65 62 ae 3d e9 fa b9 bd 02 a5 0b 3c
       0.0024565305 0.08514861 -0.090810604 0.008523228
000090 00 bf 39 3d 2d c5 d4 bc bc d6 96 3d a0 2f 2f 3c
       0.045348167 -0.025972927 0.07365176 0.010692507
0000a0 9e 9a 05 3d 64 39 eb 3d 64 7e 61 bd 94 9c 22 3d
       0.032618158 0.11485556 -0.055052176 0.039700106
0000b0 b7 4d 8e bd 15 d0 1f 3d 77 75 d5 3d 6b cb 38 bc
       -0.06948417 0.039016802 0.10422795 -0.011278967
0000c0 70 60 5e 3c 2c 3b 9b 3d 94 0c 20 bd a1 c5 7f 3c
       0.013572797 0.075796455 -0.039074495 0.015611083
0000d0 d4 71 29 3d 34 df 08 bc 31 bd 39 be 14 5f 98 bd
       0.04136832 -0.008353997 -0.18138577 -0.0744001
0000e0 28 54 66 3e bf 18 c9 bc 81 a2 26 3d 2e 88 ab 3d
       0.2249304 -0.024547933 0.04068232 0.083755836
0000f0 bc a4 a7 3d af 37 b5 bc 22 27 9e 3d 0d ed 57 be
       0.081857175 -0.022121279 0.07722308 -0.21086521
000100 ac ce a1 3d 7e 1c 50 3d 86 5d c3 3c 1b 2c 1f bc
       0.07900748 0.050808422 0.023848306 -0.009715105
000110 d1 c1 e8 bd e8 98 56 3d 85 60 3b 3e fe 46 27 3e
       -0.113650925 0.052391917 0.18298538 0.16335675
000120 7d 58 8e 3b 11 bd ae bd b2 a3 32 3d 81 f7 ba bd
       0.0043440447 -0.08532155 0.043613143 -0.09129239
000130 53 37 34 3c 93 85 06 3e 42 fb 07 bd b4 a7 85 3d
       0.010999518 0.13136892 -0.033198602 0.065261275
000140 c9 d7 1e 3e d1 62 5d bd 19 4f 0a bd 90 a3 2b bd
       0.15512003 -0.054049317 -0.03376684 -0.041904032
000150 0d ef af 3a 03 3d 96 3d b3 3d c6 bd c3 10 99 bd
       0.0013422683 0.07335856 -0.09679737 -0.074739
000160 df 40 77 bc 84 62 81 3c 5f 37 31 3d 5e bf 84 bd
       -0.01509115 0.015794046 0.043265697 -0.06481813
000170 b1 96 3c 3c 6c dc 67 bd de ec 74 3d 6a 12 1b be
       0.011510537 -0.056606695 0.059796207 -0.15143743
000180 6c 11 06 be a1 5b 2e bd eb e9 3d bd 2e 58 8e 3b
       -0.13092583 -0.042567853 -0.04636566 0.004344008
000190 2e 69 09 3e eb 8c bc bc ca e6 d6 bc 8c 4e 62 bd
       0.13419029 -0.023016414 -0.026233096 -0.05525069
0001a0 b7 06 91 3c 48 3c c8 3d 95 2f 47 3d c5 f2 83 3d
       0.017703397 0.09777123 0.048629362 0.06442789
0001b0 9c 25 06 be 70 44 3b bc 26 e0 04 be 0a de df 3b
       -0.13100284 -0.011429891 -0.12976131 0.006831889
0001c0 28 3d cc 3d c4 f4 29 3d 65 a7 3d be 32 a0 84 3d
       0.09972602 0.041493192 -0.18520887 0.06475867
0001d0 ca c0 0d be dc 48 fb 3d b6 ab c5 3c 89 d4 46 bd
       -0.13843074 0.12269756 0.02412973 -0.048542533
0001e0 d0 32 e7 3d c5 18 59 3e bb 92 9d 3d 74 67 e7 3a
       0.112889886 0.21200855 0.07694002 0.0017654733
0001f0 82 bb 90 3c 74 66 cb bd 3e 19 ef bc 42 82 46 be
       0.017667536 -0.09931651 -0.029186841 -0.19385627
000200 32 f5 c5 bd 58 83 3f 3d 9f 0c 49 3d 74 d5 76 bc
       -0.09665908 0.04675612 0.049084302 -0.01506554
000210 fe f6 53 bc 81 9f 8a bd 5c 93 1a be fb 79 22 be
       -0.0129373055 -0.06768704 -0.15095276 -0.15866844
000220 48 02 ce 3b 3a 99 ed 3a e2 66 d8 bc 6b df ea bc
       0.006286893 0.001812733 -0.026416246 -0.028670987
000230 ea d0 6b 3d 69 93 07 3d 41 55 b4 3d d0 1d 49 3e
       0.057572283 0.033099566 0.088053234 0.19640279
000240 a0 81 70 bb c3 61 67 be 76 cc 90 bb 7a ac 83 3d
       -0.0036698356 -0.22595887 -0.004418905 0.06429382
000250 0b 61 3d 3d 6d 54 fc bc 2d 1f 0d 3d 72 a8 2c 3d
       0.046235126 -0.030801976 0.03445356 0.04215283
000260 29 c3 67 be 14 c8 ba bc 41 9d ae bd 47 2e 5f bd
       -0.22633041 -0.022800483 -0.085260876 -0.054487493
000270 3d e8 b3 bc 5f 95 37 3d cc 9b 38 3d a5 6a 85 3d
       -0.021961326 0.044820186 0.045070454 0.065144815
000280 bd 64 84 3d f2 a4 8e bd a8 df 92 3d f3 69 35 3a
       0.06464527 -0.069650546 0.07171565 0.000692039
000290 a0 6a 74 3c 85 75 32 bd c8 b5 2e 3d cc 1e 2f 3d
       0.0149179995 -0.043569107 0.04265383 0.04275398
0002a0 9b 90 0a 3d b8 1d 88 bd 7b ea 5d 3c c7 39 2d 3e
       0.033829313 -0.066462934 0.013544674 0.16916572
0002b0 76 5a 04 bd 28 11 e2 3b 40 74 98 3b 0b 6d 29 3d
       -0.032312833 0.006899018 0.00465253 0.041363757
0002c0 af de e6 bc 9f e6 ab bd 8d b1 29 3d 10 6c 61 3d
       -0.028182356 -0.08393597 0.04142909 0.055034697
0002d0 dc 7f cb bd ff d4 0d 3e 39 4a ae bd e4 4d c5 3d
       -0.099364966 0.13850783 -0.085102506 0.09633997
0002e0 a9 8d 5c 3d ed ae c5 3d 8b da 4e bd e1 ed 00 bc
       0.053846035 0.09652505 -0.050501388 -0.007869215
0002f0 f8 d8 86 bd 57 cf 16 be 17 02 e0 3b e8 44 aa 3d
       -0.06584352 -0.14727531 0.0068361866 0.08313924
000300 a1 91 c8 bc b9 dd 6c bd 21 0c af bd 9b 04 2a 3d
       -0.024483504 -0.05782864 -0.08547235 0.0415083
000310 54 9e 28 bd c6 d8 78 3d e5 dd 06 bd 1e b4 dd bc
       -0.04116662 0.060753606 -0.03292646 -0.027063426
000320 dc c2 ec bc f6 27 67 bb 74 da 67 bd 08 4b 76 bb
       -0.02890151 -0.0035271621 -0.056604818 -0.0037581343
000330 0e 5c 95 bc 7f 4d 1e bc b3 c9 91 bd 90 78 b4 bc
       -0.018232372 -0.009662031 -0.07118549 -0.022030145
000340 cd 29 1a bd 09 c3 41 3d fd e7 04 3d 0b ca d6 bc
       -0.03763752 0.04730514 0.032447804 -0.026219388
000350 ef b2 c9 bd b6 f5 6b bd a6 67 d9 3b 4b 94 69 3d
       -0.09848582 -0.057607375 0.0066346703 0.05702619
000360 c0 74 02 bc 35 96 1f bc c0 4c 47 3d 0b c5 48 3d
       -0.007962406 -0.009740402 0.04865718 0.04901604
000370 36 bf 6b 3d b1 ef 53 bd 73 7a ac 3d c2 09 15 3d
       0.0575554 -0.05174226 0.08421793 0.03638626
000380 63 d5 a9 3d 0c 2b 40 bb ad f7 7b 3d e6 b0 cc 3c
       0.082926534 -0.0029322533 0.0615155 0.024986695
000390 1d be 7c 3d 9d 64 3a 3c 93 2e bd 3c 44 e2 9e bd
       0.061704744 0.011376527 0.023093497 -0.077580005
0003a0 11 c7 e5 3c b6 bc 74 3a bd 3e a3 bd 33 cf 05 3c
       0.028049024 0.00093359814 -0.07970951 0.008167076
0003b0 77 38 b5 bd 28 a5 b8 3d 87 5c e1 bb 4a a1 74 bd
       -0.088486604 0.09015876 -0.006877485 -0.05972413
0003c0 0f 3f 24 3d 69 ed 00 bd ba 15 19 bd b1 33 b9 3c
       0.0400992 -0.031476412 -0.037374236 0.022607656
0003d0 29 95 a0 3d a1 19 2b bb e2 71 07 bb c5 f5 3f 3d
       0.0784095 -0.0026107805 -0.0020667245 0.046865243
0003e0 50 8d 4e 3c ee df 80 bd 2a b4 7d bd 3a 9b f9 bb
       0.012606934 -0.06292711 -0.061939396 -0.0076173814
0003f0 f5 89 89 3c dd 0c 94 3c 43 5d da 3d 7b 7e c7 3c
       0.016789416 0.01807254 0.106623195 0.024352303

action_model._continuous_distribution.mu.bias f4 [5]
000000 d3 21 a9 ba 2f 90 8f bc e0 c5 55 bc 02 d0 4e 3d
       -0.0012903757 -0.017524807 -0.013047665 0.05049134
000010 8e f7 8d bb
       -0.0043324893

onnx::LSTM_100 f4 [1, 256, 256]
000000 1d 85 0a be e7 89 1f 3e 2f a0 0d 3e 6f be 42 bd
       -0.13527341 0.1557995 0.13830636 -0.047544893
000010 cf 43 42 3d fa a9 b3 bd a5 1d 79 3c f5 15 a8 bc
       0.04742795 -0.08772655 0.015204822 -0.020518282
000020 14 a2 11 3d 22 90 1b bc db 56 f5 3d c6 83 dd bb
       0.03555496 -0.009494813 0.11979457 -0.0067600934
000030 d6 e6 14 bd 6c 3d 38 bd d4 12 99 bd 6c 3e c8 3d
       -0.036352955 -0.04498045 -0.07474294 0.09777531
000040 cf 6b 30 3e b2 e1 19 bc 90 0b 76 bd 1f f5 2a bd
       0.17228626 -0.009392189 -0.06006962 -0.041737672
000050 c0 39 01 3d c8 99 73 bd 8c 6e 9a bc 38 3c 27 3e
       0.031549215 -0.05947283 -0.018851541 0.16331565
000060 78 d3 89 bc 5b b3 93 3d c1 e0 fc bb 99 a3 03 bd
       -0.016824469 0.07211944 -0.0077172224 -0.03213844
000070 a7 0d 25 3e 87 b4 c5 bb b9 25 8d bd 01 e2 c4 3c
       0.16118489 -0.0060334834 -0.06891961 0.024033548
000080 a4 e4 01 3d e0 47 d2 bd d9 53 0d be c3 27 00 be
       0.03171219 -0.10267615 -0.13801517 -0.12515168
000090 b3 58 c1 3d 8f 75 4c bd 64 d3 11 bd 65 c2 a9 3d
       0.09440746 -0.0499168 -0.03560199 0.08289031
0000a0 d0 2b 3e 3d 43 de 52 3d c8 85 e5 3d 1a e1 04 3e
       0.0464285 0.051481497 0.112071574 0.12976494
0000b0 fb 35 6b 3d 2e 06 04 bd b1 32 1a 3d d2 02 b5 3c
       0.057424527 -0.032232456 0.037646 0.022096071
0000c0 33 12 01 be b1 49 d2 bd e5 c0 2c bd da db 12 bd
       -0.12604599 -0.10267962 -0.042176146 -0.035854198
0000d0 ee 60 81 3d 34 e7 b9 3d c3 84 58 bd d3 a3 e5 3d
       0.06317316 0.090773016 -0.052860986 0.112128876
0000e0 ee 13 96 3d 2e 1d 20 bd 42 95 08 3d 7b c1 3b 3d
       0.0732802 -0.039090328 0.03334547 0.045838814
0000f0 b1 1f d0 3c 69 c4 5a 3d 97 75 ce 3d 48 1c 8e 3d
       0.025405737 0.053409968 0.10081022 0.06938988
000100 76 e5 c4 3c 0c f6 30 3e a6 0f c8 3c fd df 88 bd
       0.024035197 0.1728136 0.024421524 -0.066833474
000110 10 4d 1d 3e ff 55 06 3d be a7 e5 3d 5b 12 d0 bd
       0.15361428 0.032796856 0.11213635 -0.10159751
000120 b0 c2 83 3d 39 65 2c 3e 58 cf 99 3d 16 a0 35 bb
       0.06433618 0.16835488 0.07510251 -0.0027713827
000130 cf e1 56 ba 02 55 99 bd 38 83 e4 bc 6f 11 6c bd
       -0.00081971 -0.07486917 -0.027894601 -0.057633813
000140 8c b0 82 3d 80 26 ae 3d e9 08 d0 3c db 50 1d bd
       0.0638133 0.08503437 0.025394874 -0.038407188
000150 03 7f ce 3c 7b d6 a3 3c 04 be 26 bd e8 78 54 bd
       0.025207048 0.019999733 -0.040708557 -0.051873118
000160 20 67 31 3d 90 4c 3d 3d 2e d3 1f 3e 11 47 3e 3d
       0.04331124 0.046215594 0.15607902 0.046454493
000170 1d e6 1a be c8 9a 14 3e 3b cc b8 3b d8 58 e4 bd
       -0.15126844 0.1451217 0.0056395805 -0.11149758
000180 45 d6 e8 3d 29 a0 50 bc 3c 19 0d be c0 78 cc bc
       0.11368994 -0.012733498 -0.13779157 -0.024959922
000190 f0 4b 83 bd e1 5f 43 3e d2 7b cf 3d 06 c6 9e bd
       -0.06410968 0.19079544 0.10131039 -0.07752614
0001a0 d7 2c 0d 3e 78 26 a5 3d ad 44 d6 bb 44 07 28 3e
       0.13786636 0.08063978 -0.0065389485 0.16409022
0001b0 36 e6 b2 3d 4a 89 83 bc 9f 04 09 be af e3 0a bd
       0.087353155 -0.016056675 -0.13380669 -0.033908542
0001c0 aa 59 80 3d 59 44 86 3d 87 e9 16 3c ca f7 f6 bd
       0.06267102 0.06556005 0.009210951 -0.12058981
0001d0 52 d3 54 bd e9 96 15 bd d5 d4 87 3d 0c ea 11 3e
       -0.051959343 -0.036520872 0.06632391 0.14249438
0001e0 79 bf d2 bd c4 b6 fb 3d 50 da 1f bd ac f8 c7 bd
       -0.10290427 0.12290719 -0.03902656 -0.09764227
0001f0 b9 a1 c1 bc 1e 5f a3 bd e6 0e 42 3d 39 54 8e 3d
       -0.023636686 -0.079771265 0.04737749 0.06949658
000200 ae 5f 11 3e 7e 0c c1 bd fb 8e 0d 3d f8 10 a8 bd
       0.14196655 -0.09426211 0.034560185 -0.082063615
000210 d3 4e 17 3d 06 10 3c bd a5 4b c4 3d e4 b4 04 be
       0.036940407 -0.04591372 0.095847405 -0.1295963
000220 ba 7a 4a 3c 81 b3 09 3d 85 0d f4 3d 32 06 21 3c
       0.012358362 0.033618454 0.11916641 0.009828137
000230 aa 36 27 3e 45 72 1f be 6c 7f 0a 3e e6 a5 3d 3e
       0.16329446 -0.15570934 0.1352517 0.18520316
000240 72 62 de bc 16 98 dc 3d 74 6a f8 3d de 2c e0 3d
       -0.027146552 0.107711956 0.12129679 0.10946058
000250 bb 19 93 3d 9d 3c 2b 3e c7 ef 20 3e 74 c4 a6 bd
       0.07182642 0.16722341 0.15716468 -0.08142939
000260 0c b1 01 bd 81 2b 6c bc b6 73 1a 3d c5 c3 6a 3d
       -0.031662986 -0.014414669 0.037708007 0.057315607
000270 4b 3f fe bc f6 38 91 bd 8d 52 03 bd 80 90 a7 bd
       -0.03103604 -0.070909426 -0.03206115 -0.08181858
000280 5e 95 17 3d be e6 3d bd 8e cc 90 3d 21 ca 08 3e
       0.037007682 -0.04636263 0.07070266 0.13358356
000290 31 29 05 3c 2f e8 22 3e 78 cc 9a bc f0 f8 37 3e
       0.008127497 0.15908884 -0.018896326 0.17966056
0002a0 af 50 9d 3c ce 8d 51 3c 8b 69 9e ba 38 6e dd bc
       0.019203512 0.0127901565 -0.0012085898 -0.027030095
0002b0 c6 54 05 3e 04 cf a4 3c 43 06 bf 3d 9f 61 63 3d
       0.1302062 0.020118244 0.09327366 0.05551302
0002c0 18 65 e8 bd 9c 4f c3 3b 9c d5 93 bd 44 fe 75 3d
       -0.11347407 0.005960418 -0.07218477 0.06005694
0002d0 dd 03 fd 3c 8b 88 af 3c 11 eb 9c bd cd ee 11 3e
       0.030885631 0.021427413 -0.07662023 0.14251252
0002e0 fa 20 fe 3d a0 d6 2f bd f5 e0 eb bd 40 32 14 3e
       0.124086335 -0.04292929 -0.115175165 0.14472294
0002f0 ee 33 b2 bc 30 c2 2c be 6f 03 a2 bd e3 c9 74 3c
       -0.021753278 -0.16870952 -0.07910811 0.014940712
000300 09 20 59 bc 95 fa 9a bc 91 70 fa 3d 0d 41 23 3e
       -0.013252267 -0.018918315 0.122285016 0.15942784
000310 5c 3c b6 3c bd 31 bd 3c 91 61 60 3c 16 43 14 bd
       0.022245578 0.023095006 0.013695137 -0.03619679
000320 c2 d3 dd 3d 10 da d6 3d 97 78 a1 3c 13 f6 ce bc
       0.10831405 0.10490811 0.019710822 -0.025263822
000330 68 3c 6d 3d ec 16 60 3d ae d5 44 bd 3f 16 f7 3c
       0.057918936 0.05470936 -0.048055343 0.030161975
000340 e0 f8 87 3d 59 55 e1 bd 8d 95 33 3e f2 c9 f1 bd
       0.06639266 -0.11002607 0.17537518 -0.11806096
000350 b0 0b a4 bd e9 a3 0f 3e 8c c5 14 bd bd d6 26 3e
       -0.08010042 0.1402737 -0.036321208 0.16292854
000360 b1 7c c8 bd 01 3b d0 3d 72 41 0c 3e 0a 25 d7 3d
       -0.09789408 0.10167504 0.1369684 0.105051115
000370 30 a0 8a 3b 16 60 b7 3d 6d 12 03 3c 28 88 10 3e
       0.0042305216 0.08953874 0.0079999985 0.1411444
000380 33 83 ad 3d 09 bb ea bd 35 d5 13 bd 24 45 13 3e
       0.0847229 -0.114614554 -0.036092002 0.14381844
000390 36 c4 d8 3c 0e 13 0e 3e dc 0c b5 3d 19 56 b9 3d
       0.026460748 0.13874456 0.08840343 0.09049625
0003a0 21 ee 52 bc d8 eb 09 bd 1e bf 94 bd 17 cc 91 3d
       -0.012874157 -0.033672184 -0.07263015 0.07119005
0003b0 76 0e c3 3d 52 f2 b4 bd ab ba d7 bd 93 b5 00 3c
       0.095242426 -0.088352814 -0.10533651 0.007855791
0003c0 6f 32 3d 3e 31 8c 4f 3e f5 21 8a bd 66 ef b8 3d
       0.1847627 0.20268323 -0.06744758 0.09030037
0003d0 a3 18 92 bd d0 57 c2 3c 1b 5a 87 3d 2b d5 11 3c
       -0.07133605 0.023723513 0.06608983 0.008900921
0003e0 f7 64 b0 3d 40 9f 96 3d ce 93 d5 3c 95 dc 86 3d
       0.086130075 0.07354593 0.026071455 0.065850414
0003f0 bf 21 1c 3d c8 34 25 3d f5 f1 2e bd 65 be a7 3d
       0.03811812 0.04033354 -0.042711217 0.08190612

onnx::LSTM_101 f4 [1, 256, 64]
000000 5a 1a 6f 3d 13 3a 9b 3d 87 63 91 3d 83 a6 cf bd
       0.05837474 0.07579436 0.070990615 -0.101391815
000010 8a 8e 11 bd fe 58 a9 bd f3 3f 11 bd 37 0e 19 bc
       -0.035536326 -0.08268927 -0.035461377 -0.009341768
000020 de f3 4c 3e fa a2 ea bb 76 b7 e8 3d 39 13 ec 3d
       0.20014903 -0.0071605416 0.113631174 0.11527104
000030 b5 d4 77 be 02 fd fe 3d 59 db 85 bd df db 31 bc
       -0.24202235 0.12450601 -0.06535978 -0.010855644
000040 25 a0 3f be ad b2 d8 bb a4 ea da 3d 87 30 4d 3e
       -0.18713434 -0.0066130967 0.106892854 0.20038043
000050 db 74 d2 3d 1b 48 72 3e 47 b9 20 3d 03 7e 7d 3e
       0.10276195 0.23660319 0.039239194 0.24755101
000060 2d 4b 65 3c 00 6c 7e bd d5 18 30 be 13 ae f3 3c
       0.013994974 -0.062114716 -0.17196973 0.029746091
000070 73 ea be 3d 06 2d 08 3d 92 b4 44 3d 97 88 cd bc
       0.093220614 0.033246063 0.048023768 -0.025089545
000080 a8 19 9e 3d fc 9a 6c 3d 28 d9 ed 3d 61 7a 29 3e
       0.07719737 0.057764992 0.11613685 0.1655059
000090 09 e3 ab bd f6 54 f6 3d 0a 79 3c 3e a6 c0 1a 3e
       -0.08392913 0.12027924 0.18405548 0.15112552
0000a0 37 4d c8 bc 2d 2b d5 bd 50 b2 c7 3d 31 1a c4 3d
       -0.024450881 -0.10408626 0.09750807 0.09575308
0000b0 7d c7 7c 3e e5 4e 57 bd 2d 2a cc bd 5f 8d e4 bc
       0.24685474 -0.052565474 -0.09968982 -0.027899442
0000c0 aa ec d5 3d a5 27 4d bd bc fb 0a be 42 ca fd 3c
       0.10445531 -0.050086636 -0.13572592 0.030980233
0000d0 4d 69 da 3d 8d fe 12 3e fe 92 b0 bd 1f 40 2e be
       0.10664616 0.14354916 -0.086217865 -0.17016648
0000e0 78 05 8f 3d 8f 90 6b bd 3d a4 09 3e 8e 4d 2f 3e
       0.06983465 -0.05751091 0.13441558 0.17119429
0000f0 3c cd 5f 3e c8 40 4c 3e 0a e4 c9 bc e1 bf e5 bd
       0.21855634 0.19946587 -0.02464487 -0.112182386
000100 48 26 43 be 85 10 c3 bc 6c b4 72 3e 0b 4c 61 be
       -0.19057572 -0.023811588 0.23701638 -0.22001664
000110 1e 87 95 bd 84 dc 87 3d 08 4b 44 be a7 a0 e0 3d
       -0.07301162 0.06633857 -0.19169247 0.10968142
000120 46 8c 73 3b b1 57 f0 bd fd b9 11 be 19 ac bf 3d
       0.0037162467 -0.11735476 -0.14231105 0.09358997
000130 2d e1 cd bd 9b 1a 26 3e 21 a2 3a 3d d5 4b 2b be
       -0.100527145 0.16221087 0.045564774 -0.16728146
000140 83 be 43 3e 50 0e a6 3c 0c 5f b0 bb 0a 1a 80 3e
       0.19115643 0.020270497 -0.005382424 0.25019866
000150 79 04 e8 bd c9 6c 1f be d9 82 f6 3d 8e 8a ed 3d
       -0.11328978 -0.15568842 0.12036676 0.11598693
000160 be 6e 3b bd 32 bf b3 bd 7a 04 50 3e d1 06 41 3e
       -0.04575991 -0.08776702 0.20314208 0.18850257
000170 4b dc 76 3d 08 3e 43 3e d8 34 29 3e 6e 73 b6 bc
       0.06026868 0.19066632 0.16524065 -0.022271838
000180 51 d3 9c bd 6b 34 46 3c f0 32 02 3e 6f e7 01 3d
       -0.07657493 0.012097458 0.12714744 0.031714853
000190 88 7e 4c 3e ad 8e 03 bd fd 4c 1d 3d 3b 74 b9 3d
       0.19970143 -0.032118488 0.0384035 0.09055372
0001a0 ec 46 ba 3c ec b3 c1 3d ea 71 57 3e 4a 04 01 3d
       0.022738896 0.094581455 0.21039549 0.03149823
0001b0 2c 54 f5 bd dd f8 4f bd fa 34 95 3a db 7a 24 3d
       -0.11978945 -0.050774444 0.0011383586 0.040156227
0001c0 f5 ad 38 3d 31 a9 36 3e 4d 23 ef bd 60 89 4e bd
       0.045087773 0.17837979 -0.11676655 -0.05042398
0001d0 87 a7 1c 3e 87 0d 9e 3d db 89 40 3e 1a 11 15 3e
       0.15298282 0.07717424 0.18802588 0.14557305
0001e0 6e 7d 92 3c c0 6a a5 3d 44 98 52 be 7e 96 c0 3d
       0.017882075 0.080770016 -0.20565897 0.09403704
0001f0 85 ef d0 3d dc ae 11 3e d7 98 33 be bf 24 12 3e
       0.10201935 0.1422686 -0.17538773 0.1427183
000200 1d cb 08 3e af ee b5 3d 20 9c cc bd d8 39 aa 3c
       0.13358732 0.08883416 -0.09990716 0.020779535
000210 ed 3d 08 3e 2d 31 42 be 68 2f f8 3d 6c cd 4f 3e
       0.13304873 -0.18964072 0.12118417 0.20293206
000220 5b 4b 01 bd 4f 8f 95 3c d7 28 a7 3d d8 45 a5 3d
       -0.031566005 0.018256811 0.081620865 0.08069962
000230 26 c4 57 3e 2f 8e e4 bd d8 d7 ad bd f9 d5 29 bd
       0.21070918 -0.11159932 -0.084884346 -0.041463826
000240 b5 d5 3e 3e 88 dd 08 be e7 01 17 3e 19 a9 34 be
       0.1863621 -0.13365757 0.1474682 -0.1764263
000250 e5 a3 2a be 8e 85 d5 3c d5 ba da bd 88 db 23 3e
       -0.16664083 0.02606466 -0.10680167 0.16001713
000260 8e e3 40 be 1a 03 a6 3d 7f 44 a3 3d a4 0e 61 3b
       -0.18836805 0.0810606 0.07972049 0.0034341002
000270 2e 84 d5 3d 04 d5 ca bd e8 4c c8 3d bd 37 30 bd
       0.10425602 -0.09903911 0.09780294 -0.043021906
000280 4c 9e 05 3d 00 10 f7 bb cf 42 57 be d8 51 57 3e
       0.032621667 -0.007539749 -0.21021579 0.21027315
000290 d0 36 4d be 44 60 82 bd 96 cc 65 3e 1b ee 41 3e
       -0.2004044 -0.063660175 0.22441325 0.18938486
0002a0 6b 74 3c 3e 18 c5 c6 bd ae 2b e5 3d 1e 4b 9f 3d
       0.18403785 -0.097055614 0.11189972 0.07777999
0002b0 d1 53 47 be d3 d0 46 3e 2c 8e de 3d 3e 9c b7 bd
       -0.19465567 0.19415598 0.10866961 -0.08965348
0002c0 d6 64 16 be 41 19 d0 bd 01 99 04 be ef 6d c9 bd
       -0.14686903 -0.10161067 -0.12948991 -0.09835421
0002d0 f6 f6 25 be 27 1c 29 3e 19 ae e7 3d 5b b1 2a be
       -0.1620749 0.16514646 0.11312503 -0.16669218
0002e0 5a 9f 37 be 40 ba 14 be a0 13 38 bd eb 3c 4c be
       -0.17931882 -0.14524174 -0.04494059 -0.19945113
0002f0 d4 09 0d bd 75 40 04 3d 75 bd c3 bd 6c 22 33 3e
       -0.0344332 0.032288034 -0.095576204 0.174936
000300 2f 6f 39 be bd 66 97 3c f3 73 56 3e a1 4c 84 bc
       -0.1810882 0.018481607 0.20942669 -0.01614982
000310 80 41 16 3e de f3 04 3d 89 9b 45 be bf fd 7b be
       0.14673424 0.032459132 -0.19297613 -0.24608515
000320 86 13 b7 bd ac 37 4b be dc f9 1a 3e f4 73 35 3e
       -0.08939271 -0.19845456 0.15134376 0.17720014
000330 eb 69 ec bd f2 61 13 3e 33 cc 34 be 1a f3 28 be
       -0.1154364 0.14392832 -0.17656021 -0.16498986
000340 0a f6 51 3d e0 87 55 be 17 ca 56 be 00 9e 40 3e
       0.05126003 -0.20852613 -0.20975529 0.18810272
000350 2c cc c9 bc 1e 72 0b bd 8d e8 86 3d 5e ea bc bd
       -0.02463349 -0.034044378 0.06587324 -0.092243895
000360 70 74 6b 3d ca 85 7c be fa fc b7 3d e6 ca b8 bd
       0.05748409 -0.24660411 0.08983798 -0.09023075
000370 10 4e 5c be f1 80 0a 3e 37 45 2e bd 58 0b 40 be
       -0.21514153 0.1352575 -0.042546477 -0.18754327
000380 9f 46 ae 3b fd 64 92 bb f8 56 db 3d 5d 54 36 3e
       0.0053184773 -0.004467605 0.10709947 0.1780562
000390 28 00 d3 3d 9b fa a3 3d b0 a8 5f bd 47 22 f3 bc
       0.10302764 0.080067836 -0.054604232 -0.02967943
0003a0 58 53 47 be da 64 b2 bc 17 90 23 3e 76 d0 26 3e
       -0.19465387 -0.021776605 0.15972935 0.16290459
0003b0 e6 f0 10 3e e4 05 be bd aa 20 51 3e 34 b2 c9 bd
       0.14154395 -0.09278467 0.20422617 -0.09848443
0003c0 24 46 50 bd 26 90 37 be 97 9e 97 3d c1 c8 e7 bd
       -0.05084814 -0.17926082 0.074032955 -0.11317588
0003d0 32 e2 6e 3e ba 8b 60 3d 2b e3 7a be 8b 35 c2 3a
       0.23328474 0.054820754 -0.2450072 0.0014816982
0003e0 d2 ec 52 bd 13 b7 3b bd a5 33 01 3e eb a6 a3 bd
       -0.05149538 -0.04582889 0.12617357 -0.079908215
0003f0 06 d8 1e be 4a 8e 2d be 47 0b 06 3d 49 b2 2f be
       -0.15512094 -0.1694881 0.0327256 -0.17157854
