Project/results/hb_02/Hummingbird/Hummingbird-2999896.onnx (onnx, 649088 bytes, 10 tensors)

network_body._body_endoder.seq_layers.0.weight f4 [256, 46]
00000000: f0b0 883e c9bc 29bd efb2 cd3e 4d39 733e
00000010: 3c3d 9abd 7f77 32be 8c2a 2abd e349 53bd
00000020: 7b60 2a3d 0490 fd3d 24d6 57bd 845a da3d
00000030: 0472 023e fa01 363d 2df5 b23e da7f 833b
00000040: 32dd 2e3e be15 163e 24f2 67bc f301 193d
00000050: c1e8 6cbd 8e0f f33c 00ca bf3b d7a4 dabd
00000060: af8a be3d 11b6 95bd 9111 1cbd e611 4a3e
00000070: 0153 cc3e ace9 b4bc 0d30 3f3a ac17 a53d
00000080: 2b3d 333e 94d4 8c3e dfb4 89bd bbba ee3d
00000090: 1810 15be a117 98be 38a9 27be 688b a0bd
000000a0: f063 1f3e 832f e93d 59c9 67bd a83e 62bd
000000b0: a63b 7dbd 72e5 6d3e ed29 843e 0f50 123e
000000c0: 0d05 8dbd 2547 883d 219b febd 811e c73d
000000d0: b2b2 08be ebe9 23bd 394b 7b3e 98c5 953d
000000e0: 89ec ee3d e6ca 6abe a402 c2bb d85f 763e
000000f0: 0475 1dbd b944 be3b 989d 33be c2d9 62be
00000100: 9628 c4bd a473 cabd 948a 083e 39ca 86bc
00000110: 9410 a5bd 89f6 ba3c 1469 95bc 6438 363e
00000120: b7e9 583e 2f63 4fbd d29b 2b3e 4552 8c3e
00000130: 25b7 74be af17 49bd 58b1 06be be91 e0bd
00000140: 8877 023e bf8f 413e c68b 3dbd a499 43be
00000150: df45 013e 0077 5e3e 14c6 acbe bbd2 283e
00000160: c225 c73b 8576 67be 9fb2 d43a 027c 8bbd
00000170: c947 833e 24a3 dabd 629d 953d 22eb 8a3e
00000180: 7260 3bbe b5f4 873e 2fa7 e9bd 56f2 6f3e
00000190: 4403 b6bc af93 543d 6a25 66bd 9992 0abe
000001a0: 1f58 9d3e 05d8 10be 133f 053e d93d 913d
000001b0: bc61 c1bd 6daf 1f3d 99c4 b03e d9b5 c63c
000001c0: 46fb 953d 1893 babd 670b 793e 1845 44bd
000001d0: 8997 dcbd 961a 783d 2dab bd3d b721 9f3e
000001e0: 0631 21bd 7db2 333d e09a 3bbd dc7e 753d
000001f0: 101b 3abe 7102 15be 5273 2c3d 6401 d23b
00000200: 50e3 0dbe 0e31 583d 4812 443d a013 133e
00000210: 4c78 ba3c 645a bdbe bc69 083d ea1d f33c
00000220: bc4a 9d3e d2b8 a83e fdda ac3d 1dc6 283b
00000230: 3a98 10bd 930e f63d ab9b dfbd a851 283d
00000240: 8e03 763e df16 a6be ad87 89be c178 223e
00000250: 2c84 9bbd cf9e 7abd 8d68 583e 5fa7 cd3b
00000260: 44f8 1fbd b7b0 9ebe 180b 333c 2c70 88be
00000270: 08a8 973c d48a 023e 0a16 393e 3418 39bd
00000280: 5c53 14bd 4739 a93e 51b4 c3bd 0350 2ebe
00000290: bbc2 32be 42a2 993e c81c 87bd 9a2c 063e
000002a0: 3acf eebd 8feb cd3d 978d 2fbe f99f abbd
000002b0: 3026 983d 59e9 75bd 9e63 e03d f0cf 863e
000002c0: 94d2 663d cb63 883b 8d13 e3bd 4937 1bbc
000002d0: 22f0 9ebe e147 89be 3d4f 1c3e c85c dcbb
000002e0: f2aa 2f3e b033 b4bc f1f6 133e 359e 2bbd
000002f0: 075a 32be 6d71 f7bc eac1 033c cf00 88be
00000300: 33e3 893e bc7c 73bd b909 05be 2948 403e
00000310: 61a5 91bc 62a3 14be 7764 4fbd ac13 3b3d
00000320: 2f7c 44be ce44 1c3e b224 b93c a225 1d3e
00000330: 63e8 d83d dcbc 43bd fd77 47bd 968e b73e
00000340: ee95 f33d 5b5b 783c d2de 9e3d 5bde b33d
00000350: fb5d 2fbe 97e0 90bc c2d8 4b3c 9780 4a3e
00000360: 61c6 17bd 68db 193e 96d0 a1bd 3ab6 913d
00000370: 429e 083e 8355 1f3d 5115 173d 3e55 2dbe
00000380: 92ab c7bd 3cde 5fbe 2099 73be b518 5f3e
00000390: d3e4 97be 44e6 813e 386f e4bc 471e c13b
000003a0: 669b 1f3d 2c2a 93bc 14a0 04be 4c34 3bbe
000003b0: 5f80 373d e8fa 173d b92e 663e c3d0 5ebd
000003c0: f4b5 f53d 3487 1f3e 5d5f 1b3e fd94 36be
000003d0: e725 373d d9cd 393e 8c85 9c3d 90ed 28be
000003e0: 2062 043e a794 c63d 6685 743d bcfd dfbd
000003f0: 5015 003d 2508 02be 44ab b63d d8ef 83bc
0.26697493 -0.041439805 0.40175578 0.23752327 -0.07531211 -0.17428397 -0.041544482 -0.051584136
0.041595917 0.123809844 -0.052694455 0.10661796 0.12738806 0.04443548 0.3495268 0.004013044
0.17076567 0.14656731 -0.014156852 0.037355375 -0.05783916 0.029670503 0.0058529377 -0.10675972
0.093037955 -0.07310117 -0.03810269 0.1973339 0.39907077 -0.02208408 0.0007293232 0.08061156
0.17503802 0.27505934 -0.067239515 0.1165671 -0.1455692 -0.29705527 -0.16373146 -0.0783909
0.15565467 0.11386015 -0.056588504 -0.055235535 -0.061824463 0.23232058 0.25813237 0.14288352
-0.06885729 0.06654195 -0.12431932 0.09722615 -0.13349417 -0.040018003 0.24540414 0.07313079
0.11666209 -0.22928962 -0.005920725 0.24059999 -0.038441673 0.005806532 -0.17540586 -0.2215338
-0.09578054 -0.09885338 0.13334113 -0.01645385 -0.08059803 0.022822635 -0.018238582 0.17794949
0.21182905 -0.0506317 0.1675866 0.27406517 -0.23897989 -0.049094852 -0.13153589 -0.10965298
0.1274091 0.18902491 -0.046275876 -0.19101578 0.1262431 0.21725082 -0.33744872 0.16486637
0.006077499 -0.22603805 0.001622755 -0.06810762 0.25640705 -0.10675648 0.07305409 0.27132517
-0.1829851 0.26553884 -0.11408841 0.23432288 -0.022218354 0.051898655 -0.056188025 -0.13532485
0.30731294 -0.14144905 0.13012342 0.07091875 -0.094424695 0.03898566 0.34524992 0.024256634
0.07323317 -0.09110087 0.24320756 -0.047917455 -0.107710905 0.06057223 0.09261165 0.3108041
-0.039353393 0.04387139 -0.045801997 0.059935436 -0.18174386 -0.14551713 0.042102166 0.006408857
-0.13856244 0.052781157 0.047868997 0.14362955 0.02276244 -0.36983025 0.03330396 0.02967735
0.3072108 0.32953507 0.08440206 0.002575285 -0.035301425 0.120144986 -0.10918363 0.0410935
0.24024794 -0.32439324 -0.26861325 0.15866376 -0.07593569 -0.061186608 0.21133633 0.0062760557
-0.039055124 -0.30994198 0.010927938 -0.2664808 0.01851274 0.12748271 0.18074813 -0.045189098
-0.03621231 0.33051512 -0.09555877 -0.1702271 -0.17457096 0.30006605 -0.065972865 0.13102952
-0.11660619 0.10054695 -0.17143856 -0.08380122 0.07429159 -0.06003699 0.109565005 0.2633052
0.056353167 0.004162287 -0.110877134 -0.00947363 -0.31042582 -0.26812652 0.15264602 -0.0067249276
0.17155054 -0.021997303 0.1444967 -0.041898925 -0.17417155 -0.030205453 0.008041838 -0.26563117
0.26931152 -0.059445128 -0.1299199 0.18777527 -0.017779054 -0.1451545 -0.05063292 0.045673057
-0.19187997 0.15260622 0.022600506 0.15346387 0.10591199 -0.047787532 -0.048698414 0.35850972
0.11893831 0.0151585 0.07757343 0.08782645 -0.17125694 -0.017685218 0.012441816 0.19775616
-0.037054423 0.15025103 -0.07901113 0.07114835 0.1334162 0.03889991 0.036885563 -0.16927049
-0.09749521 -0.2186212 -0.23788881 0.21786769 -0.29666767 0.2537099 -0.027885064 0.005893502
0.03896656 -0.017964445 -0.1295169 -0.18281668 0.04480016 0.037104517 0.22478761 -0.05439831
0.119975954 0.1557892 0.15173097 -0.17830272 0.04471388 0.18144931 0.076426595 -0.16496873
0.12928057 0.09696322 0.05969753 -0.10937068 0.031270325 -0.1269842 0.08919385 -0.016105577

network_body._body_endoder.seq_layers.0.bias f4 [256]
00000000: 80ec cdbb a1b4 c63c 04c2 37bc 3605 e83c
00000010: 2721 893c 226c 943c 83a9 073b 9c93 fcbb
00000020: 4899 1f3c a278 093c 187f 293d 3b94 553c
00000030: d224 fa3b f759 213b cac4 dc3c ddb1 493c
00000040: 2370 303d b494 7f3c 1fa7 fe3b dd58 b13c
00000050: f210 a43c e14b a53c a14a b0bb aea5 9d3c
00000060: a742 113c 354a 2cbc 4c9c af3c 61a2 773c
00000070: 28af 023a 6682 383c 2104 f73c c76b 5d3b
00000080: 5391 ce3c 07bd 293d 00f8 0d3d 9025 443c
00000090: 215d 803c 7aa4 323d 8bb3 f03c b529 0cbc
000000a0: e626 a03c f7c4 573c 77cb 273c 600d 2dbc
000000b0: 49f6 4e3c 2942 fa3b 0bb0 703c 0789 3fbc
000000c0: 3c8f e63b b6de c33c ddd2 6d3c 2c97 883c
000000d0: 37af 6c3b 0d1e 7dbc 9a6d 453c 6d27 3ebc
000000e0: ed86 5a3c 5d0f b9bb f13d 363c 5851 b63c
000000f0: 26fe 2aba b5c3 823c 14f6 feba 504f a93c
00000100: a4b3 32bb 1fcb 76bc b9f6 e53b 8e03 563c
00000110: 2a26 593c d0b1 f03c f0ed b73c 8c45 3b3d
00000120: b7c0 bc3b bc38 bebb 61bd bf3c 3200 8a3c
00000130: b2e9 b03c 507d a7ba 9785 0a3d 2bd6 e03b
00000140: 211f 593c 313f cbbb c085 9cbc 7773 f3b9
00000150: 7d53 e83b 5d17 d03c 1db8 6c3c 2037 883c
00000160: f066 813c 86cd 1a3c dc2c e43c cd29 c33c
00000170: 026c 2f3d ea95 613c abcd 393d 2631 053c
00000180: 12aa af3b f1c7 f23a c5fd 593c 1119 af3c
00000190: 9acf 883c 79d6 2b3c ba26 6d3c 8b8b ba3b
000001a0: 6548 d839 6a2c b73b 3857 033d 58e9 2c3c
000001b0: 7a82 b73b 2bef 833b 3579 c53c 2505 8d3c
000001c0: 93ec f83c 686b 7b3c cede 643b 6bad 40bb
000001d0: 4eae 27bb 41a5 b93c 77de 86bb 8774 f63c
000001e0: 3827 49bb b0dd a13a bbe4 b03c 4616 80bc
000001f0: ce99 103c a0a7 833c 6ffe 363c 1ad8 a13c
00000200: e50a 083c 649d d83c 50f3 003c 3a7a 343c
00000210: 5f82 2c3c 3b92 d33c ea8d 723c 035c 983b
00000220: 5f65 353c f89e 5bbb cd79 363d 601e 1fbc
00000230: 14ff ca3a 2ea0 cd3c 5adc 083c e7ad e83b
00000240: 1d4a 0abd 3eae 903c ba36 bc3c 600c a33b
00000250: 5324 f83c 6d6d ba3c 257c c63a 1312 5a3b
00000260: 5a03 d13c 775c 7d3c de44 5c3c 3814 1c3d
00000270: 62c1 de3c 1fb9 583b 4b4e a33c 5d84 a6bc
00000280: 313b f23b b04f 93bb e571 853c 4154 9a3c
00000290: b60d b83c c54f b13c 4ec8 cf3b 89f5 1b3c
000002a0: aa4d 3d3c e1ce f53c 2dc1 98ba 73ca 2e3c
000002b0: 440e e53c ccf6 413c 1b78 ea3c b8a1 5ebb
000002c0: 524d a73c 0018 34bc 4652 253d 9886 eb3c
000002d0: 0c93 1e3c 52a2 093d 5aee bd3c 9bc8 993c
000002e0: 3a19 013d ea2e 0e3c 2d0c 83bb e013 563c
000002f0: bee8 9d3c ebe5 14bb 8c0e 953c b4b4 3f3c
00000300: 890c ac3c 8efb 893c 627c c93b 4f4e 263c
00000310: 3f35 b73c 7b09 c83c 1ab4 763c 891f 533c
00000320: b821 003c 4db3 27bb d561 dc3b 5f33 cfbc
00000330: f2ea 2e3c a16e 943c fc41 0abb 6773 843c
00000340: 0dd1 65bc 1c75 243b b57f 9f3c 77fa 003a
00000350: 8525 5b3c 48e2 253b 4ba4 273d 7a7d c03b
00000360: ec61 453c 626c a53c 9f25 093c a092 523b
00000370: ef3e 733c dcc4 e93c 8952 73bc 8700 a13c
00000380: df5f a23c f6e2 163d e31f 0d3c 71c6 2ebc
00000390: 3025 233d 24c8 983c 9ddd 993b f619 823c
000003a0: a403 f83c 5eec 10bb e535 a33a c95a 51bd
000003b0: 5631 a93c 3d27 823b 0b66 9b3c d379 36ba
000003c0: 0ce0 6b3c e37f bf3c ead4 c83c efb7 e23c
000003d0: 60e3 023c 7ee1 353b 36b1 ecbb 0d34 103d
000003e0: abf9 a33b 73d2 253b bc2c 07bb 9eaa 513c
000003f0: e72c 633b 4f4b 903c 0071 8c3b f279 37bc
-0.0062842965 0.024256052 -0.0112156905 0.028322797 0.016739441 0.018117968 0.0020700402 -0.007708026
0.009741135 0.0083905775 0.04138097 0.013035829 0.007633784 0.0024620274 0.026949305 0.012310472
0.043075692 0.015599418 0.007771387 0.021648819 0.020027611 0.020177783 -0.00537999 0.019244041
0.008865989 -0.010515739 0.021436833 0.015114398 0.0004985207 0.011261558 0.030153336 0.0033786164
0.02521578 0.041440036 0.03466034 0.011971846 0.015669407 0.04361389 0.029382488 -0.008554866
0.019549798 0.013169519 0.010241381 -0.010562271 0.012631961 0.0076372814 0.014690409 -0.011690385
0.007036118 0.023909908 0.014515606 0.016673647 0.0036115178 -0.015449059 0.012050057 -0.0116060795
0.013337833 -0.0056475834 0.011123166 0.022255585 -0.00065228564 0.015962461 -0.0019451999 0.020667702
-0.0027267719 -0.015063076 0.007017937 0.013062371 0.013253728 0.029381663 0.022452325 0.045720622
0.005760278 -0.005805103 0.023405733 0.016845796 0.02159581 -0.0012778435 0.033818807 0.0068614683
0.013252051 -0.0062026014 -0.019106746 -0.000464346 0.0070900307 0.025401765 0.014448193 0.016627848
0.015796155 0.009448415 0.027853422 0.023823643 0.042827614 0.013768652 0.045362156 0.008129394
0.00536085 0.0018522722 0.013305132 0.021374257 0.016700555 0.010488146 0.014474565 0.0056929043
0.0004125267 0.0055900114 0.0320656 0.01055368 0.005600271 0.004026314 0.024105648 0.017214367
0.030386245 0.015345432 0.003492284 -0.002940024 -0.0025586071 0.022661807 -0.0041158753 0.030084861
-0.0030693542 0.0012349393 0.021593442 -0.01563562 0.008825732 0.01607114 0.01116906 0.019756366
0.008303379 0.026442237 0.00787051 0.011015469 0.01052913 0.025826564 0.014804343 0.0046496405
0.011071532 -0.00335115 0.044549752 -0.009711832 0.0015487396 0.025100794 0.008353317 0.007100809
-0.033762086 0.01766121 0.022975314 0.0049758404 0.030290758 0.022757256 0.0015143199 0.0033274933
0.025514293 0.01546394 0.013444154 0.03810522 0.027191821 0.0033069325 0.019934794 -0.020326788
0.00739231 -0.0044955835 0.01628966 0.018839004 0.022467475 0.021644482 0.006341017 0.009518989
0.011554161 0.030005874 -0.001165425 0.010668385 0.027960904 0.011838626 0.028621724 -0.0033970904
0.020422611 -0.01099205 0.040361665 0.028750703 0.009678613 0.033602066 0.023184944 0.018772414
0.0315182 0.008678177 -0.003999254 0.013066262 0.01927602 -0.002272005 0.018195413 0.011700798
0.021002071 0.016843583 0.006148861 0.010150506 0.022364257 0.024418583 0.015057588 0.012885937
0.007820539 -0.002558905 0.0067255297 -0.02529305 0.0106761325 0.018119158 -0.0021096459 0.01616831
-0.014026892 0.0025094217 0.019470075 0.00049201347 0.013375645 0.0025311876 0.040928166 0.005874333
0.012047272 0.020193283 0.008370786 0.0032130852 0.0148465475 0.028536253 -0.014851221 0.019653572
0.019821106 0.03683754 0.008613559 -0.010667429 0.039830387 0.018650122 0.004695608 0.01588152
0.030275173 -0.0022113542 0.0012451975 -0.05111197 0.020653408 0.0039719627 0.018969556 -0.0006960902
0.014396679 0.02337641 0.024515588 0.027675597 0.007988781 0.0027752812 -0.0072232736 0.03520589
0.005004128 0.002530244 -0.002062603 0.012797026 0.0034664215 0.017614035 0.0042859316 -0.011198508

network_body._body_endoder.seq_layers.2.weight f4 [256, 256]
00000000: b667 37bd 553d cbbc b981 32bd 4bde 653d
00000010: 5b6b 9a3d 4095 3cbd 480d 90bd 439e 0a3e
00000020: 89c7 1e3d e852 21bd 3ba6 753c d567 013e
00000030: 4bc2 e6bc be6a 9cbd 56c7 4dbd 8c7a 103e
00000040: 2c5b 42bd b5cb 5a3d 2e8a 053d 08f5 ccbd
00000050: 3d7e 16bd d2b0 b33c ceb9 c93c 0199 b63c
00000060: ddd8 693d db54 7dbb 2f7b 043c af0f 683c
00000070: 8f8b 8a3d 06f7 92bd fb0f 763d eb30 183d
00000080: fd52 76bd f271 e83d 4330 a0bc f951 3dbd
00000090: 9188 093c beee cf3d 8320 303c d9c4 a33d
000000a0: 247c ba3d 8658 90bd 816e 7abd a72f 613d
000000b0: 9399 233c 3e6e b63d 456f 0a3c d9b4 5d3d
000000c0: 4206 01bd 02b3 06be cda1 003e 13c0 1c3c
000000d0: 8bed 27bd 1fee a03d 15fe 353c 95ec 60bd
000000e0: 6e34 193c b43e bfbc 96b3 063d 4872 d33c
000000f0: 4bc3 133c c38f ff3a ed92 3ebd 2a1c a23c
00000100: 1042 193b 273d 6a3d c956 d7bb b5e8 0d3c
00000110: 4e64 a3bd 252a f5bd 3fff fcbc 75ae 66bd
00000120: 2ec9 c8bd 20a2 263d 8548 9b3c aa3d 813d
00000130: b1f5 1abd 50c1 b6bc c1d5 973d 949d 91bd
00000140: 4080 a7bd 90e1 a03d dab5 c3bc 469c 2b3d
00000150: 03fa 8a3d bece bd3c 2bd5 803a 4a8d edbd
00000160: 96f6 ec3d 2966 383d ba70 2e3d 73fa 0b3c
00000170: 55e8 623e 907b 59bd b6f4 9ebd 5bca 8c3d
00000180: 0ff1 d23d 9af0 a2bd 8eff 843d fb2d b73d
00000190: 6b41 e13c 7070 adbd 1494 8fbd c61c d73c
000001a0: 5372 393d 40a4 f3bc 7736 0dbd af60 6fbe
000001b0: 04b9 7a3c cf38 e93d c066 01bd 9495 1dbd
000001c0: 25e2 4c3d e219 84bc e1b2 b2bd 9408 73bd
000001d0: 4e86 2abe c84c 603b 2685 8bbd fe74 e63d
000001e0: 7872 9aba bc18 603d f86d eebd 3808 8bbc
000001f0: 196e 543d 0dc5 c83c 5a5c c53d 09d3 df3c
00000200: 9bfc e8bc 5bcd f73c 9056 a1bd 0755 f93c
00000210: 47e6 053e 9189 3cbd a76e b7bd a58b 343d
00000220: 3897 3bbd 637e bf3c 4957 32bd af22 203d
00000230: 8b14 4e3d eda8 dcbc de20 a4bd 6c87 da3c
00000240: 80b2 2bbd f7bb b53c 8b14 603c 4e0a d03d
00000250: 6035 953d 8267 2dbe 83dd 873d 27de 4fbb
00000260: c517 f1bc 4c04 d53c 1735 033d cd5e ab3d
00000270: 89a4 cf3c 938d fbbc 6100 9e3c 073e c1bd
00000280: db5e 033d 4c2e 823d 2f32 05bc 576d 09bd
00000290: 9128 febc 9f8a 173d f7e4 49bc 9d1e 8abd
000002a0: f912 363d c28b 273d e45e 8b3c efc2 08be
000002b0: b720 fe3c c743 36bd ae1f 21bd 0b66 34bd
000002c0: b0e8 d03d e8e6 883c 63f1 083d 16c8 b93c
000002d0: bebe 023d a9b3 d93c e98d b83d 57e1 223c
000002e0: 0fed 34bd 5989 a9bd 3c16 bebd f918 cdbd
000002f0: aeb4 a6bd 863c e6bc a282 abbc 4dee 7abc
00000300: 8b37 4dbd 747b 363c bf2b 07be b44d efbd
00000310: 6213 a6bd fb47 7abe 6059 a63d 954b b53d
00000320: 5201 5d3d 73d3 babc 7c6e 1d3e 7d28 f93c
00000330: 6f70 45bd 3f04 05bd bfa9 153e 9d06 7abd
00000340: 1035 a13b 977d 37bd e81d bfbc d15a 093c
00000350: 2e6b ec3c 4543 5b3b 0b32 f83b 516d 93bc
00000360: 32dd 8a3d 5336 333d b92f dfbc 6ee1 4ebd
00000370: 8d4d e2bd 0071 aebd caed 403d c1d1 56bb
00000380: 78d7 d63d 3cc7 0a3d 969c d6bc 4274 7a3c
00000390: b8b6 593b 1d2b 673d 35fd f93c 42b9 32bc
000003a0: b7b2 3ebd 529a 83bc c5fc 01bd 7e54 47bc
000003b0: 0cdd 9d3c 43ce f03c aa6f ecbd 0649 173e
000003c0: 9593 36bc 8968 583d 9f5f 9cbd d621 6fbd
000003d0: b69c e7bc e7e8 933c ab1d 7bbc b126 8d3b
000003e0: 9045 963d f759 5bbd d261 723d 324d 7c3c
000003f0: ac5c d3bc 801e dabd 330a 78bd 0e38 973d
-0.04477664 -0.024809519 -0.043580744 0.0561202 0.07540008 -0.046040773 -0.07033783 0.13536935
0.03876451 -0.039385706 0.014993246 0.12637265 -0.028168818 -0.07637547 -0.05023893 0.14109248
-0.04745023 0.053416926 0.03260248 -0.100076735 -0.036741484 0.0219349 0.024624731 0.022289755
0.057091583 -0.0038655314 0.00808601 0.0141638955 0.067649 -0.07176022 0.060073834 0.037156027
-0.060137738 0.11349858 -0.019554263 -0.046220753 0.008394376 0.10152958 0.010749939 0.0799653
0.09105709 -0.070481345 -0.06114054 0.054977085 0.009985345 0.08907746 0.00844938 0.054127548
-0.03150011 -0.13154224 0.12561722 0.009567278 -0.040998023 0.07857918 0.011107941 -0.054913122
0.009350879 -0.023345329 0.03288611 0.02581133 0.009018729 0.00194978 -0.046526838 0.01978882
0.0023385324 0.057187226 -0.006571625 0.008661439 -0.07978116 -0.11970929 -0.03088343 -0.05631872
-0.09803997 0.04068196 0.018955478 0.063105896 -0.037831966 -0.022308975 0.07413817 -0.07110134
-0.081787586 0.07855523 -0.023890425 0.04189708 0.06785967 0.023169871 0.0009829154 -0.115992144
0.1157047 0.045019303 0.042587973 0.008543598 0.2215894 -0.053096354 -0.07761519 0.06874534
0.102998845 -0.07956047 0.06494056 0.08944317 0.027497014 -0.084687114 -0.070106655 0.026258837
0.045275044 -0.029741406 -0.03447577 -0.23376726 0.0153029 0.113877885 -0.03159213 -0.038472727
0.050020356 -0.016125623 -0.08725525 -0.059334353 -0.16652796 0.0034225453 -0.068125054 0.11252783
-0.0011783382 0.05471109 -0.116420686 -0.016971692 0.05186281 0.024508024 0.09636755 0.02732231
-0.028440764 0.030249288 -0.078778386 0.030436052 0.13076125 -0.04602963 -0.08956652 0.044078488
-0.04579851 0.023375696 -0.043540273 0.039095577 0.05031256 -0.026936019 -0.080140814 0.026675902
-0.041918278 0.022184355 0.013676773 0.101582155 0.07285571 -0.16934016 0.06634047 -0.0031718106
-0.02943028 0.026003025 0.032033052 0.08367691 0.025347011 -0.030707156 0.01928729 -0.09435659
0.032072883 0.06356487 -0.0081296405 -0.03355154 -0.031025203 0.036997434 -0.012322656 -0.0674412
0.044451687 0.040904768 0.01701302 -0.13355611 0.031021459 -0.04449823 -0.039336853 -0.04404263
0.102006316 0.016711667 0.03343333 0.022678416 0.031920187 0.026574926 0.09011442 0.0099414205
-0.04417139 -0.0827815 -0.092815846 -0.10014529 -0.08139931 -0.028105032 -0.020936314 -0.015315604
-0.050101798 0.011137832 -0.13200282 -0.116847426 -0.08109166 -0.24441521 0.08122516 0.08852307
0.053956337 -0.022805905 0.15374178 0.030414814 -0.04820293 -0.032474753 0.14615534 -0.061041463
0.0049196556 -0.044797506 -0.02332969 0.008383469 0.028859701 0.0033456844 0.007574325 -0.017996462
0.06780471 0.04375298 -0.027244436 -0.050507955 -0.11049948 -0.08517647 0.047101773 -0.0032778832
0.10490316 0.03388141 -0.026197713 0.015286507 0.003322048 0.0564376 0.030516246 -0.010908427
-0.046557155 -0.016064797 -0.0317352 -0.012166141 0.019270442 0.029395228 -0.11544736 0.1477395
-0.011143585 0.052834067 -0.07635426 -0.058381878 -0.028272968 0.018055392 -0.015326898 0.004307591
0.07337487 -0.053552594 0.05917532 0.015399264 -0.025801025 -0.10650349 -0.0605566 0.073837385

network_body._body_endoder.seq_layers.2.bias f4 [256]
00000000: f151 32bc 7ca7 ce3c 177a 77ba 5f80 b53b
00000010: 5f50 ddbb dc45 223c 5ea7 fa3b f0db e63c
00000020: 75bd c43c b057 083c fd99 043c 86aa 26b9
00000030: 34aa f43c b3b5 023b 4f2f 853c 6241 e73a
00000040: 95f9 693b 48eb 7eba e32a d13b ce9e f63b
00000050: bba2 143c adb0 c13b d52c dbbb 8dd4 673b
00000060: 8ec8 ab3b 7caf 2e3c aabe e6ba ed81 283b
00000070: d30c f33c f4c8 913c 1c8d c53c 7332 bb3c
00000080: f1e6 653c c7fb 3c3c 4020 963b f6c9 96bc
00000090: be9e 3fbb e73a 8b3c d24e 1fbc bafd f83b
000000a0: f58d c43c 25ec 373c b109 e33c b784 8b3a
000000b0: 04af 23bc 246a 863c c808 613c c0a7 ec3b
000000c0: 5a32 683a 859b 883c 37af 243b 073e 893a
000000d0: 4d85 08bb 087f 463c 8bf5 793a 9281 2fbb
000000e0: d36d 3d3b 2958 e839 59d8 783c 6b83 983c
000000f0: edbc d4bc df3a 243c 0aed 523c 7b66 a53b
00000100: 9644 5e3c 69b1 b53c 39d5 953b 07f0 573c
00000110: fba1 c13c e449 403b 4885 213c d10b b83c
00000120: fec0 8d3a eb52 983c 7f0c 653c 9150 063b
00000130: 3df6 573c 090c e33c 7b62 53bc dbd7 093c
00000140: 8d71 3cba b27e 8c3b a3ed 2a3b d0e7 77bb
00000150: 0fc4 07bb a729 183c 2cbf 563c 979f d13c
00000160: 0a82 b03c 4aee 57ba c9e4 173c 1ee1 ab3c
00000170: 5b3a eaba 959a 623c e432 95bb ede0 5c3b
00000180: 12ee b53a 0d5c 5c3c 2866 313c 4a9b 3e3c
00000190: c251 a23c d954 2b3c 66eb 493c cd26 b93c
000001a0: 6908 673c 20d6 d03c cb8f 883b 619f 17bc
000001b0: 9098 983c 964a 333c 3ab2 5abb fe51 653b
000001c0: 8772 853b 3608 ec3c 3f85 2bbc ee75 493c
000001d0: f542 c13c 1daf 593c d535 6ebb 3d99 af3c
000001e0: af37 6f3c b70a aa3c 8461 38bc 65cd 203c
000001f0: 2cd9 643b df3e 3a3b cdad 003c 3f6c a03c
00000200: ff4d b63c 3330 dc3b 28b9 e13c afa5 843c
00000210: 54b5 673b 954b d83b cf0c 783c eb30 533c
00000220: e952 30bc 983a 873b 2df1 6a3c eff1 3f3c
00000230: 4ce8 4b3c 5965 7abc ff7c 3e3b 8365 75bb
00000240: 02e2 38bc 2ef3 1ebc 4c0b 4b3c 9e4f fb3b
00000250: 96eb 7f3c 2a19 9d3c 1d2e 5c3c acf4 053b
00000260: e3d9 2c3c be3e 133c 46e5 843a e0f1 453c
00000270: 271c 78bc c71d 7d3c 99c5 60bb fe6c 5e3c
00000280: 001f 1cbb 44f7 263c 6b43 463c a67a e93b
00000290: f0e4 9c3c bff8 443c d1c6 acbc a0b5 283c
000002a0: 01c8 46bc af22 4a3c 59b4 9f3c 774c 873c
000002b0: 7aa7 833b 1d6c 0e3b 3c86 613c da52 a33c
000002c0: c39b 92bb 9155 673b adeb 073c 47f5 983c
000002d0: 0ffe a43c c9ef 7d3c 8686 333c 662f be3b
000002e0: 9db1 063d bdfa c9bb ddae 813c d2d7 673c
000002f0: 7ed6 ad3b bd4d bbbc 6933 f8bb 6952 f03b
00000300: 3763 943a d1ff 8d3b 3375 083c 8997 023c
00000310: a316 33bc 7a0f a33b e1dd b23c 936d cb3c
00000320: 5462 703c 273a ec3b 88ca 053b 9c58 8f3c
00000330: fa70 11bb f488 453b 6547 2b3c a308 dc3b
00000340: 7973 a93b c154 44bc 5cd5 9d3c b649 7c3b
00000350: f2c7 8f3c 0e9b b83c 55ea 9c3a 1291 d23b
00000360: 0b62 cc3c 5961 093c d3a5 03bb c93e 073c
00000370: b92e 833b 969e 6e3c 32e9 1a3c 7fa2 41bc
00000380: ab1b b33b 3de4 1a3b f76e 063d 4326 343d
00000390: 1491 183c b82e 0abc 479c e63c c901 113b
000003a0: 5154 cabb 8e9a b43c 9cdb 023c 842c f73b
000003b0: c5f4 4d3b 89e7 ad3b 0b97 c23b 87a1 9e3c
000003c0: 23ed 0a3c 7077 b23c 8459 2cbc ee91 663a
000003d0: 1c7c 873c f364 383c 9fb6 68bb 0f75 0c3c
000003e0: 57e0 a53c 022c 933c c7af 9f3b a046 99b9
000003f0: 653b a53c 661c db3a 490f 043c e41d 563c
-0.010883794 0.025226347 -0.0009440495 0.0055389847 -0.0067539657 0.009904351 0.0076493463 0.028181046
0.024016121 0.008321688 0.008093354 -0.00015894519 0.029866315 0.0019944727 0.01625791 0.0017643387
0.003570174 -0.00097243907 0.0063832863 0.007526255 0.009072001 0.005910954 -0.006688694 0.0035374493
0.005242414 0.010661956 -0.001760443 0.0025712207 0.029669201 0.017796017 0.024115138 0.022851204
0.0140321115 0.011534638 0.004581481 -0.01840685 -0.0029238905 0.01699586 -0.009723382 0.007598606
0.023993472 0.011225735 0.027714582 0.001064441 -0.009990457 0.016408034 0.013735004 0.007222146
0.00088576006 0.01667572 0.002512885 0.0010470756 -0.0020831407 0.012115248 0.0009535185 -0.002678011
0.0028904572 0.00044316173 0.0151883 0.018617352 -0.025968993 0.010023802 0.012873897 0.005047617
0.013566157 0.022179322 0.0045725373 0.013179786 0.023636809 0.0029340917 0.009858437 0.022466572
0.0010814962 0.018594226 0.01398003 0.0020494799 0.013181266 0.0277157 -0.012901898 0.00841328
-0.0007188551 0.004287564 0.0026081584 -0.003782738 -0.0020716225 0.009287274 0.013107102 0.025588794
0.021546382 -0.0008237107 0.009270855 0.020981368 -0.0017870174 0.013830801 -0.004553186 0.0033703402
0.0013880155 0.013449681 0.010827579 0.0116337035 0.019814376 0.010457241 0.01232419 0.02260151
0.014101126 0.025492728 0.004167532 -0.0092543075 0.018627435 0.010943076 -0.0033370391 0.0034991498
0.0040724906 0.028812509 -0.01046878 0.012296183 0.023591498 0.013286379 -0.0036348004 0.021435374
0.014600678 0.020757062 -0.011253718 0.009814595 0.0034919484 0.0028418822 0.007853937 0.019582866
0.022253988 0.006719613 0.02755411 0.016192285 0.0035355883 0.006600807 0.015139773 0.012890081
-0.010761955 0.004126858 0.014339727 0.011715396 0.012445521 -0.015282952 0.0029066203 -0.003744454
-0.011284353 -0.009701533 0.01239283 0.007669403 0.015620133 0.019177038 0.013438729 0.0020440025
0.010549995 0.008987127 0.001013913 0.012081593 -0.015143431 0.015448994 -0.0034297465 0.01357579
-0.0023822188 0.010190789 0.012101035 0.0071252165 0.019152135 0.012022196 -0.021090897 0.010297209
-0.012132646 0.012337371 0.019495176 0.016515953 0.0040177675 0.002173192 0.013764914 0.019936968
-0.0044741347 0.0035298804 0.008295936 0.018671645 0.020140676 0.015499064 0.010957366 0.00580399
0.03288423 -0.0061639235 0.015830452 0.014150577 0.0053051105 -0.022864217 -0.007574488 0.007334043
0.0011321072 0.004333474 0.008328724 0.007970699 -0.01093069 0.00497621 0.021834316 0.024832522
0.014671881 0.0072090807 0.0020414907 0.017498307 -0.0022192583 0.0030141445 0.0104540335 0.0067148968
0.005171236 -0.0119830975 0.019266777 0.0038496084 0.017551396 0.022534873 0.0011971692 0.006425985
0.024949094 0.008385026 -0.0020087853 0.008254715 0.0040033725 0.014564177 0.009455012 -0.011818527
0.0054659448 0.0023634576 0.032820668 0.0439818 0.009311933 -0.00843399 0.02815069 0.0022126308
-0.006174602 0.022046354 0.007986929 0.0075431485 0.0031426412 0.005307142 0.005938416 0.019364132
0.008479389 0.021785468 -0.010519389 0.0008795549 0.016538672 0.011254537 -0.0035509241 0.008572831
0.020248575 0.01796532 0.004873249 -0.00029235054 0.020169923 0.0016716837 0.008060285 0.01306865

action_model._continuous_distribution.log_sigma f4 [1, 5]
00000000: d51e 3bbe b99e abbd 156a 32be 3e55 183c
00000010: 16a6 5cbd
-0.1827348 -0.08379883 -0.1742328 0.009297667 -0.05386933

action_model._continuous_distribution.mu.weight f4 [5, 64]
00000000: f722 59be 686f 18bd f786 20bd ad0f e8bc
00000010: 53f6 edbc 4f7e 2f3d 17fd 233d 59e5 cebc
00000020: 9d96 ae3e 8ff7 3cbc 2ad3 19bd 8976 d03a
00000030: baf9 18bd b736 2cbd db42 8fbd 21bd 0ebe
00000040: e327 91be 5615 53be 00d6 363c 037a 24bd
00000050: 9c0d 1c3d b336 90bb b93b 06be 1f84 cc3d
00000060: 3e20 01be b78a e1bd 983f 7a3d 369f 48bd
00000070: b1a4 b3bb 6876 71bd 450b 0fbd fd85 6b3d
00000080: 0717 4f3b 92fe da3d 1d01 ddbd ea79 873c
00000090: 7acb 363d a534 36bc 2b96 b33d 9457 383c
000000a0: 7507 2b3d 45ce 1b3e 5cac 9cbd e9ce 2a3d
000000b0: 1bd5 7cbd fdf4 523d 1c5e 1d3e e26a 0ebb
000000c0: 400b 893c 9d0b aa3d 90de 65bd 3e27 a23c
000000d0: 7b69 4f3d a958 0fbc c1c9 6abe 4e0e b5bd
000000e0: 53e4 883e 52ed fcbc 59b1 363d 8cd7 e63d
000000f0: 65cd df3d 9ec6 dabc 61cd de3d 251a 82be
00000100: 4ec6 e13d 9a00 873d fd38 f23c 80e5 acbc
00000110: d4a5 00be f30d 963d 6a7d 803e 36ab 5a3e
00000120: cc3a 873c 0e99 fabd 5a11 683d 2e14 f2bd
00000130: faf3 bd3c e33f 2d3e ef46 28bd 5654 9d3d
00000140: 8edd 553e 9d7e babd cd86 57bd e3e7 2dbd
00000150: b41f 2e3c 8690 a83d e224 05be 2416 bdbd
00000160: bc43 d8bc 1724 433c 996f 213d 5b86 acbd
00000170: 3e09 b63c c464 b0bd c913 a33d c21d 5dbe
00000180: bf9e 42be e1a3 4ebd 061a 72bd f4d0 9e3b
00000190: a18a 2a3e 229c 2cbd 15db f9bc 1e64 33bd
000001a0: 243c ef3c df9c 253e a1f1 883d 8e37 cf3d
000001b0: c27d 0ebe 38ed 86bc b10a 3fbe fd67 bdbb
000001c0: 55ba 0b3e 407c 823d a597 7abe 7bf4 a53d
000001d0: 4149 46be ef7a 323e be2b 033d 7e25 56bd
000001e0: 0947 283e c2c0 983e 62fe d33d a80d ad3c
000001f0: 8583 b63c 6024 1abe d302 34bd 7c64 8dbe
00000200: dd8c 01be fcba 5c3d 0be8 743d 6c46 07bd
00000210: 50f1 35bd 0964 96bd b6b9 37be cb60 44be
00000220: 5ba7 973c 1fd6 4abc 2db2 cebc 2b16 31bd
00000230: 941e a23d da1a 383d 91f6 e53d f12c 8d3e
00000240: 3899 31bb 1aa4 95be ecc7 d93b 3162 a53d
00000250: b7d1 8b3d 4e85 46bd da47 183d 67cf 4b3d
00000260: d440 93be d212 aebc c772 cbbd 0e12 9abd
00000270: 319b 11bd c76d 533d 20d7 8b3d 0663 9f3d
00000280: 15dc a33d 2d36 a5bd 6d9f 9c3d 710e 0e3c
00000290: 4a23 cc3c 7b8b 09bd cdc3 483d c427 3b3d
000002a0: 7964 6b3d 447b b7bd 32f0 983c 7f38 5f3e
000002b0: 0da8 72bd f5eb b93a e1f2 4e3c db05 3b3d
000002c0: f45a 0bbd c489 d4bd e6f7 2c3d 33b2 773d
000002d0: 1900 06be 76ed 1d3e 5f02 f0bd 6101 dc3d
000002e0: 17e2 983d 02c3 e53d fb93 70bd 2054 783c
000002f0: 90ba adbd 8ea7 3abe 7c67 523c 0765 ab3d
00000300: 083b bcbc 90bb 4dbd 3fb4 b9bd 8e3c 333d
00000310: 7b59 89bd 9044 893d 600b 5ebd 305f 22bd
00000320: 80a7 debc dad1 6abc f51e 7cbd 7e2a 11bc
00000330: 954b 92bc a446 89bc cdf2 9bbd 0f50 41bc
00000340: 7a99 75bd 2da1 873d 6891 3e3d b5b5 07bd
00000350: 23c4 d6bd 4188 93bd f6be 3f3c 6b6a 983d
00000360: c365 4dbc 80b0 84ba 7e53 5a3d ab09 453d
00000370: 0b5a 813d cf16 70bd 6ba1 c33d 73d3 6e3d
00000380: c27b e63d ac86 05bc 2fff 7d3d 4b77 ee3c
00000390: adc7 903d b894 1f3c 268e f03c d1da c1bd
000003a0: 1859 ca3c f162 40bc 94f5 b0bd 6afd 803c
000003b0: 6444 e1bd c352 c13d 69e7 f73b 6771 7abd
000003c0: 7253 0d3d 8849 2bbd f13a fdbc 1e8b 833c
000003d0: 6b73 ab3d da8c 033c 79f7 3ebc a5b6 ff3c
000003e0: 79f5 723c 4bab a5bd 75ab 8dbd bbcf cebc
000003f0: 620c 843c 85fa 353b 7243 013e b482 1a3d
-0.21204744 -0.03721562 -0.039191213 -0.028327787 -0.02904812 0.042845067 0.040036287 -0.025255846
0.34099284 -0.011533632 -0.037554897 0.0015904467 -0.037347533 -0.042044368 -0.069951735 -0.13939334
-0.28350744 -0.20613608 0.01115942 -0.040155422 0.038098916 -0.004401052 -0.1310872 0.099861376
-0.12609956 -0.11012786 0.061095804 -0.04897996 -0.005482279 -0.05895081 -0.034922857 0.057500828
0.0031599419 0.10693087 -0.10791228 0.016537625 0.044627644 -0.01112095 0.08768877 0.011251349
0.04175516 0.15215404 -0.076500624 0.04170123 -0.06172667 0.05150317 0.15367931 -0.0021731188
0.016728997 0.08302996 -0.056120455 0.019794103 0.050637703 -0.008749166 -0.22928526 -0.08840619
0.26736698 -0.030874882 0.044602726 0.11271581 0.10927848 -0.026706036 0.10879017 -0.25410572
0.11024152 0.065919116 0.02956819 -0.021105528 -0.12563258 0.07326879 0.25095683 0.21354374
0.016507529 -0.12236224 0.056657173 -0.11820255 0.023187626 0.16918902 -0.041083273 0.076821014
0.20885298 -0.09106181 -0.05261879 -0.042457473 0.010627676 0.08230691 -0.13002351 -0.092327386
-0.026399486 0.01191046 0.03941307 -0.08424064 0.022221204 -0.086129695 0.07962758 -0.21593383
-0.1900587 -0.050449256 -0.05910685 0.0048466865 0.16654445 -0.042141087 -0.030499974 -0.04379665
0.029203482 0.16173123 0.06686712 0.10118018 -0.1391516 -0.016470537 -0.18656422 -0.0057802186
0.13645299 0.06371355 -0.2447191 0.081032716 -0.19363882 0.17429708 0.032024138 -0.05228185
0.16433348 0.29834563 0.10351254 0.021124676 0.02227951 -0.15052938 -0.043948006 -0.27615726
-0.12651391 0.05388926 0.059791606 -0.033026144 -0.044419587 -0.07343299 -0.17941937 -0.19177549
0.018512418 -0.012380152 -0.025231445 -0.04323403 0.079159886 0.044947483 0.112286694 0.2757335
-0.0027099382 -0.29226762 0.006646147 0.08075369 0.06827109 -0.048466973 0.037177898 0.04975834
-0.28760397 -0.021249209 -0.099340014 -0.07522975 -0.035548393 0.051618364 0.06828141 0.07782559
0.08000962 -0.08066974 0.076475956 0.008670435 0.02491917 -0.033580285 0.049014855 0.04569222
0.057468865 -0.08959058 0.018669222 0.21798895 -0.059242297 0.00141847 0.012631149 0.04565988
-0.034022287 -0.10377839 0.042228602 0.06047268 -0.13085975 0.15422615 -0.11719202 0.107424505
0.07464998 0.112188354 -0.058734875 0.015156776 -0.084828496 -0.1822798 0.012842055 0.08368879
-0.022977367 -0.0502277 -0.09067582 0.04375892 -0.0670652 0.067025304 -0.054210067 -0.03964156
-0.02717948 -0.014332259 -0.06155296 -0.008860229 -0.017858306 -0.016757317 -0.0761467 -0.011798873
-0.05996082 0.06622539 0.04652539 -0.033132274 -0.10486629 -0.07203723 0.0117032435 0.074421726
-0.012536469 -0.0010123402 0.05330228 0.048104923 0.063160025 -0.058615502 0.095522724 0.058307122
0.11254074 -0.008149784 0.06201094 0.029109618 0.07069335 0.009740047 0.029364657 -0.09465564
0.024700686 -0.0117423395 -0.0864059 0.015745837 -0.109993726 0.09439614 0.007565428 -0.061143305
0.034503408 -0.04181817 -0.030911895 0.016057547 0.083716236 0.008029187 -0.011655682 0.031215021
0.014829033 -0.08089312 -0.069174685 -0.025245538 0.016119186 0.002776773 0.12623385 0.037722304

action_model._continuous_distribution.mu.bias f4 [5]
00000000: ecb2 293b 723f bbbc 2a6b a4bc a955 573d
00000010: 65c8 7f3b
0.0025894 -0.022857402 -0.020070631 0.052571926 0.0039029357

onnx::LSTM_100 f4 [1, 256, 256]
00000000: 9e02 18be dfd6 353e 155f 103e 059a 20bd
00000010: ae16 273d f427 a1bd e197 063d de63 df3a
00000020: 1f02 4b3d a42c d8bb 7f1f 103e 3526 1bbb
00000030: f277 b5bc 416d 4abd 0fe5 5bbd 5eff d43d
00000040: 2ce3 3a3e 5b5f b4bc 45d0 8fbd f957 1cbd
00000050: 59cb 2b3d ee60 11bd 6f35 e4bb f911 323e
00000060: 4efc 90bc 6312 b93d 07c9 a3bc c1c3 80bc
00000070: ddb5 393e dfed 963b 5704 80bd 4a23 2c3d
00000080: e8b6 2b3d 64ac cbbd fee0 13be 7d1f 11be
00000090: 0810 c23d e47a 36bd 7f24 39bd f6a1 ad3d
000000a0: 8094 873d ec8d 893d a56d 033e 758d 093e
000000b0: b404 2f3d a499 80bc 0ab1 5b3d 24c5 a13c
000000c0: cc91 0ebe 6f53 b2bd d3be 1abd 91cd 38bd
000000d0: e409 753d 9263 bf3d f541 8fbd f415 cf3d
000000e0: c30b 923d 5849 e2bc 7602 823d 7702 543d
000000f0: 0ff3 5a3c 9d3d 5c3d 9fbb f73d d697 9d3d
00000100: 6e89 f03c 1f81 403e 7310 0a3d 46f7 89bd
00000110: 5b87 293e 583f a43c 325f 013e 1989 a7bd
00000120: 259e 693d e150 443e 8fa8 943d 929b fbbb
00000130: fbe9 0d3c 2d0c 61bd 6cf5 37bd 6eae 23bd
00000140: 993f 963d cd5b b93d 7839 f83c 9be1 4bbd
00000150: 23a7 673c 95ef 2f3d bab5 30bd 2e08 0bbd
00000160: 9498 653d a0b2 313d 868f 303e 8ac0 8e3d
00000170: 9a65 23be 151d 253e e543 aabb 9bc5 f2bd
00000180: 1e0f c43d 7a73 733a 7cc1 f3bd cabb ea3a
00000190: 0809 49bd 8f1a 543e f389 023e 2bc0 58bd
000001a0: 031a 1a3e 8507 d23d fb0b 8fbc 546c 1d3e
000001b0: 7a14 dc3d 3e57 503b d565 0fbe f464 0abd
000001c0: 6ab6 763d 4a08 903d c481 21bb 78e1 cbbd
000001d0: 5888 f4bc b0ae 95bc 3c08 4c3d d367 1f3e
000001e0: 07ab a1bd 74e1 083e cb01 20bd 8af5 94bd
000001f0: e16f 82bc 0914 88bd 60a6 5f3d d405 aa3d
00000200: e697 223e cbfc 8ebd a11f 733d 9df0 8abd
00000210: 7b29 343d dd7c ecbc 2c00 f73d 1800 d1bd
00000220: 3da0 3a3c 35ff 013d f7e9 fa3d a4a7 853c
00000230: 7285 2f3e 2f60 2dbe 1856 143e 53a1 373e
00000240: 2a65 15bd d127 dc3d 40d3 0b3e 56f6 e63d
00000250: 4428 a93d 288b 3d3e 7b9d 303e 6b30 95bd
00000260: e6f3 0fbd d17e 913b 448f e53c e246 9b3d
00000270: f588 41bd b621 6cbd c947 28bd 4944 83bd
00000280: 357b 0f3d 7786 0fbd 6b02 a13d bc96 123e
00000290: 4967 813c f339 313e b0ee ecbc cdb6 453e
000002a0: 4d6f 7a3c 6304 c73c 4df4 54bb 3008 53bc
000002b0: 7447 0e3e 6151 bf3c dd75 d83d 62dd 733d
000002c0: fae5 f9bd 09e6 423c 8e36 92bd d982 a03d
000002d0: 6338 4e3d a24a 1f3d cb6d 59bd aa92 233e
000002e0: bfe0 143e 5b94 59bd 2135 c8bd 631a 283e
000002f0: f241 f5bc 78ec 3cbe 8b9d 9bbd ec54 b83b
00000300: bcfa 61bc 6fff b5bc 4b28 003e 0257 3e3e
00000310: 0017 0d3c f39d df3c 1a9a f03c 00b8 aebc
00000320: 05e8 0f3e d003 f43d cb79 8d3c a63f d0bb
00000330: b58e 353d bacb 803d 2d92 1dbd d55a 113d
00000340: a093 9c3d b132 f7bd 0877 463e 9bf2 dbbd
00000350: 9550 5abd 9b46 283e 7a66 43bd aa00 263e
00000360: 35ae 97bd ce00 d83d ac2e 0b3e d5c9 d63d
00000370: c4e4 4f3c 1569 d13d f736 993b 1bb0 093e
00000380: d23e bb3d 3c42 f1bd 387a 3fbc 3b9f 283e
00000390: 784e 1b3d a492 093e d2a2 e83d 6bb8 b53d
000003a0: 971b e4bc d6f8 b3bc fe82 43bd 2f62 bf3d
000003b0: b0a0 bf3d 72f3 a2bd 4621 afbd 3e47 ab3c
000003c0: 2664 4a3e f4ed 643e a579 a6bd dfb5 b93d
000003d0: 4454 6cbd 511e fe3c 28fd 753d 5e16 5f3c
000003e0: 25ef d53d efde c23d 0604 f83c 0286 a23d
000003f0: 1620 603d b738 c03c 67b6 18bd 743c a13d
-0.14844748 0.17757748 0.14098771 -0.039209384 0.040793113 -0.078689486 0.032859687 0.0017043313
0.04956257 -0.0065971185 0.14074515 -0.0023673896 -0.022151921 -0.0494206 -0.053685244 0.1040027
0.18250722 -0.022018125 -0.07022146 -0.038169835 0.041941974 -0.03549283 -0.0069643776 0.17389669
-0.017698433 0.0903671 -0.019993318 -0.015718343 0.18135782 0.004605993 -0.06250828 0.04202584
0.04192248 -0.0994499 -0.14441296 -0.14172168 0.09475714 -0.04455079 -0.04520082 0.08478157
0.06620121 0.067165226 0.12834795 0.13432868 0.042729095 -0.015698262 0.053635634 0.019747324
-0.13922805 -0.0870732 -0.03777964 -0.04511792 0.059823886 0.093451634 -0.06995002 0.10111609
0.071311496 -0.027622864 0.06348126 0.051760163 0.013363614 0.053769697 0.12096333 0.07694976
0.029362407 0.18799256 0.033707093 -0.06736617 0.1655554 0.020049736 0.1263397 -0.08180446
0.057035584 0.19171478 0.072587125 -0.0076784575 0.008661742 -0.054943252 -0.044911787 -0.03996127
0.07336349 0.09050713 0.03030084 -0.0497757 0.01413897 0.042953093 -0.043142058 -0.033943348
0.056053713 0.04338324 0.1724225 0.06970318 -0.15956727 0.16124375 -0.005196082 -0.118540965
0.09573196 0.00092869217 -0.119021386 0.0017908749 -0.04908088 0.20713256 0.12747936 -0.05291764
0.15048985 0.102553405 -0.017461767 0.15373355 0.10746093 0.0031790282 -0.1400369 -0.033787683
0.060232557 0.07032831 -0.0024643997 -0.09955114 -0.02985017 -0.018271774 0.04981254 0.1556695
-0.07893949 0.13367254 -0.03906421 -0.07273395 -0.015922489 -0.066444464 0.054602027 0.08301893
0.15878257 -0.0698181 0.059356336 -0.067841746 0.04398487 -0.028868133 0.1206058 -0.10205096
0.011390743 0.031737525 0.122516565 0.016315289 0.17140749 -0.16931222 0.14485967 0.17932634
-0.03647343 0.10749782 0.13654804 0.112774536 0.08259633 0.18510115 0.17247574 -0.072846256
-0.03514471 0.0044401665 0.028022416 0.07581879 -0.047249753 -0.057649337 -0.041084085 -0.06409509
0.03502961 -0.035040345 0.07861789 0.14315313 0.01579632 0.17307262 -0.028922409 0.19308014
0.015285325 0.024294084 -0.0032494247 -0.01288037 0.13894445 0.023354234 0.10569356 0.0595373
-0.12202068 0.011895665 -0.07139312 0.07837457 0.050346743 0.038889535 -0.053083222 0.15973917
0.14538859 -0.05312 -0.097757585 0.16416316 -0.029938672 -0.1844958 -0.07598408 0.005625358
-0.01379269 -0.022216527 0.1251537 0.18587878 0.008611441 0.027296996 0.029370356 -0.021327972
0.14053352 0.1191479 0.01726999 -0.0063552437 0.04432555 0.06288858 -0.038469482 0.035487015
0.07645345 -0.120702155 0.19381344 -0.10739633 -0.053299505 0.16433184 -0.04770515 0.16211191
-0.07406274 0.105470285 0.13592023 0.10487715 0.012688819 0.10225121 0.004675742 0.13446085
0.091428414 -0.11780211 -0.011686854 0.16466992 0.03791663 0.13434845 0.113591805 0.088730656
-0.027845187 -0.02196924 -0.047732346 0.09344899 0.093568206 -0.0795659 -0.08551268 0.020907994
0.19764766 0.22356397 -0.081286706 0.09067892 -0.05769755 0.031020315 0.06005588 0.013616173
0.10446004 0.095151775 0.030275356 0.07935716 0.0547181 0.023464544 -0.037283327 0.07872859

onnx::LSTM_101 f4 [1, 256, 64]
00000000: 4af8 8e3d ff38 873d 8491 7c3d 8840 b1bd
00000010: 9c82 1fbd a52d b3bd 9650 f8bc 257b e9b8
00000020: 364d 433e d849 02bc c9f1 df3d 21b5 f53d
00000030: b797 82be 23c7 f33d f515 a2bd a90e f6bb
00000040: 2996 34be 8a11 3fba 591b ed3d 70db 4a3e
00000050: d14e c03d 229c 7e3e 6f69 323d 413f 7e3e
00000060: de6c 9e3c 8e74 6ebd d0b7 23be 274f 193d
00000070: abf9 d03d 316b d33c f342 4d3d 40d8 f6bc
00000080: 62a0 963d f129 3f3d fe00 fe3d f08c 173e
00000090: 5634 adbd a5fe e93d 8060 433e d410 1e3e
000000a0: 1a64 f8bc a56f cabd ffb9 bc3d 6cbe c33d
000000b0: 7a48 723e 9b90 31bd 0a8c d1bd 3ea4 d0bc
000000c0: b228 ed3d a613 6cbd ecde 0dbe c45a 233d
000000d0: 78e0 db3d 7d24 163e b41f 91bd 84c2 1fbe
000000e0: 6784 863d 11b7 62bd a1c2 053e 1557 273e
000000f0: 8fa0 643e 1bc8 4b3e d1fd a8bc 4562 eabd
00000100: d241 51be 0b1a 12bd 03e7 663e c55d 46be
00000110: fe22 c9bd fd5e 523d de6e 60be 4b73 a43d
00000120: 80d8 b1bb bff3 e7bd e949 12be c51f d23d
00000130: e695 c1bd a7f0 253e a52f 3d3d 7268 2bbe
00000140: 2c23 503e 6737 d53c 6daa b3bc 7f00 733e
00000150: 7806 f0bd 9a90 2fbe 0d2e fb3d bc03 013e
00000160: 7362 7abd 7836 04be d845 4f3e faa4 3d3e
00000170: 6bdc 7c3d 3548 2c3e f93a 053e 6f19 3ebc
00000180: 2346 56bd 908d be3b c716 063e 6179 d63c
00000190: 6a7f 493e da07 76bd c3d0 093d bfd1 0a3d
000001a0: 583d 363c 6366 c23d 49d5 503e 641e 6f3d
000001b0: 89c0 f7bd 10ff 45bd 3bfd 673c 9f56 7f3c
000001c0: 90af 3f3d 5bd1 2f3e 4ba7 d0bd b1e4 1bbd
000001d0: e6c3 183e 6279 d53d 39fe 573e 2433 1b3e
000001e0: 56d0 533c a153 8a3d 0a74 5fbe ce9a 903d
000001f0: 4ad7 c13d 018d 093e c8ca 33be c8e1 1d3e
00000200: bd98 0e3e bbb9 b83d 7cd4 cabd 32de a13c
00000210: a21f 093e fc30 43be 1dc3 f93d d485 533e
00000220: 55fa 0fbd a678 983c 01a1 a83d 95e2 a83d
00000230: 9e0c 563e 0781 e2bd 32f3 adbd fa3a 2dbd
00000240: 7e67 443e 1159 05be aa2f 163e 3050 33be
00000250: 640a 2bbe 4212 db3c a10f d9bd 30a4 203e
00000260: 5f23 3ebe c016 ad3d 05bc a43d ad09 9d3b
00000270: 93eb d63d ba50 ccbd 4dfd ca3d 1a89 31bd
00000280: eedc e53c f896 08bc 71bc 55be 3ac9 563e
00000290: 17b6 4ebe 5648 84bd cd00 643e 5bb4 443e
000002a0: a0da 3b3e 0c25 cbbd 22f2 e43d 7e6d 983d
000002b0: 8884 46be 66cd 463e 2dc7 d73d 7e37 b4bd
000002c0: 344c 15be dbbc d1bd ecf9 02be 8dd0 c8bd
000002d0: 8f81 26be 6c53 293e 707c ea3d 23d5 2abe
000002e0: c6c0 39be d9ad 13be 30a3 36bd 79e5 4cbe
000002f0: ee0f 0dbd 7906 113d afb6 c7bd b136 343e
00000300: 01c3 5cbe 98d8 b53c 2361 4c3e 6af3 8b38
00000310: cbc1 253e 9e9a 863c 4283 71be 81b8 95be
00000320: 357b b0bd 85f3 38be 485e 163e 6822 393e
00000330: d6e5 e1bd a142 0b3e ec4c 35be 459b 31be
00000340: fe0c 113d da2e 4abe 17ca 4fbe 4d77 443e
00000350: 8550 d4bc b4f9 6abd 7a2a 9d3d 7a23 9dbd
00000360: 7d3f 273d 572c 95be a7aa a23d 1254 b1bd
00000370: 4e16 59be 9df5 033e d806 85bd a495 23be
00000380: 5025 093d a7fc 07bc 584f e83d 124e 353e
00000390: 1dbd c93d f4af 943d 85b2 41bd 748f d2bc
000003a0: adca 4bbe ba03 19bd 560e 1b3e 2ae6 3d3e
000003b0: 2521 043e 1ac1 b7bd 2b58 613e 8050 01be
000003c0: 8534 54bd a25d 45be 852b d33d 81d3 d4bd
000003d0: e8c8 7d3e 15b1 a53d aa86 88be bb03 5c3c
000003e0: b8db 2ebd 70a4 8cbd 22ee ed3d b51b b9bd
000003f0: 3620 1ebe 2695 38be 1801 253d b792 10be
0.06980951 0.06602668 0.061662212 -0.086548865 -0.03894292 -0.087489404 -0.030311864 -0.00011133243
0.19072422 -0.007952176 0.10934789 0.11997438 -0.25506374 0.11903217 -0.07914344 -0.007509072
-0.17635407 -0.00072886853 0.11577482 0.19810271 0.09390033 0.24864247 0.04355758 0.24828817
0.019339021 -0.058216624 -0.15988088 0.037429 0.102038704 0.025807949 0.050112676 -0.030132413
0.07354809 0.046670858 0.12402533 0.14799857 -0.08457248 0.11425523 0.1907978 0.15436107
-0.03032117 -0.09884576 0.092151634 0.095578045 0.2366046 -0.043350797 -0.102317885 -0.025468942
0.11580028 -0.057635926 -0.13854569 0.039881483 0.107361734 0.14662357 -0.07086125 -0.15601546
0.065682225 -0.055350367 0.13062526 0.16341813 0.22326873 0.19900553 -0.020628842 -0.11444525
-0.20435265 -0.035669368 0.22549061 -0.19371708 -0.09821127 0.05136012 -0.21917292 0.08029803
-0.00542742 -0.11325788 -0.14286007 0.10259966 -0.09452419 0.16205083 0.046188015 -0.16739061
0.20325917 0.026027394 -0.021931851 0.23730658 -0.11719984 -0.17145005 0.12264643 0.12599081
-0.061129045 -0.12911403 0.20241487 0.18519965 0.061733644 0.1682442 0.13010778 -0.0116027435
-0.05231298 0.0058152154 0.13094626 0.026180925 0.19677511 -0.06006608 0.033646356 0.033891436
0.011123024 0.09492185 0.20393862 0.058378592 -0.1209727 -0.04833895 0.014159496 0.015584617
0.04679829 0.17169707 -0.101881586 -0.038059894 0.1491848 0.104235426 0.21093072 0.15156227
0.012928089 0.06754232 -0.21821609 0.07060777 0.09464891 0.13432695 -0.17557824 0.1541816
0.13925453 0.090198 -0.099038094 0.019759271 0.13390973 -0.19061655 0.12195418 0.2065652
-0.035150845 0.018612217 0.08233834 0.08246342 0.2090325 -0.11059766 -0.084936514 -0.042292573
0.19180104 -0.13022257 0.1466662 -0.17511058 -0.16703182 0.026742104 -0.10598684 0.15687633
-0.1856818 0.08451605 0.080436744 0.004792413 0.10494151 -0.09976335 0.099115945 -0.04334364
0.028059449 -0.008336775 -0.20872666 0.209752 -0.2018665 -0.064591095 0.2226593 0.19209425
0.18345118 -0.099191755 0.11178996 0.07442759 -0.19386494 0.19414291 0.10536037 -0.08799647
-0.1457985 -0.102410994 -0.1279065 -0.09805403 -0.1626036 0.16535729 0.11449516 -0.16682868
-0.18139943 -0.14421786 -0.04458922 -0.20009412 -0.03443902 0.035406563 -0.09751641 0.17598988
-0.21558763 0.022198007 0.1995893 6.673376e-05 0.16187207 0.01643115 -0.23585227 -0.29242328
-0.0861725 -0.18061645 0.14684403 0.18079531 -0.11030166 0.13599636 -0.17705125 -0.17344387
0.03541278 -0.19744435 -0.20291935 0.19186135 -0.025917301 -0.05736704 0.076741174 -0.07672782
0.04083203 -0.2913539 0.079427056 -0.08658613 -0.21199915 0.12886663 -0.06495446 -0.15975052
0.03348285 -0.008299983 0.113432586 0.17705563 0.098505236 0.07260123 -0.04728939 -0.02570317
-0.19901533 -0.03735707 0.15142187 0.18544832 0.12903269 -0.08972378 0.2200629 -0.12628365
-0.0518079 -0.19274 0.10311035 -0.10391904 0.24783671 0.08090416 -0.2666524 0.013428624
-0.04269001 -0.068673015 0.11617686 -0.09038488 -0.15441975 -0.18025646 0.040284246 -0.14118467
