Project/results/hb_01/Hummingbird/Hummingbird-1499968.onnx (onnx, 649088 bytes, 10 tensors)

network_body._body_endoder.seq_layers.0.weight f4 [256, 46]
00000000: 6b9f 8a3e 5076 5ebd efb2 cd3e 63ba 853e
00000010: 0bd6 a3bd 9add 46be 8c2a 2abd 9a38 afbd
00000020: 6b29 113d 420d dd3d 24d6 57bd 0836 ad3d
00000030: 5385 0b3e af0c e23c 2df5 b23e fae7 213c
00000040: 2516 283e 6980 113e 24f2 67bc 81f3 0c3d
00000050: 1fdd 58bd 05b7 993c 00ca bf3b 4967 a5bd
00000060: 03d0 ba3d 2385 95bd 9111 1cbd eef5 4a3e
00000070: 6720 d03e 2f7e 3abd 0d30 3f3a baa8 ed3d
00000080: 08fd 3b3e c8f7 8b3e dfb4 89bd 9bb7 d63d
00000090: a184 05be 4bf6 91be ff0a 39be 9cfa 82bd
000000a0: 05de de3d a69b c43d 1c69 02bd cfbb 73b9
000000b0: 1a88 8cbd 4767 863e 0d9b 6b3e ebac 0d3e
000000c0: 0d05 8dbd 007b 4f3d 6d1b 12be d1b1 c53d
000000d0: b2b2 08be 1e69 53bd b476 703e 6aa6 943d
000000e0: 89ec ee3d 05e3 4cbe 2cf5 08bd ee55 703e
000000f0: 0475 1dbd 8c36 9a3b c126 3dbe 1ffb 76be
00000100: 9628 c4bd 2587 b7bd edd2 e53d 250c 99bc
00000110: 9410 a5bd 3e10 0d3d bfaf f6bc c3a2 163e
00000120: b7e9 583e 300e 49bd ad65 123e 1438 843e
00000130: 25b7 74be 42eb d0bc 773c 0cbe bb72 0ebe
00000140: 8877 023e 9a45 243e d58d 61bd 9f29 58be
00000150: 8bba 183e 8632 543e 427c 86be 9ed7 263e
00000160: ca29 debb 0369 5dbe 2e9d f5bc 617b 96bc
00000170: f43b 883e a182 e3bd 629d 953d c8a4 7b3e
00000180: 4768 32be 8f2f 833e 2fa7 e9bd 65b2 7e3e
00000190: e605 21bc fabd 113d 6a25 66bd 080a 13be
000001a0: 03a5 9f3e 1a69 1fbe 133f 053e d05a 353d
000001b0: f75b aabd 4c27 e73c 99c4 b03e 483a 5d3b
000001c0: 154c ac3d 13c1 e3bd 670b 793e f469 bbbd
000001d0: 8853 cdbd 0c1b 733d 2dab bd3d e723 953e
000001e0: 75d1 00bd 07b6 413d e09a 3bbd 0e88 a53b
000001f0: d73c 28be c257 11be 5273 2c3d 7cbc 523c
00000200: 470f 1ebe 18bb 7c3d 656b 1a3d 5634 083e
00000210: 1e49 1f3d 4899 a4be 9441 b93c 0079 65bd
00000220: 3745 a93e 2672 863e 411e 8d3d a8c0 e6bb
00000230: 3a98 10bd 6c07 fb3d c075 03be 7992 373d
00000240: 8e03 763e 3a03 b0be ece3 8ebe 4525 2b3e
00000250: 2c84 9bbd 1454 50bd 9922 433e 8388 ed3b
00000260: 44f8 1fbd 6819 a4be 4f4a b439 0c9b 87be
00000270: 08a8 973c a841 103e a543 283e ca20 19bd
00000280: 5c53 14bd d1c8 a53e fdd1 debd f5d8 3bbe
00000290: bbc2 32be 13e2 9b3e bec3 a8bd dd97 033e
000002a0: 3acf eebd 04e0 da3d 42cd 3ebe bb22 c9bd
000002b0: 3026 983d 87b2 98bd 87dd c23d 3f4f 7e3e
000002c0: ebdc 883d 1c1c 21bc ec27 dabd dda3 4abc
000002d0: d47e 84be 7ee2 70be 9b2d 123e ce68 2e3d
000002e0: 9490 2a3e eb9e 18bd f1f6 133e 1b98 8dbd
000002f0: 83b6 39be 4d88 eebc eac1 033c 28d1 69be
00000300: 712e 7a3e 0e88 80bd b909 05be 98b9 2e3e
00000310: 71a7 94bc 4fd8 08be 7764 4fbd 8e6b 633d
00000320: 381b 57be 03a2 253e b224 b93c d847 dd3d
00000330: 7c76 cc3d 9362 3dbd fd77 47bd 481d ae3e
00000340: 9926 d73d 62b4 183d d2de 9e3d 5743 2f3d
00000350: 19e9 3cbe d08d 413c c2d8 4b3c 28d2 1f3e
00000360: f579 41bd fe3c 123e 96d0 a1bd b4e8 673d
00000370: 9cec 143e b664 e43c 2f4f 363d a8b3 21be
00000380: a647 93bd 4b22 3bbe 8f11 15be de67 163e
00000390: 12ce 92be be0c 373e 0cf4 2cbd 955f debb
000003a0: 669b 1f3d 4d19 4bbc 817d 20be 0914 40be
000003b0: 5f80 373d f7be 89bc 0899 5a3e 235f 5cbd
000003c0: f4b5 f53d c45a 073e ec22 093e b8fd 41be
000003d0: e725 373d 8e60 1c3e b3a9 783d 703e 23be
000003e0: 2062 043e f13f ec3d f2f5 3b3d f20e c2bd
000003f0: 5015 003d 3f6b 0abe 28ce a03d 7096 2bbd
0.2707475 -0.05431205 0.40175578 0.26118764 -0.0799981 -0.19420472 -0.041544482 -0.08555718
0.03543989 0.10793544 -0.052694455 0.08457571 0.13625078 0.027593939 0.3495268 0.009881968
0.16414697 0.14209141 -0.014156852 0.03441191 -0.052945253 0.018764028 0.0058529377 -0.08076341
0.09121706 -0.073007844 -0.03810269 0.19820377 0.4064972 -0.045530494 0.0007293232 0.11604448
0.18358243 0.2733748 -0.067239515 0.10484239 -0.13038875 -0.2850822 -0.18070601 -0.06395456
0.108821906 0.096 -0.03183852 -0.0002324425 -0.06861897 0.2625067 0.23008366 0.13835494
-0.06885729 0.05065441 -0.14268275 0.096530564 -0.13349417 -0.05161392 0.23482782 0.072583035
0.11666209 -0.20008476 -0.03343694 0.2347028 -0.038441673 0.0047062095 -0.18471815 -0.24119233
-0.09578054 -0.08961324 0.112218715 -0.018682549 -0.08059803 0.034439318 -0.0301131 0.14710526
0.21182905 -0.049085796 0.14296599 0.25824034 -0.23897989 -0.025502805 -0.1369494 -0.13910954
0.1274091 0.16042176 -0.055066902 -0.21109627 0.1491491 0.20722398 -0.26266676 0.16293189
-0.006779884 -0.2162209 -0.029982176 -0.018369379 0.2660824 -0.111089 0.07305409 0.24574578
-0.17422591 0.25622222 -0.11408841 0.2487274 -0.009828066 0.035581566 -0.056188025 -0.14359295
0.3118058 -0.15567437 0.13012342 0.04427606 -0.08318322 0.02821698 0.34524992 0.0033756662
0.08412949 -0.1112081 0.24320756 -0.09151068 -0.10025698 0.059351966 0.09261165 0.29128954
-0.031449754 0.047292735 -0.045801997 0.0050516194 -0.16429459 -0.14193633 0.042102166 0.012862321
-0.15435515 0.061701864 0.037700076 0.13301215 0.03888809 -0.32148194 0.022614278 -0.056023598
0.3306062 0.26258963 0.06890536 -0.0070420094 -0.035301425 0.12257275 -0.12837887 0.04481742
0.24024794 -0.34377462 -0.27908266 0.16713436 -0.07593569 -0.050861433 0.19056167 0.0072489395
-0.039055124 -0.32050633 0.0003438764 -0.2648548 0.01851274 0.14087546 0.16432054 -0.037384786
-0.03621231 0.32379773 -0.10879896 -0.18344481 -0.17457096 0.30445918 -0.0824046 0.128509
-0.11660619 0.10687259 -0.18632987 -0.098210774 0.07429159 -0.074559264 0.09514909 0.24834917
0.06682762 -0.009833362 -0.10652146 -0.01236817 -0.25878012 -0.235239 0.1427521 0.04258042
0.16656715 -0.03726093 0.1444967 -0.069137774 -0.18136029 -0.029117728 0.008041838 -0.22833693
0.24431778 -0.0627595 -0.1299199 0.17062986 -0.018146249 -0.13363765 -0.05063292 0.055522494
-0.21006477 0.16175084 0.022600506 0.10804719 0.099835366 -0.046236586 -0.048698414 0.34006715
0.10505409 0.0372814 0.07757343 0.04278883 -0.18448295 0.011813596 0.012441816 0.15607512
-0.047235448 0.14281079 -0.07901113 0.056618407 0.14543384 0.027880054 0.04450911 -0.1579119
-0.071914 -0.182748 -0.1455748 0.1468806 -0.28672844 0.17875955 -0.04222493 -0.0067862966
0.03896656 -0.012396169 -0.15672876 -0.18757643 0.04480016 -0.016814692 0.2134744 -0.053801667
0.119975954 0.13218218 0.13392228 -0.18944442 0.04471388 0.15271208 0.060708713 -0.15941787
0.12928057 0.11535633 0.04588885 -0.09475507 0.031270325 -0.13517474 0.07851821 -0.041891515

network_body._body_endoder.seq_layers.0.bias f4 [256]
00000000: ec04 a7bb 07ef 42bb 588c 3ebb de55 443c
00000010: 2203 f73b b1d4 953b b2d1 07bc 34cb 28bc
00000020: 62e8 76bb 9e86 bfbb cbc1 ad3c e3b8 013b
00000030: 2809 c1bb 69ad 21bb a57b ea3b fefa fb3b
00000040: 112b f43b a740 f03b 0813 eebb bc17 d73b
00000050: b86e 203c 3de1 833b 848e e8bb 0582 ba3b
00000060: 0c3c bdbb 5979 21bc e00c 2a3b 9ff8 f03b
00000070: 292f 01bc 9988 7bbb a6be b83b 668a 25bc
00000080: 859e e13b 0371 2b3c c97f 2bbc 8ddf 2cbb
00000090: a5ff afb9 518b 863c 4e90 2d3c a323 6bbb
000000a0: cf7a 71bb da91 b0bb c979 d4bb 5219 be3b
000000b0: 5399 323c 5b64 e5bb 67c5 5e3c dd64 22bc
000000c0: 8c34 be3a a978 df3b 9cd9 833b 098e 983b
000000d0: 00bd c8b9 6db3 9fbb 4cb4 883c 86fa cc39
000000e0: 7d62 113b a17a 08bb f55e bdbb eacc fc3b
000000f0: ebf1 0fbb 8f8f 233c 25c3 3abc d633 ab3b
00000100: 0ede 9d3b f04b 15bc 6165 de3a c02a 333b
00000110: cd63 a33b aaf9 8f3a 6146 253c d414 093c
00000120: ff96 87bb 20db bfba 33d2 29bb fbbb 103b
00000130: fbb9 823b 182e 22bc 8c2b 933c ac90 6dbb
00000140: cb87 18bb 08ec 82bb adea 14bc 649a 73bb
00000150: eff3 6abb 9970 df3b 497f bcba e797 64bb
00000160: 5f1f a139 5369 2bbc c756 dabb 6860 823b
00000170: 31bc ad3c 7cb7 ecbb 807f 7f3c 8f87 a53a
00000180: de81 85bb 5f1d 0ebc 3e03 853b 2571 c23a
00000190: e56b cd3b c7ba a0b7 e081 643b 9da7 963b
000001a0: d40f 90ba 78cd a4bb fce9 5f3c 15c0 d6bb
000001b0: 632b c1b9 b537 ef3b 90de ad3b 6275 d93b
000001c0: 5e9d 3a3c fece 8a3b a10f 48ba 7653 ee3a
000001d0: 8c82 f7bb f85a 45ba 9880 c7ba 752d e13b
000001e0: 0f75 8ebb ade1 51bc 6fe1 6d3a 2fe0 43bc
000001f0: 418c 9e3a 8485 25bb 2944 db3b 63f6 6fbb
00000200: 09dd e6ba 161c e73b b953 5dbb ccf6 463b
00000210: 6c3a c3bb 02cb 543b 8085 edb9 7019 90ba
00000220: 9ce3 5a3b bb5e 7c3a 61ee 993c 1e65 0abc
00000230: 9c4f 7cbb dee1 1ebb 754a 4cbb 78ed 7b3b
00000240: cc5a 0fbc 5f2e 893b c726 4f3c e239 a83b
00000250: 5290 073c dba1 933b 9da9 5bba f037 94ba
00000260: 3662 c93b a4a7 483b e0fd 413b 5c6e 313c
00000270: b575 813b ee20 7c3b 650b a63b e907 4abb
00000280: 867b cc3b cdd2 493b 71b7 67bb 178d ff39
00000290: 2e3e 2dbb 23bf 663b 2463 d1ba b9aa 52ba
000002a0: 55ce 663b 74ec af3b 2e98 05bb 667b 5e3a
000002b0: afe5 623c 8dcf e439 46aa 443c 7530 bdbb
000002c0: 9e45 893b 563c 1bbb 0310 053c f746 0c3b
000002d0: 3e80 0db9 f752 36bb f3f0 483b 1923 b13b
000002e0: abfd ee3b 1203 bb3b 7781 13bb a5b5 e139
000002f0: 974d 2c3c 3c37 93ba 86dc 033c 6abf 913b
00000300: aa93 713a 50fd 3b3c 3d4e 4a3b 8e41 363c
00000310: c961 de3b 7856 9d3b b066 90ba c386 173c
00000320: a406 dd3b ca7a 2bbc cec8 4c3b a389 713b
00000330: 8bb4 88bb 9dcf bf3b a30a a7bb 8163 073c
00000340: 4713 9cbb 68c3 95ba e020 90bb 2373 d53b
00000350: dc3f 96bb 3c4b 22bc 0bb3 033a 0893 e53a
00000360: 3735 fe3a 0abf 5b3c bf88 43bc 2566 e13b
00000370: 3bb6 083c b5d9 503c e251 05bc fe25 433c
00000380: 10ed 0b3c da3a 473c be58 bb3b 1fdf 0abc
00000390: 34c9 993c f6b4 fabb 30b3 e53b 2c3e b6bb
000003a0: a6a8 4c3c 70b7 e3ba 7434 54bb 6673 27bc
000003b0: 9f64 343c 9f8e 1abb 6a78 a73b 0918 03bc
000003c0: 0b6c 213b d24c 5a3c d6e1 643b db02 be3b
000003d0: dd6a fdbb 6dbd ccbb fb5d 35bb 2a89 323c
000003e0: 580a 0a3b 3e63 c3ba 6d28 16bc 55ae 173c
000003f0: 8366 a83a 13bf 693b d2b9 5cbb 7b97 a4bb
-0.0050970223 -0.0029744522 -0.002907535 0.011983363 0.0075382153 0.004572474 -0.008289741 -0.010302354
-0.0037675132 -0.005844905 0.021210572 0.001979404 -0.005890984 -0.002467001 0.007155853 0.0076898327
0.007451423 0.007331926 -0.0072654523 0.0065641087 0.009792022 0.004024653 -0.0070970673 0.005691769
-0.0057749804 -0.009855592 0.0025947616 0.0073538567 -0.007884779 -0.003838098 0.0056379614 -0.010103798
0.006885352 0.010463956 -0.010467478 -0.0026378364 -0.0003356907 0.016423853 0.010593487 -0.0035879395
-0.0036846881 -0.0053884806 -0.0064842445 0.0058013583 0.010900813 -0.0070004887 0.013596869 -0.009911743
0.001451151 0.0068198037 0.004023744 0.004655604 -0.0003828779 -0.004873684 0.016687535 0.00039096567
0.0022183948 -0.0020825046 -0.005779142 0.0077148573 -0.0021964263 0.0099829575 -0.011399065 0.005224685
0.0048177307 -0.009112343 0.0016967469 0.0027338713 0.0049862624 0.001098444 0.01008758 0.008366782
-0.004137873 -0.0014637448 -0.0025912642 0.0022084701 0.0039894558 -0.009898685 0.0179651 -0.0036249561
-0.0023274298 -0.0039954223 -0.009089154 -0.0037170881 -0.0035850962 0.0068188426 -0.0014381196 -0.003488058
0.00030731686 -0.010462123 -0.0066631767 0.0039787777 0.0212079 -0.0072240215 0.015594363 0.0012628901
-0.0040743193 -0.008673995 0.0040592244 0.0014834745 0.0062689655 -1.9160461e-05 0.003486745 0.004597618
-0.0010991045 -0.0050293766 0.013666626 -0.0065536597 -0.00036844154 0.007300342 0.0053060725 0.0066363076
0.011390058 0.004236101 -0.00076317234 0.0018182832 -0.007553404 -0.0007528509 -0.0015220819 0.006871874
-0.0043474506 -0.012810153 0.0009074425 -0.011955305 0.0012096242 -0.0025256583 0.006691475 -0.0036615364
-0.0017613481 0.0070529087 -0.0033771826 0.0030359505 -0.005957892 0.0032469635 -0.00045303628 -0.0010993909
0.0033399826 0.0009627153 0.018790426 -0.00844696 -0.00384996 -0.0024243514 -0.003117231 0.0038441103
-0.008749675 0.004186436 0.012643523 0.0051338533 0.008274155 0.0045053787 -0.00083794614 -0.0011308175
0.006145741 0.00306175 0.0029600784 0.010829534 0.0039507993 0.0038471776 0.0050672763 -0.0030827469
0.006240311 0.0030795813 -0.0035357142 0.0004874251 -0.0026434767 0.0035209141 -0.0015974981 -0.0008036304
0.0035218198 0.0053687636 -0.0020384896 0.0008487016 0.013848706 0.00043642186 0.012003487 -0.005773599
0.004189207 -0.0023687086 0.008121493 0.0021404603 -0.00013494582 -0.0027820447 0.0030661195 0.0054057953
0.007293423 0.005707153 -0.0022507587 0.0004305068 0.010516546 -0.0011231671 0.008048182 0.004447867
0.0009215424 0.011473969 0.0030869388 0.011124028 0.0067865592 0.0048015676 -0.0011016931 0.009248438
0.0067451764 -0.010466287 0.0031247619 0.003685572 -0.004171913 0.005853607 -0.0050977035 0.00826347
-0.00476304 -0.0011426033 -0.0043984503 0.0065139695 -0.0045852493 -0.009905633 0.0005023933 0.0017515132
0.0019394521 0.0134122465 -0.011934458 0.0068786317 0.008344228 0.012747218 -0.008137198 0.0119109135
0.008540407 0.012160027 0.005717366 -0.008476048 0.018772699 -0.0076509668 0.007009886 -0.0055616107
0.012491381 -0.0017373394 -0.0032379897 -0.010220384 0.011010318 -0.0023583544 0.00511079 -0.008001336
0.002463105 0.013323979 0.0034924648 0.0057986802 -0.0077336864 -0.0062481673 -0.0027674425 0.01089696
0.0021063294 -0.0014906896 -0.009164912 0.009257873 0.0012847934 0.0035666868 -0.0033680093 -0.0050229407

network_body._body_endoder.seq_layers.2.weight f4 [256, 256]
00000000: 0c96 28bd b8f0 4bbc ea5c 92bd 445e 753d
00000010: c398 6e3d eee0 34bd f184 8bbd 6614 f73d
00000020: 3858 c63c 8a1a 29bd 5b9d 933c f420 053e
00000030: 45b2 3b3b 9816 94bd 2a63 36bd 5b3b 0d3e
00000040: ff87 1cbd 2169 973c 0da5 853c 7e61 96bd
00000050: f2d9 25bd 5f14 553d 544a 203c 88e3 a5bc
00000060: 61a0 873d fb1b 84bc 4e89 b23c e5a8 fb3b
00000070: 1bac 843d 9058 aebd 2926 623d 954a debc
00000080: 84d6 bbbd ed64 e03d 60f1 9f3c 8360 91bc
00000090: a304 973c 1114 5d3d 9ccb 013d 599e aa3d
000000a0: 27ad 473d dd03 57bd 7917 43bd 117f 6e3d
000000b0: 3c1a 9c3b 6069 0e3e 24ba dd3c 470c 333d
000000c0: e873 29bd 63cd 03be b9b9 d63d ae70 ebbb
000000d0: 7f5b 7dbd 4960 a13d c57d 233c 857c 01bd
000000e0: 312b 20bd 601b 54bd 7e2a 093d 94d1 a63c
000000f0: dbdb 6c3c cb8d c93b be49 ebbc 63d1 1e3c
00000100: c68a 4dbc 0d8c 243d 92f0 94bc 6620 cf3b
00000110: 0cc7 adbd 9b23 c4bd e1d6 3ebc f879 27bd
00000120: cf46 b7bd c1cf 073d 498b 0f3d ec67 893d
00000130: 64f6 e7bc 24e9 f8bc 6e3c 8b3d a833 5ebd
00000140: 097d 9dbd 82e4 283d 8b1f d1bc 268b 5a3d
00000150: 5317 7d3d 7ae0 483d 8ca3 43bd 6009 9bbd
00000160: 2255 a93d 14a8 233d 8d75 343d 004f b8ba
00000170: d63e 253e cb8e 64bd c1d3 37bd 1d41 f03b
00000180: 77b3 ab3d cb57 d7bd 55b4 8c3c 266f aa3d
00000190: 8898 2f3d bdc1 9cbd 1684 d6bd c2d0 013d
000001a0: 296e da3c 8bdd 92bd 96cf f1bc 286e 68be
000001b0: 2916 52bc 181e b43d e5ec a2bc fb7e 34bd
000001c0: b8d8 493d 5960 323c 42da 8fbd 06ab 68bd
000001d0: 797b 41be 88ed b83c 3e0b 78bd da85 1a3e
000001e0: eb36 003b 5147 4a3d ca62 b3bd 72c3 4cbc
000001f0: 50b2 9c3d eff7 e83c b63b 8f3d 48cc 97bb
00000200: af67 06bd fa89 8d3d 0329 65bd 5dd8 bb3c
00000210: 4f27 dd3d e0df 0fbd 55d6 e7bd 53d1 08bc
00000220: b0ad 84bc 2399 f03c 2638 87bd f84d a23c
00000230: 3725 333d 6feb b5bc 64e3 9bbd 1e87 db3c
00000240: bb10 2abd 043b d03c ba9d d03c ec3d b73d
00000250: cb12 873d 3f6f 31be 972a 973d 6b29 f3b9
00000260: 6267 993a c07e fb3c 8b10 ae3c 0363 963d
00000270: 1b7d 623d 828b 99bc 3d5f 073d c23d bbbd
00000280: 838f 073c d6f3 2c3d c910 673b d64e 5cbc
00000290: 0a4e 92bc 8cdb 0e3d ffa6 4d3b ba3e 48bd
000002a0: a7c3 313d 6131 5a3d 29be 3d3c a984 13be
000002b0: 0816 cf3c 59cb 22bd 697a 7ebd 1c6d 59bd
000002c0: 3701 dc3d faaa 513c 7389 163c b204 663d
000002d0: 4907 c7bc 7977 f23c 6132 cf3d d13f 35ba
000002e0: 3ee5 33bd f5ff cabd 5932 e0bd 4b8a 9ebd
000002f0: e79a 64bd fc1b 1dbd 16e0 423b 2489 08bd
00000300: 7f08 dfbc 32a9 913c d1f4 e5bd 1a4a e3bd
00000310: 0248 8abd 2990 4dbe f99a c93d e99b 8f3d
00000320: 9c7c 2b3d b3bc c0bc 62bf c83d 2b01 0c3d
00000330: a41d 42bd 86b3 2bbd eb8b 003e b4ea 83bd
00000340: 9a7f 8e3b cbd0 25bd 1852 e13c 81c9 58bc
00000350: bcea ab3c 3353 ba39 ddc2 293d 858a 37bc
00000360: dfee 333d f254 573d f4e4 36bc 1ceb 46bd
00000370: 6e93 ddbd ec72 45bd ecf4 553d 2b69 1bbd
00000380: 94ec 7c3d d0d5 b0bb 6eca 60bd b0cd 903b
00000390: ccd0 023d 7e22 a93d 1a86 113d 1df2 393c
000003a0: a81d a9bd 59e7 a0bb 3a65 08bd efe9 56bc
000003b0: 9b62 dc3c 09eb 2e3c 2805 9abd 62bc 0f3e
000003c0: 0829 23bc 1435 0b3d 2770 88bd b12f 80bd
000003d0: c02b 40bd 4042 003d 2cc7 2dbc 882c 963a
000003e0: e7f5 893d d91d 2cbd 11a1 8a3d 2548 0c3d
000003f0: 8771 2bbd e670 b7bd eb16 6fbd 0f4b 943d
-0.04115872 -0.012447529 -0.07146628 0.05990435 0.058251154 -0.044159822 -0.06812466 0.120644376
0.024211988 -0.041285075 0.018019369 0.13000852 0.0028640192 -0.07230872 -0.044528164 0.13792174
-0.038215633 0.018482747 0.016314054 -0.07342814 -0.040491052 0.05202138 0.009783346 -0.020250097
0.06622387 -0.016126623 0.021793988 0.007680046 0.06478139 -0.08512986 0.055212174 -0.027135173
-0.09171775 0.1095675 0.019524276 -0.017746216 0.018434828 0.053974215 0.031688318 0.08330984
0.048749115 -0.05249392 -0.047629807 0.05822665 0.0047638696 0.13907385 0.027066298 0.04371288
-0.041370302 -0.12871318 0.104846425 -0.0071850633 -0.061854836 0.07879693 0.009978716 -0.03161289
-0.03910369 -0.05178392 0.03348779 0.020363607 0.0144567145 0.0061509362 -0.028721686 0.009693476
-0.012545293 0.040172625 -0.01818112 0.006321001 -0.08485231 -0.09577104 -0.011647911 -0.040887803
-0.089490525 0.033157114 0.035044942 0.06709275 -0.02831573 -0.030384608 0.067986354 -0.054248482
-0.07689864 0.041233547 -0.025527736 0.05335536 0.06178982 0.049042203 -0.047763392 -0.075701475
0.08268191 0.039955214 0.044057418 -0.001406163 0.16137251 -0.05580024 -0.04487968 0.007331981
0.083838396 -0.10514792 0.017175833 0.08321981 0.042870075 -0.0765414 -0.10474412 0.031693228
0.026663857 -0.07171162 -0.02951793 -0.22698271 -0.012822666 0.087948024 -0.01988835 -0.04406641
0.049278945 0.010887229 -0.07024051 -0.056803726 -0.18894757 0.022574201 -0.060557596 0.15090123
0.0019563984 0.04938442 -0.08759077 -0.01249777 0.07651198 0.028438536 0.06993811 -0.0046325065
-0.032813724 0.069110826 -0.055947315 0.022930318 0.10798513 -0.035125613 -0.113201775 -0.008350688
-0.016196102 0.029369896 -0.06602506 0.019812569 0.043736663 -0.02220699 -0.07611731 0.026797827
-0.04151986 0.025418766 0.025465835 0.089473575 0.06595381 -0.17327593 0.0738117 -0.0004637943
0.0011703784 0.030700088 0.021248123 0.07343104 0.05529509 -0.01874328 0.03304981 -0.09142639
0.008273962 0.042224728 0.0035257807 -0.01344653 -0.017859478 0.034877345 0.0031380055 -0.048887946
0.04339948 0.053269748 0.011580982 -0.14406075 0.02527906 -0.03974471 -0.06212846 -0.05308257
0.10742419 0.012797112 0.009188044 0.05615682 -0.024295466 0.029597985 0.10117031 -0.00069141114
-0.043919794 -0.09912101 -0.10947103 -0.07741221 -0.05581179 -0.038356766 0.0029735616 -0.033333912
-0.027225731 0.017780874 -0.11228336 -0.11098118 -0.06752016 -0.20074524 0.09844012 0.070121594
0.041866884 -0.023527479 0.098021284 0.0341808 -0.04739155 -0.041919254 0.12553374 -0.064412504
0.0043487074 -0.040482324 0.027504966 -0.013231636 0.020985954 0.00035538673 0.0414456 -0.011202459
0.043928977 0.052571245 -0.011162985 -0.04856406 -0.108191356 -0.0482053 0.05223553 -0.037942093
0.061749056 -0.005396582 -0.054880552 0.004419051 0.031937405 0.08258532 0.03552828 0.011349228
-0.082576096 -0.0049103913 -0.033299662 -0.013117298 0.026902488 0.010676154 -0.07520515 0.14036706
-0.009958513 0.033986166 -0.06662016 -0.062590964 -0.046916723 0.03131318 -0.010606568 0.0011457363
0.06736355 -0.042020652 0.06769002 0.03424849 -0.041856315 -0.089570805 -0.058371466 0.07240879

network_body._body_endoder.seq_layers.2.bias f4 [256]
00000000: bbc4 35bc 162e 1b3c c078 c0bb 696b e5ba
00000010: a5c3 abbb 5054 813b 9a74 d13b 2f83 033c
00000020: 20ec 2f3c 32c9 da3a 74d3 54bb 605c a3bb
00000030: 78e4 043c bade ae39 3e7e 023c a9b7 b03b
00000040: 29c0 433b a15a 05ba acf5 df3b b149 633b
00000050: 2198 803b 4730 efb9 f9b4 98bb 09dd 09bc
00000060: fe86 eeba 0b53 efbb 40ba e0ba 4843 0ebb
00000070: 7080 ac3b 67b3 ce3b 3861 6f3b 0911 2c3c
00000080: cc0f 7d3b 804c 733b bf6d 27ba 93d7 7db8
00000090: c449 7ebb 29f1 413c c273 09bc 4eb8 daba
000000a0: 302d 393c 9e24 22bc 5b93 ec3b 99f9 f43a
000000b0: ea18 f33a 15ab 3b3c afb8 3b3b e60c 143b
000000c0: b25c 063b 90b1 a23b 5230 a93a e3b0 963b
000000d0: 3460 57bb 4a06 bb3a fb1f d8bb 15da 95ba
000000e0: d9f1 babb dc7d 1ebb 6b3e 583b 8fda a63b
000000f0: df08 87bc 5c75 71ba ac17 6b3a 9d16 93b9
00000100: 07a7 f23b ef61 173c 21c2 c63a e370 003c
00000110: 48f0 693c bcdc a73b 61b1 933b 43b8 b53b
00000120: 2ba8 4e3b 56cf 1cba 12a6 073b eb9e d639
00000130: 3438 3d3b fcbd ae3b 672a 2abc 8849 1cbb
00000140: 2519 00bc 94fd 4d3b e60b 883b 16b9 093b
00000150: 59db 82bb f599 b5bb 2792 3dbc 6437 3e3c
00000160: a6de ed3b 04fc 763b bdfd f2ba ae4d 5d3b
00000170: 782b 31bc a448 82bb 2c79 643a f427 efb9
00000180: ebb1 3abb 3e76 b93b 0b0f 443b c9ef ad3a
00000190: 9834 a23b df49 2039 3ae4 8f3b 9ef3 e93b
000001a0: a364 033c 8183 a83b 49e1 133c 7919 1ebc
000001b0: 3943 93bb 43a3 ccbb 4bdd 103a 59e6 f53a
000001c0: 26c9 b2ba d24d 993c 9a22 bdbb 0827 eeba
000001d0: e079 6c3b b4a8 2fbb b085 85bb 0ae2 0a3c
000001e0: d720 9a3b 9ef3 183c f14c 8d3b 22e6 cebb
000001f0: 5778 2bba b748 8a39 704b 40bb 89ad 17bb
00000200: 5b31 473b 86f6 02bb 5769 143b dc2d 503b
00000210: 82cf d5bb 7d6c 063a 2201 7a3b a843 a7bb
00000220: 966d 923b 679b a639 1132 df3a 8a17 913b
00000230: 7552 ab3b bcc2 ffbb 25be 8fbb 019f b1bb
00000240: 159b 64bc c0df a3bb 4006 7b3b d3e2 77bb
00000250: 07be e73b 0074 d33b e6fd 3f3b 3945 cd3a
00000260: 47da efba 9a22 92ba 6bf5 953b dded 463a
00000270: fb60 a7ba 5aa4 a13a 12d0 a73a 02ca 123b
00000280: e7a8 fb3a ef3f 8f3b 29b9 d6b9 ff66 3939
00000290: 7397 733b 2b17 a33b f90f 40bc b8ac a43b
000002a0: f4d6 14bc aba4 d33b 533e 3d3b a5b6 163c
000002b0: 555a 203a d58e 22bb d8d6 96b8 9eb3 a63b
000002c0: 508b 62b9 6977 cc3b 0451 cd3a 793b ec3b
000002d0: b54a c43b f7cb 4a3b f49f a9bb f443 80ba
000002e0: 50d8 ed3b f96d 84bb 2ca8 07bb 2d6c de3b
000002f0: 4d5e 8a38 9758 69ba 3008 92bb cb3a 933a
00000300: b989 36bb 2584 083c 3197 1a39 e061 d63a
00000310: 1d05 13bc 603a c2bb 9e39 ec3b e8ad 113c
00000320: 09dc 88bb 8903 d53b 9b0f 363b a0c5 4fbb
00000330: de7c daba 81be 253b 462d 6aba 786d f33b
00000340: 087b 8ebb b80e 763a b2c7 313b 8750 693b
00000350: 7e02 203a 525b e73b ac92 e9bb 2fc6 3b3c
00000360: dc7d b53b cbf3 4f3c 6981 8bba 38fc 763a
00000370: e1d0 cb3a b144 d939 cda0 593b f221 4ebc
00000380: fc4f 46bb 43ff b33b 076d 023b 35b2 8f3c
00000390: 5a67 b53b 2d2c 02bc 4dba f33b 5316 b0ba
000003a0: 9022 18bc e2db 1b3b e432 18bc 4851 a43a
000003b0: 5e2d 0dbc 29e0 4dbb c886 59bb e932 1a3c
000003c0: 7d6f 58bb 2a79 0e3b 7192 5dbb 0d19 0b3b
000003d0: ea68 3ebb 4ffa ca3b 38e0 0c39 2af6 593b
000003e0: 6209 b3b8 4b64 c9ba 6f4c ceba 4993 d9bb
000003f0: a46c 3a3c fe4c ee3a f869 f83a 61f6 883b
-0.0110942675 0.009471437 -0.0058737695 -0.0017503324 -0.0052418285 0.0039468184 0.006392074 0.008026882
0.010737449 0.0016692041 -0.0032474669 -0.004985377 0.008111112 0.0003335381 0.007964669 0.0053929877
0.0029869175 -0.0005087052 0.0068347063 0.0034681375 0.003924385 -0.00045621602 -0.0046602455 -0.008414515
-0.001819819 -0.0073036007 -0.001714535 -0.0021707583 0.0052643344 0.0063080075 0.0036526453 0.010502108
0.0038614152 0.0037124455 -0.0006386898 -6.052067e-05 -0.0038801292 0.011837282 -0.008389415 -0.0016687007
0.011302277 -0.0098964255 0.0072197146 0.0018690109 0.0018546854 0.011454363 0.0028644016 0.0022590696
0.0020502028 0.0049650148 0.0012908077 0.0045987233 -0.0032863738 0.0014268842 -0.0065956092 -0.0011432791
-0.0057051 -0.0024183905 0.0032996188 0.005091972 -0.016483722 -0.00092109083 0.0008968066 -0.00028054873
0.007405165 0.009239658 0.0015164056 0.007839414 0.014278479 0.005122749 0.004507229 0.0055456473
0.0031533341 -0.0005981823 0.002069835 0.00040935664 0.002887261 0.0053327065 -0.010386086 -0.002384754
-0.007818495 0.0031431662 0.004151809 0.002101486 -0.0039934334 -0.0055420347 -0.01157049 0.011609886
0.007259208 0.0037686834 -0.0018538755 0.0033768225 -0.010813586 -0.0039759446 0.0008715566 -0.000456154
-0.0028487395 0.0056598475 0.0029916193 0.0013270314 0.0049501173 0.00015286308 0.0043912204 0.007139637
0.008019599 0.0051426296 0.00902588 -0.009649628 -0.0044940975 -0.0062450483 0.0005526139 0.0018760666
-0.0013640269 0.018713865 -0.005771947 -0.0018169591 0.0036083385 -0.0026803436 -0.0040747747 0.0084767435
0.004703622 0.009335427 0.0043121506 -0.006314055 -0.00065410644 0.00026375588 -0.002934184 -0.0023144206
0.0030394408 -0.0019983365 0.0022645795 0.0031765616 -0.006524981 0.00051278603 0.0038147648 -0.005104501
0.00446863 0.0003177777 0.0017028471 0.004427855 0.0052283355 -0.0078051966 -0.0043866807 -0.005420566
-0.01395299 -0.0050010383 0.0038303286 -0.0037824407 0.0070722136 0.0064530373 0.0029295622 0.0015660889
-0.0018299305 -0.0011149228 0.0045763752 0.0007588545 -0.0012769991 0.0012332306 0.0012803099 0.0022398238
0.0019200117 0.004371635 -0.00040955216 0.00017681344 0.0037169128 0.004977127 -0.011722558 0.0050254725
-0.009084452 0.006458839 0.002887626 0.009198819 0.0006116976 -0.0024804373 -7.192575e-05 0.00508733
-0.00021604938 0.0062398207 0.0015664403 0.007209238 0.005990351 0.0030944326 -0.0051765386 -0.0009785877
0.0072584525 -0.00404143 -0.0020699603 0.006787798 6.597918e-05 -0.00089014455 -0.0044565424 0.0011232732
-0.0027853085 0.008332287 0.00014742908 0.0016356073 -0.008973387 -0.005927369 0.007209017 0.00889156
-0.004176621 0.0065006656 0.0027780298 -0.0031703487 -0.0016669293 0.002529055 -0.0008933138 0.007428821
-0.0043481626 0.00093863485 0.0027127084 0.0035600977 0.0006103887 0.007060447 -0.0071280804 0.011460825
0.0055386852 0.012692402 -0.0010643426 0.0009421739 0.0015549922 0.00041440644 0.0033207417 -0.012581335
-0.0030260077 0.005493076 0.001990141 0.01754103 0.005536002 -0.007945103 0.0074379803 -0.0013434388
-0.009285584 0.0023782183 -0.009289477 0.0012536431 -0.008616773 -0.0031414127 -0.0033191908 0.009411552
-0.0033025437 0.00217397 -0.003380921 0.0021224648 -0.0029054233 0.00619439 0.00013434968 0.0033258297
-8.537133e-05 -0.0015364973 -0.0015739332 -0.006639872 0.011378441 0.0018180904 0.001895248 0.0041797613

action_model._continuous_distribution.log_sigma f4 [1, 5]
00000000: d154 883c a945 ae3c 2df5 6f3c 743a 283c
00000010: b6d9 7c3b
0.016642006 0.02127345 0.014645857 0.010267843 0.0038581914

action_model._continuous_distribution.mu.weight f4 [5, 64]
00000000: a650 8dbc c49c 18bc 6880 94bc c72c a4b8
00000010: 6434 023d f405 513c de67 f63a 17ed d2bb
00000020: 7eaa b83d 6335 303c 63dc b9bc 1963 eabb
00000030: 420b 723b 1240 bfbc 3729 2bbc 30fb ebbc
00000040: 350d 85bd 5513 87bd 312e 333c b170 0dbd
00000050: 4978 a73c 9f3e dcbb b9aa 9ebd 165c 423d
00000060: 0ae0 3bbd 5bc6 94bd 51a1 4a3c 930e 17bc
00000070: 32f5 b3bc 0211 58bc 2144 9fbc 6f83 913c
00000080: 5896 033c 2bc7 103d a8e1 40bd 2418 2fbc
00000090: ba02 623c 485f cebc 3640 063d e6b7 353c
000000a0: 001b a13c 6549 b43c 9fba 9fbc 6db2 403d
000000b0: d581 33bd f58b ab3c 1436 893c 305c 21bd
000000c0: 9351 2dbc 348b de3c 46c7 8dba 7548 a43b
000000d0: b576 273c 33c3 443c 52cb d5bc f5d4 50bd
000000e0: a975 943d 207f 3dbc 5fac 833c 1e24 2e3d
000000f0: 98ec 2c3d be54 ebbb eefc 9c3c c4b5 9abd
00000100: 13e5 f53c 365d a93c 8888 353c 3598 c43a
00000110: 63f8 13bd dd1e ae3c 3a78 383d 7631 083d
00000120: 83f2 aa3b 6793 e1bc 4dd8 073c bcac 10bd
00000130: 6768 1ebc 80c6 673d c242 ddbc 3fe0 d43c
00000140: 3030 1b3d b73d c13b 0b59 e2bb 9fab 24bc
00000150: 8aba 96bc 5695 593d d62a 39bd c5cd 2fbd
00000160: cb0d f83b da89 173d ac71 813c ba50 9bbc
00000170: 32ea 023c a062 0abd 3a1d 3a3d 2fbc 97bc
00000180: 314d 96bc c523 19bd 9e3d f2bc 84c4 203c
00000190: d0c6 533d 0cd9 183c 94ab 27bc 16ea b7bc
000001a0: cd51 06bc db9e 3c3c f2a2 c03b 76ba b73c
000001b0: 3173 02bd 89a2 313b 5033 04bd 2e3c e73c
000001c0: df1a 2b3d 25d8 943c 7df5 7abd c07b 453d
000001d0: 0d26 28bd 8af2 dc3c 689d fc3a ad4e a8bc
000001e0: 6d39 983c 8a32 8a3d 9684 093d 319d adbb
000001f0: 90eb 8e3c 384a 2abd 2f7a bb3c 28f5 3fbd
00000200: fa0b 8cbc 1933 b53c daef 133d b007 0b3c
00000210: 6b14 7bbc 40c9 3ebd 5227 bcbc 2957 28bd
00000220: 3b68 7d3c d71a a5bb 5b56 abbc c4a5 4ebc
00000230: 5d0c 833c 3cff 633c 5a1c 2d3d b44a 723d
00000240: 26e6 1bbd e343 80bd 4026 47bc 1f21 1b3d
00000250: a20a db3c 8ca9 68bc 8475 a03b b031 c63c
00000260: 6ddd babd d422 e8bc 903c 37bd bae8 ddbc
00000270: d2b6 7abb 8c7e b83c 4842 e03b 52da 0c3d
00000280: 8ed3 b83c 4d82 02bd 2d07 0d3d e4a6 d63b
00000290: a597 503b 4574 babc e868 f73c 8a96 523c
000002a0: 4e1f 9d3c 311b 4bbc 0eac b83b 490d 113d
000002b0: fe79 0abc b022 e03b 980a 0ebb 7e58 e83c
000002c0: 8291 17bc 705f aebc e7c0 483c a757 013d
000002d0: bd4e febc 1153 443d a6ba d6bc 9192 4a3d
000002e0: 6f4d a13c 2fe1 e93c 3874 01bd 27b3 abba
000002f0: 7d1e d0bc f09d 61bd 45cb ef3b f9c8 ff3c
00000300: 41d5 e9bb 870a 23bd b869 82bd 15e2 0f3d
00000310: e6ec 9abc 327d 863d 6402 a4bb 1b99 6abb
00000320: e472 fabc a47f debc e6d3 01bd 02a2 a9bc
00000330: 558e 8fba 386d af3c 712a 57bd 327f 8cbc
00000340: e534 8fbc a675 6c3d f968 c23c fd38 debc
00000350: 2dfb 99bd 71bb 6cbd ef7f 30bc 3a95 d13c
00000360: 92c6 ae3c bc83 caba d860 f83c 0e07 dd3c
00000370: 4276 0a3d 1769 21bd a4f2 853d d515 f73c
00000380: e80e 383d f4fa 933c 13b4 403d 71fb 963c
00000390: dad7 913d 7ff6 0bbc 9f84 bb3b 4542 4abd
000003a0: 6e41 3f3d ad32 963c f4c7 6abd c889 babc
000003b0: a2c2 78bd eace 7e3d b7b6 86bc 9848 8cbd
000003c0: 7890 b73c 658c 35bc cfa1 edbc c1c7 4a3c
000003d0: fd09 843d eaa6 2ebc fc35 30bb 10b1 bd3c
000003e0: 9b09 e73b ef8e 64bd 7437 e2bc 967c a2bc
000003f0: 7289 d63b 15ec 153d da50 8f3d 8eb1 5c3b
-0.01725037 -0.00931472 -0.018127635 -7.82847e-05 0.031788245 0.012757767 0.0018799265 -0.0064369547
0.09016894 0.010754916 -0.022688096 -0.0071529266 0.003693298 -0.02334598 -0.010446838 -0.028806299
-0.0649666 -0.06595484 0.010936306 -0.0345313 0.020443099 -0.006721332 -0.077474065 0.0474511
-0.045867957 -0.07264396 0.012367562 -0.009219783 -0.021967504 -0.013187649 -0.019441666 0.017762868
0.00803145 0.03534619 -0.047090203 -0.010686908 0.013794595 -0.025191918 0.03277608 0.011091208
0.019666195 0.022007653 -0.019498168 0.04704516 -0.04382499 0.02094076 0.01674942 -0.039394557
-0.010578531 0.027165987 -0.0010816834 0.0050135204 0.010221173 0.01200943 -0.026097927 -0.05098434
0.072490044 -0.0115659535 0.016073404 0.042514913 0.04221782 -0.007181733 0.019163575 -0.075542
0.030016458 0.02067433 0.011079915 0.0014998975 -0.036125552 0.021254951 0.045036532 0.033250295
0.005216898 -0.027536107 0.008291316 -0.035320982 -0.009668446 0.05658579 -0.027009372 0.025985835
0.037887752 0.0058972496 -0.0069075874 -0.010050683 -0.018399496 0.053120933 -0.045206867 -0.042920846
0.0075700036 0.0369967 0.015801273 -0.018959392 0.007990407 -0.033785462 0.04543803 -0.01852235
-0.018347355 -0.037387628 -0.029570397 0.009812478 0.051703274 0.009329092 -0.0102337785 -0.022450488
-0.008198214 0.0115124835 0.0058787996 0.022427779 -0.031848136 0.0027104935 -0.032275498 0.028226938
0.041773673 0.018169472 -0.061269272 0.04821372 -0.041051913 0.02697112 0.0019272985 -0.020545328
0.01858207 0.06747921 0.03357371 -0.0052982797 0.01744631 -0.041574687 0.02288541 -0.04686466
-0.017095555 0.022119092 0.036117412 0.00848572 -0.015324692 -0.046578646 -0.022967968 -0.041098747
0.015466745 -0.0050386 -0.020915201 -0.012612764 0.015997106 0.013915833 0.042263366 0.059153274
-0.038061284 -0.06262948 -0.012155116 0.037873384 0.026738469 -0.014200579 0.0048968215 0.024193615
-0.09124265 -0.02833692 -0.04473549 -0.027088512 -0.0038255942 0.02252128 0.006843839 0.034387894
0.022561815 -0.031862546 0.03443067 0.0065506566 0.0031828668 -0.02276052 0.03020139 0.012853274
0.019179966 -0.01239662 0.005635745 0.03541306 -0.008451937 0.0068400726 -0.0021673795 0.028362509
-0.009251 -0.021285743 0.012253023 0.031577732 -0.031043405 0.04793078 -0.026212048 0.049456183
0.019690244 0.028549759 -0.031604975 -0.0013099656 -0.025405163 -0.05508226 0.007317933 0.03122376
-0.0071360175 -0.03980496 -0.063678205 0.035127718 -0.01891179 0.06566848 -0.005005168 -0.0035796824
-0.030572362 -0.027160473 -0.031696223 -0.020707134 -0.0010952452 0.021414384 -0.05253071 -0.017150495
-0.017481277 0.057729386 0.023731695 -0.027126784 -0.07518611 -0.057795946 -0.010772689 0.025583852
0.02133492 -0.0015450637 0.030319616 0.026980903 0.033804186 -0.039406862 0.06540421 0.030161778
0.04493609 0.018064 0.047046732 0.018430443 0.071212485 -0.008542656 0.005722597 -0.049379606
0.046693258 0.018334711 -0.057319596 -0.022770777 -0.06073249 0.062209047 -0.016444547 -0.06849784
0.022407755 -0.011080836 -0.02900782 0.012376727 0.064472176 -0.010659913 -0.0026887646 0.023155719
0.0070507056 -0.055800375 -0.027614333 -0.019834798 0.0065471465 0.0366021 0.06997843 0.0033675167

action_model._continuous_distribution.mu.bias f4 [5]
00000000: 2c7a 41ba 0877 21bb cbda 87bc 808f df3c
00000010: dd68 15bc
-0.0007380571 -0.0024637599 -0.01658382 0.027290106 -0.00911924

onnx::LSTM_100 f4 [1, 256, 256]
00000000: ec19 c7bd 9e96 ea3d 3f0c b13d 8abf c9bd
00000010: 92e5 b63d bc25 06be 2258 45bc 8720 56bd
00000020: 09d7 c6bc 0355 10bd bdf4 fb3d 5c09 09bd
00000030: ab25 b7bd 2bf5 2ebc b788 99bd 1018 683d
00000040: e8d9 f63d 4460 303d 2f4c 9bbc 4bc2 f2ba
00000050: 48fd 1cbc b53b 56bd 50cf 43bd 361f 0b3e
00000060: 2d54 983b c316 913d d4da 003d 857b 58bd
00000070: 19f6 fb3d 5f60 59bd 6ab9 4ebd 26f0 44bc
00000080: f9a8 1ebd 86a7 89bd ae65 cabd d5a0 bbbd
00000090: 0a5c 0d3e 1370 92bd 3bb3 983c cf8c 153c
000000a0: b9d5 3f3c 744f 653b 8352 d63c 793b 063e
000000b0: 0247 bb3d 95ff a8bd 978f 90bc f78a 01bd
000000c0: d35e e0bd 7d4b 89bd b536 b3bd 735a dcbc
000000d0: 407c be3d 6f70 2c3d 720e 83bd 24fe f13d
000000e0: 95a2 7d3d bd05 d6bd 3164 003d fd35 b4bc
000000f0: c6d4 7f3d 57e0 0abc 6690 8f3d a8ea 913d
00000100: d633 75bc 9b58 fe3d 639b 19bc cb1c c8bc
00000110: 62e7 de3d 176c 123d 45aa cb3d 3e3d fbbd
00000120: 7f08 813d 582a 123e d93e 813d edb0 ffbc
00000130: e964 8fbd 8083 e6bd 6cdf 253b 1c8a a1bd
00000140: 2ffc 9d3d ad4a 343d 03ad 063c 5060 7cbc
00000150: 2b97 973c ccbe be3c 8dca 5cbc a26a cdbd
00000160: 299a abbc 7c1e 3a3d b222 d33d a0f5 923c
00000170: a575 e6bd ba69 983d 0b0c f63c 025f 0bbe
00000180: a755 bd3d 25e2 58bd e819 03be 5197 0abd
00000190: fcd4 00be 675d d33d 3bef 883d b967 95bd
000001a0: 8927 c13d 3617 5a3d ac49 cfbc ad9b f83d
000001b0: 0ef1 ba3c a084 8ebc 3ae7 c7bd bc02 7cbd
000001c0: 3a41 6b3b 42fd a43c 0fb4 553d 86d5 dfbd
000001d0: e886 85bd b3ae 9abd 73fe 0c3d 6e5e c93d
000001e0: 109c cdbd db76 8b3d 8775 56bd 9cf0 ddbd
000001f0: c760 92bd 43be e0bd 685f 1f3c f9fb c6bb
00000200: c0a4 6e3d fb2d ecbd fe11 423b 208d ebbd
00000210: f93a f63c 7543 a3bd 0d50 9b3d 7b49 debd
00000220: be72 13bb 529f efbc ba9a cf3d 2c16 42bd
00000230: e9e6 013e e0fd f7bd e1dc ec3d 018a e93d
00000240: eeb7 c73b 08bc 013e 369d bb3d 4115 d33c
00000250: eaa8 093d b51d ea3d 24e7 eb3d bac5 ebbd
00000260: 45f9 a3bd 3a56 82bd abe7 683d dcac 783c
00000270: 3dcb 393d 65ff dbbd a5a5 d83a 23ab debd
00000280: cbbd b53c 4702 aabd 29e4 dc3c 6faa aa3d
00000290: e45b 6abd 00d0 f33d 2086 8e3c 9479 073e
000002a0: aa54 6c3d 54d5 93bc f11b f13c 282e 83bd
000002b0: 57f6 d83d 426c 18bd 0c25 dd3d a5b2 57bc
000002c0: cf7b ffbd 3905 9ebc 3c0c e2bd 5586 2c3d
000002d0: dd93 84bb 4965 5abc 009e e3bd ea95 8b3d
000002e0: dcaa a23d fa2d eabb 02fc c3bd a9f9 c13d
000002f0: d5e4 b23c e31e fbbd 0ce0 eabd 2b38 9bbc
00000300: cdee 07bd a433 0cbc dfcb 013e 5a14 1e3e
00000310: fdca 6b3d cba8 553d 836a 76bc c529 cdbd
00000320: 1572 8d3d 1352 963d 0b55 703d 3d08 86bd
00000330: eb8f cb3d a7db fe3c a760 72bc 1ef2 4e3b
00000340: e01d 583d 0d38 49bd 3802 f13d 5259 10be
00000350: 45a6 bcbd 759a e83d 7627 283b 6154 003e
00000360: c708 d0bd c377 9c3d 8ba1 eb3d 33ea da3c
00000370: 254d 27bd cb63 a63c cc60 d1bc 9f2a ec3d
00000380: 43c5 4e3d 87d6 c9bd 1cc6 43bd e113 0e3e
00000390: f5cb 503d a02c ab3d 4935 5b3d 8fe4 ff3d
000003a0: 63b1 a73c e03d afbd 1643 e0bd 7165 6b3d
000003b0: 68b9 ed3d 949b efbd 503d f7bd 54e6 ffbc
000003c0: 2ef7 d53d 2ffc 163e a2d5 9dbd 28ac af3d
000003d0: 7e4e 87bd ba39 0ebb df81 9b3d aaba 3fbd
000003e0: b34b 563d f387 3e3d 6523 aabc eafa a63c
000003f0: 4820 9e3c d8b3 fa3c 7225 82bd 6cc4 e93c
-0.09721741 0.11454509 0.08644914 -0.09850986 0.08930506 -0.13100332 -0.012044938 -0.052277114
-0.024272459 -0.035237323 0.123025395 -0.03345619 -0.089427315 -0.01067857 -0.074967794 0.056663573
0.12053281 0.043060556 -0.018957226 -0.0018521039 -0.009581871 -0.052303035 -0.04780513 0.13586125
0.0046487064 0.070844196 0.03145869 -0.052852172 0.12302799 -0.053070422 -0.050469793 -0.0120201465
-0.038735364 -0.06721406 -0.09882675 -0.09161536 0.13804641 -0.07150283 0.018640151 0.00912781
0.01170867 0.0034989985 0.026162392 0.13108625 0.09144403 -0.082518734 -0.017646594 -0.031626668
-0.10955586 -0.06703851 -0.08750669 -0.026898598 0.093010426 0.042099413 -0.063992396 0.118160516
0.06192263 -0.10450313 0.03134555 -0.0219984 0.062458776 -0.008476338 0.07009964 0.07124835
-0.014965972 0.12419244 -0.009375426 -0.024427792 0.108839765 0.035747614 0.09944586 -0.122675404
0.063004486 0.14273965 0.06310815 -0.031212294 -0.07001669 -0.112555504 0.0025310172 -0.078876704
0.07714116 0.04401653 0.00821996 -0.015403822 0.0185047 0.023284338 -0.013476026 -0.10030104
-0.020947533 0.04543923 0.10309352 0.017939389 -0.11252908 0.07442041 0.03003504 -0.13610461
0.092448525 -0.052950043 -0.12802851 -0.033835713 -0.12581247 0.103205495 0.066862546 -0.07295174
0.09431369 0.053244792 -0.025303684 0.12139068 0.022820022 -0.017397225 -0.097609 -0.061526045
0.0035897032 0.020140294 0.05217367 -0.10929398 -0.06519872 -0.075528525 0.03442235 0.09832464
-0.10039532 0.06809779 -0.052358177 -0.10836908 -0.07147365 -0.109737895 0.0097273365 -0.006072518
0.058262587 -0.115322076 0.0029612775 -0.11501527 0.030057417 -0.07971851 0.07583628 -0.10853859
-0.0022498812 -0.029250775 0.101369336 -0.047384426 0.12685741 -0.1210897 0.11565567 0.11403275
0.006094924 0.12669384 0.09160845 0.02576697 0.033608355 0.114314474 0.11518696 -0.11512323
-0.08006529 -0.06364103 0.05686156 0.015177932 0.04535984 -0.10742072 0.0016528858 -0.108724855
0.022185227 -0.083012156 0.026964264 0.08333289 -0.05721654 0.11904907 0.01739794 0.13229972
0.05769793 -0.018046059 0.029432269 -0.06405288 0.105938606 -0.037212618 0.10798082 -0.013165151
-0.124747865 -0.0192896 -0.1103749 0.042120297 -0.004045947 -0.013329812 -0.111141205 0.06815703
0.07942745 -0.007146594 -0.09569551 0.09471447 0.021837631 -0.122617505 -0.11468515 -0.018947681
-0.033186723 -0.008557234 0.12675427 0.15437451 0.05756663 0.052162927 -0.015040043 -0.100177325
0.06906525 0.07339873 0.058674853 -0.0654454 0.099395595 0.031110598 -0.0147935515 0.0031577419
0.052762866 -0.04912572 0.11768001 -0.14096573 -0.09211401 0.11357585 0.0025658286 0.12532188
-0.10157924 0.0764003 0.11505421 0.026723003 -0.040845055 0.020311257 -0.025558852 0.11531567
0.050481092 -0.09855371 -0.047796354 0.1387477 0.05097576 0.08358121 0.053517614 0.12494766
0.020470327 -0.085567236 -0.109502956 0.05746979 0.11607629 -0.11699596 -0.12072241 -0.031237759
0.104475364 0.14744638 -0.07706763 0.08577758 -0.06606768 -0.0021701888 0.0759313 -0.046808876
0.052318286 0.04651637 -0.02076883 0.020383317 0.019302502 0.030603334 -0.063547984 0.028536044

onnx::LSTM_101 f4 [1, 256, 64]
00000000: 678c 8d3d e111 d33d 6523 d73d c42c 14be
00000010: 045a 97bc 7ba2 4dbd c6ef cdbb f0ae 133d
00000020: c983 453e 38ef 31bd b1c5 143e 3597 9b3d
00000030: f0e0 58be 93ce 243e 8171 f6bc 7032 4fbc
00000040: c79c 52be bda8 543c d132 893d 1c7f 2c3e
00000050: 865b 0c3e e427 4d3e 5ac4 ea3b bb0b 5f3e
00000060: c120 8e3c 34ea 83bd 8f06 4cbe 9bd7 d1b9
00000070: fa2c 713d c2cf 743d 03a9 d73c ad14 16bd
00000080: d377 1c3d 2287 c03d 974d a53d 35dd 493e
00000090: ac04 51bd 7b05 d93d be85 103e 6289 f63d
000000a0: b950 cd3b e534 b8bd 7f22 0f3e 4535 aa3d
000000b0: 7f6f 623e b3dc b6bd aae1 0ebe 50ce 2cbd
000000c0: 7a44 b73d b5f2 60bc 1941 20be 08fa 243b
000000d0: 3a93 c73d ab55 283e f9e2 adbd ed83 48be
000000e0: a0e4 a63d 0f30 f5bc 6f9c 2a3e edd4 193e
000000f0: 756d 433e 3d1f 563e d549 2abd 6968 32be
00000100: 1ebd 4fbe 1194 e2bc 9dbd 683e f9ba 5bbe
00000110: 6516 53bd e7d3 883d b82d 31be e2a8 e93d
00000120: 966f 353d 7cdc f1bd 0cd3 1dbe 0dcb c23d
00000130: 11ea c3bd e0ee 1f3e 12ac cf3c 2b3d 3cbe
00000140: 2479 463e 5374 6c3c 7df1 013c e8ce 6d3e
00000150: 2c21 f5bd b8e9 0bbe 54d3 fd3d 770c d93d
00000160: 4832 42bd 2179 5abd 4324 483e 47dd 4e3e
00000170: a047 8c3d d052 483e 3efb 423e a73f 6cbc
00000180: ed8b 89bd ee7b 8c3c d0f0 013e f91c 053d
00000190: 6008 473e 55c3 79bb 7c3b 7e3d a0cc fc3d
000001a0: 9d16 b43c 95ed c43d 5b0e 483e bda1 993c
000001b0: b392 10be 5fa4 1cbd c7ae 91bb 1de7 153d
000001c0: 3928 763d 378e 333e e5c9 efbd 0e5c 42bd
000001d0: ee02 203e da1a 5b3d 4fad 093e c7ad 0b3e
000001e0: ec01 5c3d 0aa0 ad3d 0028 4ebe 2b43 fd3d
000001f0: cf5b 003e 213e 0f3e dc96 1fbe 4f28 0f3e
00000200: 0722 0c3e ed2a bb3d cc1b bdbd a492 9c3c
00000210: f704 123e 9db4 3fbe a6f6 f73d 65c8 533e
00000220: 53f3 1ebd 9d52 973c b5f4 af3d 08dc a73d
00000230: 7323 5c3e 66a2 dcbd 0e3d a0bd d835 4bbd
00000240: e3c5 383e a54a ffbd 5609 163e b735 3bbe
00000250: f697 24be 955a ae3c 0f25 dfbd 03d7 1f3e
00000260: e8f0 40be 70ba ad3d aa13 973d 7105 fa3a
00000270: 83bf c53d 25a8 bfbd 6c3c c13d e2f2 18bd
00000280: c092 023d 6f0a c3b9 e637 59be f505 533e
00000290: 04ec 51be d26e 7bbd 62b4 613e 40ab 443e
000002a0: acc8 403e 8d1a ccbd 3a33 ea3d f473 923d
000002b0: 6323 3ebe e9bf 3f3e 0aca d43d 8615 c3bd
000002c0: d3ea 1dbe e6bb c3bd 0dba f5bd 8637 d4bd
000002d0: cc4b 1cbe 0f0a 263e 85d6 ea3d 4e0e 2fbe
000002e0: 120e 42be abe8 1dbe b197 1ebd e83e 54be
000002f0: abe8 16bd b84f 1e3d 7e53 cfbd a6ba 3c3e
00000300: 3c1d d6bd 144c 683c 2c31 503e b086 9ebc
00000310: 2924 da3d 193c f13c 488e 2bbe e161 48be
00000320: 87ff cfbd 8bd0 45be b51d 123e f8a8 393e
00000330: 64b9 1abe 4a33 0c3e adf3 3bbe cd00 08be
00000340: aaab bd3d 2e1b 4fbe ffb7 35be 1078 4b3e
00000350: 0c3d 20bd 02a5 b6bb 54f8 ab3d 670e debd
00000360: 9e51 c93d 5350 5dbe ec3e 023e 6af5 a3bd
00000370: a048 53be df18 063e 3ffd ecbb c049 5cbe
00000380: affd 23bd 5289 88bc 1b79 033e eee0 2c3e
00000390: aeab c03d 2ed8 9e3d 3e27 67bd 536f 43bd
000003a0: 7135 57be e730 4fbd ae9d 1f3e ff1a ed3d
000003b0: 0ebd 413e 9324 a5bd ee9c 493e 04f7 80bd
000003c0: da9b 24bd 7f3c 40be 6b74 883d 17a2 e2bd
000003d0: fba4 503e fc4a ec3b ac5f 4bbe 88d9 aa3c
000003e0: 2712 d5bd c949 18bd 622c ea3d fb42 9cbd
000003f0: 5c96 10be f01f 23be e8b6 a83c 3666 24be
0.06911545 0.103061445 0.10504798 -0.14470202 -0.01847554 -0.05020378 -0.0062846867 0.036055505
0.19288553 -0.043441027 0.14528538 0.075972 -0.21179557 0.16094427 -0.03008342 -0.012646303
-0.20567618 0.0129796835 0.066991456 0.16845363 0.13706788 0.20034748 0.00716452 0.21781819
0.017349603 -0.06441155 -0.19924377 -0.00040024225 0.058880784 0.059768446 0.026325708 -0.03664081
0.03820021 0.094007745 0.0807144 0.1971329 -0.051029846 0.105967484 0.14113519 0.120379224
0.0062657264 -0.08994464 0.13978003 0.083109416 0.22112845 -0.08928814 -0.13953272 -0.042188942
0.08948608 -0.013729741 -0.15649833 0.0025173444 0.09744878 0.1643893 -0.08490557 -0.19581576
0.081490755 -0.029930143 0.16661237 0.15022631 0.19084723 0.20910354 -0.041574318 -0.17422642
-0.20286986 -0.027658494 0.22728582 -0.21458043 -0.05153503 0.06681042 -0.17302597 0.11409165
0.04429587 -0.11809632 -0.15412539 0.09511385 -0.09566129 0.15618467 0.025350604 -0.18382709
0.19382149 0.014432031 0.00793111 0.2322346 -0.11969218 -0.13663375 0.12393823 0.105980806
-0.047411233 -0.053338174 0.19545083 0.20201598 0.06849599 0.1956284 0.19041154 -0.014419473
-0.06716142 0.017148938 0.12689519 0.032498334 0.19436789 -0.0038110812 0.062068447 0.123437166
0.02198344 0.09615628 0.19536726 0.01875388 -0.14118461 -0.038242694 -0.004445884 0.03659736
0.060096953 0.1753472 -0.1170843 -0.04745107 0.15626118 0.053492405 0.13445018 0.1364051
0.05371277 0.08477791 -0.20132446 0.12366327 0.12535022 0.13988544 -0.15584892 0.1398022
0.13684855 0.09139047 -0.092338175 0.019112892 0.14259706 -0.18721242 0.12107591 0.20681913
-0.03880627 0.01847201 0.08591596 0.081962645 0.21497898 -0.107731625 -0.07824145 -0.049611896
0.18044238 -0.12465409 0.14651999 -0.1828221 -0.16073593 0.021283427 -0.1089574 0.15609364
-0.18841898 0.08482826 0.073767975 0.0019075108 0.096556686 -0.09358243 0.09435353 -0.037341006
0.031878233 -0.00037201072 -0.2121273 0.20607741 -0.20500189 -0.061384983 0.22041467 0.19205952
0.1882655 -0.09966002 0.11435552 0.071510226 -0.18568186 0.18725552 0.103900984 -0.0952559
-0.1542161 -0.09557323 -0.11998377 -0.10362153 -0.15263289 0.16214775 0.114666976 -0.170953
-0.1895068 -0.15420787 -0.038718883 -0.20727122 -0.036842983 0.038650244 -0.10123347 0.18430576
-0.10454795 0.014178295 0.20331258 -0.019351333 0.10651428 0.029447602 -0.16753495 -0.19568588
-0.1015616 -0.19317834 0.14269145 0.18130863 -0.15109783 0.1369144 -0.18354674 -0.13281555
0.09261258 -0.20225212 -0.1774597 0.19870019 -0.03912072 -0.0055738697 0.08396974 -0.10842591
0.0983002 -0.21612673 0.12719315 -0.080057934 -0.20633173 0.13095425 -0.0072323377 -0.21512508
-0.040036853 -0.016667042 0.12839167 0.16882679 0.09407745 0.07756077 -0.05643391 -0.04771359
-0.2101648 -0.050583746 0.15587494 0.11577415 0.18919775 -0.080636166 0.1968877 -0.062971145
-0.040187694 -0.18773077 0.0666283 -0.110660724 0.20375435 0.0072110873 -0.19860715 0.02085568
-0.10403853 -0.037179742 0.114342466 -0.07629963 -0.14119858 -0.15930152 0.020595029 -0.16054615
