Project/results/hb_01/Hummingbird/Hummingbird-499968.onnx (onnx, 649088 bytes, 10 tensors)

network_body._body_endoder.seq_layers.0.weight f4 [256, 46]
00000000: 3e2f 923e 7edf 5bbd efb2 cd3e f9d9 883e
00000010: 348a 95bd 384e 48be 8c2a 2abd 1b8b b3bd
00000020: 2701 423d 242e d33d 24d6 57bd ef57 a73d
00000030: 35b7 163e 1b2c c63c 2df5 b23e 9799 603c
00000040: 9047 353e 8c9d 0e3e 24f2 67bc 2c41 133d
00000050: d408 35bd ca4e ac3c 00ca bf3b 7fbd 95bd
00000060: 9271 d33d 4a35 92bd 9111 1cbd b676 4d3e
00000070: c36e d33e 4679 1dbd 0d30 3f3a 7a05 f53d
00000080: d22a 313e f008 933e dfb4 89bd 2c15 dd3d
00000090: 1ec3 04be 842c 8dbe 1e1a 3fbe a882 77bd
000000a0: 8244 c93d c8ba bb3d baad 2abd 43c1 8b3b
000000b0: ccf3 73bd 953d 863e b8a1 6e3e a05a 0f3e
000000c0: 0d05 8dbd c546 533d 0bb3 0ebe 3319 cb3d
000000d0: b2b2 08be 900f 5abd a07d 733e 5d2e 9b3d
000000e0: 89ec ee3d 1472 4dbe e771 f6bc b322 723e
000000f0: 0475 1dbd 2857 adba 1493 39be ebb9 74be
00000100: 9628 c4bd 8b75 b8bd 983f ec3d a379 87bc
00000110: 9410 a5bd d542 f23c f37b 10bd 4c4d 1e3e
00000120: b7e9 583e d153 45bd 8f35 163e 1402 853e
00000130: 25b7 74be f342 c6bc 01a0 fdbd 4433 0ebe
00000140: 8877 023e d677 223e 6eaf 80bd a0f4 4ebe
00000150: a992 103e 65c5 483e 0d95 80be ddaa 2c3e
00000160: 97ff 93bc 9a03 62be 1d74 b4bc 990f 81bc
00000170: b5a2 853e 2502 d0bd 629d 953d 7523 7d3e
00000180: a454 2dbe 768b 853e 2fa7 e9bd ad6e 7f3e
00000190: 9111 a3bb 1ba8 1a3d 6a25 66bd 2241 13be
000001a0: 9757 a13e 86a4 1abe 133f 053e 09d7 3b3d
000001b0: abaf a1bd 192e fb3c 99c4 b03e 35ce 4a3b
000001c0: 3749 b33d d9ac d9bd 670b 793e 282c bcbd
000001d0: 1d59 c7bd 0e77 823d 2dab bd3d 9005 973e
000001e0: 2d20 d2bc 7a42 3e3d e09a 3bbd 695f 983b
000001f0: 4574 2cbe 38ed 09be 5273 2c3d 5f37 c23c
00000200: d7d3 31be bab5 853d 6398 0c3d 0187 eb3d
00000210: d128 ed3c 375d a3be 3fe5 f53c 2981 4fbd
00000220: 6004 ac3e 6226 893e 1211 553d 3ad2 08bc
00000230: 3a98 10bd d5f7 e23d 5e45 0cbe 1ea9 1f3d
00000240: 8e03 763e 57db afbe 1cea 93be 89e6 263e
00000250: 2c84 9bbd b74f 55bd e84f 373e fd5a bb3b
00000260: 44f8 1fbd 007b a5be 4d6d 2abc 5652 89be
00000270: 08a8 973c d189 0b3e 099c 1e3e cf8e 2fbd
00000280: 5c53 14bd 2d75 9f3e b427 f0bd 625d 43be
00000290: bbc2 32be eb25 983e b06b afbd d801 ec3d
000002a0: 3acf eebd 21aa cd3d dcc0 36be ad85 e4bd
000002b0: 3026 983d 1b0d 9cbd 69f5 b63d cff6 703e
000002c0: 58cf 9b3d 96e2 24bc e8cc d2bd c2dd a2bb
000002d0: f404 7cbe e2df 6dbe 3103 073e 31db 163d
000002e0: 0ef3 203e 06a2 1cbd f1f6 133e fb32 90bd
000002f0: 6598 3ebe ea4e 16bd eac1 033c a552 77be
00000300: ee8f 733e fae7 89bd b909 05be 29af 213e
00000310: aba4 bcbc a7a7 0ebe 7764 4fbd 9d82 2e3d
00000320: a9ed 5dbe 14ce 203e b224 b93c 8f37 c43d
00000330: 3bf9 c03d b2aa 55bd fd77 47bd a1df a73e
00000340: d3b9 bf3d 80e0 173d d2de 9e3d 884a 053d
00000350: 4851 42be e04c a63b c2d8 4b3c 3780 143e
00000360: 7b7b 62bd 7c19 0c3e 96d0 a1bd fed4 463d
00000370: e6a8 253e b6b1 a73c 016a 453d f155 0ebe
00000380: 75f7 90bd 6f3a 2fbe d505 08be 9040 093e
00000390: e403 92be 6d39 323e d291 39bd b2b3 99ba
000003a0: 669b 1f3d f240 b8bc e002 1fbe 894c 3dbe
000003b0: 5f80 373d 75b6 82bc 55b5 5e3e c69f 69bd
000003c0: f4b5 f53d 29bc 063e d1c1 0a3e 6d4b 3ebe
000003d0: e725 373d 1594 1d3e ae12 803d 4d4a 20be
000003e0: 2062 043e 6c18 f03d 8231 433d 5ed5 bcbd
000003f0: 5015 003d 31e3 0dbe 5519 aa3d fbb1 2fbd
0.28551668 -0.053679936 0.40175578 0.267288 -0.07301751 -0.19561088 -0.041544482 -0.08766767
0.04736438 0.10311535 -0.052694455 0.08171069 0.14718325 0.024190953 0.3495268 0.013708494
0.1770308 0.13927287 -0.014156852 0.035950825 -0.044197872 0.021033663 0.0058529377 -0.07311534
0.10324396 -0.0713907 -0.03810269 0.20064816 0.41295442 -0.038445733 0.0007293232 0.11963935
0.17301491 0.28717756 -0.067239515 0.10795054 -0.12965056 -0.27573025 -0.18662307 -0.060427338
0.0982752 0.09166485 -0.041669585 0.004264982 -0.059558675 0.26218858 0.23303878 0.13999414
-0.06885729 0.051581163 -0.13935487 0.09916916 -0.13349417 -0.053237498 0.23778391 0.075772025
0.11666209 -0.20063049 -0.03008361 0.23646049 -0.038441673 -0.0013224827 -0.18122512 -0.23899047
-0.09578054 -0.090067945 0.11535567 -0.016537493 -0.08059803 0.029572884 -0.035274457 0.15459174
0.21182905 -0.048175637 0.14668868 0.25978148 -0.23897989 -0.024201846 -0.12384034 -0.13886744
0.1274091 0.15866026 -0.062834606 -0.20210505 0.14118446 0.1960655 -0.25113717 0.16862054
-0.01806621 -0.22071686 -0.022028023 -0.015754508 0.26100698 -0.10156659 0.07305409 0.24720557
-0.16926819 0.26082963 -0.11408841 0.24944563 -0.0049764593 0.037757974 -0.056188025 -0.14380315
0.31512138 -0.15101823 0.13012342 0.04585937 -0.07894834 0.03066163 0.34524992 0.0030945663
0.08754199 -0.10628671 0.24320756 -0.0918811 -0.09733794 0.06370364 0.09261165 0.2949643
-0.025650108 0.046450116 -0.045801997 0.0046500457 -0.16841228 -0.13469398 0.042102166 0.023708044
-0.17365967 0.06528802 0.034325015 0.11500359 0.028950127 -0.31907055 0.03001654 -0.050660286
0.33597088 0.26787096 0.052018233 -0.008350903 -0.035301425 0.110824265 -0.13698336 0.038979642
0.24024794 -0.3434703 -0.2888955 0.1629888 -0.07593569 -0.052077975 0.17901576 0.0057176338
-0.039055124 -0.32320404 -0.010402036 -0.2682063 0.01851274 0.13626792 0.1548921 -0.042860802
-0.03621231 0.31144086 -0.11726323 -0.19078591 -0.17457096 0.2971643 -0.08565462 0.11523789
-0.11660619 0.10042215 -0.17847008 -0.11158309 0.07429159 -0.07619687 0.08933527 0.2353165
0.07607907 -0.010063788 -0.10292989 -0.0049702832 -0.24611264 -0.23229936 0.13184811 0.03683013
0.15717718 -0.038240455 0.1444967 -0.07040974 -0.18612821 -0.036696352 0.008041838 -0.2415262
0.23785374 -0.06733699 -0.1299199 0.15789475 -0.023027739 -0.13931142 -0.05063292 0.04260503
-0.21672691 0.15703613 0.022600506 0.095809095 0.09422537 -0.05216474 -0.048698414 0.32787803
0.09361615 0.037079334 0.07757343 0.03254178 -0.18976319 0.005075082 0.012441816 0.14502035
-0.05529354 0.13681597 -0.07901113 0.04854297 0.16177711 0.020470481 0.048196796 -0.13899972
-0.07078449 -0.17112134 -0.13283475 0.13403535 -0.28518593 0.17404719 -0.04530508 -0.0011726527
0.03896656 -0.022491906 -0.1552844 -0.18486227 0.04480016 -0.015956143 0.2174886 -0.057037137
0.119975954 0.13157715 0.13550498 -0.1858346 0.04471388 0.1538852 0.06253563 -0.15653343
0.12928057 0.11723408 0.047654636 -0.09220384 0.031270325 -0.13856198 0.08305613 -0.042894345

network_body._body_endoder.seq_layers.0.bias f4 [256]
00000000: a77e 893b a31b ed39 f605 083b cda2 cb3a
00000010: c318 9239 6ed4 f63b 20f8 acba df18 1ebc
00000020: 0586 5d3b 5736 fd3a 7c11 703c 9f51 d63a
00000030: a2b0 08bc 8991 723b 807e 423b 93c9 ce3a
00000040: ca9d eaba 3bb2 173b 3587 d1b9 a40d aa3b
00000050: f198 43ba 3784 12bc a0bb 59bb e6fb 873b
00000060: 5d93 a33a eb5e 26ba b8c7 8a3a 79e3 a23b
00000070: c9a2 14bb 5166 c3bb b898 db3b 0937 aabb
00000080: a75c 523c d148 243c 2bcd 97bb b721 13bc
00000090: 8f24 59ba 3d2a 083c c178 06bb 419a a2bb
000000a0: 2117 09bc 1c8e 0dbc 3203 3bbc 2e26 883b
000000b0: b6f3 8f3b ece0 c8bb 35f7 af3b b194 eabb
000000c0: 4ac6 a83a cda3 9d39 8bb9 4d3b 34ed d53a
000000d0: 0d8f 963a 2646 8ebb afaa f43b 386d c9bb
000000e0: e1ee 23ba b7e6 8ebb 51f9 e2ba 4f6d 9e3b
000000f0: dd0c 18bc a97e a63b 950b bd3a 6519 983b
00000100: a76b 1d3b 0bcd a9bb 6123 053c 64a1 d0ba
00000110: 8d0d d13a d76a 32bb 848f ea3b 1e1e f33b
00000120: 02d8 babb 2814 2bbb b11b dcba c275 373b
00000130: a56a 23bb 72e4 f1bb 72c9 2e3c 74eb 37bb
00000140: 1533 43ba df75 61bb aaff 96bb 7216 23bb
00000150: 4bbf 3abb 48ff 0c3c d9ab 9cbb 58e6 e33a
00000160: aeb5 783b fe80 08bc f1b6 3aba 5fc6 8c3a
00000170: 620b 5a3c 761d 8abb 78d0 883b 3ac4 74bb
00000180: a801 37bc 131b 07bc 88db 45ba d5d6 103b
00000190: 6960 cb3b 3d6c 91ba 224e c53b 2592 1f3b
000001a0: 21b1 243b 7046 3b3b d055 573c 2e12 5bbb
000001b0: e423 9d3b 1360 3f39 1a3d 893a 531f b53a
000001c0: 5461 c63b ed29 6dbb 32e2 8dba bb3c 433a
000001d0: 365e ddba b46a 2f3b a2d8 ab3b d35f 7abb
000001e0: 70f5 acbb 2470 80bb c9c2 3bbb 4ee6 25bc
000001f0: 7456 cebb 48dd 803b 71e5 d73b bec5 49bb
00000200: 7dae 893a b75d 543a 47a4 04bc 3e87 ab3a
00000210: af52 debb 0300 62bb 705f 11bb c10e 7c3b
00000220: e651 b6ba 3c21 3b39 2fcc ed3b bed3 6ebb
00000230: b4ec 68bb 55b5 b7bb 22ba c2bb f330 d63b
00000240: f59a 95bb edc2 3c3c f67f 323c a5d6 963b
00000250: 3720 de3b c8b7 463b 4343 7d3a 072b b93a
00000260: dc05 2c3c 964c b83b 7e14 1bb9 8ea6 1e3c
00000270: ab82 283b fa93 cc38 a849 b73b 247d 91bb
00000280: 3cb5 b63b 9551 e03b b44f 50bb 8d7c 1bba
00000290: 9c42 73ba 8f0b 063c c075 0ebc 9f3e 84bb
000002a0: 8068 c4b8 8716 9e3a 4dad 4ebb 855a 0d3b
000002b0: 84fd 383c 1647 c93b 1a86 343c 0ea0 3ebb
000002c0: cc51 bb3b 1a2d 8dbb 4481 b73b c445 7a3a
000002d0: 988d ab3b fae7 b1b9 d366 29bb c9db a23b
000002e0: 1164 0d3b 4ccb 933b d2fa 80bb d19c 71bb
000002f0: 2cef a43b ba92 be3a 6316 323c 166d bd3b
00000300: 3bb5 61b9 9475 773b 751e b83b 6d9b 57bb
00000310: 00e6 f03a 468a 183b 7730 cebb ade3 163b
00000320: 32cb b63b e668 f3bb 9c62 41bb ab43 493b
00000330: f967 8fba fa0f 363b 6d94 cfbb b6ae 493a
00000340: 399b 85bb 9fad 03bb cbcf 9b3a fd6e 303c
00000350: 5dc3 803b da85 04bc 2c5b 833b 6088 233a
00000360: 2a82 923a a007 043c e948 68bc 7698 903b
00000370: 3a5d 073c 2c29 543c 7f46 e2bb 6306 443b
00000380: b52c 2fbb cdd3 6c3b f85e d13b 9530 9dbb
00000390: 8720 743c e986 f4bb 2f5d 1c3c 9dac 0ebc
000003a0: 451a b43b 9a38 a5bb dd41 53b9 83e0 51bb
000003b0: 7cb5 0c3c ff6b 83ba e30c 6d3b 485a e0bb
000003c0: 4f4a 02ba e031 3f3c 21b6 803b 18c4 6a3b
000003d0: 6878 80bb 7ee2 41bb 49bb 6cbb 47c2 4a3c
000003e0: 099d d0ba 4f8e 24bc e059 7bbb 242a cd3b
000003f0: f1bf c73b 2b84 5cbb 9a24 87bb 0ce5 2ebb
0.0041960063 0.00045224754 0.0020755506 0.0015536189 0.0002786574 0.007532648 -0.0013196506 -0.009649484
0.0033801806 0.0019318563 0.014652606 0.0016351229 -0.008342894 0.0037013015 0.002967745 0.0015776627
-0.0017899808 0.0023147005 -0.00039964324 0.0051896144 -0.000746145 -0.008942655 -0.0033223405 0.0041499017
0.0012479831 -0.00063465413 0.0010588085 0.0049709645 -0.0022680035 -0.005963125 0.006701555 -0.005194549
0.012839473 0.010027126 -0.004632612 -0.008980206 -0.0008283341 0.008310852 -0.0020518752 -0.004962236
-0.008367331 -0.008639839 -0.011414336 0.004154942 0.0043930663 -0.0061303284 0.0053700455 -0.0071588387
0.0012876478 0.00030067415 0.003139111 0.0016321302 0.0011486724 -0.0043418584 0.007466636 -0.006147053
-0.0006253552 -0.0043609994 -0.0017316734 0.004834808 -0.009280411 0.005081017 0.0014423007 0.004641699
0.0024020465 -0.0051819137 0.008126111 -0.0015917239 0.0015949473 -0.0027224326 0.0071582217 0.0074193617
-0.0057020197 -0.0026104543 -0.0016792921 0.0027993773 -0.0024935391 -0.007381969 0.0106681455 -0.0028063925
-0.00074462715 -0.0034402532 -0.0046081143 -0.0024885205 -0.0028495367 0.008605786 -0.004781228 0.0017387373
0.0037950086 -0.008331535 -0.00071225973 0.0010740272 0.013308378 -0.004214938 0.004175242 -0.0037348405
-0.0111698285 -0.008246201 -0.00075476663 0.0022100706 0.0062065613 -0.001109488 0.006021277 0.0024348584
0.002512999 0.002857592 0.013143018 -0.0033427584 0.0047955383 0.0001825097 0.001047048 0.001381854
0.006054083 -0.003618832 -0.0010824858 0.0007447709 -0.0016889039 0.002676648 0.0052443305 -0.0038204088
-0.005278282 -0.003919618 -0.0028650037 -0.01012571 -0.006296927 0.003932629 0.006588631 -0.003078803
0.0010504272 0.0008101123 -0.008095807 0.001308657 -0.006784759 -0.003448487 -0.002218213 0.0038460942
-0.0013909906 0.0001784609 0.0072570066 -0.0036442126 -0.0035541477 -0.0056063333 -0.005942599 0.006536597
-0.0045655915 0.011521083 0.010894766 0.0046032243 0.0067787427 0.0030321945 0.0009661207 0.0014127203
0.010499444 0.005624364 -0.00014789586 0.009683264 0.002571265 9.755041e-05 0.0055934973 -0.0044399668
0.005575804 0.006845663 -0.0031785788 -0.000593134 -0.000927964 0.008181467 -0.008695066 -0.0040357853
-9.365473e-05 0.0012061157 -0.00315364 0.0021568846 0.011290912 0.0061425073 0.0110183 -0.00290871
0.005716538 -0.004308355 0.0056001265 0.0009547139 0.005235385 -0.00033932907 -0.0025848642 0.004970048
0.0021574537 0.004510319 -0.00393615 -0.0036867152 0.0050333943 0.0014539578 0.010869595 0.0057808263
-0.00021525186 0.003775929 0.005618865 -0.0032899037 0.0018379092 0.0023275777 -0.0062923986 0.002302389
0.005578422 -0.0074282764 -0.0029508239 0.00307105 -0.001094102 0.002778052 -0.0063348324 0.00076935755
-0.004077342 -0.00200925 0.0011887489 0.010768649 0.003929539 -0.008088553 0.0040086713 0.0006238278
0.0011177708 0.008058459 -0.014177539 0.004412706 0.008261973 0.012949269 -0.0069053764 0.0029911033
-0.0026729528 0.0036136985 0.006389495 -0.004797051 0.014900333 -0.0074623716 0.009543701 -0.008708146
0.0054962956 -0.005042148 -0.00020147064 -0.0032024689 0.008588191 -0.0010026692 0.003617101 -0.0068467
-0.0004970179 0.011669606 0.0039279615 0.0035822447 -0.0039206035 -0.0029584463 -0.0036122373 0.012375421
-0.0015915941 -0.010043695 -0.003835313 0.006261127 0.0060958792 -0.0033648114 -0.0041242363 -0.0026686816

network_body._body_endoder.seq_layers.2.weight f4 [256, 256]
00000000: 1637 2cbd c07d e4bb d4e6 8ebd 5614 8c3d
00000010: 60ee 633d d609 27bd 5360 84bd 7704 fe3d
00000020: c6e4 f73c e6d8 29bd 7227 003d c814 043e
00000030: 43ad c4ba 58b4 95bd 38eb 3cbd 1234 073e
00000040: a874 ebbc 3902 aa3b 0b05 f53b 5fcc 96bd
00000050: 6a3f 1fbd ac5d 3b3d bcf0 503c 8d6f 95bc
00000060: 71d4 853d e81b c3bc 6927 813c 506f a13c
00000070: 30d9 743d 4855 a7bd 51a7 443d 2941 e2bc
00000080: a04e bcbd 9b85 eb3d 40fe ce3c af46 b0bc
00000090: e2d7 b43c 3169 5a3d b3f1 0e3d 4c15 ad3d
000000a0: 4977 363d 6014 37bd 7521 26bd bf79 6f3d
000000b0: e4a3 e33a 74e2 0d3e 8842 ad3c d432 4c3d
000000c0: e539 1cbd 9955 06be 4a53 c53d f9b3 66bc
000000d0: 4609 76bd 0fb1 b33d e6fd 113c 55e0 09bd
000000e0: bba7 4ebd b322 6ebd a8cc 383d 41f0 ae3c
000000f0: 0257 863c a399 5f3c c5e9 00bd 41f1 573c
00000100: fbae 8bbc af67 2a3d 1afa c6bc e0ad 163c
00000110: 6daa a3bd dc7e b3bd f89e 3b38 a9c3 06bd
00000120: a3c4 b1bd 7811 063d 54d1 4b3d 2ea4 713d
00000130: c439 a7bc 07f6 13bd 8d76 883d 991e 73bd
00000140: 7d07 8dbd 8a2f 243d 8d41 ecbc 7078 693d
00000150: bb2a 6e3d 266b 3b3d cd45 3cbd 39af 8cbd
00000160: fd11 ad3d 07d2 203d bff2 413d 7570 8ebb
00000170: da65 1f3e 507e 63bd 79c1 23bd 6cb7 903c
00000180: ee1a b33d 4e71 dbbd 521d 873c a902 a93d
00000190: 8463 253d c8fe 90bd d888 e7bd 74ea e93c
000001a0: 02c9 aa3c db02 a3bd df00 cdbc 89f6 65be
000001b0: ea92 cdbc 78d1 b93d 1457 58bc 0087 23bd
000001c0: db6e 823d 7789 c93b d703 84bd f588 64bd
000001d0: 6d52 40be a89b dd3c c8ac 7abd f1ec 1c3e
000001e0: 3a8a ec39 3322 423d ca1f a0bd d45a 93bc
000001f0: 0697 913d bdfd f23c b565 873d 2fd7 babb
00000200: 48c1 0bbd 50fc 863d 4dc0 4abd 4a10 4d3c
00000210: 6db1 d23d 7c41 0abd 6ce8 dfbd be45 8abc
00000220: 3637 5ebc 0f80 173d 9ed8 80bd 3328 f93b
00000230: 8e44 373d 7277 afbc 764f 9fbd c1ca ee3c
00000240: c0f2 2abd 06df f93c c546 bd3c 3d1d a53d
00000250: 76d0 833d 5870 2cbe a619 ac3d 9796 26bb
00000260: 683e a33a 768b 123d 702c b43c ce10 8b3d
00000270: 26cf 723d 8547 0bbc 89d2 1a3d a05c bbbd
00000280: 8e04 043c b686 3b3d 3ca8 003c c51b 37bc
00000290: be55 5abc c77f 113d 62ef 223c c53d 48bd
000002a0: 60f9 473d 87c6 563d 8ba8 133c 03ce 0ebe
000002b0: 740e f83c b6ee 22bd e125 6ebd 9cc4 5dbd
000002c0: d236 d43d c1c3 433c 5d72 da3b a168 733d
000002d0: 6ea3 06bd 9346 1a3d 3c93 df3d 1d33 0d39
000002e0: 8e83 30bd e8dd b5bd 8c9b e2bd 307c 89bd
000002f0: 3c2e 4dbd 66b0 2dbd 972f 8dba 4246 25bd
00000300: 2fe9 a2bc 30f7 8c3c f986 ebbd fe66 ebbd
00000310: 19c3 76bd 7e79 4bbe 5e7b c93d 253d 933d
00000320: 967d 1c3d 5e29 b5bc d5b9 bd3d ee87 0b3d
00000330: 2132 33bd e5e4 04bd f07d 033e f1a0 87bd
00000340: 4e74 bc3b fc90 22bd 4d98 c33c 4dd7 d9bb
00000350: e517 ba3c 9138 ae3a 75eb 3f3d 00af bcbc
00000360: afc4 323d 1604 603d 320d 02bc 322b 08bd
00000370: 193f dbbd 6cba 22bd 4ffc 4f3d 023e 56bd
00000380: c7d3 683d caba 333b ad4c 72bd 050e ac3b
00000390: 3bc7 1e3d 0dce af3d 0292 2a3d 9668 743c
000003a0: 5598 a9bd 21c5 babb ed31 fdbc 1074 84bc
000003b0: 7d90 063d a68d 533c 35b0 88bd 86e9 073e
000003c0: 8ecb 363b a505 303d e91e 92bd ddcc 8ebd
000003d0: 9f02 2bbd 487d 093d a2bc 22bc e3c0 b53a
000003e0: a1bd 8b3d 9333 26bd 87fe 983d 96f1 2d3d
000003f0: fc41 2cbd 5c99 adbd 7345 86bd b137 a03d
-0.04204472 -0.0069729984 -0.06977621 0.06839816 0.055647254 -0.040780865 -0.06463685 0.12403195
0.030260455 -0.041466616 0.031287618 0.12898552 -0.0015005249 -0.073097885 -0.04612276 0.13203457
-0.02874215 0.0051882532 0.007477408 -0.073631994 -0.038878836 0.04574363 0.012752708 -0.018241668
0.065346606 -0.023817018 0.015765863 0.019706398 0.05977744 -0.08170563 0.048011128 -0.027618961
-0.09194684 0.115000926 0.02526772 -0.02151808 0.022075597 0.053322975 0.03489847 0.08451328
0.044547353 -0.044697165 -0.04055925 0.058465715 0.0017367569 0.13855916 0.021149889 0.04985316
-0.03814115 -0.1311859 0.09635027 -0.014080995 -0.060067438 0.087740056 0.008910632 -0.033661205
-0.05045293 -0.05813856 0.04511705 0.021354796 0.01639891 0.01364747 -0.03147294 0.013180078
-0.01705121 0.041602787 -0.02428918 0.0091967285 -0.079914905 -0.08764431 4.4732325e-05 -0.03290144
-0.086800836 0.032731503 0.049760178 0.058994465 -0.020413287 -0.0361233 0.06663237 -0.059355352
-0.06886194 0.0400844 -0.02883985 0.056999624 0.05814622 0.04575648 -0.045965005 -0.068693586
0.084506966 0.039262798 0.04735064 -0.004346902 0.15566197 -0.055540383 -0.03997943 0.017665587
0.08745371 -0.107149705 0.016493473 0.082524605 0.04037811 -0.07079846 -0.11305398 0.028554179
0.020847801 -0.07959529 -0.02502483 -0.22457327 -0.025094468 0.09073156 -0.013204355 -0.039923668
0.063688 0.0061504203 -0.06446045 -0.055794675 -0.18781443 0.027051762 -0.061199933 0.15324761
0.00045116415 0.047395896 -0.07818563 -0.017987646 0.071088836 0.029662007 0.06611196 -0.0057019214
-0.034119874 0.065910935 -0.0494998 0.012516091 0.102877475 -0.033753857 -0.10933003 -0.016878959
-0.013562968 0.03698736 -0.062913164 0.007603669 0.044743113 -0.02141926 -0.07778828 0.029149415
-0.04173541 0.030501854 0.023105035 0.080622174 0.06436245 -0.1683973 0.084033296 -0.0025419348
0.0012454512 0.03577753 0.021993846 0.067903146 0.059279583 -0.008500938 0.03779844 -0.09148526
0.008057727 0.045782767 0.00785261 -0.011176054 -0.013326107 0.03552225 0.009944769 -0.048887033
0.048821807 0.052435424 0.009012352 -0.13945775 0.03028033 -0.039778434 -0.058141593 -0.05414258
0.10362019 0.011948527 0.006666465 0.059425954 -0.032870702 0.03766496 0.109167546 0.00013465849
-0.04309421 -0.08880216 -0.110648245 -0.0671314 -0.05009292 -0.042404555 -0.0010771629 -0.040350206
-0.019886581 0.017207712 -0.11500353 -0.114942536 -0.060244653 -0.19870564 0.098379835 0.07189397
0.038205706 -0.022114452 0.0926396 0.03406518 -0.04374898 -0.032444853 0.1284101 -0.06622494
0.0057511693 -0.03968905 0.023876334 -0.0066479803 0.022716472 0.0013292005 0.04685541 -0.023032665
0.043644603 0.054691397 -0.007937716 -0.03324432 -0.10705394 -0.039728567 0.05077773 -0.05230523
0.05684259 0.0027424567 -0.059155155 0.0052506947 0.03876422 0.08584223 0.04164315 0.014917513
-0.08281008 -0.005699769 -0.030907596 -0.016168624 0.03285264 0.01291219 -0.06674234 0.13272676
0.0027892324 0.042974133 -0.07134802 -0.06972668 -0.041750547 0.033566743 -0.009932669 0.0013866689
0.06823278 -0.04057653 0.07470422 0.042466722 -0.042055115 -0.084765166 -0.06556215 0.07823122

network_body._body_endoder.seq_layers.2.bias f4 [256]
00000000: b96a ebbb 7e72 003c 5a9d d1bb f6e3 04bc
00000010: 6a1a 173a b68f 953b 41fb 283b 8f5f 113a
00000020: 2d80 e33b c046 fb38 51d8 2a39 6d60 64ba
00000030: 437e efba 1e68 e83a bcf1 b63a 9974 e2b8
00000040: dbbb 01bb dbd3 9b3a b3e4 e339 d6d2 523a
00000050: bab1 2aba 4bd0 eeba 43ab 163b 6c08 d6bb
00000060: e93b f4bb 7a7d 56bb 3b9b 4ebb 3722 0cbb
00000070: 3c7f 403b d35e 9a3b 113d 01ba 6451 3a3c
00000080: 4279 003c e746 bd3a 8523 acba dc7c f83b
00000090: f76c ef3a 82e4 d03b f1ee c1bb 9da4 11bb
000000a0: 8733 903c cf88 d3bb e09b ea3b c6e0 c8b9
000000b0: c148 a1ba 379b af3b fb59 37bb cf25 9dbb
000000c0: 9eac d9b9 48e6 b23b 0930 0abb 6453 523b
000000d0: 875b 93b9 270c 62bb 6a4a 21bb 3ab9 0fb9
000000e0: dbb6 b8bb 3a61 a2bb f366 a2b9 a638 013c
000000f0: eb02 21bc 9f8a 923b 1d64 9b3a 2945 473b
00000100: 0502 fb3a 9452 e43b 1313 14bb 20bc 9c3b
00000110: 4d52 743b ee4b 853b 7921 dc3b 52f8 1f3c
00000120: 906a 723b 5449 083b dd80 18b9 1910 8dba
00000130: 34a5 783b f7c8 6738 0960 c4bb 09a1 cabb
00000140: 4126 9abb 1e1b 163c aa9c d739 d412 2f3c
00000150: c0a7 333b 5554 c2bb 1282 d5bb 8137 3f3c
00000160: a47e ce38 9888 583b 0ce8 90bb 2a2f 8b3a
00000170: 121e b9bb 8dce 26bb 55fe 2a3b 7c79 76bb
00000180: 5ed7 ccba 223e 173c 99a4 89b9 be95 123a
00000190: e53e a73b ed32 a3bb 0e26 2c3b a229 2f3b
000001a0: 22f5 93ba 6b39 d13b 2c97 5d3b 41bc fcbb
000001b0: bc3f c4ba 76d6 12bc 653e f7ba 3f6c 9a3b
000001c0: 9373 aeba 12d6 973c 242c 8fbb 4f88 b5bb
000001d0: 0957 9d3b 2645 96ba 85fe 3abb 436c e73b
000001e0: a5f5 5d3b c15c ee3b 0bd5 d4ba 9fb3 f8ba
000001f0: 6a34 133a 0a24 7f39 7e66 5f3b fc63 13bb
00000200: 4075 2b3b 0298 88bb 8976 2a3b cdab 613a
00000210: a6c1 b7bb ad38 91ba 63d8 1a3b 3868 bc3a
00000220: ed8a f0b9 3f2c cf3a 8c31 4e3b 8a37 873b
00000230: b0e8 bb3b a21d d3bb 1458 21bb 2bba edbb
00000240: 290e b6bb 0e94 ebbb 6f53 713b 0bb7 12bc
00000250: f0ff 923b ed7f c4ba 0f53 043c 43de de3b
00000260: 27a6 bfba 635e 093b 5061 f13b 8b60 933b
00000270: 9236 55bb 7d1a 2cbb 932e 983a 8699 fc3a
00000280: f814 1c3b ece2 8cba 93d4 b638 c9a9 68b8
00000290: 4b64 ecba a9f3 1f3c f5b1 e2bb e7e7 6aba
000002a0: efad feba 52d3 003c f7cb 1239 b891 ea3b
000002b0: 90a1 d23a 6d69 a73a 1e51 afba 224c b83b
000002c0: 89c9 0f3b 7aa7 f33b 73f8 3d39 6d87 983b
000002d0: 79e3 553b 5ba2 2b3c b9c2 36bc 9f2c 8b3b
000002e0: 11b3 423b 6818 a13a ea4a d0bb f020 ab3b
000002f0: 9960 5e3b f52b c7bb d673 32bb bf98 deba
00000300: 7481 69ba 4fc3 023c a4f2 80bb bc69 513a
00000310: b606 c0bb eee3 1cbb e9d4 273c 7cbe 3c3b
00000320: 4222 2fba 3c7b 013b 72d9 cdba 0a76 e539
00000330: d75e 493b 5a21 e23b 3918 b0ba 4bc8 c13b
00000340: d355 17bc c79c 73bb f5d1 3dba 0678 8f3b
00000350: 75d2 e7ba b767 883c 9588 8cbb dd02 b2ba
00000360: 46ec 163b 9963 193c b042 95bb 7e88 8c3a
00000370: 38a5 a73a ef26 15bb 371a 293b c4da f3bb
00000380: ae6a e33a adf3 a53b a464 0a3a 48cb 743c
00000390: 9e0d 693a 089e 7fbb df2b 853b a952 1d3a
000003a0: a5d9 103b 5282 12bb 977c c8bb 53fc ad3a
000003b0: c522 efbb 534f 92bb 23a7 42ba 1dc6 dcbb
000003c0: dad6 2abb 5e01 fa3a a7ff ff38 d706 fbba
000003d0: 3f79 1eba 33c3 913a ea22 3f3b 1f8c 043b
000003e0: 15c3 773b d245 243b 6fe0 6e39 770b 8cbb
000003f0: 4411 fa3b 60e6 fcba 0617 183a 5624 843b
-0.007184353 0.007839797 -0.0063969316 -0.008110991 0.0005764129 0.004564251 0.0025784525 0.00055455504
0.00694277 0.00011981791 0.00016293048 -0.00087118783 -0.0018271882 0.0017731225 0.001395754 -0.00010798238
-0.0019795808 0.0011888699 0.00043467208 0.0008042281 -0.00065114687 -0.0018220035 0.0022990264 -0.0065317657
-0.007453431 -0.0032728598 -0.003152563 -0.0021382698 0.0029372713 0.004711011 -0.0004930059 0.011371944
0.00784141 0.0014440686 -0.0013133144 0.007583244 0.0018266727 0.0063748965 -0.0059183766 -0.0022223361
0.017602695 -0.006455518 0.007159695 -0.00038314442 -0.0012305008 0.005359079 -0.0027977217 -0.004795767
-0.00041518075 0.0054595806 -0.002108576 0.0032093162 -0.00028106218 -0.0034492107 -0.0024611005 -0.00013706545
-0.0056370324 -0.004955438 -0.0003097575 0.007887041 -0.009827356 0.0044720913 0.0011855398 0.0030406213
0.0019150382 0.006967852 -0.0022594377 0.0047831684 0.00372805 0.0040678894 0.0067178574 0.009763794
0.0036989786 0.002079566 -0.00014543855 -0.0010762244 0.0037940266 5.5261855e-05 -0.0059928936 -0.0061837477
-0.0047042673 0.009161739 0.0004112472 0.010685641 0.002741322 -0.0059304633 -0.0065157497 0.011670948
9.846434e-05 0.00330404 -0.0044221934 0.0010618914 -0.0056493366 -0.0025452704 0.0026091535 -0.0037609031
-0.0015628149 0.009231122 -0.0002625331 0.00055917713 0.005103933 -0.004980436 0.00262678 0.0026727696
-0.0011288265 0.0063850186 0.003381203 -0.0077128713 -0.0014972608 -0.008962264 -0.00188632 0.004712611
-0.001330959 0.018534694 -0.0043692756 -0.005539931 0.004801635 -0.00114647 -0.0028533053 0.0070624663
0.003386834 0.0072742407 -0.0016237808 -0.001897443 0.0005615415 0.0002433212 0.003408819 -0.0022490015
0.0026162416 -0.0041685114 0.0026010594 0.0008608669 -0.0056078015 -0.0011079513 0.0023627512 0.0014374321
-0.00045879875 0.0015806033 0.0031462638 0.004126494 0.0057345256 -0.0064427415 -0.002461915 -0.007254859
-0.0055558872 -0.0071892804 0.0036823412 -0.008954774 0.0044860765 -0.0014991738 0.008076443 0.006801398
-0.0014621661 0.00209608 0.007366337 0.004497593 -0.0032533747 -0.0026260905 0.001161056 0.0019271828
0.002381621 -0.001074878 8.718031e-05 -5.5471235e-05 -0.0018035261 0.009762683 -0.006918187 -0.0008960948
-0.0019430498 0.007862883 0.00013999628 0.0071584843 0.0016069878 0.0012772508 -0.0013375615 0.00562431
0.0021940193 0.0074357362 0.00018116999 0.004654816 0.0032636805 0.01047572 -0.011154824 0.0042472626
0.0029708783 0.0012290599 -0.0063565867 0.0052224323 0.0033932088 -0.006078238 -0.0027229688 -0.0016982778
-0.00089075346 0.0079811355 -0.003935175 0.0007988473 -0.005860175 -0.0023939568 0.010243633 0.002880006
-0.0006680825 0.0019757291 -0.0015705063 0.0004376623 0.0030726695 0.0069009485 -0.0013434953 0.0059137694
-0.009236771 -0.0037172304 -0.0007241064 0.0043783216 -0.0017686622 0.016651018 -0.004288743 -0.0013581176
0.0023029014 0.009362125 -0.004555069 0.001072183 0.0012790328 -0.0022758802 0.0025802979 -0.0074418504
0.0017350519 0.005064449 0.0005279279 0.014941044 0.0008890274 -0.0039004106 0.0040640677 0.0006001392
0.0022102382 -0.002235551 -0.006118368 0.0013274051 -0.007297846 -0.0044650226 -0.0007425418 -0.006737484
-0.0026068003 0.0019073894 0.000122069665 -0.0019151819 -0.0006045289 0.0011120796 0.0029165098 0.002022512
0.0037805487 0.002506603 0.00022781057 -0.0042738277 0.0076314528 -0.0019294731 0.00058017706 0.004032652

action_model._continuous_distribution.log_sigma f4 [1, 5]
00000000: cdb0 763c d0ef aa3b 83fc d5bb 8d2f 463a
00000010: 8a12 82bc
0.015056801 0.005216576 -0.006530346 0.0007560186 -0.01587798

action_model._continuous_distribution.mu.weight f4 [5, 64]
00000000: 2b1a c6bc b069 06bc 5684 a2bc 50af 0dbb
00000010: 9d0b f33c e6dc 213c f781 3d3c d240 a0bb
00000020: 8baa 923d 349d 8f3b 324b a6bb 9c0e afbc
00000030: aeb8 f83a 5532 cbbc 5de8 353b ac71 1abd
00000040: 802b 74bd 31c4 54bd 05d1 873c cc98 a4bc
00000050: a4c4 973c f4fc 2dbc 94b7 9abd adab 3a3d
00000060: 85a1 1bbd d91f 55bd f581 e23b cf05 aebb
00000070: 8b20 fcbc 6b02 7cbc 7157 a9bc ec8b c83c
00000080: 848b 5d3c ca93 353d 4bb0 4ebd 2766 9dbc
00000090: fcc7 343c a42a f5bc 541e b53c f308 733b
000000a0: 1c4f a03c 5111 dd3c 974f 8fbc dad8 613d
000000b0: 37e1 45bd 015d bf3c fcf0 a03c 29aa 1fbd
000000c0: 0e29 58bc f839 993c dfb7 68bc ea3a 62bb
000000d0: 3bb3 563c 183e c23b f4a1 39bc 3b3e 3dbd
000000e0: 0114 2d3d 6efc f0ba 4d0d 6b3c 295c 333d
000000f0: e572 f23c 58a0 1dbc f61f 203c e405 40bd
00000100: c9a1 083d 2a7c 933c b888 f83b d896 8dbb
00000110: cf82 e7bc 6b9c 5b3c 17c6 c53c c644 e53c
00000120: b8c1 553c 609f 06bd a150 38bc 5c28 d6bc
00000130: ebd7 5dbc 1128 3f3d bbff debc cf34 483d
00000140: 4e12 113d 1692 b1ba 39a5 a73a 0cfb 9fbb
00000150: f498 cdbc 1036 583d d381 0fbd 5cef 04bd
00000160: a8e9 223a 4a9c 1f3d 0d91 1f3c 1f0e c3bb
00000170: 364f c43b e4b0 a1bc f64e 7a3d ae85 7bbc
00000180: ef9d 8abc 269f 3bbd 5210 00bd 7e94 a63c
00000190: fd0f 0d3d 2cc6 8e3c 4e22 493a 8c91 9ebc
000001a0: 53f2 aaba b2a5 5a3c 4534 873b 9f65 2e3d
000001b0: f2a0 dabc 5c8d 203c 9171 ebbc 8c11 123d
000001c0: 94c4 083d 35c7 3d3c b398 58bd ec15 1c3d
000001d0: 8093 36bd d36a 863c d45f 5bbb 1dde 66bc
000001e0: 4c97 cc3c 10f4 973d ab6f b13c 3007 b83b
000001f0: e862 a33c fe2f 70bd 46e6 133d 2af5 0cbd
00000200: 9a36 18bc b0e1 233c a4d8 dc3c 63e6 7e3c
00000210: b025 83bc a1fb 5cbd a6bb 58bc 8130 22bd
00000220: f920 303c feb5 aa3a 4063 ccbc 1a4b cdbb
00000230: c5ba 813b 624b fe3b 560d f53c 111c 2f3d
00000240: f66a 20bd d177 27bd 3bf2 54bc 99f3 e43c
00000250: 2ba5 983c 9bd3 57bc 9c8d 6d3c 9200 053d
00000260: 5246 9abd 92e9 7fbc c544 37bd c854 c8bc
00000270: 0d13 b13b e7ee 963c ac86 1bbb 4726 143d
00000280: c294 ad3c e6a9 31bd 2723 0c3d 0da3 3c3c
00000290: 7a3b 9cba f3e1 aebb df37 0f3d 4be4 1a3c
000002a0: d99f 0e3a 58d2 66bc ba89 4eba f148 043d
000002b0: 6620 3cbc 2753 603c df6e c13b eaa5 eb3c
000002c0: 0a9c 30bc 19af adbc e067 a53c f151 243d
000002d0: 149c 96bc 1ddf 213d ee14 d3bc 3325 5d3d
000002e0: 8637 7e3c 5772 e73c c467 21bd 41c4 f03a
000002f0: 8fc6 16bc 0782 4bbd f1ad ef3a d33d d93c
00000300: 492c 07bc 717a 06bd 1865 59bd 1cf0 b83c
00000310: 23d3 51bc aae0 863d ccee 20bc cedc 6ebc
00000320: a8e9 d4bc 6c4c bbbc c24c f8bc eb17 92bc
00000330: 4548 b2ba 3670 cd3c 0f1f 12bd 57d7 35bc
00000340: cd4d 9cbc 40f3 153d fc3c 2c3c 0c73 3cbc
00000350: 1842 7fbd badd 4abd f9b9 41bc 4010 cc3c
00000360: c9bd 4e3c cada e93b 73b5 bc3c 4e1a f43c
00000370: 1aeb 363d 4b06 bebc fb02 853d 40a4 f43c
00000380: 5d30 203d 362d 8f3c 1298 543d 3695 213c
00000390: 82fd 423d 8aac eabb ca4d e03b e6a2 0abd
000003a0: 087c 1d3d 77cb 463c 2e35 61bd b474 8cbc
000003b0: f006 2ebd ca44 6a3d 3a4f 3fbc aaf3 56bd
000003c0: fbdd c43c 25be 71bc 865e 2fbc a3ec ec3a
000003d0: e57c 413d 0e98 d8bb 09de 87bb 2807 a63c
000003e0: a7bb 4b3c fb4a 0fbd c85c bfbc b72c aebc
000003f0: 79e7 323b da67 c43c b006 7c3d 011a a43c
-0.0241824 -0.008203909 -0.019838493 -0.0021619387 0.029668624 0.009879326 0.011566631 -0.0048905397
0.07161435 0.0043827537 -0.005074882 -0.021369271 0.0018975937 -0.024804274 0.0027756908 -0.037706062
-0.059611797 -0.051944915 0.01657916 -0.02009239 0.018526383 -0.010619391 -0.07554546 0.04557388
-0.037995834 -0.052032325 0.0069124647 -0.005310751 -0.030777236 -0.015381436 -0.020671578 0.024480782
0.013522033 0.044330396 -0.050461095 -0.01921375 0.011034008 -0.02992756 0.022109188 0.0037084192
0.019568972 0.026985796 -0.017494006 0.055138446 -0.048310485 0.023359777 0.01964616 -0.038980637
-0.013193382 0.0187044 -0.014203995 -0.0034519979 0.013104255 0.0059278123 -0.011330117 -0.046201926
0.042255405 -0.0018385777 0.014346433 0.043789063 0.029595802 -0.009620748 0.009773245 -0.046880618
0.033357415 0.018003542 0.0075846575 -0.0043209605 -0.028260617 0.013403992 0.024142308 0.027986895
0.013046674 -0.032866836 -0.011249692 -0.026142292 -0.013540248 0.04666907 -0.027221551 0.048878487
0.035417847 -0.0013547565 0.0012790329 -0.004882222 -0.025097348 0.052785933 -0.03503592 -0.032454833
0.0006214627 0.03896741 0.009739173 -0.005952611 0.005990888 -0.019737668 0.06111046 -0.015351696
-0.016921012 -0.045806073 -0.031265564 0.020334478 0.034439076 0.01742848 0.00076726533 -0.019356512
-0.0013042189 0.013345169 0.004126104 0.042577382 -0.026688073 0.009799328 -0.028740676 0.035661265
0.033390597 0.011583139 -0.05288 0.038106844 -0.04457426 0.01640836 -0.0033473866 -0.014091042
0.024974488 0.07419598 0.021659693 0.005616091 0.019944623 -0.05863952 0.036108278 -0.034413494
-0.009290362 0.010002539 0.026958771 0.015557858 -0.016009182 -0.05395091 -0.013228333 -0.03959704
0.010750049 0.0013024209 -0.02494967 -0.0062650563 0.0039590322 0.007760451 0.029913586 0.042751376
-0.039164506 -0.04088575 -0.012997205 0.027948188 0.018633446 -0.013173009 0.014499094 0.032471247
-0.07532944 -0.015619652 -0.044743318 -0.02445449 0.0054038824 0.018424464 -0.0023731394 0.036169317
0.021189097 -0.04337492 0.03421321 0.011513484 -0.0011919581 -0.005336994 0.034965392 0.009453843
0.0005440689 -0.014088236 -0.0007878799 0.032296125 -0.011482334 0.0136917 0.0059031094 0.028765637
-0.01077939 -0.021201657 0.020191133 0.040117208 -0.01838497 0.039519418 -0.025766816 0.053990554
0.0155161675 0.028252764 -0.0394056 0.0018369035 -0.0092026135 -0.04968455 0.0018286092 0.026518738
-0.0082503045 -0.032831613 -0.053074926 0.02257543 -0.012806687 0.0658582 -0.009822559 -0.014579011
-0.025990322 -0.02286359 -0.030310038 -0.01783367 -0.001360186 0.02507792 -0.03567415 -0.011098704
-0.019080067 0.036608934 0.010512587 -0.011502039 -0.06231889 -0.04952786 -0.0118241245 0.024910092
0.0126184905 0.0071366774 0.02303574 0.0297977 0.044657804 -0.02319636 0.06494709 0.029863477
0.039108623 0.017477613 0.051902838 0.009862235 0.047605045 -0.0071616815 0.0068452107 -0.03384676
0.038448364 0.012133471 -0.054982357 -0.017145492 -0.042487085 0.05719451 -0.011676604 -0.05247847
0.02403163 -0.014754807 -0.0107036885 0.0018075894 0.04723825 -0.006609923 -0.0041463417 0.020267084
0.0124348765 -0.034983616 -0.023359671 -0.021261556 0.0027298613 0.023975302 0.061529815 0.02003193

action_model._continuous_distribution.mu.bias f4 [5]
00000000: 8f5c 0c39 0f1c e03b 3974 31bc ab53 a53c
00000010: 6042 82bc
0.00013385921 0.0068392823 -0.010830932 0.020181498 -0.01590079

onnx::LSTM_100 f4 [1, 256, 256]
00000000: ebd0 d0bd 7561 ea3d 1e5c ac3d add4 bbbd
00000010: 3742 b43d b18e 0ebe 49b5 0fbc 6c53 61bd
00000020: 1695 d8bc 2cb8 fabc af53 f73d ef6e d4bc
00000030: 0652 dcbd 758c 1ebc 424b 93bd 48f4 743d
00000040: 46e7 fe3d 49d1 443d 85bf 71bc f71d a3bb
00000050: e9c3 2dbc 3314 6dbd 2917 51bd cae0 0b3e
00000060: f45a a53a a589 833d 6365 1c3d 01a6 6cbd
00000070: 9518 0b3e 1c0a 5fbd b401 29bd 62c4 97bc
00000080: 1e10 f8bc 24f7 83bd c6c2 bfbd 2708 b3bd
00000090: bbb7 0a3e a37a 79bd e2d8 283c 2aec 093c
000000a0: 6f01 533c b322 eaba e7cb 023d 59d1 093e
000000b0: 3357 c63d 3223 a8bd 3bef 91bc 585e f7bc
000000c0: c399 d4bd 53ad 87bd bf26 b5bd 21f9 b1bc
000000d0: 78bc ae3d 368a 373d 5dba 63bd cbd9 f13d
000000e0: f3ab 7a3d 8fc8 d6bd 3d17 073d 6813 b2bc
000000f0: f390 933d 5fcd 4abc 6849 953d 1d42 9b3d
00000100: dc30 cebc 2f8a fc3d eed0 cdbb 4933 d3bc
00000110: 09b0 f13d 120c 033d a255 c53d 9754 07be
00000120: 976c 8b3d 3c38 183e b875 a13d 17db e4bc
00000130: d9c1 8bbd d1e8 e7bd 6610 c33a 3499 aebd
00000140: f3e3 8e3d 77c5 403d 08b2 873c 5407 4abc
00000150: ebf3 e33c df59 023d c216 58bc 673d d6bd
00000160: 9024 9abc b3ff 423d 7612 d03d 3d1a b63c
00000170: c7c3 e2bd a053 9a3d 2350 253d 41bf 03be
00000180: 49a7 c23d b9d0 77bd 5f93 fabd 9e57 f7bc
00000190: e8a9 05be 7bc0 d03d ed97 883d 1a36 6bbd
000001a0: 3909 c53d a72c 563d 9c69 64bc b37d f83d
000001b0: f4de 063d 2ea1 bbbc 75df c3bd 1009 55bd
000001c0: 9190 163c 594c af3c 8674 443d 5217 c5bd
000001d0: 9081 93bd 8b7f b3bd b8d7 503d 57f2 d03d
000001e0: ec46 bfbd 67bc 813d d9ad 67bd b1c8 ecbd
000001f0: 4e56 93bd a5ef e2bd 6338 ab3b 0b5c 9b3b
00000200: c306 893d bde1 e9bd bb79 5aba 7a57 f8bd
00000210: bf17 f13c c6dd a5bd d887 a33d 529e dbbd
00000220: 015d 61bb c694 c8bc f332 d63d 4bdd 2fbd
00000230: 5747 003e 4f93 00be 5146 e63d c333 f53d
00000240: 5edf a33b 7d5d 013e ec77 b23d 747a 033d
00000250: d6df f53c ed9b ef3d 2bcf eb3d edbf f9bd
00000260: decd a6bd dd64 96bd a3f7 743d 5189 623c
00000270: 2fe1 173d 3150 d1bd 74ef 593b 2648 edbd
00000280: d47d 473c 6234 9cbd a265 053c c0bb b13d
00000290: 9fb7 3fbd 12e4 f33d b80f 843c 6f62 013e
000002a0: 95fe 603d 6070 99bc 9b06 0a3d 8a52 8bbd
000002b0: 3567 d03d 4aab 02bd dd8f cf3d e474 0fbc
000002c0: be23 f1bd ab31 b0bc 9165 d7bd d2c4 273d
000002d0: 37d4 77ba 0669 57bc bb4d e1bd 3606 903d
000002e0: 0840 a43d 8fd7 45bc 0d0d bfbd a42c be3d
000002f0: 5b39 fc3c 57a4 fdbd 0006 ddbd 8ee3 dbbc
00000300: 9db7 e3bc 6bd1 e4b9 a24f 013e 8c92 173e
00000310: cf4e 783d 39b7 393d 311a bcbc 1e65 c5bd
00000320: 7038 a93d 723d 9e3d c005 573d 8ec5 9cbd
00000330: fc00 b03d 3864 c23c 4cd9 6ebc f903 083b
00000340: d478 4d3d fc49 44bd f304 ed3d 5431 12be
00000350: 6052 bebd 282a ee3d 8897 353c d2f2 e03d
00000360: 167a cebd cccf 9c3d 5edd d93d a8a3 e43c
00000370: 5909 17bd 5d29 fa3c bda3 15bd 231a f93d
00000380: bf9f 603d 6c5a babd dc75 49bd 01f1 0f3e
00000390: 81e9 4b3d 07c0 9f3d 6414 503d 95e9 043e
000003a0: cf32 7b3c 9330 bfbd 4327 dfbd 9475 533d
000003b0: 0128 ed3d 5415 ebbd 50b4 02be 85e9 bdbc
000003c0: 191d d53d cfe4 163e e768 91bd 413a a83d
000003d0: 47d8 85bd 50a2 09bc ecdb 983d eb46 57bd
000003e0: 9069 3b3d 74e1 433d 58ce 79bc 207a 423c
000003f0: f66a 9f3c 509e 083d 4c40 97bd c1f0 f03c
-0.10196098 0.1144437 0.084160075 -0.09171424 0.08801692 -0.1392162 -0.008771249 -0.055011198
-0.026438277 -0.030605398 0.12076508 -0.025931804 -0.10757832 -0.009677042 -0.07192089 0.059803277
0.12446456 0.048051152 -0.0147551345 -0.0049779373 -0.010605791 -0.05788059 -0.051047478 0.13659969
0.0012615607 0.06422738 0.038182627 -0.0577755 0.13583596 -0.054453 -0.04126139 -0.01852626
-0.030281123 -0.06443623 -0.09363322 -0.08741789 0.1354665 -0.06090797 0.010305615 0.008418122
0.01287876 -0.0017863124 0.031932738 0.13458766 0.09684601 -0.08209838 -0.01781427 -0.030196354
-0.1038089 -0.06624856 -0.08845281 -0.02172524 0.08532041 0.044809543 -0.05559765 0.11809119
0.06119914 -0.10487472 0.032981146 -0.02173777 0.07205381 -0.012378066 0.07289392 0.075809695
-0.025169782 0.12331044 -0.00628101 -0.02578129 0.11801154 0.031993933 0.09635474 -0.13215862
0.06807821 0.14865202 0.07883781 -0.027936501 -0.06824083 -0.11323703 0.0014882206 -0.08525315
0.069770716 0.047063317 0.016564384 -0.012330849 0.02782627 0.03182399 -0.01318902 -0.1046093
-0.018816262 0.047607135 0.10159771 0.022229308 -0.11072498 0.075354815 0.040359627 -0.12865926
0.09504563 -0.060501788 -0.1223514 -0.030193146 -0.13053095 0.10192963 0.066696025 -0.057424642
0.096209 0.052288678 -0.013941195 0.1213335 0.03292747 -0.022904005 -0.095641054 -0.052010596
0.009189741 0.02139871 0.047962688 -0.096235886 -0.072024465 -0.08764561 0.050986975 0.10202473
-0.09339699 0.06334763 -0.05656228 -0.11561716 -0.07194196 -0.11080865 0.0052252277 0.004741197
0.06690743 -0.11420009 -0.00083341793 -0.1212606 0.029430268 -0.080989406 0.079848945 -0.107235566
-0.003438771 -0.024485003 0.104589365 -0.04293565 0.12527214 -0.12556194 0.112438805 0.119727634
0.0050009927 0.12633319 0.087142795 0.032099202 0.03001396 0.11699662 0.115141235 -0.1219481
-0.08144735 -0.07343457 0.059806477 0.013826684 0.037079986 -0.102203734 0.0033254297 -0.11586027
0.012175996 -0.07627179 0.008141907 0.086783886 -0.046805974 0.11908735 0.016120777 0.12635206
0.05493029 -0.018730342 0.033697706 -0.068028525 0.10175935 -0.031901635 0.101348616 -0.008755896
-0.117743954 -0.021508059 -0.10517419 0.040959187 -0.0009453925 -0.013147598 -0.11001154 0.07032435
0.080200255 -0.012075319 -0.09328661 0.09285858 0.030789068 -0.12384861 -0.1079216 -0.026841905
-0.027797515 -0.00043643577 0.12628034 0.14801997 0.060622033 0.04534075 -0.022961708 -0.09638427
0.08262718 0.077265635 0.052495718 -0.07654868 0.08593938 0.023729429 -0.014578175 0.002075432
0.05016406 -0.04792212 0.115732096 -0.1427663 -0.092930555 0.116291344 0.011083491 0.10983814
-0.1008188 0.076568216 0.106379256 0.027910069 -0.03687415 0.030537302 -0.036533106 0.12163188
0.054839846 -0.09099278 -0.049184665 0.1405678 0.049783234 0.07800298 0.050800696 0.1297973
0.015331938 -0.09335437 -0.108961605 0.051625803 0.11579896 -0.114786774 -0.12764096 -0.02318264
0.104059406 0.14735721 -0.07100087 0.08214236 -0.06535392 -0.008400515 0.07463822 -0.052557867
0.04575497 0.04782243 -0.01524695 0.011869937 0.019460183 0.033354104 -0.073853105 0.029411675

onnx::LSTM_101 f4 [1, 256, 64]
00000000: 7ebd 8a3d 324d c93d d5cc cf3d 7785 15be
00000010: f4ec 95bc 5309 3fbd d8c0 dcbb 8218 233d
00000020: 6d26 443e e365 3cbd 555b 183e a83d 933d
00000030: 030c 56be 8502 253e 573b 06bd 7373 97bc
00000040: d82d 51be 82c9 cd3c edc8 893d 8662 263e
00000050: 4a7e 093e db51 453e 0787 ed3b 78ef 5e3e
00000060: ddc9 c63c 98ab 78bd f6ca 48be 4e5d acba
00000070: 6642 5b3d 31de 5e3d e7c9 be3c 478a 15bd
00000080: 40d1 2d3d 3b97 c43d fede a53d af9a 4e3e
00000090: ee46 1fbd a1c5 db3d 3b56 113e e640 ef3d
000000a0: a6e9 ae3b 2447 b5bd c662 0d3e b3df a33d
000000b0: 44fe 5a3e 5e0d b5bd 16ea 0fbe d07b 42bd
000000c0: 6157 b53d 0f1f 7cbc d7b7 29be b7f2 a73b
000000d0: 61e4 cf3d 8a0e 213e fe2b a0bd a08e 49be
000000e0: e1d7 8d3d fe2e 1ebd 2e2a 2d3e eaac 173e
000000f0: 426f 463e 5791 553e 38d7 f9bc 88e5 38be
00000100: 60b6 4ebe df34 f0bc eba5 613e a6df 54be
00000110: c002 5ebd 7da0 973d d989 30be cf26 eb3d
00000120: e284 2a3d b282 e1bd ae33 20be c230 ba3d
00000130: 852a d3bd dd3a 163e feda 933c 5d54 41be
00000140: 0294 4d3e 6092 993c 459a 123c 8ba6 663e
00000150: c130 00be 294d 0abe 97c9 033e e456 ec3d
00000160: 33a5 35bd 1113 6fbd 3156 4b3e 3067 4c3e
00000170: 84fe 963d b7c3 413e cca3 483e 5177 acbc
00000180: 8155 7abd 0026 a43c 4b23 083e f44e f43c
00000190: 6ba6 453e 0d4d e9bb 18b0 863d 38d4 f13d
000001a0: 267f 923c 4c34 b93d 3b78 3c3e 71a7 4a3c
000001b0: 16bb 12be 1500 f2bc cf9a 4bbb 3c18 153d
000001c0: 763d 5e3d b7e2 303e e4d1 debd 41fa 37bd
000001d0: d8a7 173e 5aaa 343d 0493 fe3d 9e1a 143e
000001e0: b6a4 7d3d 5306 a53d 04a3 54be 9e61 053e
000001f0: e7ae 0a3e 9f64 073e 63ed 13be 5167 083e
00000200: 0e31 0b3e b8e2 a23d b6dd c2bd 9c55 a93c
00000210: e683 143e a39c 33be 5081 e83d b940 453e
00000220: f94f 14bd 15bc 913c 2afd ae3d 5b9b b63d
00000230: 2785 563e 1b1d e3bd db8b 98bd f576 4abd
00000240: ac25 403e 6f3d e6bd 0725 0c3e 9346 3bbe
00000250: 4c79 26be f37e ff3c a24f dabd 5d31 253e
00000260: 730d 42be 3ce2 bd3d 3c40 9e3d c950 a23c
00000270: 228c d73d 0599 bebd 1ccf cc3d 14b0 1fbd
00000280: 5610 043d 1b18 a5bb 123e 52be 862c 513e
00000290: 0f21 55be fcf0 7abd dd2f 5c3e 0bd0 403e
000002a0: 1acc 393e e563 d8bd 9562 d73d 09e8 7e3d
000002b0: 14e4 3abe 1c3a 433e dba2 e93d 4ad4 bebd
000002c0: 40cb 2ebe 3383 d3bd 00fb d5bd 73b0 dabd
000002d0: 8d2a 1ebe 6567 1b3e fa1f e23d c5d8 29be
000002e0: ce91 38be 2ae1 1fbe 0003 2bbd fc35 4dbe
000002f0: 3a14 0bbd 15cb 2a3d 990f ccbd 83f0 4d3e
00000300: 4c5c dbbd 26f6 633c e4f6 543e 8360 aebc
00000310: c03b e93d 99d7 173d b7fc 28be 04c8 4abe
00000320: 803f e0bd 5453 44be a0b9 0f3e 6545 3f3e
00000330: 7a48 17be c52a 0e3e 0583 35be b281 0dbe
00000340: c352 b73d 6df0 55be 8ae5 37be 8b48 543e
00000350: 60f0 04bd 233f 4dbc a388 a93d c276 e6bd
00000360: 129c ab3d 0f40 4ebe 7985 eb3d a60c 9bbd
00000370: 3887 50be 7a88 0e3e b524 56bc f0f5 59be
00000380: 892a 27bd 57bf 1cbc 9d34 093e b6f8 293e
00000390: 7174 aa3d 54ea 983d 25ef 62bd 60f1 24bd
000003a0: 46a8 4fbe 905a 7ebd 76f1 213e 3b29 f13d
000003b0: d846 4b3e 693a acbd 16d5 443e e407 82bd
000003c0: d5f6 24bd 3ad3 3dbe 57f9 8c3d d2b7 ebbd
000003d0: 3e10 573e cbaa e33b 053e 47be 4c7a 9c3c
000003e0: 04a8 e0bd daa1 08bd 6f4d f33d 859c 9cbd
000003f0: 9527 15be 7f17 27be d8a9 823c 2c0e 20be
0.06774424 0.09829177 0.101464905 -0.14601694 -0.018301465 -0.04663975 -0.006736856 0.039818294
0.19155283 -0.045995604 0.1487859 0.07189494 -0.2090302 0.16114242 -0.032771435 -0.018487668
-0.20427644 0.0251205 0.06727777 0.16248521 0.13427082 0.19269507 0.0072487625 0.21771038
0.024266178 -0.06071052 -0.19608673 -0.0013150366 0.05353012 0.054411117 0.023289634 -0.036508825
0.042435884 0.095991574 0.08099173 0.20176195 -0.038886003 0.10731054 0.1419305 0.116823
0.0053379117 -0.088514596 0.1380721 0.080016516 0.21386057 -0.0884044 -0.1405414 -0.047481358
0.08854557 -0.015388264 -0.16574036 0.0051253694 0.10150982 0.15728202 -0.07820891 -0.19683313
0.06925941 -0.038619034 0.16910622 0.14812055 0.19378379 0.20856224 -0.030498132 -0.18056309
-0.20186758 -0.029322086 0.22035949 -0.2078844 -0.05420184 0.074036576 -0.17240085 0.114820115
0.041630633 -0.11011256 -0.15644714 0.09091331 -0.10310844 0.14670892 0.01804876 -0.18879838
0.20075992 0.018746555 0.008947914 0.22524469 -0.12518598 -0.13505997 0.12869869 0.115400106
-0.044347 -0.058367793 0.19857098 0.19961238 0.07372764 0.18922316 0.19593734 -0.021052988
-0.0611167 0.020037651 0.13294713 0.029822804 0.19301765 -0.007119781 0.06576556 0.11808056
0.017882895 0.09043178 0.1840524 0.012369023 -0.1432918 -0.029541055 -0.0031067615 0.036400065
0.054257832 0.17273985 -0.10879877 -0.044916395 0.14810121 0.044107772 0.12430385 0.14463279
0.06192466 0.08057847 -0.2076531 0.13025519 0.13543282 0.13221978 -0.14446025 0.13320662
0.13592932 0.079533994 -0.09514944 0.020670705 0.1450344 -0.17540221 0.113527894 0.19262971
-0.03620908 0.01778988 0.08544381 0.089163505 0.20949231 -0.11089536 -0.0744855 -0.049429853
0.1876437 -0.11242186 0.13686 -0.1828864 -0.16257209 0.031188464 -0.1065972 0.16132112
-0.18950443 0.092716664 0.077270955 0.019813912 0.10524775 -0.0930653 0.100004405 -0.03898628
0.03224214 -0.005038274 -0.2053149 0.2042714 -0.20813392 -0.061264977 0.21502633 0.18829362
0.18144265 -0.10565928 0.1051685 0.062233005 -0.18251067 0.19065136 0.11408015 -0.09317835
-0.17069721 -0.10327759 -0.10448265 -0.10678186 -0.1544592 0.1517616 0.11041255 -0.16586597
-0.1802437 -0.15613237 -0.041750908 -0.20040125 -0.033954836 0.04169758 -0.099639125 0.20111279
-0.107109636 0.013913667 0.20797306 -0.021286255 0.113883495 0.037070844 -0.16502653 -0.19802862
-0.10949612 -0.19172412 0.14035654 0.18678816 -0.14773741 0.13883503 -0.17725761 -0.13819006
0.089513324 -0.20892496 -0.17958656 0.20730798 -0.032455802 -0.01252726 0.082780145 -0.1125312
0.083793774 -0.20141624 0.11500067 -0.07570772 -0.20364082 0.13919249 -0.013070275 -0.21285224
-0.04081205 -0.009567103 0.13398977 0.16598782 0.08322991 0.074665695 -0.055403847 -0.040269256
-0.20279035 -0.062098086 0.15814766 0.11775442 0.19851243 -0.08409578 0.19221911 -0.06349161
-0.04027446 -0.18537608 0.06883495 -0.1150967 0.2100229 0.0069478503 -0.19457252 0.019101284
-0.109695464 -0.03335748 0.11880004 -0.07647041 -0.1456588 -0.16317557 0.015950128 -0.15630406
