Project/results/hb_01/Hummingbird/Hummingbird-999896.onnx (onnx, 649088 bytes, 10 tensors)

network_body._body_endoder.seq_layers.0.weight f4 [256, 46]
0.2720908 -0.05140358 0.40175578 0.2646763 -0.077357545 -0.1962728 -0.041544482 -0.08664623
0.04050049 0.10209781 -0.052694455 0.08348254 0.14015795 0.0253235 0.3495268 0.010895708
0.17020896 0.13720883 -0.014156852 0.035126984 -0.048869267 0.016655143 0.0058529377 -0.07929235
0.09634109 -0.074348606 -0.03810269 0.19997568 0.40993798 -0.04633204 0.0007293232 0.117475316
0.17580421 0.27900526 -0.067239515 0.10642783 -0.12126103 -0.28113207 -0.1847614 -0.05665737
0.10397494 0.08939121 -0.029737303 0.0025198283 -0.066445865 0.26075447 0.23237406 0.13577588
-0.06885729 0.052528434 -0.14290756 0.09636362 -0.13349417 -0.0506962 0.23394792 0.07367343
0.11666209 -0.19983779 -0.033219334 0.23380847 -0.038441673 0.003729604 -0.18329965 -0.24317071
-0.09578054 -0.089796774 0.11140947 -0.01802068 -0.08059803 0.033786017 -0.033329234 0.14864676
0.21182905 -0.04640367 0.14165446 0.2594867 -0.23897989 -0.023521831 -0.13569798 -0.13988957
0.1274091 0.15769751 -0.06359645 -0.20870917 0.14884163 0.20154288 -0.26023734 0.16352142
-0.014197609 -0.21468182 -0.028828695 -0.017543223 0.26628128 -0.1093304 0.07305409 0.24622677
-0.17190506 0.2565192 -0.11408841 0.25323194 -0.00793434 0.037048265 -0.056188025 -0.1381978
0.3128703 -0.15305506 0.13012342 0.047260858 -0.08261937 0.031001946 0.34524992 0.007167738
0.08421486 -0.10627824 0.24320756 -0.0891927 -0.099383846 0.06113331 0.09261165 0.29507804
-0.030963989 0.050161302 -0.045801997 0.0061080633 -0.16490738 -0.13961063 0.042102166 0.015829723
-0.15924925 0.06328385 0.03712073 0.1263685 0.04207406 -0.32249716 0.026947401 -0.053697027
0.33167365 0.26390937 0.064505324 -0.010809054 -0.035301425 0.111228794 -0.1327483 0.042115536
0.24024794 -0.34894004 -0.28442585 0.16641302 -0.07593569 -0.05570608 0.18486202 0.006168731
-0.039055124 -0.3270577 -0.006191793 -0.26408216 0.01851274 0.13642699 0.15909803 -0.039820995
-0.03621231 0.31516305 -0.11237432 -0.18816757 -0.17457096 0.297763 -0.085663706 0.12322017
-0.11660619 0.101656936 -0.18246154 -0.105098106 0.07429159 -0.076758236 0.08403122 0.24072523
0.07464797 -0.015271562 -0.10507328 -0.0045185597 -0.25337455 -0.23645215 0.13743089 0.041128602
0.15761586 -0.036370892 0.1444967 -0.06527875 -0.18592653 -0.034568537 0.008041838 -0.2334165
0.24151656 -0.07026562 -0.1299199 0.16365577 -0.022369316 -0.13725613 -0.05063292 0.05073319
-0.21366933 0.15619186 0.022600506 0.10045228 0.098228134 -0.055779323 -0.048698414 0.33433166
0.0975567 0.036430296 0.07757343 0.038355958 -0.18587276 0.004002249 0.012441816 0.15002875
-0.05089394 0.1376347 -0.07901113 0.050908126 0.15478443 0.020899255 0.044570696 -0.14463314
-0.073297285 -0.1770538 -0.13569234 0.14463675 -0.28229418 0.17871468 -0.04117108 -0.007402025
0.03896656 -0.021703249 -0.15603286 -0.18780859 0.04480016 -0.018354516 0.21458788 -0.05639136
0.119975954 0.13004611 0.13392796 -0.1881637 0.04471388 0.1502894 0.059687454 -0.1561582
0.12928057 0.11503966 0.045744684 -0.093690425 0.031270325 -0.13913003 0.081557885 -0.045111213
00000000: 7c4f 8b3e 8f8c 52bd efb2 cd3e a783 873e
00000010: a26d 9ebd bdfb 48be 8c2a 2abd 9473 b1bd
00000020: d8e3 253d a818 d13d 24d6 57bd e5f8 aa3d
00000030: 9185 0f3e 3b73 cf3c 2df5 b23e e983 323c
00000040: 424b 2e3e 7980 0c3e 24f2 67bc 50e1 0f3d
00000050: 242b 48bd 5e70 883c 00ca bf3b 0764 a2bd
00000060: 7a4e c53d 1544 98bd 9111 1cbd 6dc6 4c3e
00000070: 64e3 d13e aac6 3dbd 0d30 3f3a e696 f03d
00000080: 0506 343e c7d9 8e3e dfb4 89bd d6f6 d93d
00000090: b457 f8bd 8bf0 8fbe 1832 3dbe 8f11 68bd
000000a0: d0f0 d43d bd12 b73d a59b f3bc b423 253b
000000b0: c514 88bd 9c81 853e 77f3 6d3e d508 0b3e
000000c0: 0d05 8dbd 0e28 573d 5c56 12be 4a5a c53d
000000d0: b2b2 08be d2a6 4fbd 0b90 6f3e 18e2 963d
000000e0: 89ec ee3d 47a2 4cbe ff10 08bd 7d6b 6f3e
000000f0: 0475 1dbd 5f6c 743b e7b2 3bbe be01 79be
00000100: 9628 c4bd 5fe7 b7bd a62a e43d 1ba0 93bc
00000110: 9410 a5bd 3563 0a3d 3c84 08bd db36 183e
00000120: b7e9 583e c611 3ebd de0d 113e 71db 843e
00000130: 25b7 74be dbb0 c0bc 69f4 0abe 363f 0fbe
00000140: 8877 023e 757b 213e db3e 82bd dbb7 55be
00000150: f169 183e 4261 4e3e d43d 85be 2972 273e
00000160: 179d 68bc 8dd5 5bbe 282a ecbc ceb6 8fbc
00000170: 0556 883e 9ee8 dfbd 629d 953d df22 7c3e
00000180: e107 30be 7c56 833e 2fa7 e9bd 9ea7 813e
00000190: 09ff 01bc ecbf 173d 6a25 66bd b983 0dbe
000001a0: 8930 a03e 77ba 1cbe 133f 053e 9a94 413d
000001b0: 5834 a9bd cbf7 fd3c 99c4 b03e 58df ea3b
000001c0: d778 ac3d 68a8 d9bd 670b 793e aaaa b6bd
000001d0: c289 cbbd ec66 7a3d 2dab bd3d 7814 973e
000001e0: 31a8 fdbc f075 4d3d e09a 3bbd 2626 c83b
000001f0: 7bdd 28be 17f6 0ebe 5273 2c3d 56ad 813c
00000200: 3c12 23be f79a 813d e80b 183d be66 013e
00000210: d955 2c3d 591e a5be ccc0 dc3c 6af1 5bbd
00000220: 21d1 a93e 211f 873e 5e1b 843d 7518 31bc
00000230: 3a98 10bd eccb e33d 2cef 07be 5781 2c3d
00000240: 8e03 763e 45a8 b2be 44a0 91be 2d68 2a3e
00000250: 2c84 9bbd 0f2c 64bd 784c 3d3e 1123 ca3b
00000260: 44f8 1fbd 1b74 a7be 86e4 cabb c735 87be
00000270: 08a8 973c 84b3 0b3e 98ea 223e 571b 23bd
00000280: 5c53 14bd 0d5d a13e 8224 e6bd 00af 40be
00000290: bbc2 32be 6474 983e 7470 afbd db5a fc3d
000002a0: 3acf eebd 8331 d03d 33d7 3abe ad3d d7bd
000002b0: 3026 983d 6c33 9dbd 8f18 ac3d ad80 763e
000002c0: 09e1 983d 9335 7abc a930 d7bd 6d10 94bb
000002d0: 4fba 81be 8320 72be afba 0c3e 7776 283d
000002e0: 0d66 213e a5f9 14bd f1f6 133e deb0 85bd
000002f0: 8663 3ebe bd97 0dbd eac1 033c bc04 6fbe
00000300: 1e50 773e 6ce7 8fbd b909 05be 6195 273e
00000310: db3f b7bc df8c 0cbe 7764 4fbd 9bcd 4f3d
00000320: 22cc 5abe c2f0 1f3e b224 b93c edb9 cd3d
00000330: d52b c93d dc78 64bd fd77 47bd 852d ab3e
00000340: cfcb c73d ef37 153d d2de 9e3d 231b 1d3d
00000350: 6e55 3ebe 4c25 833b c2d8 4b3c 23a1 193e
00000360: 2a76 50bd 1cf0 0c3e 96d0 a1bd 0a85 503d
00000370: cf7f 1e3e ea34 ab3c c38f 363d b61a 14be
00000380: e31c 96bd 974d 35be eff2 0abe a81b 143e
00000390: dd88 90be fb00 373e 02a3 28bd b08c f2bb
000003a0: 669b 1f3d 03cb b1bc 14c7 1fbe e550 40be
000003b0: 5f80 373d 365c 96bc edbc 5b3e a0fa 66bd
000003c0: f4b5 f53d cf2a 053e 6924 093e fcad 40be
000003d0: e725 373d 77e5 193e d57a 743d efe7 1fbe
000003e0: 2062 043e ea99 eb3d c75e 3b3d c4e0 bfbd
000003f0: 5015 003d 1a78 0ebe d207 a73d 89c6 38bd

network_body._body_endoder.seq_layers.0.bias f4 [256]
-0.0023810123 -0.0033412275 -0.0012428708 0.0067296675 0.0020813732 0.004747734 -0.0059617283 -0.010344218
-0.0052089076 -0.0048385584 0.017938698 0.0054073567 -0.0043367017 -0.0017242806 0.0038425336 0.0058292174
0.008433094 0.0008534439 -0.005985673 0.0029958596 0.008812017 7.323139e-05 -0.008322761 0.007746888
-0.0026493985 -0.009950419 0.00370017 0.0048647393 -0.009899272 -0.0041680126 0.0056976457 -0.009615807
0.0054182736 0.0113852415 -0.009359501 -0.0058174077 -0.0014361005 0.012763098 0.012234668 -0.0066608503
-0.0003587683 -0.005399572 -0.0069189025 0.008367521 0.0065169656 -0.008539513 0.009335575 -0.010264916
0.002784479 0.004784177 0.0037539194 0.0049547567 -0.00057478086 -0.0069932826 0.014549909 -0.001852523
-0.0016569674 -0.0019525628 -0.0056325058 0.003925483 -0.0029434892 0.008430223 -0.009407809 0.0046075936
0.0040031215 -0.0074598677 0.0012315772 0.0014809429 0.00021304727 -0.0005467529 0.007725904 0.006744154
-0.007368025 -0.0028105774 -0.0017781293 0.0018151406 0.0013820386 -0.011284645 0.014010887 -0.0040354608
-0.00036498686 -0.0026779107 -0.007377207 -0.0015885299 -0.0039334293 0.009317347 -0.003375297 -0.0025405246
0.003184506 -0.007572599 -0.0028060856 0.005225711 0.014705584 -0.008835892 0.0123308115 -0.0024060146
-0.006719148 -0.0049423086 0.0029216348 0.0025804818 0.0042510163 -0.0003676099 0.0048442376 0.005449145
0.0012641327 -0.0006627948 0.012224658 -0.007771233 0.0018812291 0.0065042158 0.0028073767 0.0042187925
0.010691926 0.0007984524 0.0010059434 0.0043859337 -0.0055472963 -0.0016159529 -0.0005743664 -0.0011856974
-0.000658263 -0.008304189 0.0014345499 -0.010321891 -0.003990717 0.00034741682 0.0036575908 -0.004872279
-0.0012429447 0.0043931627 -0.008742777 0.0005804798 -0.0071659163 0.0013708471 -0.0020783525 -1.26909445e-05
0.0015524885 0.00018240509 0.01695603 -0.0068536852 -0.0035730526 -0.0013850392 -0.0017309907 0.0046166093
-0.0045977845 0.00505222 0.01171721 0.0035317652 0.006237825 0.0058655846 -0.0026841015 -0.0010539179
0.0038829572 0.0039069075 -0.00067465677 0.0074835196 0.0008176535 0.003067624 0.00263074 -0.0013901769
0.00651692 0.0021476476 -0.0051286705 -0.0018850716 -0.003943558 0.0019433048 -0.0052242107 -0.0027744898
0.0031959156 0.0049334443 -0.0026367193 0.0012979172 0.013409354 0.0004576522 0.009993212 -0.0036209722
0.0017688777 -0.0011076411 0.009338254 0.001853683 0.0020945196 -0.0030208216 0.0016281643 0.00016289091
0.006104826 0.0062495666 -0.002039452 -0.0031773222 0.004505193 0.0042979214 0.006693785 0.0029563997
-0.0021120277 0.010793815 0.00089690473 0.0062482655 0.0053928774 0.0052894875 -0.0046212627 0.004766987
0.0074016233 -0.009691708 9.333937e-05 0.0022881255 -0.0030620908 0.004753003 -0.004635833 0.0070675192
-0.003568771 -0.0033754632 -0.004929378 0.009994111 -0.0003912336 -0.010241784 0.0016344332 -0.0016809419
0.0018646811 0.010862764 -0.013641589 0.0054834173 0.011729467 0.010745252 -0.0077108527 0.009276007
0.0036133558 0.009110082 0.004439549 -0.009300042 0.015702689 -0.007838223 0.008436959 -0.0053535635
0.009232369 -0.0028395061 0.00029537475 -0.0033182693 0.012810691 -0.0021861666 0.0042692753 -0.0072421357
0.0012335574 0.011013958 0.0055851988 0.0067875874 -0.011128893 -0.009301865 -0.0059662797 0.0076528084
0.0010754248 -0.0046190415 -0.009364697 0.008989546 0.00188337 0.004454069 -0.0028909326 -0.0034425522
00000000: c20a 1cbb 7ff8 5abb d3e7 a2ba 8b84 dc3b
00000010: a667 083b e192 9b3b 9a5a c3bb cc7a 29bc
00000020: 7caf aabb c58c 9ebb 2df4 923c 3230 b13b
00000030: e41a 8ebb 4201 e2ba 04d3 7b3b 0503 bf3b
00000040: f62a 0a3c a7b9 5f3a 7723 c4bb 2f56 443b
00000050: 4760 103c ce93 9938 315c 08bc 9bd9 fd3b
00000060: 88a1 2dbb 1507 23bc 8d7e 723b 6468 9f3b
00000070: 8e30 22bc d393 88bb 51b3 ba3b 9e8b 1dbc
00000080: c68b b13b 2a89 3a3c 9858 19bc f49f bebb
00000090: 893b bcba 501c 513c eb73 483c 4343 dabb
000000a0: 1119 bcb9 e5ee b0bb f6b7 e2bb ed17 093c
000000b0: 458c d53b 50e9 0bbc 3df4 183c 2e2e 28bc
000000c0: ce7b 363b 96c4 9c3b 5104 763b 835b a23b
000000d0: e4ac 16ba e827 e5bb be62 6e3c 5bd0 f2ba
000000e0: 9a2e d9ba 23ed ffba e290 b8bb 57a1 803b
000000f0: 8ee7 40bb eb1e 0a3c 3623 1abc 4cfb 963b
00000100: 9e2c 833b e871 f4bb e06c a13a 331c c23a
00000110: 7165 5f39 f753 0fba 9529 fd3b 10fe dc3b
00000120: 796f f1bb aa31 38bb 1e10 e9ba 03ea ed3a
00000130: 8525 b53a 3be3 38bc eb8d 653c e63b 84bb
00000140: b55b bfb9 e37f 2fbb 7fbc f1bb 3836 d0ba
00000150: ffe3 80bb c9a7 183c 1634 5dbb ee7e 26bb
00000160: 25b3 503b 9123 f8bb 4ee6 37bb 713c ab3b
00000170: b1ef 703c 6bc4 10bc 2c07 4a3c 3aae 1dbb
00000180: 4c2c dcbb 17f3 a1bb e678 3f3b 4d1d 293b
00000190: 1c4c 8b3b c4bb c0b9 69bc 9e3b be8e b23b
000001a0: 41b1 a53a 68bf 2dba ef49 483c d4a5 febb
000001b0: 9393 f63a 5121 d53b f7fb 373b cc3d 8a3b
000001c0: 302d 2f3c 3c4f 513a dcd9 833a e1b7 8f3b
000001d0: 18c6 b5bb 62ce d3ba 1491 16ba 6769 9bba
000001e0: 488f 2cba 4b0e 08bc 8207 bc3a 261d 29bc
000001f0: 90c4 82bb 7f25 b639 31b4 6f3b a3a7 9fbb
00000200: 4eea a2ba 85f4 8f3b dd3d 0fbc 572b 183a
00000210: 10d0 eabb ffad b33a f834 08bb 31eb 54b7
00000220: df7c cb3a fe43 3f39 5fe7 8a3c e194 e0bb
00000230: e029 6abb 348a b5ba 69e2 e2ba ed46 973b
00000240: 03a9 96bb 188d a53b 8af9 3f3c 3075 673b
00000250: ab66 cc3b 1734 c03b c0e7 2fbb 9e23 8aba
00000260: 3679 7e3b 8405 803b 73db 30ba 5038 f53b
00000270: cc57 563a 310a 493b 7e68 2c3b 9936 b6ba
00000280: e38b d53b 8cbf 0c3b 680e a8bb 8214 f7ba
00000290: f638 81bb 7db6 fe3a db2f abbb 37d4 35bb
000002a0: 9172 513b bba8 a13b cfcc 2cbb e01e aa3a
000002b0: e8b2 5b3c 0af1 ef39 92ba 233c d54d 6dbb
000002c0: b0d9 e73a 452e 91ba 7aff 183c 48f7 f23a
000002d0: 3544 093b faf8 45bb 2168 d53a b2cd 2a39
000002e0: fe0a c83b 2ac9 cc3b 54a8 05bb 9f3a 50bb
000002f0: 4ca0 933b 94d5 8c3b 8a57 db3b 28c0 413b
00000300: f269 0abb 8bd8 303c 421e 6b3a 40be cc3b
00000310: bcb6 b03b 7053 ad3b f66d 97bb 6334 9c3b
00000320: 5189 f23b f8c9 1ebc 31bf c338 60f4 153b
00000330: 5cad 48bb 14bf 9b3b 30e8 97bb a696 e73b
00000340: 0be2 69bb e036 5dbb 9f86 a1bb 57be 233c
00000350: 7c1e cdb9 28cd 27bc 7a3a d63a 0d53 dcba
00000360: 5168 f43a bcf9 313c f980 5fbc 3dae b33b
00000370: f32c 403c da0c 303c 52ab fcbb 65fa 173c
00000380: 0dce 6c3b 7442 153c a379 913b 345f 18bc
00000390: eda2 803c e46b 00bc 2c3b 0a3c f26c afbb
000003a0: 5d43 173c 0217 3abb 87dc 9a39 5277 59bb
000003b0: efe3 513c ca45 0fbb 47e5 8b3b 704f edbb
000003c0: 51af a13a e373 343c 0b04 b73b 696a de3b
000003d0: f655 36bc d966 18bc c880 c3bb 69c4 fa3b
000003e0: 45f5 8c3a 545b 97bb 636e 19bc e448 133c
000003f0: 69db f63a 70f3 913b cd75 3dbb 719c 61bb

network_body._body_endoder.seq_layers.2.weight f4 [256, 256]
-0.04086898 -0.009296509 -0.07225423 0.065431684 0.06051851 -0.042772077 -0.06771067 0.12190049
0.025852574 -0.039579526 0.02032446 0.13103393 0.0025900127 -0.06869136 -0.048033092 0.14217748
-0.037876736 0.011171424 0.013947637 -0.07544222 -0.04480855 0.054668695 0.0094179865 -0.019932117
0.0645797 -0.015978685 0.020483444 0.011799077 0.06295822 -0.08143113 0.055108026 -0.030179486
-0.08804691 0.11086131 0.021703929 -0.017078074 0.020835996 0.05269039 0.034294955 0.08543367
0.045581974 -0.049455486 -0.044862892 0.059289966 0.004967095 0.13760445 0.027719062 0.041285362
-0.041867796 -0.1269928 0.105476215 -0.009900503 -0.061802372 0.0809862 0.00993524 -0.028750328
-0.04562351 -0.055710115 0.036148954 0.021022357 0.01105337 0.010915693 -0.027156273 0.010827275
-0.017868858 0.03916647 -0.019366367 0.0077447155 -0.08230837 -0.090638146 -0.0052600927 -0.038879793
-0.08712218 0.032918796 0.037604745 0.06896806 -0.02460213 -0.03427345 0.06791872 -0.054069944
-0.07225189 0.037837043 -0.024197958 0.05168308 0.057447534 0.051215425 -0.050375544 -0.075509235
0.08305646 0.037103266 0.045089573 -0.0014046956 0.16008653 -0.052008282 -0.043579277 0.011389454
0.0862245 -0.108899124 0.014596923 0.084640004 0.044115275 -0.07314445 -0.1065734 0.030161778
0.022770777 -0.07348312 -0.025810925 -0.22544329 -0.017178994 0.085988596 -0.017705092 -0.042388946
0.05101979 0.008584727 -0.067312285 -0.054962467 -0.18591791 0.027248207 -0.057937838 0.15311761
1.8825842e-05 0.045624603 -0.08590824 -0.010928024 0.077099696 0.030899724 0.06778983 -0.00942542
-0.03555979 0.067607366 -0.054746993 0.019475704 0.104955584 -0.033680454 -0.111699395 -0.009879243
-0.0153724635 0.034907166 -0.06301518 0.01759479 0.044985883 -0.020689376 -0.07903702 0.02688673
-0.039583433 0.02585204 0.02621084 0.08447379 0.06446607 -0.17347668 0.07734152 -0.00072213856
0.0020523856 0.032026533 0.020198125 0.0726567 0.053760752 -0.01335034 0.036247727 -0.09010391
0.0031005682 0.04739349 0.0050751287 -0.015093123 -0.016749395 0.03636519 0.0028983501 -0.04715111
0.045536622 0.053562853 0.009164929 -0.14371511 0.025678266 -0.040353686 -0.06269252 -0.050665617
0.107086346 0.013453221 0.007342403 0.058169518 -0.025047988 0.031485464 0.10898261 -0.0008708028
-0.045475204 -0.09575851 -0.115160584 -0.07116104 -0.051570255 -0.03941753 0.0049300003 -0.03506762
-0.023125246 0.01707015 -0.110311635 -0.11144487 -0.065118626 -0.19921389 0.09954244 0.07297535
0.039733097 -0.02274219 0.089582 0.034503188 -0.04746923 -0.041212726 0.12597923 -0.06554437
0.0040176143 -0.039863817 0.027623672 -0.011977975 0.02264076 -0.0017114972 0.04463909 -0.011138577
0.03834798 0.054868348 -0.011337454 -0.045793038 -0.106410705 -0.045473542 0.054274432 -0.04506092
0.05578313 -0.0015307418 -0.055881612 0.0030968105 0.03513893 0.082666196 0.03748237 0.011521504
-0.08045915 -0.005639421 -0.032558158 -0.013938215 0.029214468 0.0114823105 -0.07104846 0.1387322
-0.0044895294 0.037044648 -0.06686155 -0.06215216 -0.043479607 0.03342062 -0.007775632 0.0020277575
0.06672724 -0.043785144 0.07371168 0.03721584 -0.043106895 -0.08400094 -0.061824083 0.073555045
00000000: 3b66 27bd 6350 18bc 07fa 93bd 0c01 863d
00000010: 42e2 773d c631 2fbd e4ab 8abd f7a6 f93d
00000020: c7c8 d33c 241e 22bd 7b7f a63c c22d 063e
00000030: 34bd 293b 0eae 8cbd 59be 44bd f996 113e
00000040: a324 1bbd 5908 373c a184 643c 7381 9abd
00000050: 2c89 37bd 48ec 5f3d e64d 1a3c ae48 a3bc
00000060: 5d42 843d bbe5 82bc e5cc a73c ea50 413c
00000070: 3df0 803d 5dc5 a6bd f4b8 613d f83a f7bc
00000080: f051 b4bd 410b e33d 70cc b13c 51e7 8bbc
00000090: 40b0 aa3c e1d1 573d de78 0c3d d9f7 ae3d
000000a0: 2ab4 3a3d d691 4abd 27c2 37bd 09da 723d
000000b0: 03c3 a23b 2ee8 0c3e 1613 e33c d71a 293d
000000c0: 917d 2bbd 670a 02be ea03 d83d b835 22bc
000000d0: 7c24 7dbd 18dc a53d 6bc7 223c cf85 ebbc
000000e0: b8df 3abd 4a30 64bd ed10 143d 1437 ac3c
000000f0: 3219 353c bcd7 323c d576 debc e264 313c
00000100: b661 92bc 056d 203d 37a6 9ebc 62c7 fd3b
00000110: 4a91 a8bd 7ea0 b9bd db5c acbb 6b40 1fbd
00000120: 1d6d b2bd dcd5 063d 6f07 1a3d 203f 8d3d
00000130: 688a c9bc 5162 0cbd f818 8b3d 7278 5dbd
00000140: cdf8 93bd 04fb 1a3d cc3a c6bc a3b1 533d
00000150: 1b4e 6b3d 44c7 513d 9656 4ebd 96a4 9abd
00000160: 8119 aa3d 98f9 173d d8af 383d c31d b8ba
00000170: b9ed 233e a306 55bd 2f80 32bd d59a 3a3c
00000180: 7896 b03d 8106 dfbd ef27 6f3c bd57 ad3d
00000190: 38b2 343d c2cc 95bd 2843 dabd d515 f73c
000001a0: c889 ba3c 517e 96bd 6f71 d3bc 9bda 66be
000001b0: f6ba 8cbc ca1a b03d 450a 91bc 08a0 2dbd
000001c0: 21fa 503d f4a6 0c3c 06db 89bd 5320 61bd
000001d0: 4461 3ebe a237 df3c 3a50 6dbd ddca 1c3e
000001e0: 30ec 9d37 dde0 3a3d a9f0 afbd 740b 33bc
000001f0: 72e6 9d3d 6b21 fd3c 65d5 8a3d 146d 1abc
00000200: 24a7 11bd bb75 8a3d 623e 60bd 838b 9f3c
00000210: f4f2 d63d 84f4 09bd a7c2 e4bd 8cdc 21bc
00000220: c9dc 7bbc d1fa 0e3d 1a0e 81bd f322 903c
00000230: 1e43 383d c47c a9bc 29de a1bd 8f41 dc3c
00000240: 3d22 22bd a8c7 d33c 1eb8 d63c 9800 ad3d
00000250: c906 843d dfa3 31be 3b65 9e3d e64d 3dba
00000260: 5181 063b 412e 033d 8a76 a53c 09cd 943d
00000270: 3c34 5c3d 62bb 5abc 7f78 143d 6688 b8bd
00000280: e732 4b3b ad1f 423d 444d a63b 2549 77bc
00000290: 0736 89bc aaf3 143d 3ff2 3d3b 8621 41bd
000002a0: 9c84 3a3d b964 5b3d 8028 163c 0e2a 13be
000002b0: 3a5b d23c e849 25bd f064 80bd c086 4fbd
000002c0: 1650 db3d e66a 5c3c 8a98 f03b 2943 6e3d
000002d0: 7031 cdbc e7f6 003d 4632 df3d 9646 64ba
000002e0: 3544 3abd 0a1d c4bd 50d9 ebbd e1bc 91bd
000002f0: 553b 53bd 4774 21bd d78b a13b 11a3 0fbd
00000300: 2871 bdbc b3d6 8b3c 11eb e1bd 353d e4bd
00000310: ea5c 85bd bafe 4bbe e8dc cb3d 1a74 953d
00000320: 2cbf 223d d44d babc c576 b73d 3753 0d3d
00000330: 186f 42bd adce 28bd b300 013e 203c 86bd
00000340: 31a6 833b 3e48 23bd 0a4b e23c 453f 44bc
00000350: 1d79 b93c 5154 e0ba 7ad7 363d 947e 36bc
00000360: c512 1d3d a2bd 603d bbc0 39bc 7b91 3bbd
00000370: dbed d9bd 7742 3abd de4e 5e3d cd91 38bd
00000380: da7c 643d 2ca3 c8ba 1ee4 64bd dcf3 4a3b
00000390: d7ed 0f3d e54c a93d 1d87 193d b1c4 3c3c
000003a0: c4c7 a4bd e4ca b8bb b45b 05bd 1c5d 64bc
000003b0: 2e53 ef3c 4d20 3c3c db81 91bd d00f 0e3e
000003c0: e71c 93bb 21bc 173d b5ee 88bd 4393 7ebd
000003d0: ac17 32bd 0fe4 083d bbca febb 20e4 043b
000003e0: 4ba8 883d 0d58 33bd 26f6 963d a36f 183d
000003f0: db90 30bd af08 acbd 403b 7dbd 07a4 963d

network_body._body_endoder.seq_layers.2.bias f4 [256]
-0.010412084 0.007773777 -0.004300919 -0.0066794474 -0.0044553974 0.0038804035 0.0015889836 0.0058941683
0.01146769 -0.0005596535 -0.0013908568 -0.002693626 0.003565961 -0.00021260636 0.008008501 0.0060164016
-0.00030700714 0.0011331692 0.008773473 0.0061447807 0.0024436307 -0.0006156488 -0.0055885683 -0.009479701
-0.005302842 -0.0071383477 -0.00076487614 -0.0041369237 0.0019520588 0.004853309 0.0012316445 0.009953874
0.005955714 0.002187335 0.00058916176 0.0041985367 -0.0014875322 0.011992065 -0.008959136 -6.0097096e-05
0.013403233 -0.0138179995 0.0047768727 -0.0006001648 0.0006632013 0.004266741 0.00042486296 0.0007709123
0.0012701562 0.0030892682 -0.00054694945 0.005551527 -0.00090281066 -0.0005125735 -0.004285186 0.004473626
-0.0063276384 -0.005685006 0.0014247919 0.01048206 -0.012815506 0.0011714321 0.001205899 0.00097407534
0.0077352556 0.010185273 -0.00059486117 0.0057797343 0.012299003 0.00549052 0.004967543 0.004246316
0.0029204728 -0.0024531982 0.004590037 0.0006863913 0.004071664 -0.0002303827 -0.010541123 -0.0024815209
-0.0054265712 0.005686844 0.0046047308 0.0035245281 -0.001012493 -0.0037443195 -0.009341251 0.009922674
0.0052710124 0.0041262833 -0.0029224686 0.0024060647 -0.009291897 -0.004554246 0.0005193125 -0.0012829485
-0.00017658374 0.006224807 0.0038689224 0.002244614 0.00994155 -0.0002144182 0.0037589138 0.010740154
0.0058388207 0.0043589165 0.009531511 -0.007723074 -0.0016494151 -0.008663556 -0.0002481824 0.003951653
-7.906775e-05 0.019704323 -0.004095047 -0.0004124489 0.001400062 -0.0051412336 -0.003730184 0.0068854433
0.004870052 0.0070426553 0.0025626335 -0.0054436503 -0.0045585297 -0.0007159974 0.00023234525 -0.0032985918
0.00590746 -0.004638699 0.0036829195 0.0014627133 -0.0073833144 0.0010935374 0.00416408 -0.0019245269
0.0013423028 -0.00087728 -0.00023519174 0.0035103324 0.005551149 -0.00915286 -0.006631001 -0.0063712415
-0.011377756 -0.005083632 0.0009348222 -0.0048038927 0.0042568273 0.0034901751 0.0050914926 0.0023765762
-0.0012875795 -0.001194656 0.0039313324 0.0018841375 -0.0021625508 0.0042189285 0.002006748 -0.0020531255
0.000121143 -0.0015390458 -0.0033762322 -0.0021501584 0.00018821452 0.0050517977 -0.0103423875 0.0052480693
-0.008247423 0.0057428214 0.001161279 0.007828417 -0.00012333336 -0.0027138242 -0.0017553614 0.007295841
-0.0004936543 0.0033987162 0.0013607923 0.0036313743 0.0013215764 0.003622724 -0.011040488 0.00069885515
-0.0014109388 -0.0013424532 -0.0024871458 0.005224808 0.0018307075 -0.004714897 -0.0054921997 0.0018053729
-0.0011397045 0.009084202 -0.002356947 0.000887119 -0.005134603 -0.0011620325 0.010489387 0.0049563344
-0.0057159346 0.004734604 -0.0005006041 -0.0005835651 0.0035335743 0.002762934 -0.0014421726 0.007126336
-0.0045909216 -0.0013078202 0.0039061736 0.0041239243 -0.0013330451 0.007225113 -0.0030768723 0.005537354
0.0033418466 0.0096814195 -0.0048081316 -0.00019423712 0.003608963 -0.0013429739 0.0052521043 -0.008610002
-0.0011830489 0.0053334716 0.001657642 0.01873661 0.0047184904 -0.008703286 0.0064230314 -0.0019802577
-0.005318591 -0.0033171342 -0.008769228 0.002847636 -0.009040576 -0.003551922 -0.0043813107 0.0063170735
-0.005238851 0.0018534401 -0.0026654683 -1.5037378e-05 -0.0024736354 0.003251063 0.0025428429 0.0012698337
-0.0013283812 -0.0022221438 -0.000709223 -0.0057523004 0.011333317 0.00028754352 0.0011605481 0.0054278383
00000000: 7297 2abc 2bbb fe3b b9ee 8cbb 44df dabb
00000010: 95fe 91bb 5e4e 7e3b 7145 d03a de23 c13b
00000020: fae2 3b3c b6b5 12ba 694d b6ba 8c87 30bb
00000030: e6b2 693b 16ef 5eb9 1636 033c 3c25 c53b
00000040: cdf5 a0b9 d986 943a 9dbe 0f3c 285a c93b
00000050: 5225 203b 7e63 21ba 4f20 b7bb bf50 1bbc
00000060: 76c3 adbb cde8 e9bb f881 48ba 088f 87bb
00000070: 39dc ff3a 8208 9f3b 226f a13a 9315 233c
00000080: 2628 c33b 6459 0f3b fa71 1a3a e193 893b
00000090: 4cf9 c2ba 5e7a 443c 57c9 12bc c410 7cb8
000000a0: 3c99 5b3c e464 62bc 5087 9c3b 6154 1dba
000000b0: b0da 2d3a 05d0 8b3b 24c0 de39 0c17 4a3a
000000c0: 5f7b a63a 5275 4a3b 2861 0fba 95e9 b53b
000000d0: 99aa 6cba 3a5e 06ba bf6a 8cbb 7f97 923b
000000e0: 1458 cfbb 4949 babb 15c0 ba3a f2bc 2b3c
000000f0: 21f8 51bc bd8a 993a 420f 9e3a 1759 7f3a
00000100: 0778 fd3b 22e0 263c 75f0 1bba ed63 bd3b
00000110: c281 493c d2e9 b33b c5c6 a23b ae24 8b3b
00000120: 6765 3f3b d6c5 20bb 0568 963b f1ee 333a
00000130: 986b 853b e392 71b9 adb4 2cbc 03a1 22bb
00000140: 61d1 b1bb b458 ba3b 48e3 963b c5fb 663b
00000150: a1b5 84ba 4263 75bb 0c0c 19bc b692 223c
00000160: 75b8 ac3b c635 873b e386 3fbb 11af 1d3b
00000170: 0a3d 18bc c93b 95bb 7922 083a 9c28 a8ba
00000180: 5629 39b9 77f9 cb3b bf8d 7d3b 601a 133b
00000190: e2e1 223c 73d5 60b9 1c58 763b 79f7 2f3c
000001a0: 9453 bf3b 3ed5 8e3b 0e2a 1c3c d711 fdbb
000001b0: 3031 d8ba 96f1 0dbc 7a1e 82b9 de7c 813b
000001c0: 2dd1 a5b8 f66a a13c be2f 86bb f43d d8b9
000001d0: 4982 b73a cb77 a8bb 1a76 74bb 499f e13b
000001e0: f594 9f3b 13c6 e63b dbf1 273b a660 b2bb
000001f0: b85f 95bb c6b1 3bba b4a1 7339 302d 58bb
00000200: 5e93 c13b 3a00 98bb 235d 713b 84b8 bf3a
00000210: bbef f1bb 0755 8f3a d672 883b 6840 fcba
00000220: 35f0 af3a 44f9 65ba cd9d 76b9 9b0d 663b
00000230: 6ae6 b53b e1f5 15bc de48 d9bb d9c5 d0bb
00000240: c469 3abc 9994 a6bb db0e 753a f969 9dbb
00000250: db7c 8b3b 6cbb 643b 89d6 a63b 55c0 1b3b
00000260: 00c4 a8ba 0196 9cba 68d2 803b 2af5 f63a
00000270: 95b9 0dbb f03e 8a3b a583 033b bb8d 06bb
00000280: 270e fe38 cfb9 c9ba c743 5dbb ace9 0cbb
00000290: 735b 4539 8d89 a53b 1e73 29bc fff7 ab3b
000002a0: 3320 07bc 472e bc3b 0f36 983a c342 003c
000002b0: 0c53 01b9 6ada 31bb 2814 e6ba f311 ef3b
000002c0: 9468 01ba ffbc 5e3b 9d5c b23a 5afc 6d3b
000002d0: bf38 ad3a 396b 6d3b 2ae3 34bc 6033 373a
000002e0: 40ef b8ba 41f5 afba 62ff 22bb de34 ab3b
000002f0: 5af4 ef3a 6c7f 9abb e9f7 b3bb 43a2 ec3a
00000300: 2362 95ba e8d5 143c 0277 1abb 8c8d 683a
00000310: 2c40 a8bb 574f 98ba aedb 2b3c bf68 a23b
00000320: bc4c bbbb bd24 9b3b f93a 03ba 64fa 18ba
00000330: 8a93 673b 5712 353b 4807 bdba 0a84 e93b
00000340: 716f 96bb 2a6b abba b8fe 7f3b fc21 873b
00000350: 92b9 aeba a4c0 ec3b 5aa5 49bb b172 b53b
00000360: e202 5b3b d19e 1e3c 888d 9dbb 21ac 4bb9
00000370: 5a84 6c3b ba06 b0ba d819 ac3b f710 0dbc
00000380: 8910 9bba 67c4 ae3b 3c45 d93a 857d 993c
00000390: 919d 9a3b 3a98 0ebc 4b78 d23b 36c7 01bb
000003a0: 9347 aebb 4764 59bb cfac 0fbc 679f 3a3b
000003b0: ed1e 14bc 5dc7 68bb 1991 8fbb 74ff ce3b
000003c0: abaa abbb 21ef f23a 23af 2ebb 0c49 7cb7
000003d0: b71c 22bb c90f 553b d3a5 263b 8c70 a63a
000003e0: 141d aeba 63a1 11bb 26eb 39ba cb7d bcbb
000003f0: 60af 393c 70c1 9639 881d 983a 02dc b13b

action_model._continuous_distribution.log_sigma f4 [1, 5]
0.019979628 0.017557308 0.0058344146 0.00044663248 -1.3603935e-05
00000000: 51ac a33c 58d4 8f3c 9e2e bf3b ff29 ea39
00000010: 753c 64b7

action_model._continuous_distribution.mu.weight f4 [5, 64]
-0.025704814 -0.007545006 -0.016228162 -0.0053620297 0.028292201 0.013004302 0.00626438 -0.0031889454
0.08386658 0.0116446465 -0.016605498 -0.012510996 0.0077458452 -0.018846406 -0.003995134 -0.032039843
-0.06506802 -0.06198994 0.012421498 -0.035377 0.024299666 -0.008952023 -0.07893622 0.042845577
-0.04485266 -0.065154165 0.013946318 -0.012633211 -0.022633718 -0.012029333 -0.025328612 0.01863937
0.0040796874 0.03730389 -0.047889166 -0.0131968465 0.016119206 -0.032497566 0.029307932 0.010111742
0.017996248 0.025698228 -0.0146744335 0.04472371 -0.042188443 0.017586853 0.017667985 -0.038151033
-0.0077371825 0.025371717 -0.0073479726 0.005260205 0.0074555064 0.014207646 -0.017387426 -0.05289993
0.06011348 -0.0051956256 0.020169795 0.040715743 0.0387203 -0.0053403582 0.015006853 -0.07056572
0.03380817 0.023810092 0.011691015 -0.0056506377 -0.028280532 0.008870413 0.045417696 0.038753226
0.0014388411 -0.026502458 0.003022128 -0.031572416 -0.010530504 0.05431537 -0.022661785 0.031495098
0.036585853 -0.0031245535 -0.002349822 -0.004057632 -0.017164744 0.05719006 -0.03820223 -0.041749027
0.00647099 0.041341674 0.010995091 -0.018369567 0.008833521 -0.028022816 0.044063445 -0.015829315
-0.022978382 -0.037611675 -0.029268196 0.013634863 0.04104958 0.010373199 -0.007878138 -0.01689216
-0.0062969127 0.0074056233 0.007983306 0.025765248 -0.02487326 0.004555212 -0.0336832 0.037150014
0.04318991 0.016863542 -0.054646887 0.03964328 -0.04871882 0.025420597 0.0072884783 -0.018269455
0.019748675 0.07810781 0.03015667 -0.0027802673 0.016289638 -0.05189168 0.0202164 -0.041723788
-0.0071073254 0.016633898 0.033574875 0.01154129 -0.01623897 -0.05460789 -0.025891421 -0.041943174
0.015937055 0.0012575485 -0.025601212 -0.0023590468 0.013870371 0.012792756 0.041083064 0.05464748
-0.04013262 -0.053968377 -0.014416132 0.035794318 0.02458888 -0.008422062 0.005521087 0.025900941
-0.0839797 -0.019037554 -0.04431047 -0.026774304 0.0057823164 0.023572262 0.008471992 0.0348949
0.018450655 -0.037396464 0.041449066 0.014381614 0.003414039 -0.0132383015 0.03494919 0.010274271
0.0066732746 -0.019261187 0.00452853 0.03739888 -0.007929803 0.008343425 -0.0013235873 0.02884745
-0.011858121 -0.024893653 0.0118282065 0.038436424 -0.023861617 0.047010366 -0.021371795 0.050380286
0.015080696 0.023563478 -0.033492137 -0.0027356278 -0.0194177 -0.04660952 0.0059086247 0.031867407
-0.008478893 -0.03627767 -0.05814464 0.027318668 -0.013385809 0.066368856 -0.006609668 -0.0066686315
-0.028803311 -0.030876257 -0.02779673 -0.016275898 0.00034467294 0.02334715 -0.042321302 -0.014112123
-0.017205318 0.041960713 0.022127854 -0.012572782 -0.070993125 -0.058883138 -0.011181181 0.023859445
0.017054835 0.0037821208 0.027073948 0.028861647 0.03349832 -0.033558883 0.061764527 0.03442918
0.04171119 0.022322504 0.045323998 0.011951224 0.05751459 -0.009977644 0.00026698937 -0.044093262
0.048725612 0.020052066 -0.053032085 -0.011034805 -0.052914117 0.059821468 -0.016020335 -0.06736041
0.023712842 -0.011974121 -0.02312235 0.0022431277 0.0606215 -0.010114806 -0.0014072254 0.021439787
0.0030271588 -0.045724783 -0.026654659 -0.022243962 -0.00033793927 0.02545086 0.06402424 0.016221028
00000000: e792 d2bc 193c f7bb ecf0 84bc f7b3 afbb
00000010: 0cc5 e73c ff0f 553c 6e45 cd3b a0fd 50bb
00000020: 3ec2 ab3d 30c9 3e3c 4108 88bc ecfa 4cbc
00000030: dcd0 fd3b c763 9abc 9de9 82bb 363c 03bd
00000040: 6242 85bd 2ae9 7dbd 8a83 4b3c 79e7 10bd
00000050: 1810 c73c 82ab 12bc 50a9 a1bd d87e 2f3d
00000060: 6cb7 37bd 8c6f 85bd 197f 643c 87fb 4ebc
00000070: 596a b9bc ae16 45bc f37d cfbc 98b1 983c
00000080: e6ae 853b f7cb 183d 6e27 44bd 9637 58bc
00000090: 6d0c 843c 2b1c 05bd 3017 f03c b8ab 253c
000000a0: de6c 933c 1785 d23c 096d 70bc 3530 373d
000000b0: cacd 2cbd 4e12 903c 73bc 903c 4244 1cbd
000000c0: 3188 fdbb 59d8 cf3c 43c7 f0bb cc5d ac3b
000000d0: 524d f43b 30c7 683c 1370 8ebc 99ad 58bd
000000e0: 8d39 763d 1140 aabb 203b a53c 8dc5 263d
000000f0: 2d99 1e3d 2cfe aebb 4edf 753c c384 90bd
00000100: 707a 0a3d 620d c33c ac8b 3f3c fc28 b9bb
00000110: 93ac e7bc 3555 113c e807 3a3d b4bb 1e3d
00000120: 7f97 bc3a af1b d9bc e50e 463b 1452 01bd
00000130: 2388 2cbc cb79 5e3d 35a5 b9bc 0101 013d
00000140: 0cdb 153d 4fc5 4cbb 79ff 19bb e2f5 84bb
00000150: 149d 8cbc 2040 6a3d f179 1cbd 0701 2bbd
00000160: 990a d43b e355 293d c124 343c c67b 96bc
00000170: 79ba 103c 1b90 e5bc df7b 343d 7bac 81bc
00000180: 293d bcbc b30e 1abd dbc3 efbc c364 5f3c
00000190: 9b23 283d 5af4 293c 4e13 01bc 6d61 8abc
000001a0: 5556 cebb dfaa f23b 6acc 023c a411 d33c
000001b0: 02c3 cbbc e343 953b 65f7 09bd 9d2a 183d
000001c0: e7e7 303d 6925 8a3c 6ad5 5fbd fe60 223d
000001d0: 638d 47bd db3e d03c 30d4 ee3b d3a9 95bc
000001e0: f9c7 a13c fdf6 9f3d 1f0b f73c 2535 36bb
000001f0: d971 853c 5f8c 54bd dd9c a53c 90e6 2abd
00000200: 91e4 e8bb d043 883c cf85 093d ae17 3d3c
00000210: 9707 85bc 86ac 5fbd 3f1a d4bc 9bcc 2bbd
00000220: 6d8e 823c 53d4 a43a a2b9 d1bc 3d9a 1abb
00000230: 8d40 633c b598 513c b746 283d 09d6 5f3d
00000240: 1a62 24bd f20d 5dbd a431 6cbc 109d 123d
00000250: 9e6e c93c b0fc 09bc 3cea b43b 362e d43c
00000260: 8dfd abbd a5f4 9bbc e57e 35bd c955 dbbc
00000270: 9679 bd3b 9e1a c13c 1cce 0a3c f4ed 0e3d
00000280: d425 973c 092d 19bd 7fc6 293d dca0 6b3c
00000290: 12be 5f3b 76e5 58bc e226 0f3d 6a55 283c
000002a0: 7cab da3b a3c9 9dbc 1064 943b 912f 193d
000002b0: 01ec 01bc dcb2 083c 387c adba 7d51 ec3c
000002c0: 9048 42bc c6ed cbbc 18cb 413c 836f 1d3d
000002d0: 7079 c3bc f18d 403d e713 afbc 8f5b 4e3d
000002e0: 0615 773c 3208 c13c 0d2f 09bd 3848 33bb
000002f0: de11 9fbc a0e9 3ebd 239d c13b 6687 023d
00000300: 0eeb 0abc e597 14bd 1329 6ebd 66cb df3c
00000310: 2750 5bbc 65ec 873d ea95 d8bb 8984 dabb
00000320: ecf4 ebbc 34f0 fcbc f8b5 e3bc 0855 85bc
00000330: 38b5 b439 8642 bf3c 1a59 2dbd 8936 67bc
00000340: 2bf2 8cbc ffde 2b3d 7945 b53c 12fe 4dbc
00000350: d864 91bd 722f 71bd 4631 37bc e274 c33c
00000360: 95b6 8b3c 75dd 773b 2fca dd3c 436f ec3c
00000370: 8935 093d 0a75 09bd cdfc 7c3d 9d05 0d3d
00000380: 5ad9 2a3d afdd b63c a8a5 393d 11cf 433c
00000390: 6b94 6b3d 4679 23bc b5fa 8b39 239b 34bd
000003a0: 8294 473d 3b44 a43c 2c38 59bd 54cb 34bc
000003b0: 79bc 58bd 5b07 753d 143d 83bc 41f4 89bd
000003c0: 6f41 c23c 1b2f 44bc 156b bdbc 7001 133b
000003d0: 404e 783d 92b8 25bc a672 b8ba 7ea2 af3c
000003e0: 4c63 463b e949 3bbd df5a dabc f838 b6bc
000003f0: 712d b1b9 527e d03c 241f 833d f6e1 843c

action_model._continuous_distribution.mu.bias f4 [5]
-0.004732651 -0.00056324777 -0.015598934 0.023897652 -0.017042596
00000000: 5b14 9bbb eba6 13ba ac92 7fbc 02c5 c33c
00000010: ea9c 8bbc

onnx::LSTM_100 f4 [1, 256, 256]
-0.10066739 0.1145581 0.08628663 -0.09479637 0.092659615 -0.13278088 -0.012083993 -0.054610312
-0.022108026 -0.032475352 0.12081186 -0.028663965 -0.09023857 -0.010527987 -0.070552774 0.061574608
0.124727435 0.04592131 -0.017716752 -0.002299622 -0.011254347 -0.056440756 -0.049069192 0.13581234
0.00076963403 0.06725087 0.033514477 -0.05359314 0.12834024 -0.051371094 -0.04727791 -0.014722833
-0.03559331 -0.06327858 -0.10082129 -0.089987226 0.13779452 -0.067806736 0.011386427 0.009250839
0.013345932 0.0011050481 0.03264987 0.13525532 0.09193026 -0.0841961 -0.014779366 -0.030139973
-0.10877575 -0.06522903 -0.086290024 -0.02306245 0.089115836 0.050353568 -0.063795745 0.11825046
0.06075153 -0.10259838 0.029568793 -0.019883443 0.06250315 -0.010518229 0.06869598 0.07080643
-0.016323067 0.12576665 -0.0066232006 -0.024260856 0.113727316 0.03260809 0.09735987 -0.12728299
0.064882405 0.1460223 0.064991094 -0.035525702 -0.07052693 -0.11241405 0.0015053157 -0.08205933
0.07336119 0.045764647 0.012544808 -0.014173417 0.023899142 0.022884697 -0.013965108 -0.10003626
-0.01924239 0.046854552 0.10334328 0.019820577 -0.11144619 0.076650485 0.034345657 -0.1342013
0.09176991 -0.05610993 -0.12713572 -0.03419734 -0.1258861 0.101026855 0.066540055 -0.06948729
0.09441773 0.052784454 -0.021831054 0.11629615 0.025975455 -0.020230845 -0.09692753 -0.05906993
0.0062812055 0.019238234 0.05116076 -0.10843316 -0.0677629 -0.08050009 0.041131333 0.10238271
-0.099362604 0.06610233 -0.05221483 -0.11111193 -0.06706433 -0.111389235 0.0067057293 -0.0054019825
0.06460824 -0.11558407 0.0024187744 -0.11916711 0.029652487 -0.078625865 0.0787911 -0.110325366
0.00079735887 -0.023856975 0.10386915 -0.046103194 0.12871996 -0.1248962 0.116987124 0.11681293
0.005058492 0.12974691 0.09003696 0.028659046 0.031436462 0.11861247 0.11547647 -0.117481016
-0.080771714 -0.067192286 0.057376985 0.015979387 0.040941734 -0.10405244 0.00179015 -0.11089941
0.015941398 -0.08068118 0.018856755 0.08784453 -0.049980156 0.12144567 0.015631547 0.13175155
0.052160237 -0.016944373 0.027574426 -0.06306795 0.104054876 -0.035064757 0.10477013 -0.009015306
-0.12359216 -0.019641707 -0.106678315 0.040503263 -0.0031510354 -0.013622396 -0.10811331 0.06979592
0.079150185 -0.012564232 -0.09381976 0.095098756 0.020046573 -0.1231371 -0.11475986 -0.022297041
-0.029766986 -0.0059755063 0.12541205 0.15671958 0.057329673 0.046678953 -0.020702995 -0.095870726
0.073428355 0.07688198 0.057920825 -0.0689433 0.09245027 0.027413271 -0.016402988 0.004972818
0.053576898 -0.046575878 0.11955077 -0.14231794 -0.09774214 0.11492454 0.005851724 0.12165246
-0.09936339 0.076716505 0.1122651 0.029398546 -0.037469424 0.0238143 -0.028308738 0.119641
0.050340593 -0.09529665 -0.04937828 0.1375889 0.049254436 0.08375364 0.04941092 0.12635134
0.01732691 -0.08604017 -0.10911787 0.053891495 0.11634538 -0.11398073 -0.122701235 -0.027111957
0.10513311 0.14830908 -0.073323995 0.082491584 -0.06807634 -0.00566133 0.07787121 -0.047107667
0.05139935 0.046456806 -0.017576098 0.01790091 0.020161482 0.032475475 -0.069192074 0.029117059
00000000: b42a cebd 709d ea3d 0bb7 b03d 9924 c2bd
00000010: 53c4 bd3d b6f7 07be f1fb 45bc 10af 5fbd
00000020: e41b b5bc e004 05bd 356c f73d b1d0 eabc
00000030: 00cf b8bd 947d 2cbc f97d 90bd a835 7c3d
00000040: 1971 ff3d fc17 3c3d b922 91bc 41b5 16bb
00000050: 2764 38bc 6c2e 67bd c7fc 48bd 6412 0b3e
00000060: 44c1 493a d3ba 893d 7a46 093d 7b84 5bbd
00000070: a06b 033e 7f6a 52bd 7ba6 41bd 0a38 71bc
00000080: 4aca 11bd 3398 81bd 647b cebd 394b b8bd
00000090: 021a 0d3e 42de 8abd 238e 3a3c d590 173c
000000a0: e5a8 5a3c 43d7 903a dfbb 053d 5f80 0a3e
000000b0: ef45 bc3d 016f acbd 2725 72bc 1be8 f6bc
000000c0: d2c5 debd cc96 85bd d3b8 b0bd 77ed bcbc
000000d0: 5d82 b63d 8b3f 4e3d 58a7 82bd 4c2d f23d
000000e0: 99d6 783d 191f d2bd 413a f23c 9ae2 a2bc
000000f0: a701 803d a654 2cbc 7ab0 8c3d f602 913d
00000100: f4b7 85bc f9c8 003e 6f07 d9bb b4be c6bc
00000110: dee9 e83d 1090 053d 9d64 c73d 7956 02be
00000120: 11e1 843d df86 153e 0d1a 853d 6683 11bd
00000130: 6c70 90bd 5639 e6bd 034e c53a b90e a8bd
00000140: 643e 963d b673 3b3d bd88 4d3c 9f37 68bc
00000150: 22c8 c33c b078 bb3c e9cd 64bc d0df ccbd
00000160: 37a2 9dbc 8fea 3f3d a4a5 d33d c35e a23c
00000170: e63d e4bd eefa 9c3d 08ae 0c3d 116c 09be
00000180: ddf1 bb3d 87d3 65bd de2f 02be 8312 0cbd
00000190: 49e8 00be 2be7 ce3d 2746 883d 5a4f 8ebd
000001a0: 155e c13d 8334 583d 0ad7 b2bc ad2c ee3d
000001b0: 7aca d43c 28bb a5bc f181 c6bd 50f3 71bd
000001c0: 92d2 cd3b 8099 9d3c f28d 513d 3412 debd
000001d0: 46c7 8abd 3bdd a4bd 5479 283d 07ae d13d
000001e0: 9f7e cbbd a960 873d 38df 55bd a78e e3bd
000001f0: 0659 89bd 0a20 e4bd bcbb db3b 1d03 b1bb
00000200: 5351 843d 57b7 ecbd 4d84 1e3b e30d f4bd
00000210: c6e9 f23c 9906 a1bd 3a5d a13d 44f2 e1bd
00000220: d905 513a b46f c3bc 59b9 d43d b4d6 3cbd
00000230: 2acf 033e 94c9 ffbd f296 ef3d 9e3b ef3d
00000240: b5c1 a53b 60dc 043e 4c65 b83d 60c6 ea3c
00000250: 85c3 003d 18eb f23d ed7e ec3d e399 f0bd
00000260: a46b a5bd 1c9c 89bd 2104 6b3d 34e7 823c
00000270: 85b2 273d 7219 d5bd 77a3 ea3a 3b1f e3bd
00000280: 8997 823c 2d3c a5bd 7b79 9a3c d5e7 b33d
00000290: feb7 4cbd 82b8 f83d bb0d 803c e1e9 063e
000002a0: f9a5 553d edce 8abc c3e3 e13c c529 81bd
000002b0: b91a d53d 10a0 0fbd b991 d63d efb4 13bc
000002c0: e31d fdbd a5e7 a0bc 297a dabd c0e6 253d
000002d0: 9a81 4ebb 7830 5fbc 836a ddbd 2af1 8e3d
000002e0: 7e19 a23d 35da 4dbc 9324 c0bd 23c3 c23d
000002f0: b638 a43c 4e2f fcbd 3807 ebbd 49a8 b6bc
00000300: e5d9 f3bc 2ece c3bb 046c 003e 197b 203e
00000310: 85d2 6a3d 6e32 3f3d 5499 a9bc df57 c4bd
00000320: 9b61 963d 4d74 9d3d 633e 6d3d 2532 8dbd
00000330: 9156 bd3d cc91 e03c 8f5f 86bc 05f3 a23b
00000340: 7373 5b3d 59c6 3ebd 09d7 f43d cbbb 11be
00000350: 082d c8bd 8f5d eb3d d2bf bf3b ed24 f93d
00000360: 087f cbbd 8b1d 9d3d 3feb e53d 38d5 f03c
00000370: 8a79 19bd 3516 c33c bae7 e7bc 5706 f53d
00000380: f031 4e3d e42a c3bd e140 4abd 1be4 0c3e
00000390: 05bf 493d 0787 ab3d 1b63 4a3d 3f62 013e
000003a0: 2af1 8d3c d435 b0bd 3179 dfbd 54bd 5c3d
000003b0: 7d46 ee3d bb6e e9bd c94a fbbd e519 debc
000003c0: 0750 d73d 56de 173e e42a 96bd 59f1 a83d
000003d0: 9c6b 8bbd ae82 b9bb f17a 9f3d f8f3 40bd
000003e0: 2088 523d 7e49 3e3d c0fb 8fbc eea4 923c
000003f0: b129 a53c 0105 053d 93b4 8dbd e686 ee3c

onnx::LSTM_101 f4 [1, 256, 64]
0.07010523 0.10158058 0.10218628 -0.14666392 -0.023204725 -0.048772234 -0.0040061073 0.036419973
0.1861332 -0.038311455 0.14875492 0.077034354 -0.21268936 0.16003107 -0.030970896 -0.014985898
-0.2026131 0.019265106 0.07079422 0.16491564 0.13637486 0.20158154 0.01028221 0.2186899
0.02937528 -0.06217224 -0.19636555 -0.000352006 0.06331608 0.05614874 0.02365701 -0.041337784
0.035941638 0.090445824 0.08227657 0.19944495 -0.044443093 0.109446116 0.14277129 0.122332156
0.0037266614 -0.09540263 0.13645095 0.07889888 0.21827577 -0.08793123 -0.13721126 -0.036548756
0.08618924 -0.01562376 -0.15703021 0.010280336 0.09402844 0.16061848 -0.08188016 -0.19437143
0.07639452 -0.031763826 0.16658969 0.14972816 0.19510996 0.21023214 -0.039741155 -0.17289732
-0.20213771 -0.027872097 0.22624287 -0.21304065 -0.049504608 0.06762232 -0.17515458 0.113273546
0.046872716 -0.11647462 -0.15551886 0.09887978 -0.09731839 0.15268263 0.02438638 -0.17756872
0.19610602 0.013597933 0.007988495 0.23063426 -0.12128275 -0.13388062 0.1274426 0.10901335
-0.04711276 -0.055555493 0.19574949 0.20436886 0.07181465 0.19260985 0.19564927 -0.018284408
-0.06633717 0.016450463 0.13057484 0.034095526 0.19031532 -0.0016850547 0.06190078 0.12519492
0.021943504 0.09565735 0.1918917 0.018813288 -0.13935041 -0.03540629 -0.0019360222 0.038788207
0.05765242 0.1743071 -0.10822339 -0.04937065 0.14885767 0.05004568 0.12758936 0.13937753
0.058661222 0.08723776 -0.20419005 0.12651803 0.12785755 0.135435 -0.15189059 0.14165145
0.13267854 0.09508628 -0.086065106 0.01337141 0.15076746 -0.19520986 0.12234209 0.2057357
-0.036524538 0.013054853 0.08998046 0.08487003 0.21740611 -0.10297566 -0.072501525 -0.05315363
0.1728455 -0.12633802 0.1346236 -0.17712419 -0.15633684 0.021625966 -0.11289072 0.15059593
-0.19527505 0.091475844 0.06841809 0.002361302 0.092340015 -0.087845065 0.09253261 -0.030245451
0.030945508 0.0029232034 -0.21186219 0.20069596 -0.21318993 -0.060251523 0.2158952 0.1949451
0.18931706 -0.097958215 0.11822581 0.070731476 -0.17728296 0.18322212 0.103431836 -0.098697804
-0.15182316 -0.09211553 -0.11225332 -0.109096326 -0.14747936 0.16534165 0.11788607 -0.17372471
-0.19180898 -0.1532208 -0.035276894 -0.21109088 -0.042214725 0.042022645 -0.10884136 0.18982686
-0.101665474 0.019699506 0.20970477 -0.02358555 0.11422435 0.03521575 -0.17466488 -0.19826378
-0.10507502 -0.19763707 0.14875059 0.19090334 -0.14441948 0.14319271 -0.17826352 -0.13136698
0.08673237 -0.2107428 -0.17440346 0.20485526 -0.032857973 -0.0133683765 0.07835781 -0.114359386
0.09205712 -0.22117114 0.11779821 -0.08317519 -0.2093411 0.13429497 -0.011762853 -0.20930038
-0.03834907 -0.01454855 0.13351744 0.16476828 0.08852653 0.07043514 -0.055571925 -0.041127574
-0.19960622 -0.050634235 0.16182546 0.12522605 0.1936048 -0.08770639 0.18948871 -0.07163269
-0.038540658 -0.18478549 0.060770176 -0.113391556 0.21286197 0.014559054 -0.1960535 0.012640794
-0.111830056 -0.036156237 0.12027869 -0.083700836 -0.15100624 -0.1616657 0.013835791 -0.16049017
00000000: 5593 8f3d 7b09 d03d 0a47 d13d 112f 16be
00000010: d617 bebc 65c5 47bd aa45 83bb 1c2d 153d
00000020: b499 3e3e 79ec 1cbd 3653 183e 30c4 9d3d
00000030: 3dcb 59be 2fdf 233e adb6 fdbc 6987 75bc
00000040: cf79 4fbe dbd1 9d3c 8ffc 903d a5df 283e
00000050: daa5 0b3e 646b 4e3e b776 283c 3ff0 5f3e
00000060: 6da4 f03c 52a8 7ebd 0d14 49be 728d b8b9
00000070: dcab 813d 39fc 653d 59cc c13c cf51 29bd
00000080: 8a37 133d a93b b93d 9e80 a83d 4c3b 4c3e
00000090: f609 36bd 4925 e03d a332 123e 4889 fa3d
000000a0: 013b 743b 7462 c3bd ccb9 0b3e bc95 a13d
000000b0: af83 5f3e 4a15 b4bd 1c81 0cbe 26b4 15bd
000000c0: fc83 b03d cdfa 7fbc 87cc 20be db6e 283c
000000d0: fc91 c03d 2c79 243e c9b0 a7bd 4e09 47be
000000e0: bb74 9c3d c91a 02bd 7d96 2a3e 5752 193e
000000f0: e8ca 473e 1847 573e 9fc7 22bd ff0b 31be
00000100: 30fd 4ebe 0654 e4bc 36ac 673e 5427 5abe
00000110: 58c5 4abd 927d 8a3d b95b 33be f6fb e73d
00000120: 9bfd 3f3d 3f8a eebd 5640 1fbe 7b81 ca3d
00000130: dd4e c7bd d658 1c3e f2c5 c73c 93d4 35be
00000140: 04d0 483e ddc9 5e3c 2de2 023c 632b 6c3e
00000150: 1763 f8bd 0018 09be 5080 023e 6442 df3d
00000160: 4ff9 40bd 288e 63bd 8e72 483e 1246 513e
00000170: 8f13 933d 843b 453e 4858 483e 2fc9 95bc
00000180: c8db 87bd 1fc3 863c 69b5 053e c0a7 0b3d
00000190: 05e2 423e 0edd dcba ac8b 7d3d 1933 003e
000001a0: ddc2 b33c 00e8 c33d 427f 443e 531e 9a3c
000001b0: e0b1 0ebe 3006 11bd 20c2 fdba 62e0 1e3d
000001c0: f224 6c3d 8f7d 323e 3aa4 ddbd e138 4abd
000001d0: 256e 183e b3fc 4c3d c9a6 023e fcb8 0e3e
000001e0: c046 703d b6a9 b23d 3217 51be f18d 013e
000001f0: 17ed 023e 79af 0a3e 3589 1bbe 140d 113e
00000200: e2dc 073e 98bc c23d e742 b0bd c213 5b3c
00000210: c962 1a3e 18e5 47be 7d8e fa3d 61ac 523e
00000220: c19a 15bd 06e4 553c ad47 b83d 57d0 ad3d
00000230: b59f 5e3e e7e4 d2bd ae7b 94bd 9fb7 59bd
00000240: 69fe 303e c15e 01be c5da 093e 0b60 35be
00000250: c416 20be f028 b13c 4033 e7bd d235 1a3e
00000260: 2ff6 47be b057 bb3d c91e 8c3d 13c0 1a3b
00000270: c31c bd3d 1de8 b3bd bd81 bd3d 4fc5 f7bc
00000280: 6f81 fd3c 3793 3f3b 67f2 58be 3e83 4d3e
00000290: 764e 5abe 4dca 76bd a213 5d3e b09f 473e
000002a0: 55dc 413e 519e c8bd 6020 f23d aadb 903d
000002b0: aa89 35be 949e 3b3e 12d4 d33d 1322 cabd
000002c0: 8877 1bbe 11a7 bcbd 12e5 e5bd e56d dfbd
000002d0: d404 17be 524f 293e 406e f13d e4e4 31be
000002e0: 9369 44be eae5 1cbe 817e 10bd 3528 58be
000002f0: 59e9 2cbd f01f 2c3d 38e8 debd f961 423e
00000300: fd35 d0bd dc60 a13c d9bc 563e 7c36 c1bc
00000310: 75ee e93d 643e 103d 5adb 32be a905 4bbe
00000320: 9231 d7bd 5f61 4abe 1352 183e 2a7c 433e
00000330: b3e2 13be 1ca1 123e b68a 36be 1185 06be
00000340: bea0 b13d f6cc 57be d296 32be 94c5 513e
00000350: 1596 06bd 0907 5bbc 0f7a a03d 4135 eabd
00000360: 7188 bc3d b07a 62be 3040 f13d c157 aabd
00000370: 835d 56be 9f84 093e fbb8 40bc d752 56be
00000380: ea13 1dbd 0b5d 6ebc ccb8 083e 04b9 283e
00000390: 664d b53d 4c40 903d 639f 63bd 6375 28bd
000003a0: 9365 4cbe d865 4fbd 93b5 253e 423b 003e
000003b0: 5640 463e 689f b3bd 5409 423e 29b4 92bd
000003c0: cfdc 1dbd 6838 3dbe 26ea 783d d539 e8bd
000003d0: 7df8 593e 1989 6e3c 40c2 48be 551b 4f3c
000003e0: 2807 e5bd 9018 14bd ac54 f63d 586b abbd
000003f0: 61a1 1abe b18b 25be 83af 623c 8957 24be
