Project/results/Test3_1Wall_01/Test3/Test3-999966.onnx (onnx, 96205 bytes, 7 tensors)

network_body._body_endoder.seq_layers.0.weight f4 [128, 46]
000000 01 83 b1 be 1c 81 c1 3d 7d e5 e5 be 0d 01 80 be
       -0.3467026 0.09448454 -0.44901648 -0.25000802
000010 ba 27 94 bd 8b 0b 2b 3d 91 e7 8b be e1 8f f6 bc
       -0.0723414 0.041759055 -0.2732511 -0.030097904
000020 fb 5d 77 be d2 d4 ab bd 83 3c 6a 3d b2 d7 09 be
       -0.24156944 -0.08390202 0.057186615 -0.13461187
000030 2f ca 8b be 44 55 98 be 2c 45 84 be 8f 43 77 be
       -0.2730269 -0.29752553 -0.25834024 -0.24146865
000040 7c 64 65 be 11 79 06 3e 78 4a 73 be f1 bb a3 be
       -0.22401613 0.1313212 -0.23758876 -0.31979325
000050 86 7f 21 be fb 3f 77 bc 8c b8 83 3d e2 99 e1 be
       -0.15771303 -0.015090938 0.06431684 -0.44062716
000060 b6 4e 84 be 21 ac 94 3d e7 f8 84 be df 4f 83 be
       -0.25841302 0.072593935 -0.25971147 -0.25646874
000070 68 d5 5b 3e 01 77 44 3e 45 2e a8 be 10 9d a6 3e
       0.21468127 0.19186021 -0.328478 0.32541704
000080 ef 71 19 3e 07 93 5e bd c8 aa c0 bd e7 c8 59 3c
       0.14984868 -0.054339435 -0.09407574 0.013292528
000090 65 02 85 be 77 16 17 3d 18 cd 92 3c 91 20 53 be
       -0.2597839 0.03688666 0.017920062 -0.20617892
0000a0 45 eb a3 bd dc b5 8a be 9f cc b4 be b9 07 2c be
       -0.080038585 -0.27091873 -0.35312364 -0.16799821
0000b0 1d a5 13 3e 65 57 6f be 8e 33 a4 bc 5f 91 39 3e
       0.14418454 -0.23373182 -0.020044114 0.18121861
0000c0 a0 22 85 3c c8 7f 48 be c0 e9 90 bd a5 20 2f 3e
       0.016251862 -0.19579995 -0.07075834 0.17102297
0000d0 9d f5 7c 3d c5 ff 16 3c 54 29 aa 3e 93 5d 6a be
       0.061757673 0.009216254 0.33234656 -0.22887258
0000e0 f9 5a 5a 3e a1 f5 37 3e 92 10 bd 3c 99 2b 03 bd
       0.21323766 0.17964794 0.02307919 -0.032024
0000f0 6d 38 1c 3e 08 91 d8 ba 22 59 a3 bb 55 58 17 3f
       0.152559 -0.0016522715 -0.0049849907 0.5911916
000100 e8 c2 ed 3d bc 01 52 3d 01 78 31 3e 0a 2b b5 bd
       0.11609441 0.051271185 0.17330934 -0.088461
000110 9d 1d 2b 3c 37 26 54 be 60 1a c7 bd 5f 7e 04 be
       0.010444072 -0.20717703 -0.097218275 -0.12938832
000120 93 37 7f bd f3 88 b6 3e d7 ae 45 3d 2b 67 76 be
       -0.06230886 0.3565136 0.048262443 -0.24062793
000130 f5 28 b2 bd de 6d 64 be b6 6b c1 be 31 52 9f be
       -0.08699218 -0.22307536 -0.3777749 -0.31117395
000140 12 d1 5a 3e 32 f2 32 be f1 79 b2 bb ed 49 f1 bd
       0.21368816 -0.17475203 -0.0054466655 -0.11781678
000150 b6 a8 98 be d8 23 70 be 0a 7d b4 3e 35 1c 2d 3e
       -0.29816216 -0.23451173 0.35251647 0.16905291
000160 09 74 d3 3e 6a 53 85 bd 56 0e f7 bc aa a3 99 3c
       0.41299465 -0.065100506 -0.030158203 0.018754799
000170 62 de d7 bb 27 44 33 3e 58 f9 5b be 36 94 30 be
       -0.0065877894 0.17506467 -0.21481836 -0.17244038
000180 63 18 e0 bd 70 5c 0c 3e 39 5f 37 bc a1 be 08 3e
       -0.109421514 0.13707137 -0.011192136 0.13353969
000190 a6 44 8b be 3c 67 0d 3e a2 aa f1 3d ef 80 9b bd
       -0.27200812 0.13808912 0.11800124 -0.075929515
0001a0 6c ea 06 3e fd 90 09 3c a8 8e d4 3c 15 7a 87 3e
       0.13175362 0.008396384 0.02594693 0.2646033
0001b0 72 74 89 be 9e b7 86 be 53 04 e8 bd 35 89 c8 3d
       -0.26846653 -0.26311964 -0.1132895 0.09791795
0001c0 14 2e 56 be 1e 19 83 3d 75 4f 7b 3e 05 7d d5 bd
       -0.20916015 0.06401275 0.24542029 -0.10424236
0001d0 d9 ae 03 be 64 d3 69 3c e9 f9 02 3e 77 7a 0c bd
       -0.12859668 0.014271591 0.12790646 -0.03429648
0001e0 dc ee 38 bc c8 96 1b 3e 25 b3 eb bd 45 ce 07 3c
       -0.011287417 0.15194237 -0.115087785 0.008288925
0001f0 aa b3 d9 3d b4 cb aa 3e f4 33 89 3d 81 55 03 3d
       0.10629971 0.33358538 0.066993624 0.032063965
000200 ef 48 14 bd 47 0b 14 3d fa 39 06 3c 3b 93 c7 be
       -0.036202367 0.036143567 0.008192534 -0.38979515
000210 cd e9 bf 3d 72 5b 32 3d 56 57 ec be 3f 2a 2b 3b
       0.09370766 0.04354424 -0.46160382 0.002611771
000220 dc c3 d8 3e 4c 87 e3 bc 2d ca 2f 3e ce 12 be bd
       0.4233693 -0.027774476 0.17166968 -0.092809305
000230 a2 3d 72 3d 8d bd 0c 3e d1 42 4f be 0c 11 38 be
       0.05914081 0.13744183 -0.20240332 -0.17975253
000240 94 c5 7b be 47 2f 0d 3e 51 a7 5e be 4c a1 3d 3d
       -0.24587089 0.13787566 -0.21743514 0.046296403
000250 bd 3c db bd b9 48 ac 3d c9 f0 a7 3d dd 3d 87 3e
       -0.10704944 0.08412308 0.08200223 0.26414385
000260 3e e1 e4 3d 5b 57 6c be 4c 4f bb 3e e3 51 23 be
       0.11175774 -0.23080198 0.36583936 -0.15949206
000270 df 96 77 be 21 dd 40 be c7 58 1a be e3 0e 2a 3e
       -0.24178647 -0.18834354 -0.15072928 0.16607241
000280 52 9d 5b be 5b f4 c8 be ec 8c 8a 3c 2c 12 42 3e
       -0.21446732 -0.39248928 0.0169129 0.18952245
000290 e9 c8 ce be 0f 5f f6 3d fd 48 9c bd 3f b9 e1 bb
       -0.40387657 0.1202985 -0.07631109 -0.006888538
0002a0 88 63 5d be 6a 3d a0 be 7e d4 55 be f6 3e 2f be
       -0.2162 -0.31296855 -0.2088184 -0.17113861
0002b0 fa f4 02 3e 93 32 a4 be bf 5b 50 3c 17 4b 1c be
       0.12788764 -0.32069835 0.0127171865 -0.1526302
0002c0 e7 45 dc bd 75 25 da bb 21 62 17 be 9e 7f 57 be
       -0.1075552 -0.0066572973 -0.14783527 -0.21044776
0002d0 d4 70 2e be d9 63 34 be 70 02 75 3d 7d c0 b6 3d
       -0.17035228 -0.17616214 0.059816778 0.08923433
0002e0 96 a8 4c bc 22 99 53 bd 40 73 61 3d e1 5c 4f 3d
       -0.012491366 -0.05165971 0.05504155 0.050625686
0002f0 d5 2e 4b bc eb ac d0 3e 35 09 87 bd 78 79 9c ba
       -0.012401302 0.40756926 -0.06593553 -0.0011938056
000300 da 25 3e bd 5d 4e 8e bd eb 7b 33 be dd 2a 4b be
       -0.046422817 -0.0694854 -0.1752774 -0.1984057
000310 79 c5 04 3e d9 e1 29 3d 84 a2 2a be 3a 6e 65 bc
       0.12965955 0.04147515 -0.16663557 -0.014003331
000320 4c 93 60 3e 84 4c 84 bd f4 0d 80 bd 23 ef 22 be
       0.2193119 -0.06459907 -0.06252661 -0.15911536
000330 1c df 7d 3e c1 b9 d1 3d 2c 52 0b 3e a0 03 97 bd
       0.2479214 0.10240508 0.13605565 -0.07373738
000340 1e 85 49 3e 83 10 5e be 1f b1 c4 3d 8a 7d 2b 3e
       0.19679686 -0.21685986 0.09604096 0.16747108
000350 83 d7 7d be 4c 15 ad 3d 9a 46 3a 3e 3d 34 99 3d
       -0.24789242 0.08451328 0.18190995 0.07480667
000360 7d 04 24 be 40 8a 4c be 6e ef 8e bb 30 fb 09 be
       -0.16017337 -0.19974613 -0.0043620383 -0.13474727
000370 89 9d cf 3d 07 b1 a2 be 3b f6 8e bb 9b ae 8f be
       0.10137469 -0.31775686 -0.004362849 -0.280629
000380 16 0a a0 3d f5 c7 9c 3c 42 62 2b 3d 29 8c 51 be
       0.07814424 0.019138316 0.041841753 -0.20463623
000390 0f 9d 23 bf ae 00 c1 bb ab c9 5f bd 97 bc 94 bc
       -0.6391153 -0.0058899736 -0.054635685 -0.018156333
0003a0 a1 51 eb 3d 3f 10 f0 bd d5 60 a3 bd 66 7d 07 bd
       0.11490179 -0.11721849 -0.079774536 -0.033078574
0003b0 ca ce ac bd 82 cb 14 3e 00 67 4b 3e ac 75 3e be
       -0.084378794 0.14530757 0.1986351 -0.18599576
0003c0 1e 9d 77 3d 43 0e b2 be 01 5f 8c 3d 51 e4 f7 3d
       0.060452573 -0.34776506 0.06854058 0.12104095
0003d0 f3 a4 17 be b2 6c ae bd bb 94 4e 3c 37 b4 59 bd
       -0.14809017 -0.08516826 0.012608702 -0.053150382
0003e0 f0 32 b7 bd 56 47 92 3e c0 ff cb bd 21 0f ff bc
       -0.089452624 0.2857005 -0.0996089 -0.031135144
0003f0 7a 5e aa be e7 96 c2 be 99 6f 03 3e ef fe 9a bd
       -0.33275205 -0.38005754 0.1283554 -0.07568156

network_body._body_endoder.seq_layers.0.bias f4 [128]
000000 5b d6 22 be 9e 7c dc bc 08 31 12 3b 19 3d 5b bc
       -0.15902083 -0.02691489 0.0022307057 -0.013381266
000010 0e d2 c2 bd b7 6b 10 3d 64 7c cd bc 5f f2 9c bc
       -0.09512721 0.035258975 -0.025083728 -0.01915854
000020 ac 9c 04 3d 4d 32 cc bc da b6 bf 3a 82 56 6c 3c
       0.032375976 -0.024926329 0.0014626638 0.014424922
000030 43 66 50 bc 4c c7 df bc c8 f6 8a be 82 ea 5f be
       -0.012719694 -0.027316712 -0.27141404 -0.21866801
000040 ca a5 0a 3c 07 8f ed bc 2e c2 a7 be 89 80 7b bd
       0.008462379 -0.028998865 -0.32765335 -0.061401878
000050 4a 47 ef 3b 25 ab 13 bc c6 50 63 bd 7f 17 04 bd
       0.0073021995 -0.009012972 -0.055496953 -0.03224897
000060 e1 ae 2c 3d 44 c1 8f be a4 fe a0 bc f9 c0 1a 3d
       0.042158965 -0.28077137 -0.019652672 0.03778169
000070 9b 40 7d bc 47 77 0a bc 5c 42 2c 3a 8d a6 85 bc
       -0.015457298 -0.0084512895 0.00065711676 -0.01631477
000080 94 aa 80 b9 26 4a 1a bd c4 b9 47 3d 28 7a f7 3a
       -0.00024541153 -0.03766837 0.048761144 0.001888101
000090 f6 1a b0 3c 77 5e 56 bd c6 50 ff bc aa 93 3b be
       0.021497231 -0.052336182 -0.031166445 -0.18318048
0000a0 3d a4 68 be 9b 20 80 bc e3 af aa bc 55 04 83 be
       -0.22718902 -0.015640547 -0.020835822 -0.25589243
0000b0 b1 e0 09 3d de 38 02 bc c6 fd f2 ba 30 f0 07 3d
       0.033661548 -0.0079481285 -0.0018538765 0.033188045
0000c0 70 6f d5 bd 47 73 c2 bb 82 40 24 be e4 87 6f bc
       -0.10421646 -0.0059341523 -0.16040233 -0.014619801
0000d0 01 b1 ba be 8c 71 59 be 4c 87 33 bd 36 50 0c 3d
       -0.36463168 -0.21234721 -0.0438302 0.034256183
0000e0 ca 8c 0a bd b7 16 49 bb c8 7d 65 bd 25 5f 37 bd
       -0.033825673 -0.0030683705 -0.056028157 -0.04476847
0000f0 ee 2a a3 bb a7 b9 98 3c ef e8 1c bc 9e a4 4f bd
       -0.004979483 0.018643213 -0.00957702 -0.0506941
000100 41 ff 4b 3d 76 d6 e6 3c 25 b5 88 bd 5a 56 36 bc
       0.049803976 0.028178435 -0.066751756 -0.011128986
000110 08 73 02 bd 2d 4d 08 3d 6e fb 16 bd 16 41 ae bd
       -0.031847984 0.033276726 -0.036860876 -0.08508508
000120 6e 73 f5 bd 39 ac 16 bd 8a c1 5d 3d 0a 4d 73 bd
       -0.11984907 -0.036785338 0.05413965 -0.059399642
000130 ff 47 21 bd 48 de 09 bc c9 40 8e be 5a eb e1 3b
       -0.0393753 -0.008414812 -0.27783802 0.006894511
000140 cc c0 45 bd ba 60 97 ba c6 a0 b8 bb c9 ed bc 3c
       -0.04827957 -0.0011549213 -0.0056344 0.023062604
000150 8a 0e 91 be 51 91 30 be dc 57 63 bc 15 a7 a7 ba
       -0.28331405 -0.17242934 -0.013875928 -0.0012790883
000160 d8 ca b9 3c 51 b9 1a be a7 83 83 3d 50 24 fb bc
       0.022679731 -0.15109755 0.06421595 -0.030656964
000170 57 18 bc be d3 d2 bd bc 8b 2e 91 be d9 62 9a 3d
       -0.3673732 -0.023171818 -0.28355822 0.07538385
000180 c9 60 2e 3d 3c f1 cc bd 7e fe b5 3c 7c bd 04 bc
       0.04257277 -0.10006949 0.022216078 -0.008101817
000190 f8 c2 5f 3c 68 32 99 be e4 50 1a be 2c 7e 95 be
       0.013657324 -0.2992127 -0.1506992 -0.29197824
0001a0 76 88 65 3d 95 0a cb bc f4 42 e5 ba ec f9 53 bd
       0.056038342 -0.02478532 -0.0017491267 -0.051752016
0001b0 81 ea 7a 3c 91 9a 15 be 6b 2a f4 bd e0 fa 7f bc
       0.015314699 -0.14609744 -0.11922153 -0.015623778
0001c0 71 88 2f 3c 32 db 0a 3c 02 8c 7d bb 00 e0 cb bc
       0.0107136825 0.008475112 -0.0038688187 -0.024887085
0001d0 89 bb f2 bd 75 f3 b5 bb 79 0c 2e 3d c2 fe d3 bd
       -0.11852176 -0.005552704 0.042492364 -0.103513256
0001e0 a2 76 15 be 97 3b 01 3d 96 bc 90 be 24 73 0e be
       -0.14596036 0.03155097 -0.2826888 -0.1391111
0001f0 cd 3e 6f 3b a0 25 12 be 14 4e 28 3d ab 9a 7b 3d
       0.0036505938 -0.14272165 0.041090086 0.0614268

network_body._body_endoder.seq_layers.2.weight f4 [128, 128]
000000 3e 92 8c 3d f7 fb 97 3d e1 aa d7 bd 44 85 e5 bd
       0.06863831 0.07421105 -0.105306394 -0.11207059
000010 0a 37 57 bd 5d a7 98 be 58 1b 70 3d 61 99 e3 bd
       -0.052542724 -0.29815188 0.058619827 -0.11113239
000020 fd c0 95 bb 03 89 25 be 36 27 c8 3d c3 fa a3 bd
       -0.004570125 -0.16165547 0.09773104 -0.080068134
000030 1e 87 92 bc 6a cb 18 bc b0 cd 4f bc 59 6a 28 3d
       -0.017886695 -0.009325841 -0.012683317 0.041117046
000040 10 2c 18 be bf 45 0e 3e 00 5b 84 bd 41 42 1e be
       -0.14860559 0.13893794 -0.064626694 -0.15454961
000050 41 0e ae 3b 6a bb a5 be 5d 02 34 bd 07 a9 bc 3c
       0.005311758 -0.32369548 -0.043947566 0.023029817
000060 73 c0 1e 3e ac f1 6f bc a3 f3 76 ba 3e a4 d0 bd
       0.15503101 -0.014645021 -0.000942046 -0.10187577
000070 38 43 06 3e 75 6a 04 be 5e 14 75 be 4c c7 5c 3d
       0.1311158 -0.12931235 -0.2393355 0.053901
000080 c0 06 99 be 94 f7 31 3c 41 df 7f bd 2f 2e 98 bc
       -0.29887962 0.01086225 -0.06246877 -0.01857671
000090 d8 51 2e bc c4 88 38 3e ae 0c 2a be e5 2c 35 3e
       -0.01063963 0.18020922 -0.166064 0.17692907
0000a0 52 09 2d 3e 6e b9 80 3d dc 32 50 be a8 01 71 3d
       0.16898087 0.06285368 -0.20331901 0.05883947
0000b0 80 bd 9d 3d a2 e3 1f be cb e1 b2 bd f9 a5 a3 be
       0.0770216 -0.15614179 -0.08734473 -0.31962565
0000c0 bd 4c cd bd 05 65 5c be e5 4e 8c 3d ba ac 23 3e
       -0.10024402 -0.21522911 0.068509854 0.15983859
0000d0 2a 9d aa 3d ca c2 3e bd b2 39 84 3c 5d 59 8d bd
       0.08330758 -0.046572484 0.016140793 -0.0690181
0000e0 71 0d 1f be bd 06 c2 bd 6e 72 3d bd 98 d4 bf bd
       -0.15532471 -0.094739415 -0.046251707 -0.09366721
0000f0 46 7a 0a 3d b2 f9 9a bd da a5 03 be 64 41 f1 bd
       0.033808015 -0.07567157 -0.12856236 -0.117800504
000100 c5 39 d1 bd 58 36 8d be 4d 9b cf bd 25 3b d5 3d
       -0.10216097 -0.27580523 -0.10137043 0.104116715
000110 75 e8 6b bd 73 72 23 bb 6d 61 e2 bc 7a 39 0b be
       -0.057594735 -0.0024940043 -0.027634347 -0.13596144
000120 f8 1c 1a 3e 62 bf b8 3c 8f 44 01 be 60 f0 90 bc
       0.15050113 0.022552196 -0.1262381 -0.017692745
000130 e0 cb 28 bd 34 c6 84 bd 4c e0 e6 3b d0 0f 7c bd
       -0.041210055 -0.06483117 0.0070457812 -0.061538517
000140 27 26 f6 bc b9 cb 76 3d 7e 3b d9 3d 57 7e 1a be
       -0.03004749 0.06025288 0.1060705 -0.15087257
000150 a0 86 c1 bb 30 15 00 3e 30 4d 84 bc 9f 6a aa bc
       -0.005905941 0.12508082 -0.016150087 -0.020802794
000160 2d 6c 75 bc e5 42 2b 3e 27 a8 9e be 57 eb 73 be
       -0.014979404 0.16724737 -0.30987665 -0.23820244
000170 d7 80 74 3d a5 32 1a be 6c 55 ec bc de 0a 7f be
       0.059693184 -0.15058382 -0.028849326 -0.24906489
000180 bc e6 5e 3e ad e9 60 3d 5b b2 9e be 1c 88 8d bd
       0.21767706 0.05491035 -0.3099545 -0.069107264
000190 30 39 3e 3d 73 54 e6 bc f9 60 ce bc ac 31 0f 3d
       0.046441257 -0.02811644 -0.025192725 0.03495948
0001a0 1b 0d 5b bd 73 8b 89 bc 68 a1 0f 3e 2f a4 33 be
       -0.053479295 -0.016790127 0.14026415 -0.175431
0001b0 69 4a f4 3d 05 df 40 3d 0e a8 61 b9 0f 29 89 bd
       0.11928255 0.047087688 -0.00021520277 -0.066972844
0001c0 59 fa 66 3e fd af 12 3e e5 9b 96 bd f3 fe 76 bd
       0.22556438 0.14324947 -0.07353953 -0.060301732
0001d0 09 10 bf 3d 3c fe 3d 3d 0a 5d 2a 3e 4d cd d4 bd
       0.0932923 0.046385035 0.16637054 -0.103907205
0001e0 0a 4d 35 3d f9 a3 b5 bd 8f 99 89 bd 83 2c 04 be
       0.044262923 -0.08869166 -0.06718742 -0.12907605
0001f0 75 10 b1 3c 10 0a 15 3d 54 e1 0d 3e bc be 5d be
       0.021614293 0.03638655 0.13855487 -0.2165479
000200 4a 7c cf 3e e3 d5 84 bd 4f b4 82 bd d7 43 40 3e
       0.40524513 -0.06486108 -0.063820474 0.18775879
000210 d0 08 38 be 46 53 37 3d e6 fd f6 3b 5b e3 f3 bd
       -0.17972112 0.04475715 0.0075375913 -0.11908599
000220 1c 79 c7 bd e9 d9 75 be 3a 00 4e be 0d b8 05 be
       -0.09739897 -0.24008907 -0.20117274 -0.13058491
000230 22 57 c9 bc 4a 23 8a 3d 6b 68 0f 3e 0f 0e 4a 3e
       -0.024577681 0.06745012 0.14004676 0.19731925
000240 8e 33 25 3e c0 8b 43 be 33 41 14 3e c7 43 04 be
       0.16132948 -0.19096279 0.14477997 -0.1291648
000250 84 7a 01 3e bd 6a 94 be 90 df 4b bd e4 44 5f 3d
       0.12644392 -0.28987685 -0.049773753 0.05450906
000260 8b 49 61 be 84 ad 9f 3e d3 71 52 be 75 70 27 3e
       -0.2200071 0.3118707 -0.20551233 0.16351493
000270 b6 dc 19 be b9 9c 1c 3e 77 bf 3c bc e4 3f 82 3d
       -0.15025601 0.1529416 -0.011520258 0.063598424
000280 71 8b 4d bc e9 c3 69 be 12 1f bf bd 05 04 2e 3e
       -0.012545452 -0.2282864 -0.09332098 0.16993721
000290 45 4a fe bd b2 23 11 3e c2 dc 0c bd 0a bc 8d 3e
       -0.124165095 0.14173773 -0.03439022 0.27682525
0002a0 e6 36 9b 3e a2 c6 6f be 37 10 d1 bb d5 36 54 3e
       0.30315322 -0.23415616 -0.006380107 0.20724042
0002b0 b0 d0 0f bc ee c6 d2 bc cc 83 73 be f3 3a 83 be
       -0.008777782 -0.025729623 -0.23780745 -0.25630912
0002c0 8a 13 1a 3e 48 e6 b0 be 1a 68 0d be 7f 55 79 be
       0.15046516 -0.3455069 -0.13809243 -0.2434902
0002d0 f3 c9 3a 3d 31 0c 1d 3e d8 83 b0 bd 02 57 9a be
       0.04560275 0.15336682 -0.08618897 -0.30144507
0002e0 e1 d9 9f bd df c8 f6 3a a8 ec 82 3d 38 6c d8 3d
       -0.07805229 0.0018828175 0.06392795 0.10567516
0002f0 77 ea 2c 3d f2 ad 5f bd cb ba 9f bd fd ea 60 bb
       0.04221579 -0.054609247 -0.077993 -0.0034319751
000300 46 da f3 bd 96 a6 88 be 7e aa c1 bd b2 3c 58 bd
       -0.11906867 -0.26689595 -0.09456347 -0.05279226
000310 1e 29 96 bb 42 dc 37 3e 8a 14 35 bd d2 93 91 3c
       -0.0045825383 0.17955115 -0.04420904 0.017770682
000320 fb 58 f1 bc a9 32 a1 3d 6a 1a cd 3d bd 2c e3 3d
       -0.029461375 0.07870991 0.10014804 0.110925175
000330 96 25 c8 3c f7 1e 2c bd 82 b3 53 3e 69 1e 2d 3e
       0.024431985 -0.042021718 0.20673946 0.16906132
000340 ee 60 4b be 62 82 50 bd 93 b9 0b be 52 b9 77 be
       -0.19861194 -0.050905593 -0.1364501 -0.24191788
000350 28 ac 4d 3e 91 8e d9 3e f6 03 51 bc d5 92 d9 3d
       0.20085204 0.42491582 -0.012757292 0.10623709
000360 b0 76 a6 bd c7 37 86 3e 08 6a 77 be 6e 79 e2 3d
       -0.081281066 0.2621443 -0.24161541 0.11058317
000370 02 b8 a4 bd 79 a2 3c be 80 ee 9e 3d c9 0c 0a be
       -0.08042909 -0.18421353 0.07760334 -0.1348144
000380 b2 d2 91 be 04 e8 a7 3e 3b 75 1a 3e c2 f2 6b 3d
       -0.2848106 0.327942 0.15083782 0.05760456
000390 d4 25 26 bc 9c 21 c1 3e 42 a9 e0 bc 56 68 9a 3e
       -0.010140855 0.37720954 -0.027424458 0.30157727
0003a0 56 1d 48 be b9 36 4b be a5 28 ab be 41 13 c2 bd
       -0.19542441 -0.19845094 -0.33429447 -0.09476329
0003b0 c7 a0 2d be ff ad 85 3e 01 47 3e 3e 6e 20 dd bc
       -0.16955863 0.2610931 0.18581773 -0.026993003
0003c0 cd 8d 07 3c d7 07 c7 bd 05 73 9d be f2 0f c6 3d
       0.008273554 -0.09718292 -0.30751815 0.0967101
0003d0 f2 ff 76 be 1f d6 a2 3c d0 d7 2d 3e e1 4b 14 be
       -0.24121073 0.019877492 0.16976857 -0.1448207
0003e0 80 b2 f2 3e 98 f5 9f be 46 d1 92 3e 50 65 87 3e
       0.4740181 -0.3124206 0.28675288 0.26444483
0003f0 7b 79 c0 be eb 91 d4 3e ef 5d bf bc be e0 63 be
       -0.37592682 0.41517577 -0.02336022 -0.22253701

network_body._body_endoder.seq_layers.2.bias f4 [128]
000000 00 93 d6 bc 0e c1 6c be 33 12 2f be 0a 6f 04 be
       -0.026193142 -0.2312052 -0.17096786 -0.12932983
000010 c6 23 7b bd 4e 0a 72 bc d5 2d 71 bd 25 3c ca be
       -0.061313413 -0.014772965 -0.0588816 -0.39499012
000020 8e 65 d5 bc bb 9b a9 bc c3 d0 b2 bd ee 32 1e be
       -0.026049402 -0.02070414 -0.087312244 -0.15449116
000030 03 e5 a7 3c 4b 88 0c be 4f a8 12 3d b8 2e 82 be
       0.020494943 -0.13723867 0.035805043 -0.2542627
000040 ff 17 ff bd 3e e8 59 3c 3b 9e 39 bd 51 10 a2 be
       -0.12455749 0.0133 -0.045316916 -0.31653073
000050 13 b9 da be bc 18 50 bd c0 60 8f 3d 23 20 5a be
       -0.42719325 -0.05080484 0.070008755 -0.21301322
000060 0c 41 c4 be b3 a6 83 bd 8b 27 6d 3c 6a 04 5b be
       -0.38330877 -0.0642828 0.01447476 -0.21388403
000070 16 37 9e bd af 56 65 be 21 db cf be 7b bb 51 bc
       -0.077253506 -0.22396348 -0.4059687 -0.0128010465
000080 f0 7c 82 be b3 10 3c bd 15 c4 80 bd 64 2c b3 bc
       -0.25485945 -0.045914363 -0.062874 -0.021871753
000090 4e 6d f0 bc 2c cd 13 bc 30 b0 22 be 96 00 e2 3b
       -0.029348996 -0.009021085 -0.15887523 0.0068970425
0000a0 61 ea 6d 3d 98 f3 fb bd f8 a1 7b bd f0 2d a8 bc
       0.05808485 -0.12302321 -0.061433762 -0.020529717
0000b0 be fb 6b 3b 87 a2 a1 be d3 ee 02 3b 4e 05 b5 3c
       0.0036008204 -0.3156931 0.0019978776 0.022097256
0000c0 72 17 5d bd af 74 1d be d6 19 90 bd ea 1a 68 3d
       -0.053977437 -0.15376543 -0.07036178 0.056666292
0000d0 67 fe 90 bc 3b fe ee bd e9 17 18 3d 82 9a 72 be
       -0.017699433 -0.11669584 0.037132178 -0.23691753
0000e0 4c cd 26 be 22 02 5f bd e6 7d 4f 3c 78 82 04 be
       -0.16289252 -0.054445393 0.012664294 -0.12940395
0000f0 14 46 59 be cd 89 b5 bd 37 c9 4a be 0f 8d 9e bc
       -0.21218139 -0.08864174 -0.1980332 -0.019354371
000100 05 77 e6 bd 43 6e 0c bd 83 cd 03 bd 97 7d 83 be
       -0.1125317 -0.03428484 -0.032178413 -0.25681755
000110 15 ca 84 be 73 46 fa bd 1b e5 43 be 98 64 b8 be
       -0.25935426 -0.12220468 -0.19130366 -0.36014247
000120 a0 f8 9b bd e2 a8 44 be 37 bf c0 be b0 45 92 bd
       -0.07615781 -0.19205049 -0.37645885 -0.07142198
000130 6c 94 cd bc b1 d8 19 bd 40 54 cb 3c e6 90 d7 be
       -0.025095187 -0.03756017 0.024820447 -0.42102736
000140 32 dc e0 bd 49 b2 75 be 23 c7 8f be 65 38 20 be
       -0.10979499 -0.23993792 -0.28081617 -0.15646513
000150 24 6d 75 be 7e f1 8b 3d 7d 47 03 bd 03 30 34 3d
       -0.23967415 0.0683317 -0.0320506 0.0439911
000160 38 1a 87 bc 74 4a 56 be 34 3b 8c be 2f f2 15 3d
       -0.016491994 -0.20926839 -0.27388918 0.036607917
000170 31 a1 72 bc 15 7a 0a be c3 57 92 bd 90 24 71 bb
       -0.014808939 -0.13523133 -0.071456455 -0.0036795475
000180 bd c0 38 be 6b 86 03 be 81 63 ce bd c0 31 c0 bd
       -0.18042274 -0.12844245 -0.100775726 -0.09384489
000190 e8 a2 62 be 02 97 33 be b6 7e 37 be 98 ff ab bc
       -0.22132456 -0.17538074 -0.1791943 -0.0209959
0001a0 07 7d b8 bc 26 98 2b be ec fd dd 3c 15 e4 9c be
       -0.022520555 -0.16757259 0.027098618 -0.30642763
0001b0 72 a4 6b bc 6e db 27 be f8 af 00 be 68 4f 5a bd
       -0.014382469 -0.163923 -0.12567127 -0.053298384
0001c0 d9 90 58 bd 0f 77 59 bd df 64 da bc 89 3e 13 be
       -0.052872512 -0.05309206 -0.026659427 -0.14379324
0001d0 c7 17 f5 3c 23 07 91 be 7d 97 87 bd bc a2 a7 be
       0.029918564 -0.28325757 -0.06620691 -0.32741344
0001e0 e6 99 a8 be 41 78 2d be f0 c7 e0 bd 02 09 f0 bd
       -0.32929915 -0.16940404 -0.10975635 -0.11720468
0001f0 99 6f 93 be a8 67 aa bd 19 bd a9 bd 9a 6d 9c bc
       -0.2879608 -0.08320552 -0.08288021 -0.01909523

action_model._continuous_distribution.log_sigma f4 [1, 3]
000000 7d b3 91 be 7b 78 f8 be 08 4f 92 bf
       -0.2845725 -0.4852942 -1.1430368

action_model._continuous_distribution.mu.weight f4 [3, 128]
000000 c3 8c 03 3c e7 18 9a 3d 63 c8 18 bd 34 75 33 bd
       0.008029166 0.07524281 -0.03730048 -0.043812945
000010 8a bd 40 3d 6c 90 92 3b ce 00 98 3c f5 55 62 b9
       0.04705576 0.004472783 0.018555071 -0.00021585061
000020 c0 df 06 3d b9 a6 8b 3d 8d f9 9c 3c 46 c7 33 3a
       0.03292823 0.06818909 0.019161964 0.0006858002
000030 a7 59 b7 3d 35 40 99 bb 61 45 df 3c 69 90 1c 3d
       0.08952647 -0.0046768435 0.027254762 0.038223658
000040 25 55 31 3d 93 31 d8 bd 8a 60 b8 bc 6b c1 a1 3c
       0.04329409 -0.105563305 -0.02250697 0.01974555
000050 84 b8 8c 3c 69 e2 90 bd 8a 9a c2 3d f7 cd 04 bc
       0.017177828 -0.07074434 0.09502132 -0.0081057465
000060 2d 03 2a 3d 39 d6 24 3d 9f 4e c0 3c e7 fb 04 3d
       0.041506935 0.04024336 0.02347499 0.032466795
000070 8a b3 18 bc b6 07 3b 3d d7 5f cd 3c 4b 3b 12 be
       -0.009320149 0.04566165 0.025070114 -0.14280431
000080 23 2e 97 3c c5 68 8b bd 3b a7 32 3c aa f9 b1 3c
       0.018454617 -0.068070926 0.010904129 0.021725494
000090 fd 34 05 3c ba 96 1a 3e 99 2a a1 3d b9 e2 fc 3d
       0.008130309 0.1509656 0.07869453 0.123479314
0000a0 56 3c 6a 3d 46 98 d0 3c 9b fc a7 39 05 67 9a bb
       0.057186447 0.025463235 0.00032040928 -0.004711988
0000b0 55 cc d2 3d ef 7b 73 3c 8e c7 0d 3e ad 9e a6 3d
       0.102928795 0.014861091 0.13845655 0.08135734
0000c0 59 c0 cc 3c 17 c9 f2 3c 69 e0 dc 3c 89 f3 ca 3d
       0.024994062 0.029636903 0.026962476 0.09909732
0000d0 2d 9e a2 3c 5a e3 6f bc 5d 07 4a be b0 7a 85 3d
       0.019850815 -0.014641607 -0.19729371 0.065175414
0000e0 32 ce 77 bd c3 09 aa 3c 6b 99 34 bc 99 58 fa bc
       -0.060499378 0.020756608 -0.011022906 -0.030559825
0000f0 b9 fb 5a 3c a6 9b 98 3c 8c 9e b5 3c e2 49 e1 3c
       0.013365679 0.018628906 0.022170328 0.02750105
000100 9b 48 47 bd 02 81 8e 3c 99 5a d5 bd 2d ba 07 bc
       -0.048653226 0.0173955 -0.10417671 -0.008284134
000110 f0 a3 0e bc 9b 7a 14 3d 6d 58 0a bd d6 b9 7d bc
       -0.008706078 0.03624974 -0.033775736 -0.015486201
000120 12 63 3a 3c 40 80 bd 3c ab 04 0f 3d a0 e9 93 3d
       0.011376159 0.023132443 0.03491656 0.07222295
000130 41 4b 86 3c b3 22 bd bc fe 58 cf 3c 23 bf db 3c
       0.016393306 -0.023087835 0.02531099 0.02682454
000140 3b 92 5b bd 3b 06 77 3c f8 8c 02 3d f4 22 8c ba
       -0.053606253 0.015077169 0.03187272 -0.0010691569
000150 e8 99 db 3c bc 13 49 bc f7 55 e5 3d ac 4a af 3d
       0.026806787 -0.012272771 0.11198037 0.085591644
000160 11 4d 34 bc fe 1e 91 3d 58 fb b4 3c d8 d0 58 bd
       -0.011004702 0.070859894 0.022092506 -0.052933544
000170 62 48 fc 3c 2e f6 a9 bc ac ee 98 3d ac 35 13 be
       0.030796234 -0.02074727 0.07467398 -0.14375943
000180 12 a4 f1 3c 45 c5 4b bd 09 c5 ed 3b 39 4c 91 3c
       0.02949718 -0.049748678 0.0072561544 0.017736541
000190 d7 1b ed bc 32 d0 ad 3c d4 15 90 bd 57 42 38 3d
       -0.02894394 0.02121744 -0.070354134 0.04498514
0001a0 21 73 9d 3d 59 eb 66 3d 54 d6 1e 3e 86 b6 5a bb
       0.07687975 0.05637679 0.15511447 -0.0033372953
0001b0 61 fe cc bc c8 ad 8f 3d 44 81 51 3d 25 10 4e 3d
       -0.025023641 0.07015568 0.051148668 0.050308365
0001c0 70 da b6 bb 34 88 bb 3c c3 94 8f b9 50 21 98 3c
       -0.005580239 0.022892095 -0.00027385922 0.018570572
0001d0 75 0a 80 bc 4e a9 83 3b 41 b3 86 3d c5 3b f9 3c
       -0.015629986 0.0040179854 0.06577159 0.030424008
0001e0 ea e6 b8 3c 0b 89 be bc cf 00 e3 3c c2 84 29 3d
       0.022571046 -0.023258707 0.027710347 0.041386373
0001f0 e3 af 7a 3c 8b 2c 72 3b 4e 90 e5 3b ec dd 65 3d
       0.015300724 0.003695282 0.007005728 0.056119844
000200 68 c0 9d bd f9 0c 67 3d 61 8d 83 bd 2d 03 b5 3d
       -0.07702714 0.056408856 -0.0642345 0.08838496
000210 f5 39 c5 3b ef e5 9c bd df 56 84 3b 82 ff ac 3c
       0.006018872 -0.07661044 0.004038676 0.02111793
000220 bb 55 aa bb 54 30 c7 3d d4 d4 2e bb 34 a8 13 3d
       -0.005198208 0.09726015 -0.0026677148 0.036049083
000230 13 2f c4 bd 22 df 85 bc e2 5d 42 be 60 10 36 3d
       -0.09579291 -0.01634175 -0.18981126 0.04444921
000240 55 4b 7d 3c a5 33 15 be 99 d8 89 bc 76 fe 72 bd
       0.015459855 -0.14570482 -0.016826915 -0.059324704
000250 ad 23 1f 3d 67 1a 1c bd 17 92 a7 3d 48 bb 14 3d
       0.038852382 -0.038111117 0.08182161 0.036311418
000260 d4 7d 43 3c 4b 60 3d 3d e6 b6 0c 3d bf 4b 36 3d
       0.011931855 0.04623441 0.034354113 0.04450583
000270 b9 39 15 bd f4 78 9a 3c 44 be 22 3d ae 14 69 3d
       -0.036432 0.018856503 0.039732233 0.056904487
000280 76 e2 0c 3d 6b e9 14 bd 39 ea 34 3d 7e 2c e3 bd
       0.034395657 -0.036355417 0.044168685 -0.110924706
000290 6d 05 32 bd 14 ae e3 3c ca ec e2 3d 66 f0 d6 bd
       -0.043462206 0.027792968 0.1108032 -0.10495071
0002a0 75 ba fc 3d 04 06 31 bc a3 b6 25 bd 3b ac f3 bd
       0.12340251 -0.010804657 -0.04045738 -0.11898085
0002b0 eb b3 85 3c 95 22 40 3c c7 1d 1a bd 11 7f 81 bd
       0.016321143 0.011726995 -0.037626054 -0.06323064
0002c0 9d 76 e9 3d 7b 4c c0 bb b2 58 40 3d 07 eb 65 bd
       0.11399577 -0.005868492 0.046959586 -0.056132343
0002d0 43 df bb bd 98 d2 d2 3c 89 f8 7d 3c e7 13 9c 3d
       -0.09173443 0.025735185 0.01550115 0.076209836
0002e0 34 b3 99 3c 93 4c 27 3d 78 ef c1 bd 9d 9b 8c 3d
       0.018762209 0.04084451 -0.09469503 0.068656184
0002f0 aa 17 22 3d 58 0f 24 3c f4 0b 65 3d c9 1d 95 bd
       0.03957335 0.010013424 0.055919603 -0.07281072
000300 98 c6 14 3d db 1b 2b bd 82 14 f5 39 ed 7b f1 3c
       0.036322206 -0.041774612 0.0004674532 0.029478038
000310 c1 e2 a8 3c 47 58 38 3d 6a a3 46 3d 30 ac 5e bc
       0.020615937 0.045006063 0.048495688 -0.013590857
000320 33 22 8e 3d 07 42 3f 3c be 58 64 3d e9 0f c9 3b
       0.06940117 0.011673457 0.055748694 0.00613593
000330 99 8f 2a bc 63 bd 67 bc b7 f5 2d 3e 77 13 d7 3c
       -0.010410213 -0.014144274 0.16988264 0.026254399
000340 88 c0 47 3d fa 24 2a 3d a5 90 29 bc 0e 91 33 3d
       0.048767596 0.04153917 -0.010349427 0.043839507
000350 b3 b9 92 3c cd 29 3f be b1 24 b0 3d da bf cd bd
       0.017910814 -0.1866829 0.08600748 -0.100463584
000360 90 23 fb 3d 74 2c 26 3c 0f 08 cb 3c 20 94 25 be
       0.122626424 0.010142434 0.024784116 -0.16169786
000370 bd 53 91 bd fc cd 3b 3d 90 06 8b 3d 31 5d c1 3c
       -0.0709605 0.04585074 0.06788361 0.023604007
000380 10 23 21 3c 26 c0 d9 3d 3b 45 a8 3c 79 e3 1b bd
       0.00983502 0.106323525 0.020540824 -0.03805873
000390 ed 24 48 3c d7 68 47 3c d5 8b bf 3d 86 c6 c7 3b
       0.012215835 0.012170992 0.09352843 0.006096664
0003a0 16 69 14 3c fb 47 49 3c 37 00 20 3c a4 0e 28 bc
       0.009058258 0.012285228 0.009765676 -0.010257397
0003b0 ae 84 34 3e aa 87 1f 3b 4f d4 ae 3c 1b c4 c1 bc
       0.17628738 0.0024342337 0.021341471 -0.02365308
0003c0 45 c4 89 bc 81 9c eb 3a 79 8e 13 be ed 58 c5 bc
       -0.016817221 0.0017975719 -0.14409818 -0.024090255
0003d0 ee a2 1a 3e 51 f6 16 3d 2f 8b da 3c 41 21 fe 3c
       0.15101215 0.036856 0.026677696 0.031021716
0003e0 97 7a e9 3c d0 ea 75 3c cf 8d 65 3b 84 35 bc 3d
       0.028500838 0.015009597 0.0035027151 0.09189895
0003f0 5a 98 32 3d 9d e7 01 3d 33 ff 97 3c 72 39 3f bd
       0.043602325 0.031715024 0.018554306 -0.046685643

action_model._continuous_distribution.mu.bias f4 [3]
000000 13 ad ab bc 68 fb 92 bc 93 42 3a be
       -0.020956552 -0.017942145 -0.18189459
