Project/results/Test3_1Wall_01/Test3/Test3-999966.pt (torch, 567200 bytes, 36 tensors)

network_body._body_endoder.seq_layers.0.weight f4 [128, 46]
00000000: 0183 b1be 1c81 c13d 7de5 e5be 0d01 80be
00000010: ba27 94bd 8b0b 2b3d 91e7 8bbe e18f f6bc
00000020: fb5d 77be d2d4 abbd 833c 6a3d b2d7 09be
00000030: 2fca 8bbe 4455 98be 2c45 84be 8f43 77be
00000040: 7c64 65be 1179 063e 784a 73be f1bb a3be
00000050: 867f 21be fb3f 77bc 8cb8 833d e299 e1be
00000060: b64e 84be 21ac 943d e7f8 84be df4f 83be
00000070: 68d5 5b3e 0177 443e 452e a8be 109d a63e
00000080: ef71 193e 0793 5ebd c8aa c0bd e7c8 593c
00000090: 6502 85be 7716 173d 18cd 923c 9120 53be
000000a0: 45eb a3bd dcb5 8abe 9fcc b4be b907 2cbe
000000b0: 1da5 133e 6557 6fbe 8e33 a4bc 5f91 393e
000000c0: a022 853c c87f 48be c0e9 90bd a520 2f3e
000000d0: 9df5 7c3d c5ff 163c 5429 aa3e 935d 6abe
000000e0: f95a 5a3e a1f5 373e 9210 bd3c 992b 03bd
000000f0: 6d38 1c3e 0891 d8ba 2259 a3bb 5558 173f
00000100: e8c2 ed3d bc01 523d 0178 313e 0a2b b5bd
00000110: 9d1d 2b3c 3726 54be 601a c7bd 5f7e 04be
00000120: 9337 7fbd f388 b63e d7ae 453d 2b67 76be
00000130: f528 b2bd de6d 64be b66b c1be 3152 9fbe
00000140: 12d1 5a3e 32f2 32be f179 b2bb ed49 f1bd
00000150: b6a8 98be d823 70be 0a7d b43e 351c 2d3e
00000160: 0974 d33e 6a53 85bd 560e f7bc aaa3 993c
00000170: 62de d7bb 2744 333e 58f9 5bbe 3694 30be
00000180: 6318 e0bd 705c 0c3e 395f 37bc a1be 083e
00000190: a644 8bbe 3c67 0d3e a2aa f13d ef80 9bbd
000001a0: 6cea 063e fd90 093c a88e d43c 157a 873e
000001b0: 7274 89be 9eb7 86be 5304 e8bd 3589 c83d
000001c0: 142e 56be 1e19 833d 754f 7b3e 057d d5bd
000001d0: d9ae 03be 64d3 693c e9f9 023e 777a 0cbd
000001e0: dcee 38bc c896 1b3e 25b3 ebbd 45ce 073c
000001f0: aab3 d93d b4cb aa3e f433 893d 8155 033d
00000200: ef48 14bd 470b 143d fa39 063c 3b93 c7be
00000210: cde9 bf3d 725b 323d 5657 ecbe 3f2a 2b3b
00000220: dcc3 d83e 4c87 e3bc 2dca 2f3e ce12 bebd
00000230: a23d 723d 8dbd 0c3e d142 4fbe 0c11 38be
00000240: 94c5 7bbe 472f 0d3e 51a7 5ebe 4ca1 3d3d
00000250: bd3c dbbd b948 ac3d c9f0 a73d dd3d 873e
00000260: 3ee1 e43d 5b57 6cbe 4c4f bb3e e351 23be
00000270: df96 77be 21dd 40be c758 1abe e30e 2a3e
00000280: 529d 5bbe 5bf4 c8be ec8c 8a3c 2c12 423e
00000290: e9c8 cebe 0f5f f63d fd48 9cbd 3fb9 e1bb
000002a0: 8863 5dbe 6a3d a0be 7ed4 55be f63e 2fbe
000002b0: faf4 023e 9332 a4be bf5b 503c 174b 1cbe
000002c0: e745 dcbd 7525 dabb 2162 17be 9e7f 57be
000002d0: d470 2ebe d963 34be 7002 753d 7dc0 b63d
000002e0: 96a8 4cbc 2299 53bd 4073 613d e15c 4f3d
000002f0: d52e 4bbc ebac d03e 3509 87bd 7879 9cba
00000300: da25 3ebd 5d4e 8ebd eb7b 33be dd2a 4bbe
00000310: 79c5 043e d9e1 293d 84a2 2abe 3a6e 65bc
00000320: 4c93 603e 844c 84bd f40d 80bd 23ef 22be
00000330: 1cdf 7d3e c1b9 d13d 2c52 0b3e a003 97bd
00000340: 1e85 493e 8310 5ebe 1fb1 c43d 8a7d 2b3e
00000350: 83d7 7dbe 4c15 ad3d 9a46 3a3e 3d34 993d
00000360: 7d04 24be 408a 4cbe 6eef 8ebb 30fb 09be
00000370: 899d cf3d 07b1 a2be 3bf6 8ebb 9bae 8fbe
00000380: 160a a03d f5c7 9c3c 4262 2b3d 298c 51be
00000390: 0f9d 23bf ae00 c1bb abc9 5fbd 97bc 94bc
000003a0: a151 eb3d 3f10 f0bd d560 a3bd 667d 07bd
000003b0: cace acbd 82cb 143e 0067 4b3e ac75 3ebe
000003c0: 1e9d 773d 430e b2be 015f 8c3d 51e4 f73d
000003d0: f3a4 17be b26c aebd bb94 4e3c 37b4 59bd
000003e0: f032 b7bd 5647 923e c0ff cbbd 210f ffbc
000003f0: 7a5e aabe e796 c2be 996f 033e effe 9abd
-0.3467026 0.09448454 -0.44901648 -0.25000802 -0.0723414 0.041759055 -0.2732511 -0.030097904
-0.24156944 -0.08390202 0.057186615 -0.13461187 -0.2730269 -0.29752553 -0.25834024 -0.24146865
-0.22401613 0.1313212 -0.23758876 -0.31979325 -0.15771303 -0.015090938 0.06431684 -0.44062716
-0.25841302 0.072593935 -0.25971147 -0.25646874 0.21468127 0.19186021 -0.328478 0.32541704
0.14984868 -0.054339435 -0.09407574 0.013292528 -0.2597839 0.03688666 0.017920062 -0.20617892
-0.080038585 -0.27091873 -0.35312364 -0.16799821 0.14418454 -0.23373182 -0.020044114 0.18121861
0.016251862 -0.19579995 -0.07075834 0.17102297 0.061757673 0.009216254 0.33234656 -0.22887258
0.21323766 0.17964794 0.02307919 -0.032024 0.152559 -0.0016522715 -0.0049849907 0.5911916
0.11609441 0.051271185 0.17330934 -0.088461 0.010444072 -0.20717703 -0.097218275 -0.12938832
-0.06230886 0.3565136 0.048262443 -0.24062793 -0.08699218 -0.22307536 -0.3777749 -0.31117395
0.21368816 -0.17475203 -0.0054466655 -0.11781678 -0.29816216 -0.23451173 0.35251647 0.16905291
0.41299465 -0.065100506 -0.030158203 0.018754799 -0.0065877894 0.17506467 -0.21481836 -0.17244038
-0.109421514 0.13707137 -0.011192136 0.13353969 -0.27200812 0.13808912 0.11800124 -0.075929515
0.13175362 0.008396384 0.02594693 0.2646033 -0.26846653 -0.26311964 -0.1132895 0.09791795
-0.20916015 0.06401275 0.24542029 -0.10424236 -0.12859668 0.014271591 0.12790646 -0.03429648
-0.011287417 0.15194237 -0.115087785 0.008288925 0.10629971 0.33358538 0.066993624 0.032063965
-0.036202367 0.036143567 0.008192534 -0.38979515 0.09370766 0.04354424 -0.46160382 0.002611771
0.4233693 -0.027774476 0.17166968 -0.092809305 0.05914081 0.13744183 -0.20240332 -0.17975253
-0.24587089 0.13787566 -0.21743514 0.046296403 -0.10704944 0.08412308 0.08200223 0.26414385
0.11175774 -0.23080198 0.36583936 -0.15949206 -0.24178647 -0.18834354 -0.15072928 0.16607241
-0.21446732 -0.39248928 0.0169129 0.18952245 -0.40387657 0.1202985 -0.07631109 -0.006888538
-0.2162 -0.31296855 -0.2088184 -0.17113861 0.12788764 -0.32069835 0.0127171865 -0.1526302
-0.1075552 -0.0066572973 -0.14783527 -0.21044776 -0.17035228 -0.17616214 0.059816778 0.08923433
-0.012491366 -0.05165971 0.05504155 0.050625686 -0.012401302 0.40756926 -0.06593553 -0.0011938056
-0.046422817 -0.0694854 -0.1752774 -0.1984057 0.12965955 0.04147515 -0.16663557 -0.014003331
0.2193119 -0.06459907 -0.06252661 -0.15911536 0.2479214 0.10240508 0.13605565 -0.07373738
0.19679686 -0.21685986 0.09604096 0.16747108 -0.24789242 0.08451328 0.18190995 0.07480667
-0.16017337 -0.19974613 -0.0043620383 -0.13474727 0.10137469 -0.31775686 -0.004362849 -0.280629
0.07814424 0.019138316 0.041841753 -0.20463623 -0.6391153 -0.0058899736 -0.054635685 -0.018156333
0.11490179 -0.11721849 -0.079774536 -0.033078574 -0.084378794 0.14530757 0.1986351 -0.18599576
0.060452573 -0.34776506 0.06854058 0.12104095 -0.14809017 -0.08516826 0.012608702 -0.053150382
-0.089452624 0.2857005 -0.0996089 -0.031135144 -0.33275205 -0.38005754 0.1283554 -0.07568156

network_body._body_endoder.seq_layers.0.bias f4 [128]
00000000: 5bd6 22be 9e7c dcbc 0831 123b 193d 5bbc
00000010: 0ed2 c2bd b76b 103d 647c cdbc 5ff2 9cbc
00000020: ac9c 043d 4d32 ccbc dab6 bf3a 8256 6c3c
00000030: 4366 50bc 4cc7 dfbc c8f6 8abe 82ea 5fbe
00000040: caa5 0a3c 078f edbc 2ec2 a7be 8980 7bbd
00000050: 4a47 ef3b 25ab 13bc c650 63bd 7f17 04bd
00000060: e1ae 2c3d 44c1 8fbe a4fe a0bc f9c0 1a3d
00000070: 9b40 7dbc 4777 0abc 5c42 2c3a 8da6 85bc
00000080: 94aa 80b9 264a 1abd c4b9 473d 287a f73a
00000090: f61a b03c 775e 56bd c650 ffbc aa93 3bbe
000000a0: 3da4 68be 9b20 80bc e3af aabc 5504 83be
000000b0: b1e0 093d de38 02bc c6fd f2ba 30f0 073d
000000c0: 706f d5bd 4773 c2bb 8240 24be e487 6fbc
000000d0: 01b1 babe 8c71 59be 4c87 33bd 3650 0c3d
000000e0: ca8c 0abd b716 49bb c87d 65bd 255f 37bd
000000f0: ee2a a3bb a7b9 983c efe8 1cbc 9ea4 4fbd
00000100: 41ff 4b3d 76d6 e63c 25b5 88bd 5a56 36bc
00000110: 0873 02bd 2d4d 083d 6efb 16bd 1641 aebd
00000120: 6e73 f5bd 39ac 16bd 8ac1 5d3d 0a4d 73bd
00000130: ff47 21bd 48de 09bc c940 8ebe 5aeb e13b
00000140: ccc0 45bd ba60 97ba c6a0 b8bb c9ed bc3c
00000150: 8a0e 91be 5191 30be dc57 63bc 15a7 a7ba
00000160: d8ca b93c 51b9 1abe a783 833d 5024 fbbc
00000170: 5718 bcbe d3d2 bdbc 8b2e 91be d962 9a3d
00000180: c960 2e3d 3cf1 ccbd 7efe b53c 7cbd 04bc
00000190: f8c2 5f3c 6832 99be e450 1abe 2c7e 95be
000001a0: 7688 653d 950a cbbc f442 e5ba ecf9 53bd
000001b0: 81ea 7a3c 919a 15be 6b2a f4bd e0fa 7fbc
000001c0: 7188 2f3c 32db 0a3c 028c 7dbb 00e0 cbbc
000001d0: 89bb f2bd 75f3 b5bb 790c 2e3d c2fe d3bd
000001e0: a276 15be 973b 013d 96bc 90be 2473 0ebe
000001f0: cd3e 6f3b a025 12be 144e 283d ab9a 7b3d
-0.15902083 -0.02691489 0.0022307057 -0.013381266 -0.09512721 0.035258975 -0.025083728 -0.01915854
0.032375976 -0.024926329 0.0014626638 0.014424922 -0.012719694 -0.027316712 -0.27141404 -0.21866801
0.008462379 -0.028998865 -0.32765335 -0.061401878 0.0073021995 -0.009012972 -0.055496953 -0.03224897
0.042158965 -0.28077137 -0.019652672 0.03778169 -0.015457298 -0.0084512895 0.00065711676 -0.01631477
-0.00024541153 -0.03766837 0.048761144 0.001888101 0.021497231 -0.052336182 -0.031166445 -0.18318048
-0.22718902 -0.015640547 -0.020835822 -0.25589243 0.033661548 -0.0079481285 -0.0018538765 0.033188045
-0.10421646 -0.0059341523 -0.16040233 -0.014619801 -0.36463168 -0.21234721 -0.0438302 0.034256183
-0.033825673 -0.0030683705 -0.056028157 -0.04476847 -0.004979483 0.018643213 -0.00957702 -0.0506941
0.049803976 0.028178435 -0.066751756 -0.011128986 -0.031847984 0.033276726 -0.036860876 -0.08508508
-0.11984907 -0.036785338 0.05413965 -0.059399642 -0.0393753 -0.008414812 -0.27783802 0.006894511
-0.04827957 -0.0011549213 -0.0056344 0.023062604 -0.28331405 -0.17242934 -0.013875928 -0.0012790883
0.022679731 -0.15109755 0.06421595 -0.030656964 -0.3673732 -0.023171818 -0.28355822 0.07538385
0.04257277 -0.10006949 0.022216078 -0.008101817 0.013657324 -0.2992127 -0.1506992 -0.29197824
0.056038342 -0.02478532 -0.0017491267 -0.051752016 0.015314699 -0.14609744 -0.11922153 -0.015623778
0.0107136825 0.008475112 -0.0038688187 -0.024887085 -0.11852176 -0.005552704 0.042492364 -0.103513256
-0.14596036 0.03155097 -0.2826888 -0.1391111 0.0036505938 -0.14272165 0.041090086 0.0614268

network_body._body_endoder.seq_layers.2.weight f4 [128, 128]
00000000: 3e92 8c3d f7fb 973d e1aa d7bd 4485 e5bd
00000010: 0a37 57bd 5da7 98be 581b 703d 6199 e3bd
00000020: fdc0 95bb 0389 25be 3627 c83d c3fa a3bd
00000030: 1e87 92bc 6acb 18bc b0cd 4fbc 596a 283d
00000040: 102c 18be bf45 0e3e 005b 84bd 4142 1ebe
00000050: 410e ae3b 6abb a5be 5d02 34bd 07a9 bc3c
00000060: 73c0 1e3e acf1 6fbc a3f3 76ba 3ea4 d0bd
00000070: 3843 063e 756a 04be 5e14 75be 4cc7 5c3d
00000080: c006 99be 94f7 313c 41df 7fbd 2f2e 98bc
00000090: d851 2ebc c488 383e ae0c 2abe e52c 353e
000000a0: 5209 2d3e 6eb9 803d dc32 50be a801 713d
000000b0: 80bd 9d3d a2e3 1fbe cbe1 b2bd f9a5 a3be
000000c0: bd4c cdbd 0565 5cbe e54e 8c3d baac 233e
000000d0: 2a9d aa3d cac2 3ebd b239 843c 5d59 8dbd
000000e0: 710d 1fbe bd06 c2bd 6e72 3dbd 98d4 bfbd
000000f0: 467a 0a3d b2f9 9abd daa5 03be 6441 f1bd
00000100: c539 d1bd 5836 8dbe 4d9b cfbd 253b d53d
00000110: 75e8 6bbd 7372 23bb 6d61 e2bc 7a39 0bbe
00000120: f81c 1a3e 62bf b83c 8f44 01be 60f0 90bc
00000130: e0cb 28bd 34c6 84bd 4ce0 e63b d00f 7cbd
00000140: 2726 f6bc b9cb 763d 7e3b d93d 577e 1abe
00000150: a086 c1bb 3015 003e 304d 84bc 9f6a aabc
00000160: 2d6c 75bc e542 2b3e 27a8 9ebe 57eb 73be
00000170: d780 743d a532 1abe 6c55 ecbc de0a 7fbe
00000180: bce6 5e3e ade9 603d 5bb2 9ebe 1c88 8dbd
00000190: 3039 3e3d 7354 e6bc f960 cebc ac31 0f3d
000001a0: 1b0d 5bbd 738b 89bc 68a1 0f3e 2fa4 33be
000001b0: 694a f43d 05df 403d 0ea8 61b9 0f29 89bd
000001c0: 59fa 663e fdaf 123e e59b 96bd f3fe 76bd
000001d0: 0910 bf3d 3cfe 3d3d 0a5d 2a3e 4dcd d4bd
000001e0: 0a4d 353d f9a3 b5bd 8f99 89bd 832c 04be
000001f0: 7510 b13c 100a 153d 54e1 0d3e bcbe 5dbe
00000200: 4a7c cf3e e3d5 84bd 4fb4 82bd d743 403e
00000210: d008 38be 4653 373d e6fd f63b 5be3 f3bd
00000220: 1c79 c7bd e9d9 75be 3a00 4ebe 0db8 05be
00000230: 2257 c9bc 4a23 8a3d 6b68 0f3e 0f0e 4a3e
00000240: 8e33 253e c08b 43be 3341 143e c743 04be
00000250: 847a 013e bd6a 94be 90df 4bbd e444 5f3d
00000260: 8b49 61be 84ad 9f3e d371 52be 7570 273e
00000270: b6dc 19be b99c 1c3e 77bf 3cbc e43f 823d
00000280: 718b 4dbc e9c3 69be 121f bfbd 0504 2e3e
00000290: 454a febd b223 113e c2dc 0cbd 0abc 8d3e
000002a0: e636 9b3e a2c6 6fbe 3710 d1bb d536 543e
000002b0: b0d0 0fbc eec6 d2bc cc83 73be f33a 83be
000002c0: 8a13 1a3e 48e6 b0be 1a68 0dbe 7f55 79be
000002d0: f3c9 3a3d 310c 1d3e d883 b0bd 0257 9abe
000002e0: e1d9 9fbd dfc8 f63a a8ec 823d 386c d83d
000002f0: 77ea 2c3d f2ad 5fbd cbba 9fbd fdea 60bb
00000300: 46da f3bd 96a6 88be 7eaa c1bd b23c 58bd
00000310: 1e29 96bb 42dc 373e 8a14 35bd d293 913c
00000320: fb58 f1bc a932 a13d 6a1a cd3d bd2c e33d
00000330: 9625 c83c f71e 2cbd 82b3 533e 691e 2d3e
00000340: ee60 4bbe 6282 50bd 93b9 0bbe 52b9 77be
00000350: 28ac 4d3e 918e d93e f603 51bc d592 d93d
00000360: b076 a6bd c737 863e 086a 77be 6e79 e23d
00000370: 02b8 a4bd 79a2 3cbe 80ee 9e3d c90c 0abe
00000380: b2d2 91be 04e8 a73e 3b75 1a3e c2f2 6b3d
00000390: d425 26bc 9c21 c13e 42a9 e0bc 5668 9a3e
000003a0: 561d 48be b936 4bbe a528 abbe 4113 c2bd
000003b0: c7a0 2dbe ffad 853e 0147 3e3e 6e20 ddbc
000003c0: cd8d 073c d707 c7bd 0573 9dbe f20f c63d
000003d0: f2ff 76be 1fd6 a23c d0d7 2d3e e14b 14be
000003e0: 80b2 f23e 98f5 9fbe 46d1 923e 5065 873e
000003f0: 7b79 c0be eb91 d43e ef5d bfbc bee0 63be
0.06863831 0.07421105 -0.105306394 -0.11207059 -0.052542724 -0.29815188 0.058619827 -0.11113239
-0.004570125 -0.16165547 0.09773104 -0.080068134 -0.017886695 -0.009325841 -0.012683317 0.041117046
-0.14860559 0.13893794 -0.064626694 -0.15454961 0.005311758 -0.32369548 -0.043947566 0.023029817
0.15503101 -0.014645021 -0.000942046 -0.10187577 0.1311158 -0.12931235 -0.2393355 0.053901
-0.29887962 0.01086225 -0.06246877 -0.01857671 -0.01063963 0.18020922 -0.166064 0.17692907
0.16898087 0.06285368 -0.20331901 0.05883947 0.0770216 -0.15614179 -0.08734473 -0.31962565
-0.10024402 -0.21522911 0.068509854 0.15983859 0.08330758 -0.046572484 0.016140793 -0.0690181
-0.15532471 -0.094739415 -0.046251707 -0.09366721 0.033808015 -0.07567157 -0.12856236 -0.117800504
-0.10216097 -0.27580523 -0.10137043 0.104116715 -0.057594735 -0.0024940043 -0.027634347 -0.13596144
0.15050113 0.022552196 -0.1262381 -0.017692745 -0.041210055 -0.06483117 0.0070457812 -0.061538517
-0.03004749 0.06025288 0.1060705 -0.15087257 -0.005905941 0.12508082 -0.016150087 -0.020802794
-0.014979404 0.16724737 -0.30987665 -0.23820244 0.059693184 -0.15058382 -0.028849326 -0.24906489
0.21767706 0.05491035 -0.3099545 -0.069107264 0.046441257 -0.02811644 -0.025192725 0.03495948
-0.053479295 -0.016790127 0.14026415 -0.175431 0.11928255 0.047087688 -0.00021520277 -0.066972844
0.22556438 0.14324947 -0.07353953 -0.060301732 0.0932923 0.046385035 0.16637054 -0.103907205
0.044262923 -0.08869166 -0.06718742 -0.12907605 0.021614293 0.03638655 0.13855487 -0.2165479
0.40524513 -0.06486108 -0.063820474 0.18775879 -0.17972112 0.04475715 0.0075375913 -0.11908599
-0.09739897 -0.24008907 -0.20117274 -0.13058491 -0.024577681 0.06745012 0.14004676 0.19731925
0.16132948 -0.19096279 0.14477997 -0.1291648 0.12644392 -0.28987685 -0.049773753 0.05450906
-0.2200071 0.3118707 -0.20551233 0.16351493 -0.15025601 0.1529416 -0.011520258 0.063598424
-0.012545452 -0.2282864 -0.09332098 0.16993721 -0.124165095 0.14173773 -0.03439022 0.27682525
0.30315322 -0.23415616 -0.006380107 0.20724042 -0.008777782 -0.025729623 -0.23780745 -0.25630912
0.15046516 -0.3455069 -0.13809243 -0.2434902 0.04560275 0.15336682 -0.08618897 -0.30144507
-0.07805229 0.0018828175 0.06392795 0.10567516 0.04221579 -0.054609247 -0.077993 -0.0034319751
-0.11906867 -0.26689595 -0.09456347 -0.05279226 -0.0045825383 0.17955115 -0.04420904 0.017770682
-0.029461375 0.07870991 0.10014804 0.110925175 0.024431985 -0.042021718 0.20673946 0.16906132
-0.19861194 -0.050905593 -0.1364501 -0.24191788 0.20085204 0.42491582 -0.012757292 0.10623709
-0.081281066 0.2621443 -0.24161541 0.11058317 -0.08042909 -0.18421353 0.07760334 -0.1348144
-0.2848106 0.327942 0.15083782 0.05760456 -0.010140855 0.37720954 -0.027424458 0.30157727
-0.19542441 -0.19845094 -0.33429447 -0.09476329 -0.16955863 0.2610931 0.18581773 -0.026993003
0.008273554 -0.09718292 -0.30751815 0.0967101 -0.24121073 0.019877492 0.16976857 -0.1448207
0.4740181 -0.3124206 0.28675288 0.26444483 -0.37592682 0.41517577 -0.02336022 -0.22253701

network_body._body_endoder.seq_layers.2.bias f4 [128]
00000000: 0093 d6bc 0ec1 6cbe 3312 2fbe 0a6f 04be
00000010: c623 7bbd 4e0a 72bc d52d 71bd 253c cabe
00000020: 8e65 d5bc bb9b a9bc c3d0 b2bd ee32 1ebe
00000030: 03e5 a73c 4b88 0cbe 4fa8 123d b82e 82be
00000040: ff17 ffbd 3ee8 593c 3b9e 39bd 5110 a2be
00000050: 13b9 dabe bc18 50bd c060 8f3d 2320 5abe
00000060: 0c41 c4be b3a6 83bd 8b27 6d3c 6a04 5bbe
00000070: 1637 9ebd af56 65be 21db cfbe 7bbb 51bc
00000080: f07c 82be b310 3cbd 15c4 80bd 642c b3bc
00000090: 4e6d f0bc 2ccd 13bc 30b0 22be 9600 e23b
000000a0: 61ea 6d3d 98f3 fbbd f8a1 7bbd f02d a8bc
000000b0: befb 6b3b 87a2 a1be d3ee 023b 4e05 b53c
000000c0: 7217 5dbd af74 1dbe d619 90bd ea1a 683d
000000d0: 67fe 90bc 3bfe eebd e917 183d 829a 72be
000000e0: 4ccd 26be 2202 5fbd e67d 4f3c 7882 04be
000000f0: 1446 59be cd89 b5bd 37c9 4abe 0f8d 9ebc
00000100: 0577 e6bd 436e 0cbd 83cd 03bd 977d 83be
00000110: 15ca 84be 7346 fabd 1be5 43be 9864 b8be
00000120: a0f8 9bbd e2a8 44be 37bf c0be b045 92bd
00000130: 6c94 cdbc b1d8 19bd 4054 cb3c e690 d7be
00000140: 32dc e0bd 49b2 75be 23c7 8fbe 6538 20be
00000150: 246d 75be 7ef1 8b3d 7d47 03bd 0330 343d
00000160: 381a 87bc 744a 56be 343b 8cbe 2ff2 153d
00000170: 31a1 72bc 157a 0abe c357 92bd 9024 71bb
00000180: bdc0 38be 6b86 03be 8163 cebd c031 c0bd
00000190: e8a2 62be 0297 33be b67e 37be 98ff abbc
000001a0: 077d b8bc 2698 2bbe ecfd dd3c 15e4 9cbe
000001b0: 72a4 6bbc 6edb 27be f8af 00be 684f 5abd
000001c0: d990 58bd 0f77 59bd df64 dabc 893e 13be
000001d0: c717 f53c 2307 91be 7d97 87bd bca2 a7be
000001e0: e699 a8be 4178 2dbe f0c7 e0bd 0209 f0bd
000001f0: 996f 93be a867 aabd 19bd a9bd 9a6d 9cbc
-0.026193142 -0.2312052 -0.17096786 -0.12932983 -0.061313413 -0.014772965 -0.0588816 -0.39499012
-0.026049402 -0.02070414 -0.087312244 -0.15449116 0.020494943 -0.13723867 0.035805043 -0.2542627
-0.12455749 0.0133 -0.045316916 -0.31653073 -0.42719325 -0.05080484 0.070008755 -0.21301322
-0.38330877 -0.0642828 0.01447476 -0.21388403 -0.077253506 -0.22396348 -0.4059687 -0.0128010465
-0.25485945 -0.045914363 -0.062874 -0.021871753 -0.029348996 -0.009021085 -0.15887523 0.0068970425
0.05808485 -0.12302321 -0.061433762 -0.020529717 0.0036008204 -0.3156931 0.0019978776 0.022097256
-0.053977437 -0.15376543 -0.07036178 0.056666292 -0.017699433 -0.11669584 0.037132178 -0.23691753
-0.16289252 -0.054445393 0.012664294 -0.12940395 -0.21218139 -0.08864174 -0.1980332 -0.019354371
-0.1125317 -0.03428484 -0.032178413 -0.25681755 -0.25935426 -0.12220468 -0.19130366 -0.36014247
-0.07615781 -0.19205049 -0.37645885 -0.07142198 -0.025095187 -0.03756017 0.024820447 -0.42102736
-0.10979499 -0.23993792 -0.28081617 -0.15646513 -0.23967415 0.0683317 -0.0320506 0.0439911
-0.016491994 -0.20926839 -0.27388918 0.036607917 -0.014808939 -0.13523133 -0.071456455 -0.0036795475
-0.18042274 -0.12844245 -0.100775726 -0.09384489 -0.22132456 -0.17538074 -0.1791943 -0.0209959
-0.022520555 -0.16757259 0.027098618 -0.30642763 -0.014382469 -0.163923 -0.12567127 -0.053298384
-0.052872512 -0.05309206 -0.026659427 -0.14379324 0.029918564 -0.28325757 -0.06620691 -0.32741344
-0.32929915 -0.16940404 -0.10975635 -0.11720468 -0.2879608 -0.08320552 -0.08288021 -0.01909523

action_model._continuous_distribution.log_sigma f4 [1, 3]
00000000: 7db3 91be 7b78 f8be 084f 92bf
-0.2845725 -0.4852942 -1.1430368

action_model._continuous_distribution.mu.weight f4 [3, 128]
00000000: c38c 033c e718 9a3d 63c8 18bd 3475 33bd
00000010: 8abd 403d 6c90 923b ce00 983c f555 62b9
00000020: c0df 063d b9a6 8b3d 8df9 9c3c 46c7 333a
00000030: a759 b73d 3540 99bb 6145 df3c 6990 1c3d
00000040: 2555 313d 9331 d8bd 8a60 b8bc 6bc1 a13c
00000050: 84b8 8c3c 69e2 90bd 8a9a c23d f7cd 04bc
00000060: 2d03 2a3d 39d6 243d 9f4e c03c e7fb 043d
00000070: 8ab3 18bc b607 3b3d d75f cd3c 4b3b 12be
00000080: 232e 973c c568 8bbd 3ba7 323c aaf9 b13c
00000090: fd34 053c ba96 1a3e 992a a13d b9e2 fc3d
000000a0: 563c 6a3d 4698 d03c 9bfc a739 0567 9abb
000000b0: 55cc d23d ef7b 733c 8ec7 0d3e ad9e a63d
000000c0: 59c0 cc3c 17c9 f23c 69e0 dc3c 89f3 ca3d
000000d0: 2d9e a23c 5ae3 6fbc 5d07 4abe b07a 853d
000000e0: 32ce 77bd c309 aa3c 6b99 34bc 9958 fabc
000000f0: b9fb 5a3c a69b 983c 8c9e b53c e249 e13c
00000100: 9b48 47bd 0281 8e3c 995a d5bd 2dba 07bc
00000110: f0a3 0ebc 9b7a 143d 6d58 0abd d6b9 7dbc
00000120: 1263 3a3c 4080 bd3c ab04 0f3d a0e9 933d
00000130: 414b 863c b322 bdbc fe58 cf3c 23bf db3c
00000140: 3b92 5bbd 3b06 773c f88c 023d f422 8cba
00000150: e899 db3c bc13 49bc f755 e53d ac4a af3d
00000160: 114d 34bc fe1e 913d 58fb b43c d8d0 58bd
00000170: 6248 fc3c 2ef6 a9bc acee 983d ac35 13be
00000180: 12a4 f13c 45c5 4bbd 09c5 ed3b 394c 913c
00000190: d71b edbc 32d0 ad3c d415 90bd 5742 383d
000001a0: 2173 9d3d 59eb 663d 54d6 1e3e 86b6 5abb
000001b0: 61fe ccbc c8ad 8f3d 4481 513d 2510 4e3d
000001c0: 70da b6bb 3488 bb3c c394 8fb9 5021 983c
000001d0: 750a 80bc 4ea9 833b 41b3 863d c53b f93c
000001e0: eae6 b83c 0b89 bebc cf00 e33c c284 293d
000001f0: e3af 7a3c 8b2c 723b 4e90 e53b ecdd 653d
00000200: 68c0 9dbd f90c 673d 618d 83bd 2d03 b53d
00000210: f539 c53b efe5 9cbd df56 843b 82ff ac3c
00000220: bb55 aabb 5430 c73d d4d4 2ebb 34a8 133d
00000230: 132f c4bd 22df 85bc e25d 42be 6010 363d
00000240: 554b 7d3c a533 15be 99d8 89bc 76fe 72bd
00000250: ad23 1f3d 671a 1cbd 1792 a73d 48bb 143d
00000260: d47d 433c 4b60 3d3d e6b6 0c3d bf4b 363d
00000270: b939 15bd f478 9a3c 44be 223d ae14 693d
00000280: 76e2 0c3d 6be9 14bd 39ea 343d 7e2c e3bd
00000290: 6d05 32bd 14ae e33c caec e23d 66f0 d6bd
000002a0: 75ba fc3d 0406 31bc a3b6 25bd 3bac f3bd
000002b0: ebb3 853c 9522 403c c71d 1abd 117f 81bd
000002c0: 9d76 e93d 7b4c c0bb b258 403d 07eb 65bd
000002d0: 43df bbbd 98d2 d23c 89f8 7d3c e713 9c3d
000002e0: 34b3 993c 934c 273d 78ef c1bd 9d9b 8c3d
000002f0: aa17 223d 580f 243c f40b 653d c91d 95bd
00000300: 98c6 143d db1b 2bbd 8214 f539 ed7b f13c
00000310: c1e2 a83c 4758 383d 6aa3 463d 30ac 5ebc
00000320: 3322 8e3d 0742 3f3c be58 643d e90f c93b
00000330: 998f 2abc 63bd 67bc b7f5 2d3e 7713 d73c
00000340: 88c0 473d fa24 2a3d a590 29bc 0e91 333d
00000350: b3b9 923c cd29 3fbe b124 b03d dabf cdbd
00000360: 9023 fb3d 742c 263c 0f08 cb3c 2094 25be
00000370: bd53 91bd fccd 3b3d 9006 8b3d 315d c13c
00000380: 1023 213c 26c0 d93d 3b45 a83c 79e3 1bbd
00000390: ed24 483c d768 473c d58b bf3d 86c6 c73b
000003a0: 1669 143c fb47 493c 3700 203c a40e 28bc
000003b0: ae84 343e aa87 1f3b 4fd4 ae3c 1bc4 c1bc
000003c0: 45c4 89bc 819c eb3a 798e 13be ed58 c5bc
000003d0: eea2 1a3e 51f6 163d 2f8b da3c 4121 fe3c
000003e0: 977a e93c d0ea 753c cf8d 653b 8435 bc3d
000003f0: 5a98 323d 9de7 013d 33ff 973c 7239 3fbd
0.008029166 0.07524281 -0.03730048 -0.043812945 0.04705576 0.004472783 0.018555071 -0.00021585061
0.03292823 0.06818909 0.019161964 0.0006858002 0.08952647 -0.0046768435 0.027254762 0.038223658
0.04329409 -0.105563305 -0.02250697 0.01974555 0.017177828 -0.07074434 0.09502132 -0.0081057465
0.041506935 0.04024336 0.02347499 0.032466795 -0.009320149 0.04566165 0.025070114 -0.14280431
0.018454617 -0.068070926 0.010904129 0.021725494 0.008130309 0.1509656 0.07869453 0.123479314
0.057186447 0.025463235 0.00032040928 -0.004711988 0.102928795 0.014861091 0.13845655 0.08135734
0.024994062 0.029636903 0.026962476 0.09909732 0.019850815 -0.014641607 -0.19729371 0.065175414
-0.060499378 0.020756608 -0.011022906 -0.030559825 0.013365679 0.018628906 0.022170328 0.02750105
-0.048653226 0.0173955 -0.10417671 -0.008284134 -0.008706078 0.03624974 -0.033775736 -0.015486201
0.011376159 0.023132443 0.03491656 0.07222295 0.016393306 -0.023087835 0.02531099 0.02682454
-0.053606253 0.015077169 0.03187272 -0.0010691569 0.026806787 -0.012272771 0.11198037 0.085591644
-0.011004702 0.070859894 0.022092506 -0.052933544 0.030796234 -0.02074727 0.07467398 -0.14375943
0.02949718 -0.049748678 0.0072561544 0.017736541 -0.02894394 0.02121744 -0.070354134 0.04498514
0.07687975 0.05637679 0.15511447 -0.0033372953 -0.025023641 0.07015568 0.051148668 0.050308365
-0.005580239 0.022892095 -0.00027385922 0.018570572 -0.015629986 0.0040179854 0.06577159 0.030424008
0.022571046 -0.023258707 0.027710347 0.041386373 0.015300724 0.003695282 0.007005728 0.056119844
-0.07702714 0.056408856 -0.0642345 0.08838496 0.006018872 -0.07661044 0.004038676 0.02111793
-0.005198208 0.09726015 -0.0026677148 0.036049083 -0.09579291 -0.01634175 -0.18981126 0.04444921
0.015459855 -0.14570482 -0.016826915 -0.059324704 0.038852382 -0.038111117 0.08182161 0.036311418
0.011931855 0.04623441 0.034354113 0.04450583 -0.036432 0.018856503 0.039732233 0.056904487
0.034395657 -0.036355417 0.044168685 -0.110924706 -0.043462206 0.027792968 0.1108032 -0.10495071
0.12340251 -0.010804657 -0.04045738 -0.11898085 0.016321143 0.011726995 -0.037626054 -0.06323064
0.11399577 -0.005868492 0.046959586 -0.056132343 -0.09173443 0.025735185 0.01550115 0.076209836
0.018762209 0.04084451 -0.09469503 0.068656184 0.03957335 0.010013424 0.055919603 -0.07281072
0.036322206 -0.041774612 0.0004674532 0.029478038 0.020615937 0.045006063 0.048495688 -0.013590857
0.06940117 0.011673457 0.055748694 0.00613593 -0.010410213 -0.014144274 0.16988264 0.026254399
0.048767596 0.04153917 -0.010349427 0.043839507 0.017910814 -0.1866829 0.08600748 -0.100463584
0.122626424 0.010142434 0.024784116 -0.16169786 -0.0709605 0.04585074 0.06788361 0.023604007
0.00983502 0.106323525 0.020540824 -0.03805873 0.012215835 0.012170992 0.09352843 0.006096664
0.009058258 0.012285228 0.009765676 -0.010257397 0.17628738 0.0024342337 0.021341471 -0.02365308
-0.016817221 0.0017975719 -0.14409818 -0.024090255 0.15101215 0.036856 0.026677696 0.031021716
0.028500838 0.015009597 0.0035027151 0.09189895 0.043602325 0.031715024 0.018554306 -0.046685643

action_model._continuous_distribution.mu.bias f4 [3]
00000000: 13ad abbc 68fb 92bc 9342 3abe
-0.020956552 -0.017942145 -0.18189459

exp_avg f4 [128, 46]
00000000: 9b62 cd38 00cc 8d1c 0de0 8938 9962 cd38
00000010: fe92 432c f72b 5938 96fa ff38 ec5f cab7
00000020: c323 a138 a262 cd38 ff06 6aae d42e d637
00000030: 9b62 cd38 b397 45a6 0777 9738 a062 cd38
00000040: 0c58 2dae f4b1 cd35 9b62 cd38 86cc e9a8
00000050: a78a fc37 7b62 cd38 0d9d 822f 778d d037
00000060: 9862 cd38 68cd dc2d 5a57 f237 9a62 cd38
00000070: aef7 e72a a52c a336 9c63 cd38 0411 00b1
00000080: 6099 3338 9a62 cd38 f72c 832a a695 2c36
00000090: 3a62 cd38 ca8a 3f30 fe30 9e38 9b62 cd38
000000a0: 5e85 d928 15d5 f035 a223 b0b8 a7ba 2cb2
000000b0: b5d1 54b8 8e1a 1e3a bc39 2eba d821 dc21
000000c0: 8476 0aba 653a 2eba 5ddf 2832 5da0 ecb9
000000d0: a282 453a 2ede b9ba 202c 2cba f739 2eba
000000e0: 610d 7031 35bd 10ba bc39 2eba 7753 2a28
000000f0: e831 ebb9 af33 2eba 5c69 c1b3 014b 3ab9
00000100: bc39 2eba f33f 9cad 4b5b b2b9 cf39 2eba
00000110: cee2 a530 5e52 93b8 023a 2eba aef8 8b31
00000120: 99a7 a8b8 bc39 2eba d76d 692b 6017 9cb7
00000130: c932 2eba dd50 deb3 d3d3 f6b8 bc39 2eba
00000140: a3eb 3c2d f914 7fb7 6538 2eba 85e6 aab2
00000150: 7f9f 56b9 bc39 2eba 90ee 4e2d a963 d6b7
00000160: 243e 53b8 1309 05b5 d06d ea39 297e 74bb
00000170: 7e43 bb3b 2cfd e79e c722 7c3b 7843 bb3b
00000180: e27b 0231 db45 433b 97bc ba3b 2be5 8637
00000190: 7d4a 943b 7e43 bb3b fe9d 5ab0 2423 b23a
000001a0: 7e43 bb3b d806 be24 4ab5 873b 8143 bb3b
000001b0: 9364 0eb1 0e2a d138 7e43 bb3b 9914 29ad
000001c0: 16e5 e03a 7c43 bb3b acb5 0d30 d5a2 c03a
000001d0: 8343 bb3b fd63 52b1 93a7 df3a 7e43 bb3b
000001e0: 9556 842c cfc0 9739 d441 bb3b f668 5434
000001f0: 778e 253b 7e43 bb3b 1888 a52c 6187 2439
00000200: 7b43 bb3b f91c a730 27b0 913b 7e43 bb3b
00000210: 1e63 1e2c 5164 fd38 8365 a3bb c7fb b732
00000220: 2eac 40bb 7bb0 103d 80cf 7339 7f79 0c22
00000230: 9a82 be39 a7d2 7339 07a5 49b2 3174 0d3a
00000240: f6cc 7eb9 3a4e f939 6c72 e539 c9af 7339
00000250: c2b2 fd33 0eb1 913a 80cf 7339 5fd0 fda8
00000260: 90fb 7239 c0d4 7339 d723 a8b2 1195 f339
00000270: 7ccf 7339 a9db 492d a747 123a 23d2 7339
00000280: b111 28b2 c99c 93b9 5ad8 7339 258e 0db3
00000290: 59d5 abb9 7ccf 7339 7ddb 062e b7d9 4cb8
000002a0: 8d24 7439 cd19 aab4 a2ff feb9 80cf 7339
000002b0: ab77 12ad 5db6 a5b7 0acc 7339 b961 5d32
000002c0: 0da8 60ba 80cf 7339 6931 1cae d126 22b5
000002d0: 9a64 f93a 7a15 4034 7cb5 d8b9 cdbf b6b9
000002e0: 46b0 a5bb 0dd8 d620 5e7a 67bb 39b0 a5bb
000002f0: 464a c8b1 9f06 43bb 9b7b d1bb 532d af3a
00000300: d6b2 86bb 42b0 a5bb fa60 00b1 b0b4 f9ba
00000310: 46b0 a5bb 5432 fc27 f7e9 78bb 11b0 a5bb
00000320: 0520 d7b2 b07c c8b9 46b0 a5bb b8d7 38ad
00000330: 83bf f8ba 6ab0 a5bb 7be6 9232 eb9a 89ba
00000340: 4cb0 a5bb a49f 5031 9c9e 9fba 46b0 a5bb
00000350: 53dc 16ad a0bc 57b9 c0af a5bb 3fa3 84b3
00000360: e627 ecba 46b0 a5bb 5f35 072e aecf eab8
00000370: 54b0 a5bb 8196 e931 1357 4fbb 46b0 a5bb
00000380: a11e e0ac 7571 afb8 acd1 3b3b a782 c434
00000390: eeb4 373b addd f4bc a64c 593b 4266 f8a1
000003a0: 5bcc 0e3b 004c 593b d080 2733 311d d43a
000003b0: 4fe5 553b 41d6 5938 be02 283b 944c 593b
000003c0: 242e a231 9dfa 2a3a a64c 593b 424d 0327
000003d0: 6f65 1b3b bf4d 593b 5bcf 8bb3 87d6 52b8
000003e0: a64c 593b c358 1a2d e7c5 613a d54c 593b
000003f0: cd66 37b2 54ee 763a 314c 593b 01e6 ee32
9.7935284e-05 9.38333e-22 6.574402e-05 9.793527e-05 2.7792764e-12 5.1777777e-05 0.00012206023 -2.4124944e-05
7.6837394e-05 9.7935335e-05 -5.3211654e-11 2.5532594e-05 9.7935284e-05 -6.8553696e-16 7.222412e-05 9.793532e-05
-3.9413847e-11 1.5325481e-06 9.7935284e-05 -2.5956894e-14 3.0105306e-05 9.793505e-05 2.3758454e-10 2.4861407e-05
9.793526e-05 2.5102323e-11 2.8889324e-05 9.793528e-05 4.1205705e-13 4.862976e-06 9.7937154e-05 -1.8636124e-09
4.2819767e-05 9.793528e-05 2.3301475e-13 2.5717104e-06 9.793458e-05 6.9682626e-10 7.5431526e-05 9.7935284e-05
2.4149678e-14 1.7943408e-06 -8.398971e-05 -1.00541575e-08 -5.0740044e-05 0.00060311786 -0.00066461763 1.4916738e-18
-0.00052819424 -0.00066462747 9.829674e-09 -0.00045132908 0.00075344194 -0.0014180595 -0.00065678544 -0.00066462107
3.4932202e-09 -0.0005521358 -0.00066461763 9.454994e-15 -0.00044859876 -0.00066452747 -9.0064276e-08 -0.00017766283
-0.00066461763 -1.7763546e-11 -0.00034018824 -0.00066461874 1.2069792e-09 -7.024848e-05 -0.0006646217 4.073704e-09
-8.042082e-05 -0.00066461763 8.293066e-13 -1.8607534e-05 -0.0006645141 -1.03523895e-07 -0.000117696494 -0.00066461763
1.0738885e-11 -1.52040675e-05 -0.00066459767 -1.9895433e-08 -0.00020468047 -0.00066461763 1.1762716e-11 -2.5557196e-05
-5.0364193e-05 -4.9559566e-07 0.00044713775 -0.0037306643 0.005714833 -2.4562786e-20 0.0038472877 0.00571483
1.898791e-09 0.0029796276 0.005698751 1.608076e-05 0.0045254813 0.005714833 -7.953246e-10 0.0013590795
0.005714833 8.241096e-17 0.0041414844 0.005714834 -2.072089e-09 9.97373e-05 0.005714833 -9.611111e-12
0.0017158117 0.005714832 5.155367e-10 0.0014696965 0.005714835 -3.0615859e-09 0.0017063491 0.005714833
3.761278e-12 0.00028944618 0.0057146344 1.9782223e-07 0.0025261918 0.005714833 4.7046915e-12 0.00015690691
0.0057148314 1.2159084e-09 0.004446048 0.005714833 2.2508172e-12 0.000120826655 -0.0049864664 2.1418499e-08
-0.0029399502 0.035324555 0.00023251586 1.9037858e-18 0.0003633693 0.0002325276 -1.1737263e-08 0.0005396037
-0.00024299682 0.00047551264 0.00043763535 0.00023239771 1.18137464e-07 0.0011115388 0.00023251586 -2.8179009e-14
0.00023172633 0.00023253541 -1.9574072e-08 0.00046459635 0.0002325158 1.14743015e-11 0.0005580135 0.00023252568
-9.78291e-09 -0.0002815484 0.00023254883 -3.29584e-08 -0.00032774618 0.0002325158 3.0663017e-11 -4.8840153e-05
0.0002328327 -3.168374e-07 -0.00048637117 0.00023251586 -8.325711e-12 -1.9754452e-05 0.00023250296 1.2886113e-08
-0.00085699634 0.00023251586 -3.551418e-11 -6.040619e-07 0.0019027174 1.7889207e-07 -0.00041333947 -0.00034856648
-0.005056414 3.639598e-19 -0.003532074 -0.005056408 -5.82921e-09 -0.0029758585 -0.0063929087 0.0013364948
-0.0041106744 -0.005056412 -1.8681576e-09 -0.0019051041 -0.005056414 6.9998616e-15 -0.003798125 -0.005056389
-2.5043855e-08 -0.00038239872 -0.005056414 -1.0507088e-11 -0.0018977973 -0.0050564306 1.7101447e-08 -0.001049844
-0.0050564166 3.0358729e-09 -0.0012178007 -0.005056414 -8.575435e-12 -0.00020574266 -0.0050563514 -6.176423e-08
-0.0018017262 -0.005056414 3.074285e-11 -0.00011196673 -0.0050564203 6.798303e-09 -0.0031637594 -0.005056414
-6.3698634e-12 -8.365783e-05 0.002865891 3.6602907e-07 0.0028031426 -0.02989086 0.0033157258 -1.6832201e-18
0.0021789286 0.0033156872 3.8999872e-08 0.0016183016 0.00326379 5.193637e-05 0.00256364 0.0033157216
4.720066e-09 0.00065223296 0.0033157258 1.8221784e-15 0.0023711582 0.0033157913 -6.5104096e-08 -5.0267696e-05
0.0033157258 8.7735956e-12 0.00086125586 0.0033157368 -1.0675376e-08 0.0009419669 0.0033156986 2.781144e-08

exp_avg_sq f4 [128, 46]
00000000: 2326 7933 c9ab 012e 8ce2 7932 6d44 8233
00000010: 9952 6a2e 5431 6532 deec 5933 f13b 0b32
00000020: 2f94 da32 a0d5 8433 c79e 4b2e 1ac5 6f32
00000030: 2e2f 8733 5df8 9b2e bcee 0b32 e5f9 8433
00000040: d730 452e 7407 cf31 bf93 8633 a488 5630
00000050: 4b8b dc31 4c03 8833 5ade ba2f b68d 8032
00000060: 5db3 8733 86eb 702f c2ad 4a32 1761 8733
00000070: cf54 0430 6961 9832 257b 8333 ea33 9830
00000080: ac65 4232 ebe1 8733 de7f 1f2f 083a ac32
00000090: f64d 8433 2c74 c030 6ebc 8832 aa28 8733
000000a0: 402b e92e 7d75 0132 f9db 4e33 7083 0f2a
000000b0: bd0d 8832 44d5 b835 8d8e be37 1aa6 9b34
000000c0: dceb 4c37 58c5 bf37 b7b0 4e34 af74 4137
000000d0: 052b 7737 4442 d936 6aa6 9037 b387 bd37
000000e0: de10 f234 03c5 8237 0c89 c037 a945 6433
000000f0: ace7 8e36 ad0e c037 8add 1434 2f16 b436
00000100: e8d9 be37 6706 a734 5a43 7836 3afa bf37
00000110: 2190 a533 5834 8c35 ed2f c137 8427 8433
00000120: 993d 6435 fa50 c137 d030 2e33 ca01 b235
00000130: 2475 c137 5a6f ad32 94d9 4135 c9d4 b437
00000140: 0ba0 b635 f1f7 4736 dfdf c037 ae18 9c33
00000150: 83ee 6335 0f4e bf37 d586 8434 76de 3436
00000160: 50be 9837 e9c5 762f 158f 9d36 7930 123b
00000170: 0ea6 0438 72f5 3433 6b69 0537 3534 0938
00000180: 6e82 8833 e2ae b236 2cc0 0a38 eee2 7133
00000190: 0efc 3e37 1810 0d38 d670 8d32 b5de 7a36
000001a0: 0f05 0e38 d346 0233 8198 0437 c1ab 0c38
000001b0: d9dc 6a31 4323 0e36 fcfc 0838 acdf bb35
000001c0: 256b 8136 6450 0e38 12ce c934 545b 0037
000001d0: 2426 0e38 ae14 4c34 3d4a cb36 f9d9 0d38
000001e0: 6a67 c633 26e1 f536 6422 0b38 c001 f234
000001f0: 50d6 dd36 3a33 0e38 ab69 1334 9927 0337
00000200: 9942 0d38 488c ac34 abdf 6137 d416 0d38
00000210: 54ac c833 0987 6c36 cb0d d237 fcc5 232e
00000220: 67f9 1637 6cb6 a43a 2475 7037 c462 c934
00000230: c439 ac36 4df4 7137 99df ae34 926f 9c36
00000240: edab 4137 cc61 5436 153c d736 4f4e 7037
00000250: 0c55 1b35 33ac c836 cad5 7637 c23d 2134
00000260: 3220 5136 3dfd 7437 7ee0 1a34 af1e 5136
00000270: 45a6 7437 f16b 6e34 1f27 3336 b981 7537
00000280: 9ac8 7c33 d88b f335 a702 7237 8e4e 8834
00000290: e8f5 f435 aaaf 7537 2fdb fe33 dd94 0436
000002a0: cd08 7437 24e5 ce33 bd9e cf35 130f 6437
000002b0: c0c3 a035 f849 3936 efe9 7637 87a8 cf33
000002c0: 42b4 4136 68d6 7137 6538 aa34 5428 2d36
000002d0: 3762 1937 a57a ad2f b5c2 c536 0837 433b
000002e0: 93b3 9f38 759e 6b34 721c db37 398d a638
000002f0: 46f4 4f34 2719 b837 3689 9938 403c 8536
00000300: 0cc9 1338 8075 a638 d5cd 8833 ba0d a437
00000310: 3568 a738 dfc1 7234 159b c337 0711 a338
00000320: 0c98 e833 4b46 e936 7255 a338 0d89 1e36
00000330: 5cd2 5237 367f a838 97e6 9c34 4339 6237
00000340: 4b60 a838 ff32 2c34 1135 4b37 c795 a838
00000350: 980f 2833 0948 6737 a3eb a738 24d2 b534
00000360: 04bc 8737 1bd5 a538 b40d 9135 bdd2 7e37
00000370: 2094 a738 e31a db34 a998 d237 2a38 a738
00000380: f117 8534 7018 f236 7950 7138 2238 3c2f
00000390: 5306 c837 c7f3 723b 37da 6d38 9eeb 0635
000003a0: fcf4 8b37 f5fb 7138 9377 7235 90d1 4f37
000003b0: 7ec4 7538 848b 9734 6016 ad37 5ff5 7038
000003c0: 85d1 b134 2e66 2137 3dc0 7538 d13a 0135
000003d0: b669 8d37 d388 7338 909b 8634 4cea e436
000003e0: 9526 6f38 e045 1c36 d922 2a37 72d9 7638
000003f0: dd0a d434 9a78 3837 4052 7538 ccd0 0335
5.8009515e-08 2.948378e-11 1.4545218e-08 6.066043e-08 5.32788e-11 1.334077e-08 5.073968e-08 8.104494e-09
2.5445926e-08 6.185587e-08 4.629788e-11 1.3956447e-08 6.295009e-08 7.092702e-11 8.145147e-09 6.1921845e-08
4.4835993e-11 6.0253402e-09 6.266736e-08 7.8046924e-10 6.4186785e-09 6.333593e-08 3.3991193e-10 1.4965604e-08
6.3190534e-08 2.1911548e-10 1.17974555e-08 6.304088e-08 4.814184e-10 1.7739426e-08 6.122563e-08 1.107421e-09
1.1315404e-08 6.3275216e-08 1.4506393e-10 2.0049825e-08 6.16091e-08 1.4002857e-09 1.5918172e-08 6.293824e-08
1.0603296e-10 7.535502e-09 4.8163177e-08 1.2746553e-13 1.5838731e-08 1.3771137e-06 2.2716145e-05 2.8991855e-07
1.2214263e-05 2.286087e-05 1.9249534e-07 1.1530864e-05 1.47323635e-05 6.4748183e-06 1.724363e-05 2.2593746e-05
4.5088285e-07 1.5588948e-05 2.2952001e-05 5.3148742e-08 4.2589e-06 2.2895018e-05 1.386417e-07 5.3670005e-06
2.2751236e-05 3.1110832e-07 3.6994084e-06 2.2885495e-05 7.709628e-08 1.0446047e-06 2.302971e-05 6.153917e-08
8.5026255e-07 2.30451e-05 4.0556927e-08 1.3262554e-06 2.306194e-05 2.0190488e-08 7.221472e-07 2.1556758e-05
1.3606635e-06 2.9797632e-06 2.2992432e-05 7.268805e-08 8.491117e-07 2.2805323e-05 2.468502e-07 2.695158e-06
1.8208433e-05 2.2443881e-10 4.6956216e-06 0.0022306724 3.1625903e-05 4.2132747e-08 7.951962e-06 3.2711967e-05
6.3567185e-08 5.3251724e-06 3.3080738e-05 5.6318576e-08 1.1383569e-05 3.3632008e-05 1.6465872e-08 3.7382536e-06
3.386015e-05 3.0332398e-08 7.903321e-06 3.353856e-05 3.417702e-09 2.1180174e-06 3.2660537e-05 1.3997683e-06
3.856973e-06 3.3930308e-05 3.7589103e-07 7.6506585e-06 3.389096e-05 1.9006504e-07 6.058514e-06 3.3820023e-05
9.2389044e-08 7.3277797e-06 3.317221e-05 4.5077286e-07 6.6112625e-06 3.3903147e-05 1.3728884e-07 7.817428e-06
3.3679044e-05 3.2139565e-07 1.3463122e-05 3.363828e-05 9.344572e-08 3.5245341e-06 2.5040374e-05 3.7237755e-11
8.998765e-06 0.0012566573 1.4332389e-05 3.751103e-07 5.1327243e-06 1.44216e-05 3.2572714e-07 4.662151e-06
1.1543726e-05 3.1647387e-06 6.414494e-06 1.4323347e-05 5.786576e-07 5.980511e-06 1.4712519e-05 1.5016761e-07
3.1162167e-06 1.4602495e-05 1.4424037e-07 3.1161287e-06 1.4582246e-05 2.2204746e-07 2.669585e-06 1.4633341e-05
5.885577e-08 1.8145611e-06 1.4424942e-05 2.538913e-07 1.8250985e-06 1.4644038e-05 1.1867666e-07 1.9756183e-06
1.4545582e-05 9.634303e-08 1.5468901e-06 1.3593369e-05 1.19779e-06 2.7610204e-06 1.47172095e-05 9.6698436e-08
2.8864165e-06 1.441464e-05 3.1706e-07 2.5802483e-06 9.142378e-06 3.155566e-10 5.8937244e-06 0.002978744
7.615159e-05 2.1943727e-07 2.612008e-05 7.9418016e-05 1.9367243e-07 2.1946222e-05 7.321166e-05 3.970723e-06
3.523477e-05 7.937383e-05 6.370434e-08 1.9556715e-05 7.9825906e-05 2.2608536e-07 2.3318027e-05 7.775617e-05
1.0830999e-07 6.9521243e-06 7.788361e-05 2.3623609e-06 1.25659535e-05 8.034559e-05 2.922504e-07 1.3483982e-05
8.0288e-05 1.60373e-07 1.2112098e-05 8.0387625e-05 3.912973e-08 1.3785445e-05 8.007071e-05 3.3866775e-07
1.6180806e-05 7.907507e-05 1.080733e-06 1.5188646e-05 7.990771e-05 4.0811491e-07 2.5105039e-05 7.973642e-05
2.47906e-07 7.215007e-06 5.7533824e-05 1.7118443e-10 2.3844803e-05 0.0037071572 5.670843e-05 5.026176e-07
1.6684171e-05 5.769353e-05 9.032603e-07 1.2386954e-05 5.859555e-05 2.8227453e-07 2.0633626e-05 5.744898e-05
3.3121265e-07 9.620138e-06 5.8591588e-05 4.8141834e-07 1.6857735e-05 5.8063142e-05 2.5072632e-07 6.8222053e-06
5.7017973e-05 2.3286484e-06 1.0140903e-05 5.8853482e-05 3.949598e-07 1.0995334e-05 5.8489153e-05 4.910514e-07

exp_avg f4 [128]
00000000: 9c62 cd38 bc39 2eba 7e43 bb3b 80cf 7339
00000010: 46b0 a5bb a84c 593b 9091 6bba 1b7e 04bb
00000020: 0995 9c3c 641c 963c b0a3 16bc e185 3b3b
00000030: 276f c3bb ffd6 12bb 7cb3 5b37 716f 5037
00000040: 23f2 1139 9634 eebc 2002 0836 7f37 6cba
00000050: a1fc 3bba 3431 8ab8 adf5 5d3b a539 53bb
00000060: 3164 98bb 9fbb 64b7 1f31 44ba 1d1a 133b
00000070: a395 a83b ae5a 3fba ad3c 953a bac4 b1bb
00000080: 6f4f 0b39 4d40 183c 1bf0 0fba 50cd c0bb
00000090: 37dc 26bb 21b2 8639 cb6a a0bb 8e6b d2b8
000000a0: a67b 1c36 9995 233c fb35 c7b9 e71a 6cb7
000000b0: 3f66 fcba 0c4c 2c39 8710 b2bc d865 5c3c
000000c0: 3133 5dba 2736 97bb 2d54 6737 3b22 063c
000000d0: 5f04 a936 94ae 1ab8 56dc 223c 6725 ae3c
000000e0: f6bd c1ba 19df 913b 1d0c a5ba 8c08 0dbb
000000f0: 4039 76ba 5074 283b 872e cdbb 0d67 eebb
00000100: 5f28 8dba d7d9 af3c 2fc4 14bb 837f 06ba
00000110: 9ad8 6fbb 2778 803a 82f1 a039 229d 88ba
00000120: 27c8 34ba 3e85 be3a dd3d 163c 5214 d339
00000130: ab70 6d39 45f2 663c aff6 b636 91b2 4bb9
00000140: 89df 85ba 92fa b0bb 4766 08bc 91f1 7c3b
00000150: f9d7 edb6 9843 d4b8 e971 b13a 92fe b23a
00000160: f51a 053c f30c bc39 933a f03c 1eb9 1f3c
00000170: 2917 a8b6 63ab 803b 2626 1837 c09f 853c
00000180: 2551 8dbc 6231 01ba 0733 723c d17f 25bb
00000190: dce7 df3a 13ec ceb6 ce26 e436 1939 8e37
000001a0: 2e7c 4e3c 969a 22bb aac3 87bc 5ee0 6f3b
000001b0: a08a 8abb bb1a b239 0222 2eb8 2fd0 ba39
000001c0: de49 0d3b ce69 793b 7bc1 d0ba 43c0 1cba
000001d0: 2088 b4ba c75b e23a 5477 b2b6 90f4 8339
000001e0: 1228 5fb7 4e64 e03c 50e8 97b7 3ea2 66b9
000001f0: 457f 9abc 6010 e5b8 6481 013c eb45 ba39
9.793529e-05 -0.00066461763 0.005714833 0.00023251586 -0.005056414 0.0033157263 -0.0008986229 -0.0020216766
0.019114034 0.018324085 -0.0091943 0.0028613734 -0.005964178 -0.002240598 1.3095207e-05 1.2423713e-05
0.0001391848 -0.02907781 2.0266816e-06 -0.0009010955 -0.00071711285 -6.5895176e-05 0.0033868358 -0.0032230404
-0.0046506156 -1.3633543e-05 -0.0007484126 0.0022445985 0.005144791 -0.0007299584 0.0011385881 -0.005425063
0.00013285664 0.009292674 -0.00054907956 -0.00588385 -0.0025460848 0.00025691188 -0.004895543 -0.00010033614
2.3317784e-06 0.009984397 -0.00037996456 -1.407296e-05 -0.0019256546 0.00016431528 -0.021736396 0.013452016
-0.0008438109 -0.0046146098 1.3788272e-05 0.008186872 5.0371013e-06 -3.687905e-05 0.0099402275 0.02125807
-0.0014781344 0.004451644 -0.0012592111 -0.0021519987 -0.0009392686 0.0025704093 -0.00626165 -0.007275468
-0.0010769478 0.021466179 -0.0022699942 -0.0005130695 -0.003659761 0.0009801433 0.00030697515 -0.0010422806
-0.000689628 0.0014535559 0.009170023 0.00040260196 0.00022644053 0.0140958475 5.4527404e-06 -0.0001942611
-0.0010213713 -0.005400964 -0.008325166 0.0038596133 -7.088293e-06 -0.00010121538 0.0013537976 0.001365619
0.008124103 0.00035867802 0.029324805 0.009748725 -5.0094864e-06 0.003926681 9.068788e-06 0.016311526
-0.017250607 -0.0004928318 0.014782674 -0.0025253186 0.0017082649 -6.166761e-06 6.799447e-06 1.6954307e-05
0.012602849 -0.0024811379 -0.016572792 0.003660224 -0.004227951 0.0003397072 -4.1516505e-05 0.00035631793
0.002155892 0.003805745 -0.0015926802 -0.0005979577 -0.0013773479 0.0017269783 -5.318705e-06 0.0002516848
-1.3301165e-05 0.027391579 -1.8108782e-05 -0.00021994949 -0.018859515 -0.00010922621 0.007904384 0.00035528778

exp_avg_sq f4 [128]
00000000: d950 8833 6ab2 c137 c108 0f38 f758 7737
00000010: 3793 a838 3428 7738 aa25 e237 a269 2739
00000020: d739 c239 8a18 ea39 c7ae 6d39 a026 0239
00000030: 1cde 583a 72a0 0939 252a 7231 eb9d 4233
00000040: 5487 7336 a6fa d93a 10ad 5730 aceb 0a36
00000050: 78a2 b038 ddf1 1838 bd05 b937 fe2c a137
00000060: 613c 4338 cb7f e931 db6d 0737 d0ac f938
00000070: 867f 4f39 826e 8b37 66bf b338 04d2 cc38
00000080: 6dc7 db38 5bca 0e39 5fff 0037 c9a2 ab39
00000090: f7c0 1f3a 95ff f935 afac df38 701f 1434
000000a0: 027f 1632 a60f 2639 f9fa 0638 5567 8332
000000b0: 3e65 cf37 eff0 e038 fc2d a53a 9d4a 8a3a
000000c0: 092d 4e38 cca0 4839 99a8 3535 6799 0439
000000d0: d88b 1730 9633 8733 3455 7739 0009 153a
000000e0: 011a bb36 585d 3538 6258 0236 5ad1 5c37
000000f0: bcb3 aa38 d66a dd37 34e6 b739 9d7c 3f38
00000100: ea4b 9f39 a130 e03a 14f0 5f39 6f53 8738
00000110: 6626 9b39 7711 6d39 c500 5e37 e410 7036
00000120: 4443 4937 fd49 8038 32cc e438 5e1e 4538
00000130: 45f8 bd37 46b0 9739 a09c e931 20f3 1d38
00000140: 4098 4238 1b07 2a38 8e18 fc39 b8e0 fd39
00000150: dc5b b131 3cb1 a334 42e3 7a39 c589 fd38
00000160: c50b 403a 28fb 4735 58f1 4a3b e679 a139
00000170: d82c 282f 3f6c 8e38 54ae 2331 963d 8b3a
00000180: d3db c43a 81c5 f634 56a8 2b3a 9888 db37
00000190: db41 5f38 19ce b331 a8ea 8d35 3010 7732
000001a0: d462 553a 3478 3039 2f46 223a 0f9d 8a38
000001b0: 520d 6138 7c22 0e35 9275 0e36 d75e 8b36
000001c0: 1a70 6138 a904 ce37 78f8 a039 a741 2f37
000001d0: 2266 f335 1f75 d838 7327 a238 9d81 cb36
000001e0: 2ede e334 ab84 c53a a4d0 9431 eb87 6a35
000001f0: eac9 ba3a ee17 5a35 ee7b 9139 6d01 da38
6.3476996e-08 2.3090473e-05 3.410201e-05 1.4743061e-05 8.038285e-05 5.892683e-05 2.6958838e-05 0.00015965712
0.00037045658 0.0004465024 0.00022667191 0.00012412155 0.0008272843 0.00013125109 3.5239591e-09 4.531277e-08
3.6288593e-06 0.0016630485 7.846248e-10 2.0700782e-06 8.422596e-05 3.6464877e-05 2.205639e-05 1.9213647e-05
4.6547855e-05 6.795721e-09 8.072205e-06 0.00011905434 0.00019788565 1.662155e-05 8.571036e-05 9.7665965e-05
0.0001047988 0.00013617559 7.688853e-06 0.00032736946 0.00060941227 1.862633e-06 0.000106656335 1.3795011e-07
8.760027e-09 0.00015836823 3.2181826e-05 1.5297397e-08 2.4723468e-05 0.0001072603 0.0012602205 0.0010550801
4.915617e-05 0.00019133388 6.7673096e-07 0.00012645648 5.513221e-10 6.295811e-08 0.00023587496 0.000568524
5.5760615e-06 4.3240696e-05 1.9422955e-06 1.3161765e-05 8.13971e-05 2.6395002e-05 0.00035075995 4.5654004e-05
0.00030383404 0.0017104336 0.00021356373 6.452842e-05 0.00029592513 0.00022608587 1.323241e-05 3.5772619e-06
1.1996195e-05 6.117297e-05 0.000109099215 4.699674e-05 2.2646165e-05 0.00028932298 6.7989987e-09 3.7658145e-05
4.6395e-05 4.0537776e-05 0.0004808348 0.0004842335 5.161821e-09 3.049007e-07 0.00023926518 0.00012089642
0.00073259725 7.449876e-07 0.0030966606 0.00030799134 1.5295443e-10 6.79125e-05 2.3818716e-09 0.0010623212
0.0015019126 4.5964774e-07 0.00065482163 2.617044e-05 5.3228676e-05 5.2330162e-09 1.0573613e-06 1.4380973e-08
0.0008140032 0.00016829447 0.0006190268 6.609607e-05 5.3656586e-05 5.2949304e-07 2.1228084e-06 4.1535636e-06
5.3748583e-05 2.4559284e-05 0.00030702702 1.0446099e-05 1.8134635e-06 0.00010321498 7.73211e-05 6.0649604e-06
4.2443702e-07 0.0015069445 4.3310866e-09 8.736958e-07 0.0014250849 8.124615e-07 0.0002774889 0.000103953156
