Project/results/Test3_1Wall_01/Test3/Test3-499942.pt (torch, 567200 bytes, 36 tensors)

network_body._body_endoder.seq_layers.0.weight f4 [128, 46]
0	0xbeaeb33b	-0.34121117
1	0x3dcc4b57	0.099753074
2	0xbed813ff	-0.42202756
3	0xbe846466	-0.25857848
4	0xbd80cbe4	-0.06288889
5	0x3d457b67	0.04821339
6	0xbe8351e3	-0.25648412
7	0x3b508907	0.0031819956
8	0xbe507955	-0.20358784
9	0xbdab65e9	-0.08369047
10	0x3da590db	0.080842696
11	0xbe0c1581	-0.13680078
12	0xbe84b828	-0.2592175
13	0xbe707afb	-0.23484413
14	0xbe760c14	-0.24028045
15	0xbe642624	-0.22280174
16	0xbe6256e0	-0.22103453
17	0x3e101914	0.14072067
18	0xbe7447e1	-0.23855545
19	0xbe8c4f3b	-0.27404198
20	0xbe1b987a	-0.15194884
21	0xbc78efab	-0.01519386
22	0x3d54442a	0.05182282
23	0xbef4de89	-0.4782603
24	0xbe82a5a8	-0.2551701
25	0x3c9b1f5d	0.018935854
26	0xbe8ed6ff	-0.27898404
27	0xbe852cd1	-0.26010755
28	0x3e78785d	0.24264665
29	0x3e12fac8	0.14353478
30	0xbea53102	-0.32263952
31	0x3ea1047a	0.31448728
32	0x3e1f401c	0.155518
33	0xbd2e921d	-0.042619813
34	0xbe064c90	-0.13115144
35	0xbba10b90	-0.0049147084
36	0xbe7848dc	-0.24246544
37	0xbd17356c	-0.03691618
38	0x3bc83b7c	0.0061106067
39	0xbe44d223	-0.19220786
40	0xbe387246	-0.18012342
41	0xbea4e665	-0.32207027
42	0xbec5ffb3	-0.38671646
43	0xbe609760	-0.21932745
44	0x3e36c00e	0.178467
45	0xbe61ff31	-0.22070004
46	0xbcb928c7	-0.022602452
47	0x3e50df64	0.20397717
48	0x3bb86b59	0.005628031
49	0xbe40c7eb	-0.18826263
50	0xbdc57e1d	-0.09643195
51	0x3e183237	0.14862905
52	0x3d696c7f	0.056988236
53	0x3d7555c7	0.059896257
54	0x3eb4ed3c	0.35337245
55	0xbe763f57	-0.240476
56	0x3e70229d	0.23450704
57	0x3e34b963	0.17648844
58	0x3cbcf056	0.02306382
59	0xbc824007	-0.015899671
60	0x3e1596be	0.14608285
61	0x3c82b321	0.015954556
62	0xbd5de18e	-0.054170184
63	0x3f16cd63	0.58907145
64	0x3e06420e	0.13111135
65	0xbbad487f	-0.005288183
66	0x3e0e7e67	0.13915406
67	0xbdb44b9a	-0.08803482
68	0x3caf7d57	0.021422071
69	0xbe5fb509	-0.21846403
70	0xbdbaad1f	-0.091150515
71	0xbe03f834	-0.1288765
72	0xbd41d458	-0.047321647
73	0x3eb6b9fb	0.35688767
74	0x3d85884d	0.06520138
75	0xbe687cda	-0.22703877
76	0xbdb2a2bd	-0.08722446
77	0xbe676869	-0.22598423
78	0xbebc8fd9	-0.36828497
79	0xbea47bee	-0.321258
80	0x3e69a5bd	0.2281713
81	0xbe2d93ef	-0.16950963
82	0x3b304d1d	0.0026901432
83	0xbe3bbaac	-0.18332928
84	0xbe88e0d4	-0.2673403
85	0xbe868d55	-0.26279703
86	0x3ed4c9dc	0.41560256
87	0x3e507cdc	0.2036013
88	0x3ec9b816	0.3939826
89	0xbdabc8c9	-0.08387906
90	0xbd38ca87	-0.04511502
91	0x3cdf4d35	0.027258495
92	0xbc333f92	-0.010940449
93	0x3e29d7d4	0.16586238
94	0xbe3bad1c	-0.18327755
95	0xbe3f3788	-0.18673527
96	0xbda52b17	-0.08064859
97	0x3e1af669	0.1513306
98	0xbc558353	-0.013031798
99	0x3e0c5fb1	0.13708378
100	0xbe75f450	-0.24018979
101	0x3e0ac304	0.13550955
102	0x3e11666a	0.14199224
103	0xbd9b3210	-0.07577908
104	0x3e0989ce	0.13431475
105	0x3cd43501	0.02590418
106	0x3d7186f3	0.05896659
107	0x3e8aaca7	0.27084848
108	0xbe9e5df7	-0.30931064
109	0xbe8916eb	-0.26775298
110	0xbe088ecb	-0.13335721
111	0x3e391a32	0.18076399
112	0xbe336766	-0.17519912
113	0x3d93a7fa	0.07209773
114	0x3e4bbf6d	0.19897242
115	0xbe1467a2	-0.14492658
116	0xbe056443	-0.13026528
117	0x3cdb4cbb	0.026769986
118	0x3de57bf1	0.112052806
119	0xbd2edbc8	-0.04269007
120	0x3c4cfee8	0.012511946
121	0x3dc18cd2	0.094506875
122	0xbde7673f	-0.112989895
123	0x3caeb3b0	0.021325916
124	0x3ddd4f97	0.10806196
125	0x3eb322ce	0.3498749
126	0x3cc7b991	0.024380477
127	0xbc9dc691	-0.019259723
128	0xbd06de9f	-0.03292715
129	0x3cf7631e	0.03019863
130	0xbc492ffc	-0.012279507
131	0xbeb97a13	-0.36225948
132	0x3c2c29c1	0.010508002
133	0xbcfe3e72	-0.031035636
134	0xbeeec665	-0.46635738
135	0xbb84ce2e	-0.004052899
136	0x3ee578f3	0.4481884
137	0xbd3318d0	-0.043724835
138	0x3e138570	0.14406371
139	0xbdd89dba	-0.10576959
140	0x3ce27d14	0.027647533
141	0x3dd32c1d	0.10311148
142	0xbe5584cb	-0.20851438
143	0xbe4c69c4	-0.19962221
144	0xbe8f4601	-0.27983096
145	0x3ddd8d3f	0.10817956
146	0xbe7643a3	-0.24049239
147	0x3c5e0dd1	0.013553099
148	0xbe11d5a7	-0.14241658
149	0x3d5c4bc9	0.05378321
150	0x3d287430	0.04112643
151	0x3e9e2fe7	0.30895922
152	0x3dc0fc42	0.09423114
153	0xbe83f390	-0.2577176
154	0x3eb1912f	0.3468108
155	0xbe334634	-0.17507249
156	0xbe83df8a	-0.25756484
157	0xbe8aa860	-0.27081585
158	0xbe371ff6	-0.17883286
159	0x3e06782a	0.13131776
160	0xbe7cd5be	-0.24690911
161	0xbeb8da52	-0.36104065
162	0xbca08979	-0.019596802
163	0x3e3ca63b	0.18422787
164	0xbecb8ab3	-0.39754257
165	0x3db0ebf7	0.08638757
166	0xbd8fef6e	-0.070280895
167	0xbc7a8081	-0.015289427
168	0xbe83b6b1	-0.2572532
169	0xbe95c4fd	-0.29251853
170	0xbe6a334e	-0.22871134
171	0xbe5abe0b	-0.21361558
172	0x3e3ba082	0.18322948
173	0xbe9363f9	-0.2878721
174	0xbc845ee8	-0.016158536
175	0xbe5aa92f	-0.21353601
176	0xbe035b72	-0.12827852
177	0xbd440fe0	-0.047866702
178	0xbd68f48e	-0.05687385
179	0xbe251f1e	-0.16125152
180	0xbe72c5d6	-0.23708281
181	0xbe410d8b	-0.18852822
182	0x3d4e3c93	0.050350737
183	0x3d70b40c	0.058765456
184	0x3bfe35a0	0.0077578574
185	0xbdebc6d3	-0.11512532
186	0x3d18e542	0.037328012
187	0x3d7ed459	0.06221423
188	0xbbceb6b1	-0.0063083996
189	0x3ed0c1ba	0.40772802
190	0xbd7b9e20	-0.061430097
191	0x3ba98fb4	0.0051746015
192	0xbd19d893	-0.037560057
193	0xbd62b617	-0.055349436
194	0xbe2b101d	-0.16705365
195	0xbe50e213	-0.2039874
196	0x3e09ccc6	0.13457021
197	0x3d554252	0.0520652
198	0xbe2a56b6	-0.1663464
199	0xba03fbee	-0.0005034794
200	0x3e2da6b3	0.16958122
201	0xbd9c097c	-0.076189965
202	0xbd0ae3d7	-0.03390869
203	0xbe83819d	-0.25684825
204	0x3e66d66b	0.22542731
205	0x3ddb80cb	0.10717925
206	0x3e18cf38	0.14922798
207	0xbda77a25	-0.08177594
208	0x3e5306f3	0.2060812
209	0xbe69a185	-0.22815521
210	0x3da53647	0.08066993
211	0x3e36f01a	0.17865029
212	0xbe7e59f7	-0.24839006
213	0x3db9d40d	0.090736486
214	0x3e47d60c	0.19515246
215	0x3d9ddac1	0.077077396
216	0xbe318c06	-0.17338571
217	0xbe40cea8	-0.18828833
218	0xbd5fa3e2	-0.05459965
219	0xbde0007c	-0.109375924
220	0x3dd8b219	0.105808444
221	0xbea08c9d	-0.3135728
222	0xbd0d685e	-0.03452336
223	0xbe929168	-0.2862656
224	0x3e168e9f	0.14702843
225	0x3d5fb788	0.05461839
226	0x3d647616	0.055776678
227	0xbe674235	-0.2258385
228	0xbf246c7a	-0.6422802
229	0xbb0f9bc9	-0.0021912924
230	0xbd8e7789	-0.06956393
231	0xbd6ccb24	-0.057810917
232	0x3dd37908	0.10325819
233	0xbe0f0481	-0.13966562
234	0xbdf41e2d	-0.11919818
235	0xbd57c89b	-0.052681547
236	0xbddd0cd8	-0.107934654
237	0x3df2d67e	0.118573174
238	0x3e4644a1	0.19362117
239	0xbe5574bb	-0.2084531
240	0x3b89e942	0.0042087147
241	0xbebba239	-0.36647204
242	0x3d36d300	0.04463482
243	0x3e19e9d4	0.15030605
244	0xbe003063	-0.12518458
245	0xbde914c5	-0.113809146
246	0x3d749197	0.059709158
247	0xbd3769c6	-0.044778608
248	0xbdf34aa4	-0.11879471
249	0x3e9c3a40	0.3051319
250	0xbdadd25f	-0.08487391
251	0xbd4ff5f1	-0.050771657
252	0xbeb93c37	-0.36178753
253	0xbebd341b	-0.36953816
254	0x3dc59510	0.09647572
255	0xbcf343f9	-0.029695498

network_body._body_endoder.seq_layers.0.bias f4 [128]
0	0xbe1f6a94	-0.15568
1	0xbcdd62f1	-0.027024718
2	0x3b66d119	0.0035219847
3	0xbd46e793	-0.04856069
4	0xbdaf8508	-0.085702956
5	0x3c4d35e9	0.01252506
6	0xba2a72e9	-0.00065021083
7	0xbd81c1db	-0.06335803
8	0x3d1245ea	0.035711206
9	0xbc8fca32	-0.017552469
10	0x3bbd718d	0.0057813586
11	0xbb84a41a	-0.0040478827
12	0xbca24093	-0.019806182
13	0xbc56e0d8	-0.01311513
14	0xbe89ac03	-0.26889047
15	0xbe7e1c91	-0.24815585
16	0x3cb7a4ff	0.022417543
17	0xbc8f54dd	-0.01749652
18	0xbe84a1a5	-0.25904575
19	0xbd3927ef	-0.0452041
20	0x3c838140	0.016052842
21	0xbbe3d6d7	-0.006953101
22	0xbd500113	-0.050782274
23	0xbcd09670	-0.02546236
24	0x3ccc506e	0.024940696
25	0xbe8de6b4	-0.27715075
26	0xbc86f3ca	-0.01647367
27	0x3cb15e2d	0.021651352
28	0xbc113db2	-0.008864807
29	0xbc849ac3	-0.016187077
30	0xbc0a6f82	-0.008449437
31	0xbb5456b8	-0.0032400321
32	0x3a7377db	0.0009287574
33	0xbd4ba3a0	-0.04971659
34	0x3c3a8fb8	0.011386804
35	0x3bb6bfd0	0.005577065
36	0x3cc1431e	0.023591574
37	0xbd3abdc4	-0.04559113
38	0xbd02245c	-0.031772956
39	0xbe4b2c3d	-0.19841094
40	0xbe792227	-0.24329434
41	0xbcce1b99	-0.025159644
42	0xbd5557ce	-0.05208569
43	0xbe9cd13e	-0.3062839
44	0x3cd2db91	0.025739463
45	0xba89c8d3	-0.0010512121
46	0x3b2e1d9f	0.0026567949
47	0x3d037488	0.032093555
48	0xbde0dbcb	-0.10979422
49	0x3cbd62ca	0.023118395
50	0xbe0b7775	-0.13619788
51	0xbc0147b8	-0.007890634
52	0xbeabc806	-0.33551043
53	0xbe569d1c	-0.2095837
54	0xbd5ba3ad	-0.05362289
55	0x3cefbb76	0.029264193
56	0xbc6ab658	-0.014325701
57	0x3c6273d9	0.013821566
58	0xbd3f5451	-0.04671127
59	0xbd04d5c1	-0.032430414
60	0xbcba28f3	-0.022724604
61	0xbbf71cf4	-0.0075412933
62	0xbb9d296b	-0.004796197
63	0xbd3da87f	-0.04630327
64	0x3d51c443	0.05121256
65	0x3cb04878	0.02151893
66	0xbd9ab122	-0.07553317
67	0xbcb7e616	-0.02244858
68	0xbca1b3ee	-0.019739117
69	0x3c9807dc	0.018558435
70	0xbd448814	-0.047981337
71	0xbd82a96b	-0.0637997
72	0xbe1de16b	-0.15418021
73	0xbcd7a903	-0.026325708
74	0x3d11e6c5	0.03562047
75	0xbde93f41	-0.11389018
76	0xbca3d221	-0.019997658
77	0xbc54df00	-0.0129926205
78	0xbe8a0e2d	-0.2696394
79	0xbc4fdb92	-0.012686627
80	0xbd134459	-0.035953853
81	0x3c5b0287	0.013367302
82	0x3bd09d2c	0.0063663926
83	0x3c3f600c	0.011680614
84	0xbe962a3f	-0.29329106
85	0xbe4ffba9	-0.20310844
86	0xbcb49f37	-0.022048576
87	0x3c91cb2f	0.01779708
88	0x3c8a6504	0.016893871
89	0xbe2b0717	-0.16701923
90	0x3d589cea	0.05288402
91	0xbd49277a	-0.049109913
92	0xbeb1aa2e	-0.3470015
93	0xbca639ce	-0.020291235
94	0xbe8553f3	-0.2604061
95	0x3d99b74f	0.075056665
96	0x3d3e0061	0.04638708
97	0xbde56911	-0.112016805
98	0x3be536e8	0.0069950707
99	0xbb15c4ed	-0.0022852973
100	0x3ccb855e	0.024843868
101	0xbe9a4818	-0.30133128
102	0xbe1066bf	-0.14101695
103	0xbe7f6c35	-0.24943621
104	0x3d5202ab	0.051272076
105	0xbcefdfef	-0.029281585
106	0x3b3cc32b	0.0028802853
107	0xbd368a0d	-0.04456525
108	0x3caf2d54	0.021383919
109	0xbe0d5538	-0.1380204
110	0xbe19ede8	-0.1503216
111	0xbbdb128c	-0.0066855606
112	0xbc242fea	-0.010021189
113	0x3a148d14	0.0005666774
114	0xbc259c13	-0.010108012
115	0xba3357b2	-0.0006841376
116	0xbdc92db9	-0.09823174
117	0xbd12910a	-0.03578285
118	0x3d1adc8a	0.03780798
119	0xbdd1f0dc	-0.102510184
120	0xbe4124b7	-0.18861662
121	0x3cde7778	0.027156577
122	0xbe839209	-0.25697353
123	0xbe1cc5d7	-0.15309845
124	0x3c1e7fef	0.009674056
125	0xbe2e219d	-0.1700501
126	0x3cbf5709	0.023356931
127	0x3daa1451	0.08304656

network_body._body_endoder.seq_layers.2.weight f4 [128, 128]
0	0x3d985330	0.07437742
1	0x3dcf9582	0.10135938
2	0xbdc37b79	-0.09545035
3	0xbdfdc2c9	-0.12390668
4	0xbd4ab79e	-0.049491517
5	0xbe91d51f	-0.2848291
6	0x3d5c3848	0.05376461
7	0xbdf1958c	-0.11796102
8	0xbcca9b9c	-0.024732403
9	0xbe2d1da3	-0.16905837
10	0x3dc56cde	0.096399054
11	0xbd869dc8	-0.06573063
12	0xbcedcb36	-0.029027563
13	0x3ca418c7	0.020031346
14	0xbc73020e	-0.014832033
15	0x3d481c79	0.04885528
16	0xbe09df46	-0.13464078
17	0x3e007ce2	0.12547639
18	0xbd870c4e	-0.06594144
19	0xbe1a0148	-0.15039551
20	0x3d01db38	0.031703204
21	0xbea2abe5	-0.3177177
22	0xbd191bc4	-0.037379995
23	0x3c0666eb	0.0082032485
24	0x3e35ee2e	0.1776664
25	0xbb266748	-0.002539115
26	0xbb54358e	-0.0032380554
27	0xbde224a0	-0.11042142
28	0x3e14efea	0.14544645
29	0xbdfd2504	-0.12360576
30	0xbe6d5147	-0.23175536
31	0x3d489344	0.04896857
32	0xbe94b1b6	-0.29041833
33	0x3bb44fbb	0.0055026687
34	0xbd771fe8	-0.060333163
35	0xbc4745d9	-0.012162649
36	0xbc1a7331	-0.009426878
37	0x3e3cb115	0.18426926
38	0xbe428c60	-0.18998861
39	0x3e36e92a	0.17862383
40	0x3e3701a4	0.1787172
41	0x3d904494	0.0704433
42	0xbe565f54	-0.20934802
43	0x3d831011	0.06399549
44	0x3d14cab7	0.036326136
45	0xbe0c28a6	-0.13687381
46	0xbdba8e0d	-0.09109125
47	0xbe9824a9	-0.2971547
48	0xbdbe4a71	-0.09291542
49	0xbe55a66f	-0.2086427
50	0x3d9f8781	0.07789517
51	0x3e294d83	0.16533475
52	0x3db16f6a	0.08663829
53	0xbd2205f3	-0.039556455
54	0x3c66951b	0.014073635
55	0xbd9693c4	-0.07352403
56	0xbe11d039	-0.14239587
57	0xbdc0181c	-0.093795985
58	0xbd3d00a4	-0.04614319
59	0xbdf1f92f	-0.11815106
60	0x3cfd764e	0.030940201
61	0xbd8b7bbd	-0.068107106
62	0xbe0c50fc	-0.13702768
63	0xbe1efd5e	-0.1552634
64	0xbdb7adca	-0.089686945
65	0xbe90615c	-0.2819928
66	0xbdce7cf7	-0.10082429
67	0x3de16ad1	0.11006702
68	0xbd3bc427	-0.045841362
69	0x3c052e3d	0.0081287
70	0xbd0dd4ab	-0.034626644
71	0xbe0d6d2f	-0.13811181
72	0x3e34092f	0.17581628
73	0x3ccc3d0a	0.02493145
74	0xbe086c71	-0.13322617
75	0xbbf5ec43	-0.007504971
76	0xbd16ba87	-0.03679898
77	0xbd94ca16	-0.07265107
78	0x3c5abb89	0.013350376
79	0xbd6db277	-0.058031525
80	0xbcd41cce	-0.025892641
81	0x3d4ba252	0.049715348
82	0x3dd89628	0.10575515
83	0xbe123c7c	-0.14280885
84	0xbb3076a6	-0.0026926189
85	0x3dffb668	0.12485963
86	0xbc3031d8	-0.010754071
87	0xbcb6922d	-0.022286499
88	0xbcbd373f	-0.023097632
89	0x3e2e65cb	0.17031018
90	0xbe99fda3	-0.30076322
91	0xbe674d2e	-0.22588035
92	0x3d94cc42	0.072655216
93	0xbe25f3dd	-0.16206308
94	0xbc86d94c	-0.016461037
95	0xbe746ab0	-0.23868823
96	0x3e58b98c	0.2116453
97	0x3d81d714	0.06339851
98	0xbe930c44	-0.28720295
99	0xbda4dc6f	-0.08049857
100	0x3d3db1c3	0.046312105
101	0xbcd218af	-0.025646536
102	0xbc8a8c0c	-0.016912483
103	0x3cf0ca15	0.029393235
104	0xbd18063d	-0.037115324
105	0xbc67b8a8	-0.014143147
106	0x3e09cb56	0.13456473
107	0xbe32869c	-0.17434162
108	0x3ddef9b9	0.108874746
109	0x3d66da57	0.05636057
110	0x3b7d6faf	0.0038671305
111	0xbd88fcb7	-0.066888265
112	0x3e773cb3	0.24144249
113	0x3e283261	0.16425468
114	0xbd9a84e5	-0.07544879
115	0xbd398714	-0.045294836
116	0x3dc92c57	0.0982291
117	0x3d8acabd	0.067769505
118	0x3e3174a4	0.17329651
119	0xbddbb15f	-0.1072719
120	0x3d2c2a9a	0.042032816
121	0xbdb73ef8	-0.08947557
122	0xbd69e74e	-0.057105355
123	0xbe066d60	-0.13127661
124	0x3c5620d6	0.013069352
125	0x3d2853c6	0.041095518
126	0x3e1ac630	0.15114665
127	0xbe5d6469	-0.21620335
128	0x3ece9b9b	0.40353093
129	0xbdb43de1	-0.08800865
130	0xbdc55178	-0.096346796
131	0x3e24821f	0.16065262
132	0xbe105d89	-0.14098181
133	0x3cdb83bd	0.026796216
134	0x3ceed2b9	0.029153215
135	0xbdf5ef18	-0.12008494
136	0xbd9721b1	-0.07379473
137	0xbe645871	-0.22299363
138	0xbe502ed3	-0.20330362
139	0xbe15a37c	-0.14613146
140	0x3be7799a	0.0070640566
141	0x3dadbe09	0.08483512
142	0x3e252c3d	0.16130157
143	0x3e49e07c	0.1971454
144	0x3e3d4e78	0.18486965
145	0xbe2a9c7f	-0.16661261
146	0x3e0510dd	0.12994714
147	0xbe15b136	-0.14618382
148	0x3db3fa00	0.08787918
149	0xbea04a4d	-0.31306687
150	0xbd1c3c43	-0.038143408
151	0x3dcb6582	0.099314705
152	0xbe80db59	-0.2516735
153	0x3e9df130	0.30848074
154	0xbe55b590	-0.20870042
155	0x3e3eb967	0.18625413
156	0xbe19c22e	-0.1501548
157	0x3e1ceb37	0.15324102
158	0xbd4162a9	-0.04721323
159	0x3d66be0b	0.056333583
160	0xbcd1a05a	-0.025589157
161	0xbe5914e3	-0.21199374
162	0xbdbfd05b	-0.093659125
163	0x3e16e477	0.1473559
164	0xbdb23cf4	-0.08703032
165	0x3e1a8ccc	0.15092772
166	0x3c4ebd89	0.012618431
167	0x3e8e70c3	0.27820405
168	0x3ea6198d	0.3244137
169	0xbe705e25	-0.23473413
170	0xbc40991e	-0.011755256
171	0x3e65f242	0.22455695
172	0xbbeb2e7b	-0.0071771718
173	0xbd81e5a9	-0.06342632
174	0xbe4e2bc6	-0.20133886
175	0xbe75329b	-0.23945086
176	0x3e0875a2	0.13326123
177	0xbeb03b16	-0.3442008
178	0xbdff038f	-0.124518506
179	0xbe7ca692	-0.24672917
180	0x3d92fd53	0.07177224
181	0x3e224909	0.15848173
182	0xbdf34be0	-0.118797064
183	0xbe9a4e08	-0.30137658
184	0xbd9654b8	-0.073403776
185	0xbb0dad67	-0.0021618248
186	0x3d368bd1	0.044566933
187	0x3e00d54c	0.12581366
188	0x3cdf3f7c	0.027251951
189	0xbdefef66	-0.117155835
190	0xbd852499	-0.06501121
191	0xbbbbf8fd	-0.005736469
192	0xbdee6a6e	-0.116413936
193	0xbe8d5751	-0.2760568
194	0xbdb08fd8	-0.08621186
195	0xbd8b9ea1	-0.068173654
196	0xbcbc5f81	-0.022994759
197	0x3e1d8708	0.15383542
198	0xbd897dfc	-0.06713483
199	0x3c5b36b4	0.013379741
200	0xbc84827e	-0.016175505
201	0x3d9ee5f1	0.077587016
202	0x3da79a72	0.08183755
203	0x3de87ff0	0.11352527
204	0x3d784a84	0.06061794
205	0xbd7e5203	-0.06208993
206	0x3e5e343c	0.21699613
207	0x3e1eb436	0.15498433
208	0xbe50b0cb	-0.20379941
209	0x3b65b460	0.0035050139
210	0xbdf08ac6	-0.11745219
211	0xbe7171ce	-0.2357857
212	0x3e5bf409	0.21479811
213	0x3edc578f	0.43035552
214	0xbd6ab068	-0.05729714
215	0x3d8d15c3	0.06888916
216	0xbd7a49e4	-0.061105624
217	0x3e83ccf7	0.25742313
218	0xbe87e4ca	-0.2654174
219	0x3d981283	0.07425406
220	0xbd810cdd	-0.063012816
221	0xbe270386	-0.16309938
222	0x3daea144	0.08526853
223	0xbe0585df	-0.13039349
224	0xbe87cf31	-0.26525262
225	0x3e9992f0	0.29994917
226	0x3df70564	0.12061575
227	0x3d8997ab	0.067183815
228	0x3c9aee4b	0.018912455
229	0x3eccbb48	0.39986634
230	0xbced36f1	-0.028956862
231	0x3e9d341a	0.30703813
232	0xbe48e07d	-0.19616885
233	0xbe3669ab	-0.17813747
234	0xbe940b3e	-0.28914827
235	0xbdcbd8c2	-0.09953453
236	0xbdead305	-0.1146603
237	0x3e8042d9	0.25051
238	0x3e40a773	0.18813877
239	0xbcfd1cb9	-0.030897485
240	0xbcb9276f	-0.022601811
241	0xbdb25837	-0.08708232
242	0xbe97a64a	-0.29619056
243	0x3da7c76d	0.08192334
244	0xbe70a527	-0.235005
245	0xbd378f7f	-0.044814583
246	0x3df4499a	0.11928101
247	0xbe0dad2c	-0.13835591
248	0x3eeea975	0.4661366
249	0xbea617d9	-0.3244007
250	0x3e97391a	0.29535753
251	0x3e85cd0c	0.26133
252	0xbeb91807	-0.36151144
253	0x3ed6d2dc	0.41957748
254	0xbd6f5ba5	-0.05843701
255	0xbe8530b2	-0.26013714

network_body._body_endoder.seq_layers.2.bias f4 [128]
0	0xbcf6ccf5	-0.030127028
1	0xbe6c5225	-0.2307821
2	0xbe15e0ca	-0.14636531
3	0xbe0abacf	-0.13547824
4	0xbd1e6f78	-0.038680524
5	0xbcc3a585	-0.023882637
6	0xbd2ba475	-0.041904885
7	0xbea1bc8b	-0.3158916
8	0xbcff0358	-0.031129524
9	0xbcff6bd4	-0.031179346
10	0xbdb06a42	-0.08614017
11	0xbe065474	-0.13118154
12	0x3d196de2	0.037458308
13	0xbdbaa7b6	-0.091140196
14	0x3d07392a	0.0330135
15	0xbe713a52	-0.23557404
16	0xbe0e9795	-0.13925011
17	0x3c98780c	0.01861193
18	0xbd1af598	-0.037831873
19	0xbea157ab	-0.31512198
20	0xbec40ba5	-0.38290134
21	0xbd45540d	-0.04817586
22	0x3d8550f7	0.065095834
23	0xbe530e67	-0.20610963
24	0xbec35229	-0.3814862
25	0xbd83ebb5	-0.06441442
26	0x3cfd90ce	0.030952837
27	0xbe554383	-0.20826535
28	0xbdb8e9c2	-0.09028961
29	0xbe52d790	-0.20590043
30	0xbec2c707	-0.3804247
31	0x3bda2043	0.006656678
32	0xbe8507af	-0.25982425
33	0xbd2389ea	-0.039926447
34	0xbd586e45	-0.052839536
35	0xbce576d3	-0.028010761
36	0xbd28ee2b	-0.04124276
37	0xbc94f089	-0.018181102
38	0xbe20e6ab	-0.15712993
39	0x3b0f5074	0.0021868022
40	0x3d890a31	0.06691397
41	0xbddfa168	-0.10919458
42	0xbd9317e1	-0.07182289
43	0xbcf4bbc0	-0.029874682
44	0xbb67bba8	-0.0035359655
45	0xbe93e690	-0.28886843
46	0x3c0942c5	0.0083777355
47	0x3ce26e75	0.02764056
48	0xbd3e3715	-0.04643925
49	0xbe0ae503	-0.13563924
50	0xbd6eda4a	-0.058313645
51	0x3d831bda	0.06401797
52	0xbcde5751	-0.027141245
53	0xbdb6fae7	-0.089345746
54	0x3d0f3fd6	0.034972988
55	0xbe61c927	-0.2204939
56	0xbe075542	-0.13216117
57	0xbd39d033	-0.04536457
58	0x3c05ff22	0.008178504
59	0xbe13b4b7	-0.14424406
60	0xbe569395	-0.20954736
61	0xbd8a943b	-0.06766554
62	0xbe3e7e21	-0.18602802
63	0xbcf92e79	-0.030417668
64	0xbe004b60	-0.12528753
65	0xbd2f7821	-0.042839173
66	0xbcf4fe46	-0.029906403
67	0xbe800e83	-0.25011072
68	0xbe5cb449	-0.21553148
69	0xbdfe09f3	-0.124042414
70	0xbe3fc0fd	-0.18725963
71	0xbeba5e9b	-0.36400303
72	0xbd96909f	-0.07351803
73	0xbe20cfaf	-0.15704225
74	0xbeb7b7e4	-0.35882485
75	0xbd73d0f9	-0.059525464
76	0xbd14e365	-0.036349673
77	0xbc6c7e1c	-0.014434364
78	0x3c8e7868	0.017391399
79	0xbec46a86	-0.3836252
80	0xbdba774f	-0.091047876
81	0xbe73ec48	-0.23820603
82	0xbe9321c2	-0.28736693
83	0xbe36900c	-0.17828387
84	0xbe634495	-0.2219413
85	0x3d99276c	0.07478222
86	0xbd6f9052	-0.058487244
87	0x3d7de2d3	0.061983895
88	0xbbe9abd7	-0.0071310806
89	0xbe3e5dbc	-0.18590444
90	0xbe802025	-0.25024524
91	0x3d064d02	0.032788284
92	0xbca1f18e	-0.019768503
93	0xbde65762	-0.11247136
94	0xbda9371d	-0.08262465
95	0xbb141e62	-0.0022601117
96	0xbe25fea3	-0.16210417
97	0xbe0f865d	-0.140161
98	0xbda0b754	-0.07847467
99	0xbdae69b8	-0.08516258
100	0xbe55afff	-0.20867918
101	0xbe16456c	-0.1467492
102	0xbe505c62	-0.20347741
103	0xbcf6d50a	-0.030130882
104	0xbb9fbfd1	-0.004875161
105	0xbe19f519	-0.15034904
106	0x3d05134c	0.032489106
107	0xbe7cfaec	-0.24705094
108	0xbc8f1e87	-0.017470611
109	0xbe1183f3	-0.14210491
110	0xbdc6fce5	-0.097162046
111	0xbd664314	-0.056216314
112	0xbd70586e	-0.058678083
113	0xbd72f66a	-0.05931703
114	0xbb8a426a	-0.004219343
115	0xbe02ce87	-0.12774096
116	0x3cbd7687	0.023127807
117	0xbe8b474e	-0.2720284
118	0xbd75d43f	-0.060016867
119	0xbea3e1be	-0.32008165
120	0xbe9f5f14	-0.31127226
121	0xbe159d8d	-0.14610882
122	0xbdb5c70c	-0.08875856
123	0xbdb75a5e	-0.08952783
124	0xbe8d4825	-0.27594104
125	0xbd95c59c	-0.073130816
126	0xbd680cce	-0.056652837
127	0xbcbf64e4	-0.023363538

action_model._continuous_distribution.log_sigma f4 [1, 3]
0	0xbeb78123	-0.3584071
1	0xbf067efe	-0.52537525
2	0xbf82ea59	-1.0227767

action_model._continuous_distribution.mu.weight f4 [3, 128]
0	0x3c36abf0	0.0111493915
1	0x3c97403f	0.018463252
2	0xbc9cf5d7	-0.019160194
3	0xbd1c1729	-0.038108025
4	0x3d81b32c	0.063330024
5	0xbcba1603	-0.022715574
6	0x3ceed492	0.029154096
7	0xbc0a915f	-0.008457511
8	0xbc915137	-0.017738922
9	0xbb031acc	-0.0020004986
10	0x3c8088a3	0.015690153
11	0x3c842d86	0.016134989
12	0x3ddf70b4	0.10910168
13	0xbbe9dd06	-0.0071369438
14	0x3d17741c	0.036975965
15	0x3b302013	0.0026874586
16	0x3cbab2f8	0.022790417
17	0xbdf93a31	-0.12169302
18	0xbd104597	-0.035222616
19	0x3cf0455a	0.029329944
20	0xbbe7efc1	-0.0070781414
21	0xbda88445	-0.082283534
22	0x3dc247ab	0.09486326
23	0xbcd7de4b	-0.026351115
24	0x3ccf12f9	0.025277602
25	0x3cd48b03	0.025945192
26	0x3ce293b8	0.027658328
27	0x3d101dd3	0.035184693
28	0xbb80d5a9	-0.0039317203
29	0x3d2beb7f	0.041972633
30	0x3b208d2c	0.0024498207
31	0xbe28a250	-0.16468167
32	0x3a8ccd85	0.0010742402
33	0xbda73311	-0.08164037
34	0xbc7bd872	-0.015371429
35	0x3d14b7c9	0.036308084
36	0x3bab2b31	0.0052236547
37	0x3e0314d1	0.1280091
38	0x3d7afb8a	0.061275043
39	0x3e0c7cca	0.13719478
40	0x3d020a67	0.0317482
41	0x3cedfda9	0.029051619
42	0x3bddd967	0.006770301
43	0xbc6c4db9	-0.014422827
44	0x3da749b0	0.08168352
45	0x3cc5dcc1	0.024153115
46	0x3e1560ad	0.1458766
47	0x3da1b618	0.0789606
48	0xbd2df6b4	-0.042471603
49	0x3d112af4	0.035441354
50	0x3aff7f80	0.0019492954
51	0x3daff4cf	0.085916154
52	0x3cf5a7b4	0.029987194
53	0xbc0bb29c	-0.0085264705
54	0xbe4f1418	-0.20222509
55	0x3cc74f2a	0.02432974
56	0xbd9d36e3	-0.076764844
57	0x3d141d4c	0.036160752
58	0xbd14fdd6	-0.03637489
59	0xbc877bea	-0.016538579
60	0xbbf44755	-0.0074547925
61	0x3c04b488	0.008099683
62	0x3cb1b581	0.021692993
63	0x3d4aa419	0.049472902
64	0xbd3d7030	-0.04624957
65	0x3ce4cdad	0.027930105
66	0xbdd4e6eb	-0.103956066
67	0xbbdf1940	-0.00680843
68	0xbb33a378	-0.0027410667
69	0x3d20ae9c	0.03922902
70	0xbca94c26	-0.020666193
71	0xbbdd465c	-0.0067527723
72	0xbc3e8d50	-0.011630371
73	0x3c5152cc	0.012776088
74	0x3bbc4673	0.005745703
75	0x3dbcfed2	0.092282906
76	0x3c1162dc	0.008873668
77	0xbc6fcb2b	-0.014635841
78	0xbc9c6288	-0.019089952
79	0x3c520666	0.012818908
80	0xbcd67374	-0.0261781
81	0x3af56080	0.0018720776
82	0x3c8e7587	0.017390026
83	0x3c41216c	0.011787754
84	0x3cf37769	0.029720025
85	0xbb672234	-0.003526819
86	0x3d33478a	0.043769397
87	0x3dd9663f	0.10615205
88	0xbda222cb	-0.079167925
89	0x3d85d92e	0.06535564
90	0x3cc40969	0.023930268
91	0xbd85e0fb	-0.06537052
92	0x3d309ea1	0.04312003
93	0xbb881029	-0.004152317
94	0x3d3b73c1	0.04576469
95	0xbe1dcd30	-0.15410304
96	0x3d1a2b62	0.03763903
97	0xbce8bdce	-0.028410818
98	0xbced6c8a	-0.02898242
99	0x3d2745e1	0.040838126
100	0xbd275b48	-0.040858537
101	0x3bcf26df	0.0063217725
102	0xbd04df82	-0.032439716
103	0x3d3fd7ac	0.04683654
104	0x3dcad4dd	0.09903882
105	0x3cec0aa5	0.02881367
106	0x3e14079e	0.1445603
107	0x3c4fa039	0.012672477
108	0xbd8f1900	-0.0698719
109	0x3d3eaacb	0.0465496
110	0x3d62fb4a	0.05541543
111	0x3d769211	0.060197894
112	0xbc415e78	-0.011802308
113	0x3d030892	0.031990595
114	0x3aa942fb	0.0012913638
115	0x3c58238a	0.013192067
116	0xbd6de926	-0.058083676
117	0xbbeac5e6	-0.0071647046
118	0x3d5bffa2	0.053710587
119	0x3c7b10ee	0.015323861
120	0x3ba42a0a	0.0050098943
121	0xbb63dda5	-0.0034769562
122	0x3cc3bed2	0.023894701
123	0xbce19e52	-0.027541313
124	0xbab1001e	-0.0013504063
125	0xbc3e4e7a	-0.01161539
126	0xbc389f17	-0.011268399
127	0x3d9dfd58	0.07714337
128	0xbd987307	-0.07443815
129	0x3d8b8828	0.06813079
130	0xbd92fab9	-0.07176728
131	0x3dbfa225	0.093570985
132	0x3cd71648	0.026255742
133	0xbdacaf62	-0.08431889
134	0x3cc66563	0.024218267
135	0x3bf279c8	0.0073997714
136	0x3b847237	0.004041936
137	0x3dc4390c	0.09581193
138	0xbc3dfd9b	-0.011596109
139	0x3cf04f8c	0.029334806
140	0xbdab3144	-0.08359006
141	0xbcbce00d	-0.023056054
142	0xbe3129f1	-0.17301156
143	0x3d71f8dd	0.059075225
144	0x3ca3466c	0.01993104
145	0xbe17d4da	-0.1482729
146	0xbc45c546	-0.012070959
147	0xbd8171b8	-0.06320518
148	0x3d438309	0.047732387
149	0xbd267cf7	-0.04064652
150	0x3d9e6e2c	0.07735857
151	0x3d2ccc71	0.042187158
152	0x3c7be6bb	0.015374835
153	0x3d64cfcf	0.055862244
154	0x3d089ff5	0.033355672
155	0x3d2ba502	0.04190541
156	0xbd12cc20	-0.0358392
157	0x3c63c19d	0.0139011415
158	0x3d43d365	0.047809023
159	0x3d66be82	0.056334026
160	0x3d03a4a7	0.032139447
161	0xbd5841d0	-0.05279714
162	0x3d4d8571	0.050176088
163	0xbdc4994a	-0.0959955
164	0xbd3fe3cc	-0.046848103
165	0x3ccc9ca5	0.024977038
166	0x3e0b9cbb	0.13634007
167	0xbd6dd166	-0.058061026
168	0x3e040bef	0.12895177
169	0xbcb30e31	-0.021857353
170	0xbd1044db	-0.035221916
171	0xbde6949f	-0.11258816
172	0x3d0ebeae	0.034849815
173	0x3c68f317	0.014218113
174	0xbc58a82c	-0.013223689
175	0xbd7b7702	-0.06139279
176	0x3de72960	0.112871885
177	0xbc6f8485	-0.014618997
178	0x3d4c949b	0.04994641
179	0xbd54ead3	-0.05198176
180	0xbda032b6	-0.07822172
181	0x3d1394c2	0.03603054
182	0x3c6458fd	0.013937232
183	0x3dbf12d0	0.0932976
184	0x3bf8fe75	0.007598693
185	0x3d677fa1	0.0565182
186	0xbdda4ab9	-0.106587835
187	0x3d92a024	0.07159451
188	0x3d27c320	0.04095757
189	0x3c3e1c71	0.011603461
190	0x3d67856a	0.056523718
191	0xbd65206b	-0.05593912
192	0x3cc8b31f	0.024499474
193	0xbd0ff897	-0.035149183
194	0x3b0169ba	0.0019746856
195	0x3ce60854	0.028080143
196	0x3c9dab70	0.019246787
197	0x3d0986d2	0.03357584
198	0x3d7e9998	0.062158197
199	0xbc8d539b	-0.01725178
200	0x3da4663d	0.08027313
201	0x3bc5ce21	0.0060365354
202	0x3d7763a6	0.060397767
203	0x3b4baccf	0.0031078344
204	0xbb656ae7	-0.0035006346
205	0x3ce03349	0.027368205
206	0x3e245da4	0.16051346
207	0x3d29a3a2	0.041415818
208	0x3d4ae5e2	0.04953564
209	0x3d0e1fd1	0.03469831
210	0xbcd34f75	-0.025794724
211	0x3d0b9ce3	0.034085166
212	0x3c330578	0.010926597
213	0xbe3c1a37	-0.18369375
214	0x3d5e95b6	0.054341994
215	0xbdf0f303	-0.11765101
216	0x3e0083e5	0.12550314
217	0xbc1547b6	-0.0091113355
218	0x3cdb9340	0.026803613
219	0xbe18a730	-0.14907527
220	0xbd806e8b	-0.062710844
221	0x3d329ad0	0.043604672
222	0x3d40cb38	0.047068805
223	0x3ce967ab	0.028491816
224	0x3ba92ca5	0.0051627927
225	0x3dbf9c05	0.0935593
226	0x3d22bbf8	0.039730042
227	0xbd0950e8	-0.033524424
228	0x3ceb1874	0.028698184
229	0x3c8f5feb	0.017501792
230	0x3dc19adb	0.094533645
231	0x3c3741fc	0.0111851655
232	0x3c020cb3	0.007937598
233	0x3c9c254e	0.019060757
234	0x3c55ad4a	0.013041804
235	0xbc00f4dd	-0.00787088
236	0x3e2903a8	0.16505301
237	0x3c743e43	0.0149074225
238	0x3ce1397d	0.027493233
239	0x3a82dc2f	0.0009983833
240	0xbc2eddd1	-0.010673002
241	0x3c9cf7ac	0.019161068
242	0xbe023f66	-0.12719497
243	0xbcfea1b5	-0.031082967
244	0x3e1d3cae	0.15355179
245	0x3d1b02ee	0.03784459
246	0x3cf543a1	0.029939475
247	0x3cee49d8	0.029087946
248	0x3d03dc64	0.032192603
249	0xb7932396	-1.7540337e-05
250	0x3ce8c186	0.028412592
251	0x3d9fa95e	0.07795976
252	0x3d2d24fa	0.04227159
253	0x3d48f41d	0.04906093
254	0x3ca6e08c	0.020370744
255	0xbcc58a26	-0.024113726

action_model._continuous_distribution.mu.bias f4 [3]
0	0xbc0ffd8a	-0.008788476
1	0xbceb63bf	-0.028734086
2	0xbe3c708f	-0.18402313

exp_avg f4 [128, 46]
0	0xb7eeed64	-2.8482355e-05
1	0x3787118f	1.610143e-05
2	0x373183cd	1.0580709e-05
3	0xb74fb7a5	-1.23809195e-05
4	0xa36e571d	-1.2920453e-17
5	0x36b5f515	5.4227517e-06
6	0xb74f92ec	-1.2372369e-05
7	0xa12eb76c	-5.919625e-19
8	0xb6808f62	-3.831389e-06
9	0xb74fb7a5	-1.23809195e-05
10	0xa258076c	-2.9277388e-18
11	0x37af2408	2.0878404e-05
12	0xb690699a	-4.303828e-06
13	0xb7222541	-9.664626e-06
14	0xb6e214b3	-6.7377346e-06
15	0xb75180ae	-1.2487331e-05
16	0x33e47137	1.0637671e-07
17	0x37826466	1.554396e-05
18	0xb692471b	-4.359417e-06
19	0xb6cc3d62	-6.0868197e-06
20	0xb707d10e	-8.095301e-06
21	0xb792404f	-1.7434502e-05
22	0x3709437d	8.18155e-06
23	0xb7821ac3	-1.550967e-05
24	0xb72bebf2	-1.024733e-05
25	0xb5a0b1cb	-1.1972674e-06
26	0xb7613f5b	-1.3425796e-05
27	0x37babd00	2.2260938e-05
28	0xb7e5857c	-2.7361086e-05
29	0xb7abff6e	-2.0503732e-05
30	0xb6dc3a35	-6.563287e-06
31	0xb6b2e501	-5.331473e-06
32	0xb78a3215	-1.6474203e-05
33	0x36687fff	3.4645198e-06
34	0xb6a3e117	-4.8839825e-06
35	0xb6cb7dc2	-6.0645116e-06
36	0xb712b1ac	-8.743646e-06
37	0x35a54878	1.2314549e-06
38	0xb6cb2a85	-6.0548214e-06
39	0xb7068597	-8.018126e-06
40	0xb692641f	-4.3627947e-06
41	0xb77a599d	-1.4922026e-05
42	0xb79f654c	-1.9001447e-05
43	0x316b29bb	3.4220722e-09
44	0xb782fffd	-1.5616411e-05
45	0xb90df725	-0.00013538876
46	0xb9f03481	-0.00045815486
47	0xb97754a3	-0.00023587285
48	0xba00c983	-0.000491284
49	0xba35ef68	-0.00069402764
50	0x25e31f14	3.9399282e-16
51	0xb9997dbd	-0.00029276116
52	0xba354446	-0.00069147756
53	0x247aaa4c	5.4354356e-17
54	0xb8be94e3	-9.087638e-05
55	0xba35ef68	-0.00069402764
56	0xa48768b3	-5.8724285e-17
57	0xb81c5601	-3.7273396e-05
58	0xba422628	-0.00074061984
59	0x38b71aa4	8.731082e-05
60	0xb86b7acf	-5.614274e-05
61	0xba36f8fb	-0.000697985
62	0x3684c9bc	3.9573915e-06
63	0xb8345350	-4.2992935e-05
64	0xb98701fa	-0.0002575068
65	0xba033997	-0.0005005835
66	0xb986f2a1	-0.00025739244
67	0xba2f6e3a	-0.0006692145
68	0xb8067594	-3.2057593e-05
69	0xb9ae03b0	-0.00033190614
70	0xba36df66	-0.0006976038
71	0x36bc314c	5.6085755e-06
72	0xb9a30b9c	-0.00031098432
73	0xba052afd	-0.0005079953
74	0x38525e6a	5.015583e-05
75	0xba0af4cf	-0.00053007615
76	0xba5225bb	-0.00080164865
77	0x38d00648	9.919383e-05
78	0xb9293361	-0.00016136236
79	0xb8f6f249	-0.00011775323
80	0xb9b360c6	-0.00034213642
81	0xba19f54e	-0.000587304
82	0xba4fd7e2	-0.00079285924
83	0x37eebe65	2.846047e-05
84	0xb999cfc4	-0.00029337232
85	0xb7353a56	-1.0802023e-05
86	0xba331a80	-0.0006832257
87	0xba43323b	-0.00074461446
88	0xb908384a	-0.0001299094
89	0xb3f89ad3	-1.1576562e-07
90	0xba509ee2	-0.00079582457
91	0xbc04e981	-0.008112312
92	0xba4e2784	-0.00078641647
93	0x3a1d9f74	0.0006012835
94	0x3a15130b	0.00056867365
95	0xb9422038	-0.00018513284
96	0xa587c774	-2.3553922e-16
97	0x394a7c12	0.00019310441
98	0xb942be0c	-0.0001857208
99	0xa3aa2338	-1.8446353e-17
100	0xb89d1588	-7.490354e-05
101	0xb9422038	-0.00018513284
102	0x24e70920	1.0019574e-16
103	0x3a3047d8	0.0006724573
104	0x3629b677	2.528917e-06
105	0xb9721333	-0.0002308607
106	0xb976af49	-0.00023525687
107	0xb9440349	-0.0001869324
108	0x35f17cc3	1.799221e-06
109	0x39b491d6	0.00034440932
110	0xb9a0a604	-0.0003064127
111	0x39870640	0.00025753863
112	0xb8f3d5d0	-0.000116269686
113	0xba3f3de6	-0.00072952954
114	0x3a2b5358	0.00065355515
115	0xb9b021a8	-0.00033594412
116	0xb92f8e92	-0.00016742412
117	0x3802851d	3.1118387e-05
118	0xb92dc4bd	-0.00016571856
119	0x3aa650e1	0.0012688899
120	0xbab73018	-0.0013976125
121	0xba1630e4	-0.0005729331
122	0x39ae927a	0.00033297
123	0xba011501	-0.00049240893
124	0xba281fc7	-0.00064134266
125	0xb93a7f69	-0.00017785806
126	0x395066b7	0.0001987469
127	0x399dc5ac	0.0003009265
128	0x38915d75	6.9315465e-05
129	0x38b4be8b	8.61856e-05
130	0x386afc2a	5.6024794e-05
131	0xb9b98157	-0.00035382315
132	0x3930e276	0.00016869031
133	0xb963a154	-0.00021708506
134	0xba290156	-0.00064470374
135	0x33dbdb93	1.02379225e-07
136	0xb8a0d168	-7.6683995e-05
137	0xba31a56b	-0.00067766634
138	0x38b53adb	8.641715e-05
139	0x37558223	1.2726089e-05
140	0x3802899e	3.112258e-05
141	0x38cfeb1d	9.9143224e-05
142	0x221a47ec	2.0908967e-18
143	0x386fdaf9	5.7185975e-05
144	0x38d30948	0.00010062993
145	0xa4392a98	-4.015156e-17
146	0x37f971d7	2.9736124e-05
147	0x38cfeb1d	9.9143224e-05
148	0xa49fd74d	-6.931999e-17
149	0x38402dd7	4.581906e-05
150	0x385fd4c9	5.3365515e-05
151	0x383f4770	4.560448e-05
152	0x38814d76	6.1656276e-05
153	0x38d2e5fe	0.0001005642
154	0xb5beb6bf	-1.4209289e-06
155	0xb6ce0705	-6.1400956e-06
156	0xb7384874	-1.0984124e-05
157	0x38fb3c3f	0.000119798344
158	0x38e043df	0.00010693794
159	0x3906e717	0.00012865324
160	0xb7c899a7	-2.3913408e-05
161	0x37a9bff7	2.023576e-05
162	0x38c600d2	9.4415285e-05
163	0x36a44ca4	4.896503e-06
164	0x3810b65c	3.450211e-05
165	0x37789239	1.4815997e-05
166	0x38d52216	0.000101629805
167	0x38ac9a60	8.230354e-05
168	0x38ab11f4	8.1572594e-05
169	0x379f2386	1.8970819e-05
170	0x387bea03	6.0061004e-05
171	0x3921a33c	0.00015414966
172	0xb7fe0091	-3.0279423e-05
173	0xb5a5893a	-1.2333396e-06
174	0x38bf413a	9.119739e-05
175	0x3749f53d	1.2037633e-05
176	0x38b54636	8.6438304e-05
177	0x38db95fc	0.000104706705
178	0xb6baadda	-5.563471e-06
179	0x383788b7	4.3757926e-05
180	0x3847492e	4.751345e-05
181	0x3171469d	3.5110255e-09
182	0x38b20abc	8.489701e-05
183	0x3a54693a	0.0008102838
184	0xba9bfa2c	-0.0011900119
185	0xb958c1e2	-0.00020671592
186	0xba5872f7	-0.0008256877
187	0xbab71269	-0.0013967279
188	0xa5d74249	-3.734147e-16
189	0xba11f469	-0.0005567731
190	0xbab6f081	-0.0013957174
191	0xa48a0e1d	-5.987187e-17
192	0xb9d83550	-0.0004123845
193	0xbab71269	-0.0013967279
194	0xa565e03a	-1.9938555e-16
195	0xba436cdb	-0.00074548804
196	0xbabbf286	-0.0014339245
197	0x38455fa4	4.7057532e-05
198	0xb9d0c7c5	-0.00039821691
199	0xbab83655	-0.0014054278
200	0x3711f924	8.700681e-06
201	0xba4b1a50	-0.00077477563
202	0xbabf226f	-0.0014582406
203	0xb75bcb27	-1.3100717e-05
204	0xb9a3c207	-0.00031234344
205	0xbabecaab	-0.0014556249
206	0x3800cdf3	3.0709383e-05
207	0xba157725	-0.0005701653
208	0xbab806ad	-0.0014040075
209	0xb628498f	-2.5076768e-06
210	0xb9ea53a1	-0.00044694266
211	0xba9e3376	-0.001206978
212	0x38501700	4.9612485e-05
213	0xba10f399	-0.0005529463
214	0xbab7eb44	-0.0014031907
215	0x37188594	9.091007e-06
216	0xb9252faa	-0.00015753382
217	0xb9e5df5c	-0.000438447
218	0xb9b5119c	-0.0003453613
219	0xb9ea4f0f	-0.0004469086
220	0xbab78d1b	-0.0014003845
221	0xb7e95db8	-2.7819406e-05
222	0xb9372c1e	-0.00017468675
223	0xba6d196f	-0.00090446224
224	0xba010b63	-0.0004922656
225	0xba3bb8b9	-0.00071610097
226	0xba6bc15d	-0.0008993352
227	0x3323cd7c	3.8138282e-08
228	0xba38cf4c	-0.00070499326
229	0xbc23149b	-0.009953643
230	0xba7135d9	-0.00092014443
231	0xb8de870e	-0.00010610941
232	0xb8dad2e0	-0.000104343286
233	0xba86835d	-0.0010262538
234	0xa55b0efa	-1.9000296e-16
235	0xba2673a7	-0.0006349631
236	0xba8692a8	-0.0010267096
237	0xa52dbced	-1.5069369e-16
238	0xb9ac712f	-0.00032890725
239	0xba86835d	-0.0010262538
240	0xa5e181e1	-3.9119288e-16
241	0xb9bf9cc6	-0.00036547164
242	0xba056c2d	-0.0005089667
243	0xba206d91	-0.00061198423
244	0xba224a01	-0.0006190837
245	0xba869fcc	-0.0010271012
246	0x356372a7	8.473093e-07
247	0xb9b6750f	-0.0003480096
248	0xba8768e9	-0.0010330948
249	0x3925bcb9	0.00015805931
250	0xb9db053e	-0.0004177484
251	0xbab4a8fa	-0.0013783269
252	0x39efa68a	0.00045709714
253	0xb9f9a6a4	-0.00047617138
254	0xba88a096	-0.0010423835
255	0x382cc7ab	4.119395e-05

exp_avg_sq f4 [128, 46]
0	0x3447633d	1.8569422e-07
1	0x32f50848	2.852552e-08
2	0x33bf8c76	8.91968e-08
3	0x34668ab5	2.147088e-07
4	0x2f742185	2.2203579e-10
5	0x33b7fad8	8.56723e-08
6	0x3463eb50	2.1226629e-07
7	0x31161043	2.1837117e-09
8	0x3309d10c	3.2087925e-08
9	0x34630f0b	2.1146495e-07
10	0x306cc7a6	8.614002e-10
11	0x33c771c4	9.2873535e-08
12	0x345a03b1	2.0304175e-07
13	0x31af48f4	5.101464e-09
14	0x330e5273	3.313694e-08
15	0x34567837	1.9974037e-07
16	0x30b1424f	1.2897291e-09
17	0x33a5fe6b	7.7296896e-08
18	0x3460d9e0	2.0940888e-07
19	0x2f268c8c	1.5147544e-10
20	0x32c5aaf9	2.3011568e-08
21	0x346140b6	2.09783e-07
22	0x3006513e	4.886437e-10
23	0x327214e7	1.4091007e-08
24	0x34579ade	2.0079776e-07
25	0x32704595	1.398566e-08
26	0x32b69ea5	2.1259732e-08
27	0x3451ff25	1.9557463e-07
28	0x323baff9	1.0924844e-08
29	0x32a83559	1.9582034e-08
30	0x345a831c	2.035053e-07
31	0x32621140	1.3158854e-08
32	0x32b8c377	2.1509306e-08
33	0x345ac4d3	2.0374436e-07
34	0x2f5f9fcb	2.0338502e-10
35	0x32388d32	1.0742314e-08
36	0x3467c929	2.1586733e-07
37	0x2e698818	5.3098942e-11
38	0x32790ce2	1.4496637e-08
39	0x345e02bd	2.0676357e-07
40	0x2fc7b126	3.632376e-10
41	0x32775f4e	1.4398962e-08
42	0x33fd5d60	1.17982154e-07
43	0x2b56f146	7.6362907e-13
44	0x33cae1aa	9.447406e-08
45	0x36ce6938	6.1515275e-06
46	0x3800685b	3.0614767e-05
47	0x362ac25c	2.5445106e-06
48	0x37282d08	1.0024065e-05
49	0x3804bb9a	3.164597e-05
50	0x358c21b7	1.0440625e-06
51	0x371e9129	9.451332e-06
52	0x380802ad	3.242742e-05
53	0x3580a99e	9.586108e-07
54	0x36d94ba1	6.4759083e-06
55	0x3805592b	3.1792715e-05
56	0x35a46020	1.2246928e-06
57	0x3746c045	1.1846486e-05
58	0x3805af00	3.1872652e-05
59	0x35c36d6a	1.4560476e-06
60	0x36e9a6dc	6.963366e-06
61	0x380068b2	3.0615083e-05
62	0x3621fad8	2.413688e-06
63	0x374e68e5	1.23029795e-05
64	0x3801ea98	3.097448e-05
65	0x362ed996	2.6054672e-06
66	0x36e64890	6.8629815e-06
67	0x380a4bdf	3.2972424e-05
68	0x348d57af	2.6327095e-07
69	0x3665388b	3.4156571e-06
70	0x38099c2b	3.2808788e-05
71	0x34fbb271	4.6882226e-07
72	0x3680a9fe	3.834487e-06
73	0x3808d9e3	3.262785e-05
74	0x352ea7f8	6.506448e-07
75	0x367d2e97	3.7727057e-06
76	0x380ba7ef	3.3296583e-05
77	0x3431a510	1.6544459e-07
78	0x3675ca96	3.6625765e-06
79	0x3803c8ad	3.1419728e-05
80	0x357e420a	9.4718473e-07
81	0x368c2d8a	4.1776266e-06
82	0x380b1166	3.3156386e-05
83	0x34769dea	2.2967984e-07
84	0x36723b6a	3.6095394e-06
85	0x38005e69	3.0605504e-05
86	0x35f26081	1.8058491e-06
87	0x36b963b1	5.5250352e-06
88	0x373f962c	1.1419452e-05
89	0x2e09ff3f	3.1376898e-11
90	0x37b3ab92	2.1418356e-05
91	0x3c2b740a	0.010464678
92	0x38454290	4.703045e-05
93	0x37970348	1.800213e-05
94	0x380a6f47	3.30054e-05
95	0x3889b0f6	6.5656306e-05
96	0x34643fea	2.1257407e-07
97	0x3802a74c	3.1150223e-05
98	0x38881bb6	6.490147e-05
99	0x35517a97	7.803696e-07
100	0x370f6f02	8.54931e-06
101	0x3888a7ef	6.5162654e-05
102	0x344d035d	1.9093336e-07
103	0x37e6bd17	2.7506188e-05
104	0x3885df38	6.383512e-05
105	0x3592ec96	1.0946703e-06
106	0x36e6a96d	6.874258e-06
107	0x388500eb	6.342105e-05
108	0x338bda6a	6.512421e-08
109	0x377a8a2a	1.493333e-05
110	0x3885e76d	6.3850406e-05
111	0x34cec674	3.8514884e-07
112	0x36ba90bf	5.5600826e-06
113	0x38885091	6.499992e-05
114	0x3551a22a	7.8094547e-07
115	0x36a964ee	5.0483422e-06
116	0x3885fe7a	6.389334e-05
117	0x35ca7e84	1.5086994e-06
118	0x36ba038b	5.5436444e-06
119	0x38869c0c	6.418684e-05
120	0x35c6b2a6	1.4804143e-06
121	0x36d15dbb	6.239597e-06
122	0x38876802	6.4566746e-05
123	0x35bacca7	1.3917642e-06
124	0x36a6c40a	4.9700075e-06
125	0x38899779	6.560883e-05
126	0x3492ba9a	2.733039e-07
127	0x36a5429c	4.9251375e-06
128	0x388aca8f	6.618082e-05
129	0x33b6b606	8.508145e-08
130	0x368825ed	4.057531e-06
131	0x3888bcde	6.5201646e-05
132	0x34bc5989	3.5082874e-07
133	0x36c6da70	5.9262893e-06
134	0x3822ac9d	3.878457e-05
135	0x2ff6399a	4.4788068e-10
136	0x37dee63f	2.6571679e-05
137	0x3b8b85bc	0.0042578857
138	0x3686f038	4.0214763e-06
139	0x34a7eaa9	3.1276912e-07
140	0x35cde4a2	1.5340231e-06
141	0x3690adc2	4.3117625e-06
142	0x332c1ccb	4.0073058e-08
143	0x35a4ed0b	1.2287941e-06
144	0x3682a3ee	3.893386e-06
145	0x34f84ff0	4.6251762e-07
146	0x358a6662	1.0311599e-06
147	0x368c2e67	4.177727e-06
148	0x3436288b	1.696482e-07
149	0x35b49892	1.3455449e-06
150	0x368f6e39	4.2745637e-06
151	0x342226a8	1.5101489e-07
152	0x3542ffa9	7.2642666e-07
153	0x36880d04	4.054631e-06
154	0x34926eb2	2.727516e-07
155	0x35825870	9.711493e-07
156	0x368f962a	4.2792135e-06
157	0x3400da33	1.200031e-07
158	0x3515604d	5.564696e-07
159	0x36938ffb	4.397703e-06
160	0x320e7bef	8.293667e-09
161	0x347fc67b	2.3820932e-07
162	0x36923a29	4.35791e-06
163	0x330a3c5b	3.2185522e-08
164	0x34830542	2.4404477e-07
165	0x3691f3b8	4.3497093e-06
166	0x331cfefb	3.6553484e-08
167	0x348ba040	2.6007365e-07
168	0x3692db34	4.3766577e-06
169	0x32ed75e8	2.7644049e-08
170	0x349a96de	2.8794506e-07
171	0x3690d0cb	4.315841e-06
172	0x339e8399	7.381386e-08
173	0x34a3480a	3.041353e-07
174	0x369224a4	4.3554046e-06
175	0x32d9d7ab	2.53602e-08
176	0x34d0ca5c	3.8890255e-07
177	0x36922d96	4.356446e-06
178	0x3330e321	4.1184766e-08
179	0x34afcffb	3.2747616e-07
180	0x36120564	2.1758833e-06
181	0x2e44ae45	4.4720023e-11
182	0x3616289b	2.2375377e-06
183	0x3a924f46	0.0011162541
184	0x38aea272	8.327224e-05
185	0x36bc3125	5.608558e-06
186	0x3826541a	3.965581e-05
187	0x38bb2d60	8.9253066e-05
188	0x348706fe	2.5150797e-07
189	0x37f96f30	2.9734889e-05
190	0x38b7696f	8.7457585e-05
191	0x35c55fc1	1.4705512e-06
192	0x37a48455	1.9611945e-05
193	0x38b3f84c	8.581634e-05
194	0x345384bd	1.9699196e-07
195	0x3802e72d	3.1209715e-05
196	0x38b58bdc	8.6568034e-05
197	0x35fc849d	1.8814059e-06
198	0x37950324	1.7763647e-05
199	0x38aeeed7	8.341454e-05
200	0x361e64ef	2.3602586e-06
201	0x38000e36	3.0530813e-05
202	0x38b81c9c	8.7791326e-05
203	0x3490f7b6	2.7002324e-07
204	0x3749b7d0	1.2023331e-05
205	0x38bc9a92	8.9933295e-05
206	0x3399eaeb	7.167349e-08
207	0x370609fa	7.989345e-06
208	0x38b6a1ad	8.708551e-05
209	0x36245571	2.4487638e-06
210	0x36cd0bbc	6.110842e-06
211	0x38b76e2d	8.746642e-05
212	0x3608b540	2.037108e-06
213	0x37076f36	8.07252e-06
214	0x38ba9348	8.8966044e-05
215	0x3502781c	4.8603556e-07
216	0x3697f10f	4.5282136e-06
217	0x38b88b83	8.79979e-05
218	0x34277299	1.5594777e-07
219	0x36dfc86d	6.6692505e-06
220	0x38bbbda4	8.952178e-05
221	0x327c022a	1.4668823e-08
222	0x36ae7a05	5.199809e-06
223	0x38b421fc	8.589399e-05
224	0x34b5631a	3.3785983e-07
225	0x37134b29	8.779382e-06
226	0x386d13ab	5.652352e-05
227	0x2f8da575	2.5765315e-10
228	0x380911a2	3.2679767e-05
229	0x3ba3936e	0.00499194
230	0x38134cbe	3.5119003e-05
231	0x3612ad0f	2.1856429e-06
232	0x372489bc	9.8072305e-06
233	0x3816fe72	3.5999758e-05
234	0x359eb7f9	1.182546e-06
235	0x370c9aaa	8.380661e-06
236	0x38169421	3.5900743e-05
237	0x35a1a556	1.2043554e-06
238	0x36fe76d2	7.5836224e-06
239	0x38172d02	3.6043122e-05
240	0x3588716f	1.0165803e-06
241	0x36f179ba	7.1965305e-06
242	0x3817c17e	3.618141e-05
243	0x35b5eb5e	1.3554052e-06
244	0x36ead2f4	6.9983016e-06
245	0x38154e71	3.5597423e-05
246	0x357ff591	9.535225e-07
247	0x36e68561	6.8700615e-06
248	0x3810c9e4	3.45203e-05
249	0x362888d0	2.5113586e-06
250	0x36f0e588	7.1792783e-06
251	0x381b548c	3.703362e-05
252	0x3519553a	5.712096e-07
253	0x36d33649	6.2946096e-06
254	0x38118b0a	3.4700184e-05
255	0x3625134a	2.4598144e-06

exp_avg f4 [128]
0	0xb74fb7ab	-1.2380925e-05
1	0xba35ef69	-0.0006940277
2	0xb942203b	-0.00018513289
3	0x38cfeb1f	9.914324e-05
4	0xbab71269	-0.0013967279
5	0xba86835d	-0.0010262538
6	0xb7f1f9fd	-2.8845849e-05
7	0x39b51689	0.000345398
8	0x3a6533d3	0.0008743379
9	0x3a372260	0.0006986018
10	0xbabec4ad	-0.0014554464
11	0xb98243ac	-0.00024845952
12	0x3a2f0492	0.0006676401
13	0xb9691c9b	-0.00022231268
14	0xb613ad03	-2.2005413e-06
15	0x3617301e	2.2528761e-06
16	0x3a8dcb4b	0.0010818032
17	0xbb76fa1a	-0.0037685693
18	0xb64f8412	-3.0922279e-06
19	0x38120cdb	3.4821085e-05
20	0x3a11a877	0.0005556414
21	0xbabbe686	-0.0014335669
22	0x39657c3e	0.00021885426
23	0xba261552	-0.00063355744
24	0xbb217e08	-0.002464177
25	0xb67a57c3	-3.7303987e-06
26	0xb9e3ddce	-0.0004346207
27	0x3880e0c1	6.145379e-05
28	0x3a2da983	0.00066246855
29	0x3a61e553	0.0008617241
30	0xba6b712c	-0.00089814025
31	0x37ca3043	2.410275e-05
32	0xbad3b09f	-0.001615066
33	0x3a34c7fc	0.0006896255
34	0xb9ec25a4	-0.00045041472
35	0xbacff79f	-0.0015866644
36	0xba1af8f9	-0.00059117336
37	0x3980a7c9	0.00024539072
38	0x39849848	0.0002529046
39	0xb7a1cc71	-1.9287896e-05
40	0xb6f849ee	-7.3995825e-06
41	0x3917769f	0.00014444672
42	0x39ac62e7	0.00032880084
43	0xb5854260	-9.92859e-07
44	0xba9100cb	-0.0011062858
45	0x396fc189	0.00022864914
46	0xbbbe8284	-0.0058138985
47	0x3b820eaa	0.0039690332
48	0x39475d73	0.00019012931
49	0xbb034933	-0.0020032644
50	0x397d5313	0.00024158908
51	0x3a96a7db	0.0011494117
52	0xb4f59016	-4.5739642e-07
53	0xb8308b39	-4.209133e-05
54	0xbad79030	-0.001644617
55	0x3ade921c	0.00169808
56	0x38df4c65	0.00010647698
57	0xb9131f66	-0.0001403071
58	0xb82e7ea6	-4.1602783e-05
59	0xb920c37d	-0.00015331614
60	0xb96c269b	-0.00022521096
61	0xb88d02d0	-6.723928e-05
62	0xbb0df19a	-0.0021658898
63	0xb8ef2e65	-0.0001140505
64	0x3b5c7aea	0.0033642598
65	0x3a01f7df	0.0004957895
66	0xbb03d9ea	-0.00201189
67	0x3a803adc	0.0009783166
68	0x3a814f8d	0.0009865627
69	0x3aa6c692	0.0012723973
70	0xb81c3dd7	-3.725089e-05
71	0xb80ed5e6	-3.4054647e-05
72	0x373f8900	1.1416385e-05
73	0x3a43dada	0.0007471271
74	0x3a682a14	0.0008856368
75	0x38a79784	7.9914025e-05
76	0xb99ed9f7	-0.00030298505
77	0x39888369	0.0002603785
78	0xb5e1f7f3	-1.6835969e-06
79	0xb9a9ce68	-0.00032387977
80	0xb9f0a45d	-0.00045898827
81	0xb8ba677b	-8.888446e-05
82	0xbb4d1b3b	-0.0031296748
83	0x3b0ec862	0.0021786918
84	0xb59ddc39	-1.1761505e-06
85	0x376d67c4	1.4150461e-05
86	0xb9c31f91	-0.00037216817
87	0xba05335f	-0.0005081202
88	0xbaa0e01e	-0.0012273823
89	0x37ee7802	2.8427694e-05
90	0x3b85bda2	0.004081444
91	0xba5d9479	-0.0008452605
92	0xb70b1d4a	-8.291865e-06
93	0xb71ccf13	-9.346538e-06
94	0x3656f3c8	3.2030384e-06
95	0x3b2b4b4f	0.0026137417
96	0xbb3139ee	-0.0027042585
97	0xb8c97f28	-9.6081116e-05
98	0xbabca999	-0.0014393806
99	0xb8db1ba5	-0.00010447883
100	0x3982de09	0.0002496096
101	0xb632ea60	-2.666049e-06
102	0x3907564c	0.00012906751
103	0xb6c0a168	-5.740836e-06
104	0x3a3f532b	0.0007298465
105	0xbb32f60f	-0.0027307307
106	0xbb2d9bad	-0.0026490495
107	0xba33a540	-0.0006852932
108	0xb8b7401b	-8.7380606e-05
109	0x38b2fe0b	8.5350206e-05
110	0x38b1676d	8.459282e-05
111	0x3a074935	0.000516075
112	0x3ab754fd	0.001398712
113	0x3a70d554	0.0009187062
114	0xb9a751d3	-0.00031913686
115	0x3a4267b1	0.0007415964
116	0x3875a113	5.8562564e-05
117	0xba9ee129	-0.0012121546
118	0xbace7560	-0.0015751533
119	0x395ae4ea	0.00020875377
120	0xb63810c4	-2.7427895e-06
121	0x3b919900	0.004443288
122	0xb7595832	-1.29547425e-05
123	0xb8ab8aed	-8.179792e-05
124	0xbba9be96	-0.0051801903
125	0x389b06f7	7.392273e-05
126	0xb9837cc2	-0.0002507922
127	0x3b7e3731	0.003879022

exp_avg_sq f4 [128]
0	0x346807af	2.1609479e-07
1	0x380bdfb7	3.3348533e-05
2	0x388b4088	6.6400564e-05
3	0x3693ce46	4.404955e-06
4	0x38bbea72	8.960524e-05
5	0x381d3604	3.7482023e-05
6	0x38b4530e	8.598539e-05
7	0x379dff68	1.8834791e-05
8	0x3a524cb2	0.0008022293
9	0x3a4384d6	0.0007458454
10	0x397b8ff3	0.0002399085
11	0x38c67c50	9.464531e-05
12	0x39bf2a73	0.00036461986
13	0x38eb1145	0.0001120889
14	0x318bc30e	4.0676076e-09
15	0x31c16ec8	5.6296336e-09
16	0x3796b8e3	1.7967488e-05
17	0x3ab66db8	0.0013918197
18	0x31ef4d8a	6.9646306e-09
19	0x3618a932	2.274825e-06
20	0x38e64f96	0.00010982079
21	0x373c2b77	1.1215793e-05
22	0x37a716d5	1.9918583e-05
23	0x38837fab	6.270347e-05
24	0x37a78fa2	1.9974836e-05
25	0x30d8b4d6	1.5767465e-09
26	0x36f40fdb	7.2736125e-06
27	0x37deb7fb	2.6550135e-05
28	0x39672fd1	0.0002204769
29	0x373d19e7	1.1271309e-05
30	0x388fd60a	6.858639e-05
31	0x3941df12	0.00018489014
32	0x3910aa17	0.00013796274
33	0x395b32bf	0.00020904372
34	0x365b30a6	3.266186e-06
35	0x3a072da1	0.00051566405
36	0x39d5d556	0.00040785474
37	0x36890bbd	4.0842847e-06
38	0x385c2840	5.2489573e-05
39	0x33702ee5	5.5922005e-08
40	0x31732b63	3.5385816e-09
41	0x3930a138	0.00016844727
42	0x36102c8b	2.14836e-06
43	0x311930c4	2.229215e-09
44	0x36aa6f3e	5.079345e-06
45	0x397d5b13	0.00024161888
46	0x3a80bd73	0.0009822085
47	0x3a6e2d00	0.0009085685
48	0x384a811f	4.8280806e-05
49	0x3a065704	0.00051246607
50	0x34d04d0b	3.8799075e-07
51	0x39deeba3	0.00042518703
52	0x30cfcf9b	1.5120237e-09
53	0x338e0af3	6.614382e-08
54	0x392e03b9	0.0001659532
55	0x3a347dd9	0.0006885208
56	0x380bd940	3.3342512e-05
57	0x393b3f3b	0.00017857265
58	0x361682c4	2.2427857e-06
59	0x38ac2510	8.2085025e-05
60	0x37cbebfb	2.4309373e-05
61	0x37d1b270	2.4997833e-05
62	0x39b73e75	0.00034951014
63	0x387c538b	6.0159287e-05
64	0x39e23d56	0.00043151778
65	0x3aa739da	0.001275833
66	0x391d2e95	0.0001499004
67	0x386ec7d8	5.692974e-05
68	0x3a1c3dba	0.00059601257
69	0x3995c41a	0.00028565602
70	0x35808f14	9.578384e-07
71	0x3684d063	3.958166e-06
72	0x36403efb	2.864689e-06
73	0x38acb38b	8.2350416e-05
74	0x38df55a1	0.00010649418
75	0x36566c0b	3.1951374e-06
76	0x38c832b4	9.546187e-05
77	0x39b2fec9	0.00034140635
78	0x329900d0	1.7811914e-08
79	0x378872ed	1.626598e-05
80	0x38c1b8f4	9.237407e-05
81	0x390059a4	0.00012240425
82	0x39ce78ac	0.0003938129
83	0x39c42469	0.0003741116
84	0x312ee51f	2.5450573e-09
85	0x3322185e	3.7740726e-08
86	0x396a0f03	0.00022321571
87	0x37c87302	2.3895413e-05
88	0x3a3b48de	0.0007144342
89	0x35009465	4.789966e-07
90	0x3b0f97ee	0.0021910626
91	0x38fc016b	0.000120165605
92	0x3065ca76	8.359743e-10
93	0x3983e888	0.00025159516
94	0x31fe3198	7.398011e-09
95	0x3a55fcf1	0.00081629964
96	0x3a8c9ce8	0.0010727914
97	0x355e143b	8.2730884e-07
98	0x399ebd5e	0.00030277198
99	0x37962ccf	1.7902259e-05
100	0x3859ac7b	5.1897467e-05
101	0x31143c91	2.1571263e-09
102	0x3537a7b4	6.841685e-07
103	0x324d564f	1.1952195e-08
104	0x3a3f893e	0.00073065225
105	0x39186f52	0.0001453732
106	0x39e3e322	0.0004346604
107	0x38b90931	8.8231995e-05
108	0x38b45ba1	8.600136e-05
109	0x35b8b1f5	1.3760861e-06
110	0x3512a16c	5.462414e-07
111	0x367e3e3f	3.7885181e-06
112	0x3807d36d	3.2383414e-05
113	0x36924a2b	4.3597734e-06
114	0x39b6ceac	0.00034867728
115	0x3825eff6	3.9562547e-05
116	0x370ae0dc	8.277795e-06
117	0x37756988	1.4627709e-05
118	0x38e1f021	0.000107735636
119	0x370850fc	8.125087e-06
120	0x333fb5c3	4.4635964e-08
121	0x3ac33d36	0.0014895562
122	0x321028ce	8.391181e-09
123	0x354c84f4	7.6189394e-07
124	0x3a9a7422	0.0011783878
125	0x34696723	2.1737337e-07
126	0x393ca3d3	0.00017990106
127	0x3958e056	0.00020682937
