Project/results/Test3_1Wall_01/Test3/Test3-499942.onnx (onnx, 96205 bytes, 7 tensors)

network_body._body_endoder.seq_layers.0.weight f4 [128, 46]
00000000: 3bb3 aebe 574b cc3d ff13 d8be 6664 84be
00000010: e4cb 80bd 677b 453d e351 83be 0789 503b
00000020: 5579 50be e965 abbd db90 a53d 8115 0cbe
00000030: 28b8 84be fb7a 70be 140c 76be 2426 64be
00000040: e056 62be 1419 103e e147 74be 3b4f 8cbe
00000050: 7a98 1bbe abef 78bc 2a44 543d 89de f4be
00000060: a8a5 82be 5d1f 9b3c ffd6 8ebe d12c 85be
00000070: 5d78 783e c8fa 123e 0231 a5be 7a04 a13e
00000080: 1c40 1f3e 1d92 2ebd 904c 06be 900b a1bb
00000090: dc48 78be 6c35 17bd 7c3b c83b 23d2 44be
000000a0: 4672 38be 65e6 a4be b3ff c5be 6097 60be
000000b0: 0ec0 363e 31ff 61be c728 b9bc 64df 503e
000000c0: 596b b83b ebc7 40be 1d7e c5bd 3732 183e
000000d0: 7f6c 693d c755 753d 3ced b43e 573f 76be
000000e0: 9d22 703e 63b9 343e 56f0 bc3c 0740 82bc
000000f0: be96 153e 21b3 823c 8ee1 5dbd 63cd 163f
00000100: 0e42 063e 7f48 adbb 677e 0e3e 9a4b b4bd
00000110: 577d af3c 09b5 5fbe 1fad babd 34f8 03be
00000120: 58d4 41bd fbb9 b63e 4d88 853d da7c 68be
00000130: bda2 b2bd 6968 67be d98f bcbe ee7b a4be
00000140: bda5 693e ef93 2dbe 1d4d 303b acba 3bbe
00000150: d4e0 88be 558d 86be dcc9 d43e dc7c 503e
00000160: 16b8 c93e c9c8 abbd 87ca 38bd 354d df3c
00000170: 923f 33bc d4d7 293e 1cad 3bbe 8837 3fbe
00000180: 172b a5bd 69f6 1a3e 5383 55bc b15f 0c3e
00000190: 50f4 75be 04c3 0a3e 6a66 113e 1032 9bbd
000001a0: ce89 093e 0135 d43c f386 713d a7ac 8a3e
000001b0: f75d 9ebe eb16 89be cb8e 08be 321a 393e
000001c0: 6667 33be faa7 933d 6dbf 4b3e a267 14be
000001d0: 4364 05be bb4c db3c f17b e53d c8db 2ebd
000001e0: e8fe 4c3c d28c c13d 3f67 e7bd b0b3 ae3c
000001f0: 974f dd3d ce22 b33e 91b9 c73c 91c6 9dbc
00000200: 9fde 06bd 1e63 f73c fc2f 49bc 137a b9be
00000210: c129 2c3c 723e febc 65c6 eebe 2ece 84bb
00000220: f378 e53e d018 33bd 7085 133e ba9d d8bd
00000230: 147d e23c 1d2c d33d cb84 55be c469 4cbe
00000240: 0146 8fbe 3f8d dd3d a343 76be d10d 5e3c
00000250: a7d5 11be c94b 5c3d 3074 283d e72f 9e3e
00000260: 42fc c03d 90f3 83be 2f91 b13e 3446 33be
00000270: 8adf 83be 60a8 8abe f61f 37be 2a78 063e
00000280: bed5 7cbe 52da b8be 7989 a0bc 3ba6 3c3e
00000290: b38a cbbe f7eb b03d 6eef 8fbd 8180 7abc
000002a0: b1b6 83be fdc4 95be 4e33 6abe 0bbe 5abe
000002b0: 82a0 3b3e f963 93be e85e 84bc 2fa9 5abe
000002c0: 725b 03be e00f 44bd 8ef4 68bd 1e1f 25be
000002d0: d6c5 72be 8b0d 41be 933c 4e3d 0cb4 703d
000002e0: a035 fe3b d3c6 ebbd 42e5 183d 59d4 7e3d
000002f0: b1b6 cebb bac1 d03e 209e 7bbd b48f a93b
00000300: 93d8 19bd 17b6 62bd 1d10 2bbe 13e2 50be
00000310: c6cc 093e 5242 553d b656 2abe eefb 03ba
00000320: b3a6 2d3e 7c09 9cbd d7e3 0abd 9d81 83be
00000330: 6bd6 663e cb80 db3d 38cf 183e 257a a7bd
00000340: f306 533e 85a1 69be 4736 a53d 1af0 363e
00000350: f759 7ebe 0dd4 b93d 0cd6 473e c1da 9d3d
00000360: 068c 31be a8ce 40be e2a3 5fbd 7c00 e0bd
00000370: 19b2 d83d 9d8c a0be 5e68 0dbd 6891 92be
00000380: 9f8e 163e 88b7 5f3d 1676 643d 3542 67be
00000390: 7a6c 24bf c99b 0fbb 8977 8ebd 24cb 6cbd
000003a0: 0879 d33d 8104 0fbe 2d1e f4bd 9bc8 57bd
000003b0: d80c ddbd 7ed6 f23d a144 463e bb74 55be
000003c0: 42e9 893b 39a2 bbbe 00d3 363d d4e9 193e
000003d0: 6330 00be c514 e9bd 9791 743d c669 37bd
000003e0: a44a f3bd 403a 9c3e 5fd2 adbd f1f5 4fbd
000003f0: 373c b9be 1b34 bdbe 1095 c53d f943 f3bc
-0.34121117 0.099753074 -0.42202756 -0.25857848 -0.06288889 0.04821339 -0.25648412 0.0031819956
-0.20358784 -0.08369047 0.080842696 -0.13680078 -0.2592175 -0.23484413 -0.24028045 -0.22280174
-0.22103453 0.14072067 -0.23855545 -0.27404198 -0.15194884 -0.01519386 0.05182282 -0.4782603
-0.2551701 0.018935854 -0.27898404 -0.26010755 0.24264665 0.14353478 -0.32263952 0.31448728
0.155518 -0.042619813 -0.13115144 -0.0049147084 -0.24246544 -0.03691618 0.0061106067 -0.19220786
-0.18012342 -0.32207027 -0.38671646 -0.21932745 0.178467 -0.22070004 -0.022602452 0.20397717
0.005628031 -0.18826263 -0.09643195 0.14862905 0.056988236 0.059896257 0.35337245 -0.240476
0.23450704 0.17648844 0.02306382 -0.015899671 0.14608285 0.015954556 -0.054170184 0.58907145
0.13111135 -0.005288183 0.13915406 -0.08803482 0.021422071 -0.21846403 -0.091150515 -0.1288765
-0.047321647 0.35688767 0.06520138 -0.22703877 -0.08722446 -0.22598423 -0.36828497 -0.321258
0.2281713 -0.16950963 0.0026901432 -0.18332928 -0.2673403 -0.26279703 0.41560256 0.2036013
0.3939826 -0.08387906 -0.04511502 0.027258495 -0.010940449 0.16586238 -0.18327755 -0.18673527
-0.08064859 0.1513306 -0.013031798 0.13708378 -0.24018979 0.13550955 0.14199224 -0.07577908
0.13431475 0.02590418 0.05896659 0.27084848 -0.30931064 -0.26775298 -0.13335721 0.18076399
-0.17519912 0.07209773 0.19897242 -0.14492658 -0.13026528 0.026769986 0.112052806 -0.04269007
0.012511946 0.094506875 -0.112989895 0.021325916 0.10806196 0.3498749 0.024380477 -0.019259723
-0.03292715 0.03019863 -0.012279507 -0.36225948 0.010508002 -0.031035636 -0.46635738 -0.004052899
0.4481884 -0.043724835 0.14406371 -0.10576959 0.027647533 0.10311148 -0.20851438 -0.19962221
-0.27983096 0.10817956 -0.24049239 0.013553099 -0.14241658 0.05378321 0.04112643 0.30895922
0.09423114 -0.2577176 0.3468108 -0.17507249 -0.25756484 -0.27081585 -0.17883286 0.13131776
-0.24690911 -0.36104065 -0.019596802 0.18422787 -0.39754257 0.08638757 -0.070280895 -0.015289427
-0.2572532 -0.29251853 -0.22871134 -0.21361558 0.18322948 -0.2878721 -0.016158536 -0.21353601
-0.12827852 -0.047866702 -0.05687385 -0.16125152 -0.23708281 -0.18852822 0.050350737 0.058765456
0.0077578574 -0.11512532 0.037328012 0.06221423 -0.0063083996 0.40772802 -0.061430097 0.0051746015
-0.037560057 -0.055349436 -0.16705365 -0.2039874 0.13457021 0.0520652 -0.1663464 -0.0005034794
0.16958122 -0.076189965 -0.03390869 -0.25684825 0.22542731 0.10717925 0.14922798 -0.08177594
0.2060812 -0.22815521 0.08066993 0.17865029 -0.24839006 0.090736486 0.19515246 0.077077396
-0.17338571 -0.18828833 -0.05459965 -0.109375924 0.105808444 -0.3135728 -0.03452336 -0.2862656
0.14702843 0.05461839 0.055776678 -0.2258385 -0.6422802 -0.0021912924 -0.06956393 -0.057810917
0.10325819 -0.13966562 -0.11919818 -0.052681547 -0.107934654 0.118573174 0.19362117 -0.2084531
0.0042087147 -0.36647204 0.04463482 0.15030605 -0.12518458 -0.113809146 0.059709158 -0.044778608
-0.11879471 0.3051319 -0.08487391 -0.050771657 -0.36178753 -0.36953816 0.09647572 -0.029695498

network_body._body_endoder.seq_layers.0.bias f4 [128]
00000000: 946a 1fbe f162 ddbc 19d1 663b 93e7 46bd
00000010: 0885 afbd e935 4d3c e972 2aba dbc1 81bd
00000020: ea45 123d 32ca 8fbc 8d71 bd3b 1aa4 84bb
00000030: 9340 a2bc d8e0 56bc 03ac 89be 911c 7ebe
00000040: ffa4 b73c dd54 8fbc a5a1 84be ef27 39bd
00000050: 4081 833c d7d6 e3bb 1301 50bd 7096 d0bc
00000060: 6e50 cc3c b4e6 8dbe caf3 86bc 2d5e b13c
00000070: b23d 11bc c39a 84bc 826f 0abc b856 54bb
00000080: db77 733a a0a3 4bbd b88f 3a3c d0bf b63b
00000090: 1e43 c13c c4bd 3abd 5c24 02bd 3d2c 4bbe
000000a0: 2722 79be 991b cebc ce57 55bd 3ed1 9cbe
000000b0: 91db d23c d3c8 89ba 9f1d 2e3b 8874 033d
000000c0: cbdb e0bd ca62 bd3c 7577 0bbe b847 01bc
000000d0: 06c8 abbe 1c9d 56be ada3 5bbd 76bb ef3c
000000e0: 58b6 6abc d973 623c 5154 3fbd c1d5 04bd
000000f0: f328 babc f41c f7bb 6b29 9dbb 7fa8 3dbd
00000100: 43c4 513d 7848 b03c 22b1 9abd 16e6 b7bc
00000110: eeb3 a1bc dc07 983c 1488 44bd 6ba9 82bd
00000120: 6be1 1dbe 03a9 d7bc c5e6 113d 413f e9bd
00000130: 21d2 a3bc 00df 54bc 2d0e 8abe 92db 4fbc
00000140: 5944 13bd 8702 5b3c 2c9d d03b 0c60 3f3c
00000150: 3f2a 96be a9fb 4fbe 379f b4bc 2fcb 913c
00000160: 0465 8a3c 1707 2bbe ea9c 583d 7a27 49bd
00000170: 2eaa b1be ce39 a6bc f353 85be 4fb7 993d
00000180: 6100 3e3d 1169 e5bd e836 e53b edc4 15bb
00000190: 5e85 cb3c 1848 9abe bf66 10be 356c 7fbe
000001a0: ab02 523d efdf efbc 2bc3 3c3b 0d8a 36bd
000001b0: 542d af3c 3855 0dbe e8ed 19be 8c12 dbbb
000001c0: ea2f 24bc 148d 143a 139c 25bc b257 33ba
000001d0: b92d c9bd 0a91 12bd 8adc 1a3d dcf0 d1bd
000001e0: b724 41be 7877 de3c 0992 83be d7c5 1cbe
000001f0: ef7f 1e3c 9d21 2ebe 0957 bf3c 5114 aa3d
-0.15568 -0.027024718 0.0035219847 -0.04856069 -0.085702956 0.01252506 -0.00065021083 -0.06335803
0.035711206 -0.017552469 0.0057813586 -0.0040478827 -0.019806182 -0.01311513 -0.26889047 -0.24815585
0.022417543 -0.01749652 -0.25904575 -0.0452041 0.016052842 -0.006953101 -0.050782274 -0.02546236
0.024940696 -0.27715075 -0.01647367 0.021651352 -0.008864807 -0.016187077 -0.008449437 -0.0032400321
0.0009287574 -0.04971659 0.011386804 0.005577065 0.023591574 -0.04559113 -0.031772956 -0.19841094
-0.24329434 -0.025159644 -0.05208569 -0.3062839 0.025739463 -0.0010512121 0.0026567949 0.032093555
-0.10979422 0.023118395 -0.13619788 -0.007890634 -0.33551043 -0.2095837 -0.05362289 0.029264193
-0.014325701 0.013821566 -0.04671127 -0.032430414 -0.022724604 -0.0075412933 -0.004796197 -0.04630327
0.05121256 0.02151893 -0.07553317 -0.02244858 -0.019739117 0.018558435 -0.047981337 -0.0637997
-0.15418021 -0.026325708 0.03562047 -0.11389018 -0.019997658 -0.0129926205 -0.2696394 -0.012686627
-0.035953853 0.013367302 0.0063663926 0.011680614 -0.29329106 -0.20310844 -0.022048576 0.01779708
0.016893871 -0.16701923 0.05288402 -0.049109913 -0.3470015 -0.020291235 -0.2604061 0.075056665
0.04638708 -0.112016805 0.0069950707 -0.0022852973 0.024843868 -0.30133128 -0.14101695 -0.24943621
0.051272076 -0.029281585 0.0028802853 -0.04456525 0.021383919 -0.1380204 -0.1503216 -0.0066855606
-0.010021189 0.0005666774 -0.010108012 -0.0006841376 -0.09823174 -0.03578285 0.03780798 -0.102510184
-0.18861662 0.027156577 -0.25697353 -0.15309845 0.009674056 -0.1700501 0.023356931 0.08304656

network_body._body_endoder.seq_layers.2.weight f4 [128, 128]
00000000: 3053 983d 8295 cf3d 797b c3bd c9c2 fdbd
00000010: 9eb7 4abd 1fd5 91be 4838 5c3d 8c95 f1bd
00000020: 9c9b cabc a31d 2dbe de6c c53d c89d 86bd
00000030: 36cb edbc c718 a43c 0e02 73bc 791c 483d
00000040: 46df 09be e27c 003e 4e0c 87bd 4801 1abe
00000050: 38db 013d e5ab a2be c41b 19bd eb66 063c
00000060: 2eee 353e 4867 26bb 8e35 54bb a024 e2bd
00000070: eaef 143e 0425 fdbd 4751 6dbe 4493 483d
00000080: b6b1 94be bb4f b43b e81f 77bd d945 47bc
00000090: 3173 1abc 15b1 3c3e 608c 42be 2ae9 363e
000000a0: a401 373e 9444 903d 545f 56be 1110 833d
000000b0: b7ca 143d a628 0cbe 0d8e babd a924 98be
000000c0: 714a bebd 6fa6 55be 8187 9f3d 834d 293e
000000d0: 6a6f b13d f305 22bd 1b95 663c c493 96bd
000000e0: 39d0 11be 1c18 c0bd a400 3dbd 2ff9 f1bd
000000f0: 4e76 fd3c bd7b 8bbd fc50 0cbe 5efd 1ebe
00000100: caad b7bd 5c61 90be f77c cebd d16a e13d
00000110: 27c4 3bbd 3d2e 053c abd4 0dbd 2f6d 0dbe
00000120: 2f09 343e 0a3d cc3c 716c 08be 43ec f5bb
00000130: 87ba 16bd 16ca 94bd 89bb 5a3c 77b2 6dbd
00000140: ce1c d4bc 52a2 4b3d 2896 d83d 7c3c 12be
00000150: a676 30bb 68b6 ff3d d831 30bc 2d92 b6bc
00000160: 3f37 bdbc cb65 2e3e a3fd 99be 2e4d 67be
00000170: 42cc 943d ddf3 25be 4cd9 86bc b06a 74be
00000180: 8cb9 583e 14d7 813d 440c 93be 6fdc a4bd
00000190: c3b1 3d3d af18 d2bc 0c8c 8abc 15ca f03c
000001a0: 3d06 18bd a8b8 67bc 56cb 093e 9c86 32be
000001b0: b9f9 de3d 57da 663d af6f 7d3b b7fc 88bd
000001c0: b33c 773e 6132 283e e584 9abd 1487 39bd
000001d0: 572c c93d bdca 8a3d a474 313e 5fb1 dbbd
000001e0: 9a2a 2c3d f83e b7bd 4ee7 69bd 606d 06be
000001f0: d620 563c c653 283d 30c6 1a3e 6964 5dbe
00000200: 9b9b ce3e e13d b4bd 7851 c5bd 1f82 243e
00000210: 895d 10be bd83 db3c b9d2 ee3c 18ef f5bd
00000220: b121 97bd 7158 64be d32e 50be 7ca3 15be
00000230: 9a79 e73b 09be ad3d 3d2c 253e 7ce0 493e
00000240: 784e 3d3e 7f9c 2abe dd10 053e 36b1 15be
00000250: 00fa b33d 4d4a a0be 433c 1cbd 8265 cb3d
00000260: 59db 80be 30f1 9d3e 90b5 55be 67b9 3e3e
00000270: 2ec2 19be 37eb 1c3e a962 41bd 0bbe 663d
00000280: 5aa0 d1bc e314 59be 5bd0 bfbd 77e4 163e
00000290: f43c b2bd cc8c 1a3e 89bd 4e3c c370 8e3e
000002a0: 8d19 a63e 255e 70be 1e99 40bc 42f2 653e
000002b0: 7b2e ebbb a9e5 81bd c62b 4ebe 9b32 75be
000002c0: a275 083e 163b b0be 8f03 ffbd 92a6 7cbe
000002d0: 53fd 923d 0949 223e e04b f3bd 084e 9abe
000002e0: b854 96bd 67ad 0dbb d18b 363d 4cd5 003e
000002f0: 7c3f df3c 66ef efbd 9924 85bd fdf8 bbbb
00000300: 6e6a eebd 5157 8dbe d88f b0bd a19e 8bbd
00000310: 815f bcbc 0887 1d3e fc7d 89bd b436 5b3c
00000320: 7e82 84bc f1e5 9e3d 729a a73d f07f e83d
00000330: 844a 783d 0352 7ebd 3c34 5e3e 36b4 1e3e
00000340: cbb0 50be 60b4 653b c68a f0bd ce71 71be
00000350: 09f4 5b3e 8f57 dc3e 68b0 6abd c315 8d3d
00000360: e449 7abd f7cc 833e cae4 87be 8312 983d
00000370: dd0c 81bd 8603 27be 44a1 ae3d df85 05be
00000380: 31cf 87be f092 993e 6405 f73d ab97 893d
00000390: 4bee 9a3c 48bb cc3e f136 edbc 1a34 9d3e
000003a0: 7de0 48be ab69 36be 3e0b 94be c2d8 cbbd
000003b0: 05d3 eabd d942 803e 73a7 403e b91c fdbc
000003c0: 6f27 b9bc 3758 b2bd 4aa6 97be 6dc7 a73d
000003d0: 27a5 70be 7f8f 37bd 9a49 f43d 2cad 0dbe
000003e0: 75a9 ee3e d917 a6be 1a39 973e 0ccd 853e
000003f0: 0718 b9be dcd2 d63e a55b 6fbd b230 85be
0.07437742 0.10135938 -0.09545035 -0.12390668 -0.049491517 -0.2848291 0.05376461 -0.11796102
-0.024732403 -0.16905837 0.096399054 -0.06573063 -0.029027563 0.020031346 -0.014832033 0.04885528
-0.13464078 0.12547639 -0.06594144 -0.15039551 0.031703204 -0.3177177 -0.037379995 0.0082032485
0.1776664 -0.002539115 -0.0032380554 -0.11042142 0.14544645 -0.12360576 -0.23175536 0.04896857
-0.29041833 0.0055026687 -0.060333163 -0.012162649 -0.009426878 0.18426926 -0.18998861 0.17862383
0.1787172 0.0704433 -0.20934802 0.06399549 0.036326136 -0.13687381 -0.09109125 -0.2971547
-0.09291542 -0.2086427 0.07789517 0.16533475 0.08663829 -0.039556455 0.014073635 -0.07352403
-0.14239587 -0.093795985 -0.04614319 -0.11815106 0.030940201 -0.068107106 -0.13702768 -0.1552634
-0.089686945 -0.2819928 -0.10082429 0.11006702 -0.045841362 0.0081287 -0.034626644 -0.13811181
0.17581628 0.02493145 -0.13322617 -0.007504971 -0.03679898 -0.07265107 0.013350376 -0.058031525
-0.025892641 0.049715348 0.10575515 -0.14280885 -0.0026926189 0.12485963 -0.010754071 -0.022286499
-0.023097632 0.17031018 -0.30076322 -0.22588035 0.072655216 -0.16206308 -0.016461037 -0.23868823
0.2116453 0.06339851 -0.28720295 -0.08049857 0.046312105 -0.025646536 -0.016912483 0.029393235
-0.037115324 -0.014143147 0.13456473 -0.17434162 0.108874746 0.05636057 0.0038671305 -0.066888265
0.24144249 0.16425468 -0.07544879 -0.045294836 0.0982291 0.067769505 0.17329651 -0.1072719
0.042032816 -0.08947557 -0.057105355 -0.13127661 0.013069352 0.041095518 0.15114665 -0.21620335
0.40353093 -0.08800865 -0.096346796 0.16065262 -0.14098181 0.026796216 0.029153215 -0.12008494
-0.07379473 -0.22299363 -0.20330362 -0.14613146 0.0070640566 0.08483512 0.16130157 0.1971454
0.18486965 -0.16661261 0.12994714 -0.14618382 0.08787918 -0.31306687 -0.038143408 0.099314705
-0.2516735 0.30848074 -0.20870042 0.18625413 -0.1501548 0.15324102 -0.04721323 0.056333583
-0.025589157 -0.21199374 -0.093659125 0.1473559 -0.08703032 0.15092772 0.012618431 0.27820405
0.3244137 -0.23473413 -0.011755256 0.22455695 -0.0071771718 -0.06342632 -0.20133886 -0.23945086
0.13326123 -0.3442008 -0.124518506 -0.24672917 0.07177224 0.15848173 -0.118797064 -0.30137658
-0.073403776 -0.0021618248 0.044566933 0.12581366 0.027251951 -0.117155835 -0.06501121 -0.005736469
-0.116413936 -0.2760568 -0.08621186 -0.068173654 -0.022994759 0.15383542 -0.06713483 0.013379741
-0.016175505 0.077587016 0.08183755 0.11352527 0.06061794 -0.06208993 0.21699613 0.15498433
-0.20379941 0.0035050139 -0.11745219 -0.2357857 0.21479811 0.43035552 -0.05729714 0.06888916
-0.061105624 0.25742313 -0.2654174 0.07425406 -0.063012816 -0.16309938 0.08526853 -0.13039349
-0.26525262 0.29994917 0.12061575 0.067183815 0.018912455 0.39986634 -0.028956862 0.30703813
-0.19616885 -0.17813747 -0.28914827 -0.09953453 -0.1146603 0.25051 0.18813877 -0.030897485
-0.022601811 -0.08708232 -0.29619056 0.08192334 -0.235005 -0.044814583 0.11928101 -0.13835591
0.4661366 -0.3244007 0.29535753 0.26133 -0.36151144 0.41957748 -0.05843701 -0.26013714

network_body._body_endoder.seq_layers.2.bias f4 [128]
00000000: f5cc f6bc 2552 6cbe cae0 15be cfba 0abe
00000010: 786f 1ebd 85a5 c3bc 75a4 2bbd 8bbc a1be
00000020: 5803 ffbc d46b ffbc 426a b0bd 7454 06be
00000030: e26d 193d b6a7 babd 2a39 073d 523a 71be
00000040: 9597 0ebe 0c78 983c 98f5 1abd ab57 a1be
00000050: a50b c4be 0d54 45bd f750 853d 670e 53be
00000060: 2952 c3be b5eb 83bd ce90 fd3c 8343 55be
00000070: c2e9 b8bd 90d7 52be 07c7 c2be 4320 da3b
00000080: af07 85be ea89 23bd 456e 58bd d376 e5bc
00000090: 2bee 28bd 89f0 94bc abe6 20be 7450 0f3b
000000a0: 310a 893d 68a1 dfbd e117 93bd c0bb f4bc
000000b0: a8bb 67bb 90e6 93be c542 093c 756e e23c
000000c0: 1537 3ebd 03e5 0abe 4ada 6ebd da1b 833d
000000d0: 5157 debc e7fa b6bd d63f 0f3d 27c9 61be
000000e0: 4255 07be 33d0 39bd 22ff 053c b7b4 13be
000000f0: 9593 56be 3b94 8abd 217e 3ebe 792e f9bc
00000100: 604b 00be 2178 2fbd 46fe f4bc 830e 80be
00000110: 49b4 5cbe f309 febd fdc0 3fbe 9b5e babe
00000120: 9f90 96bd afcf 20be e4b7 b7be f9d0 73bd
00000130: 65e3 14bd 1c7e 6cbc 6878 8e3c 866a c4be
00000140: 4f77 babd 48ec 73be c221 93be 0c90 36be
00000150: 9544 63be 6c27 993d 5290 6fbd d3e2 7d3d
00000160: d7ab e9bb bc5d 3ebe 2520 80be 024d 063d
00000170: 8ef1 a1bc 6257 e6bd 1d37 a9bd 621e 14bb
00000180: a3fe 25be 5d86 0fbe 54b7 a0bd b869 aebd
00000190: ffaf 55be 6c45 16be 625c 50be 0ad5 f6bc
000001a0: d1bf 9fbb 19f5 19be 4c13 053d ecfa 7cbe
000001b0: 871e 8fbc f383 11be e5fc c6bd 1443 66bd
000001c0: 6e58 70bd 6af6 72bd 6a42 8abb 87ce 02be
000001d0: 8776 bd3c 4e47 8bbe 3fd4 75bd bee1 a3be
000001e0: 145f 9fbe 8d9d 15be 0cc7 b5bd 5e5a b7bd
000001f0: 2548 8dbe 9cc5 95bd ce0c 68bd e464 bfbc
-0.030127028 -0.2307821 -0.14636531 -0.13547824 -0.038680524 -0.023882637 -0.041904885 -0.3158916
-0.031129524 -0.031179346 -0.08614017 -0.13118154 0.037458308 -0.091140196 0.0330135 -0.23557404
-0.13925011 0.01861193 -0.037831873 -0.31512198 -0.38290134 -0.04817586 0.065095834 -0.20610963
-0.3814862 -0.06441442 0.030952837 -0.20826535 -0.09028961 -0.20590043 -0.3804247 0.006656678
-0.25982425 -0.039926447 -0.052839536 -0.028010761 -0.04124276 -0.018181102 -0.15712993 0.0021868022
0.06691397 -0.10919458 -0.07182289 -0.029874682 -0.0035359655 -0.28886843 0.0083777355 0.02764056
-0.04643925 -0.13563924 -0.058313645 0.06401797 -0.027141245 -0.089345746 0.034972988 -0.2204939
-0.13216117 -0.04536457 0.008178504 -0.14424406 -0.20954736 -0.06766554 -0.18602802 -0.030417668
-0.12528753 -0.042839173 -0.029906403 -0.25011072 -0.21553148 -0.124042414 -0.18725963 -0.36400303
-0.07351803 -0.15704225 -0.35882485 -0.059525464 -0.036349673 -0.014434364 0.017391399 -0.3836252
-0.091047876 -0.23820603 -0.28736693 -0.17828387 -0.2219413 0.07478222 -0.058487244 0.061983895
-0.0071310806 -0.18590444 -0.25024524 0.032788284 -0.019768503 -0.11247136 -0.08262465 -0.0022601117
-0.16210417 -0.140161 -0.07847467 -0.08516258 -0.20867918 -0.1467492 -0.20347741 -0.030130882
-0.004875161 -0.15034904 0.032489106 -0.24705094 -0.017470611 -0.14210491 -0.097162046 -0.056216314
-0.058678083 -0.05931703 -0.004219343 -0.12774096 0.023127807 -0.2720284 -0.060016867 -0.32008165
-0.31127226 -0.14610882 -0.08875856 -0.08952783 -0.27594104 -0.073130816 -0.056652837 -0.023363538

action_model._continuous_distribution.log_sigma f4 [1, 3]
00000000: 2381 b7be fe7e 06bf 59ea 82bf
-0.3584071 -0.52537525 -1.0227767

action_model._continuous_distribution.mu.weight f4 [3, 128]
00000000: f0ab 363c 3f40 973c d7f5 9cbc 2917 1cbd
00000010: 2cb3 813d 0316 babc 92d4 ee3c 5f91 0abc
00000020: 3751 91bc cc1a 03bb a388 803c 862d 843c
00000030: b470 df3d 06dd e9bb 1c74 173d 1320 303b
00000040: f8b2 ba3c 313a f9bd 9745 10bd 5a45 f03c
00000050: c1ef e7bb 4584 a8bd ab47 c23d 4bde d7bc
00000060: f912 cf3c 038b d43c b893 e23c d31d 103d
00000070: a9d5 80bb 7feb 2b3d 2c8d 203b 50a2 28be
00000080: 85cd 8c3a 1133 a7bd 72d8 7bbc c9b7 143d
00000090: 312b ab3b d114 033e 8afb 7a3d ca7c 0c3e
000000a0: 670a 023d a9fd ed3c 67d9 dd3b b94d 6cbc
000000b0: b049 a73d c1dc c53c ad60 153e 18b6 a13d
000000c0: b4f6 2dbd f42a 113d 807f ff3a cff4 af3d
000000d0: b4a7 f53c 9cb2 0bbc 1814 4fbe 2a4f c73c
000000e0: e336 9dbd 4c1d 143d d6fd 14bd ea7b 87bc
000000f0: 5547 f4bb 88b4 043c 81b5 b13c 19a4 4a3d
00000100: 3070 3dbd adcd e43c ebe6 d4bd 4019 dfbb
00000110: 78a3 33bb 9cae 203d 264c a9bc 5c46 ddbb
00000120: 508d 3ebc cc52 513c 7346 bc3b d2fe bc3d
00000130: dc62 113c 2bcb 6fbc 8862 9cbc 6606 523c
00000140: 7473 d6bc 8060 f53a 8775 8e3c 6c21 413c
00000150: 6977 f33c 3422 67bb 8a47 333d 3f66 d93d
00000160: cb22 a2bd 2ed9 853d 6909 c43c fbe0 85bd
00000170: a19e 303d 2910 88bb c173 3b3d 30cd 1dbe
00000180: 622b 1a3d cebd e8bc 8a6c edbc e145 273d
00000190: 485b 27bd df26 cf3b 82df 04bd acd7 3f3d
000001a0: ddd4 ca3d a50a ec3c 9e07 143e 39a0 4f3c
000001b0: 0019 8fbd cbaa 3e3d 4afb 623d 1192 763d
000001c0: 785e 41bc 9208 033d fb42 a93a 8a23 583c
000001d0: 26e9 6dbd e6c5 eabb a2ff 5b3d ee10 7b3c
000001e0: 0a2a a43b a5dd 63bb d2be c33c 529e e1bc
000001f0: 1e00 b1ba 7a4e 3ebc 179f 38bc 58fd 9d3d
00000200: 0773 98bd 2888 8b3d b9fa 92bd 25a2 bf3d
00000210: 4816 d73c 62af acbd 6365 c63c c879 f23b
00000220: 3772 843b 0c39 c43d 9bfd 3dbc 8c4f f03c
00000230: 4431 abbd 0de0 bcbc f129 31be ddf8 713d
00000240: 6c46 a33c dad4 17be 46c5 45bc b871 81bd
00000250: 0983 433d f77c 26bd 2c6e 9e3d 71cc 2c3d
00000260: bbe6 7b3c cfcf 643d f59f 083d 02a5 2b3d
00000270: 20cc 12bd 9dc1 633c 65d3 433d 82be 663d
00000280: a7a4 033d d041 58bd 7185 4d3d 4a99 c4bd
00000290: cce3 3fbd a59c cc3c bb9c 0b3e 66d1 6dbd
000002a0: ef0b 043e 310e b3bc db44 10bd 9f94 e6bd
000002b0: aebe 0e3d 17f3 683c 2ca8 58bc 0277 7bbd
000002c0: 6029 e73d 8584 6fbc 9b94 4c3d d3ea 54bd
000002d0: b632 a0bd c294 133d fd58 643c d012 bf3d
000002e0: 75fe f83b a17f 673d b94a dabd 24a0 923d
000002f0: 20c3 273d 711c 3e3c 6a85 673d 6b20 65bd
00000300: 1fb3 c83c 97f8 0fbd ba69 013b 5408 e63c
00000310: 70ab 9d3c d286 093d 9899 7e3d 9b53 8dbc
00000320: 3d66 a43d 21ce c53b a663 773d cfac 4b3b
00000330: e76a 65bb 4933 e03c a45d 243e a2a3 293d
00000340: e2e5 4a3d d11f 0e3d 754f d3bc e39c 0b3d
00000350: 7805 333c 371a 3cbe b695 5e3d 03f3 f0bd
00000360: e583 003e b647 15bc 4093 db3c 30a7 18be
00000370: 8b6e 80bd d09a 323d 38cb 403d ab67 e93c
00000380: a52c a93b 059c bf3d f8bb 223d e850 09bd
00000390: 7418 eb3c eb5f 8f3c db9a c13d fc41 373c
000003a0: b30c 023c 4e25 9c3c 4aad 553c ddf4 00bc
000003b0: a803 293e 433e 743c 7d39 e13c 2fdc 823a
000003c0: d1dd 2ebc acf7 9c3c 663f 02be b5a1 febc
000003d0: ae3c 1d3e ee02 1b3d a143 f53c d849 ee3c
000003e0: 64dc 033d 9623 93b7 86c1 e83c 5ea9 9f3d
000003f0: fa24 2d3d 1df4 483d 8ce0 a63c 268a c5bc
0.0111493915 0.018463252 -0.019160194 -0.038108025 0.063330024 -0.022715574 0.029154096 -0.008457511
-0.017738922 -0.0020004986 0.015690153 0.016134989 0.10910168 -0.0071369438 0.036975965 0.0026874586
0.022790417 -0.12169302 -0.035222616 0.029329944 -0.0070781414 -0.082283534 0.09486326 -0.026351115
0.025277602 0.025945192 0.027658328 0.035184693 -0.0039317203 0.041972633 0.0024498207 -0.16468167
0.0010742402 -0.08164037 -0.015371429 0.036308084 0.0052236547 0.1280091 0.061275043 0.13719478
0.0317482 0.029051619 0.006770301 -0.014422827 0.08168352 0.024153115 0.1458766 0.0789606
-0.042471603 0.035441354 0.0019492954 0.085916154 0.029987194 -0.0085264705 -0.20222509 0.02432974
-0.076764844 0.036160752 -0.03637489 -0.016538579 -0.0074547925 0.008099683 0.021692993 0.049472902
-0.04624957 0.027930105 -0.103956066 -0.00680843 -0.0027410667 0.03922902 -0.020666193 -0.0067527723
-0.011630371 0.012776088 0.005745703 0.092282906 0.008873668 -0.014635841 -0.019089952 0.012818908
-0.0261781 0.0018720776 0.017390026 0.011787754 0.029720025 -0.003526819 0.043769397 0.10615205
-0.079167925 0.06535564 0.023930268 -0.06537052 0.04312003 -0.004152317 0.04576469 -0.15410304
0.03763903 -0.028410818 -0.02898242 0.040838126 -0.040858537 0.0063217725 -0.032439716 0.04683654
0.09903882 0.02881367 0.1445603 0.012672477 -0.0698719 0.0465496 0.05541543 0.060197894
-0.011802308 0.031990595 0.0012913638 0.013192067 -0.058083676 -0.0071647046 0.053710587 0.015323861
0.0050098943 -0.0034769562 0.023894701 -0.027541313 -0.0013504063 -0.01161539 -0.011268399 0.07714337
-0.07443815 0.06813079 -0.07176728 0.093570985 0.026255742 -0.08431889 0.024218267 0.0073997714
0.004041936 0.09581193 -0.011596109 0.029334806 -0.08359006 -0.023056054 -0.17301156 0.059075225
0.01993104 -0.1482729 -0.012070959 -0.06320518 0.047732387 -0.04064652 0.07735857 0.042187158
0.015374835 0.055862244 0.033355672 0.04190541 -0.0358392 0.0139011415 0.047809023 0.056334026
0.032139447 -0.05279714 0.050176088 -0.0959955 -0.046848103 0.024977038 0.13634007 -0.058061026
0.12895177 -0.021857353 -0.035221916 -0.11258816 0.034849815 0.014218113 -0.013223689 -0.06139279
0.112871885 -0.014618997 0.04994641 -0.05198176 -0.07822172 0.03603054 0.013937232 0.0932976
0.007598693 0.0565182 -0.106587835 0.07159451 0.04095757 0.011603461 0.056523718 -0.05593912
0.024499474 -0.035149183 0.0019746856 0.028080143 0.019246787 0.03357584 0.062158197 -0.01725178
0.08027313 0.0060365354 0.060397767 0.0031078344 -0.0035006346 0.027368205 0.16051346 0.041415818
0.04953564 0.03469831 -0.025794724 0.034085166 0.010926597 -0.18369375 0.054341994 -0.11765101
0.12550314 -0.0091113355 0.026803613 -0.14907527 -0.062710844 0.043604672 0.047068805 0.028491816
0.0051627927 0.0935593 0.039730042 -0.033524424 0.028698184 0.017501792 0.094533645 0.0111851655
0.007937598 0.019060757 0.013041804 -0.00787088 0.16505301 0.0149074225 0.027493233 0.0009983833
-0.010673002 0.019161068 -0.12719497 -0.031082967 0.15355179 0.03784459 0.029939475 0.029087946
0.032192603 -1.7540337e-05 0.028412592 0.07795976 0.04227159 0.04906093 0.020370744 -0.024113726

action_model._continuous_distribution.mu.bias f4 [3]
00000000: 8afd 0fbc bf63 ebbc 8f70 3cbe
-0.008788476 -0.028734086 -0.18402313
