Project/results/Test3_NoWall_01/Test3/checkpoint.pt (torch, 567074 bytes, 36 tensors)

network_body._body_endoder.seq_layers.0.weight f4 [128, 46]
000000 2e ad ab bd db 04 60 be ab 90 d8 3c 5f 73 25 be
       -0.08382641 -0.21876852 0.02643617 -0.16157292
000010 46 88 15 3e 7a 41 1b 3e 4f b5 bc 3d 4c 99 0f 3e
       0.14602765 0.15161696 0.09214269 0.14023322
000020 9b 1c 87 be f5 a8 80 3e 41 65 e6 3d 09 d2 07 be
       -0.26389012 0.25128904 0.112497814 -0.13263716
000030 54 37 07 be 12 a7 eb bd 5c 48 8f 3c 28 15 0e 3d
       -0.132047 -0.115064755 0.017490558 0.034688145
000040 d7 be 9f be f6 a2 7b 3e 3a 02 61 be 6b 06 d8 3d
       -0.31200287 0.24573883 -0.21973506 0.10548099
000050 85 55 48 3e 37 b2 61 be 81 dd e2 bc c9 53 46 3c
       0.19563873 -0.2204064 -0.027693512 0.012104937
000060 91 f9 db bc 31 56 fe bc 69 33 dd bd 9a 8e 9f bd
       -0.026852401 -0.031046959 -0.10800821 -0.07790871
000070 1f a3 2a be 05 f0 18 be 5f c6 11 be 4a c2 ba 3c
       -0.16663788 -0.1493531 -0.14235829 0.022797722
000080 b6 a4 f0 bc d9 02 18 be 1b 7a e8 bd 38 51 6c be
       -0.029375415 -0.14844836 -0.11351415 -0.23077857
000090 72 49 b6 be 91 fb b0 bc 9b e1 49 be 8a 71 b7 be
       -0.3560291 -0.021604331 -0.19714968 -0.3582881
0000a0 00 aa 7e 3e 3f 5a 9e 3d 77 d9 ef bd 98 ed c9 bc
       0.24869537 0.07732057 -0.117114 -0.024649426
0000b0 0d 2c c6 be 34 df 8e be b7 ae e3 bd 64 05 73 3e
       -0.38705483 -0.27904665 -0.111173086 0.23732525
0000c0 68 59 b3 bd b9 bc 6b bd bf 78 0d bd 09 0a 2d be
       -0.08757287 -0.057553027 -0.03453898 -0.1689836
0000d0 1b 07 2b 3d bd 4c cb bc c1 5b a6 bd 84 b3 26 be
       0.041754823 -0.024816865 -0.081229694 -0.16279417
0000e0 ce 64 9a 3d 95 cd 00 bd 49 7d c7 bd c3 de 77 be
       0.07538758 -0.03144606 -0.09740693 -0.2420607
0000f0 6b 02 ce bd b9 fd 3f 3e 4a a2 91 3d f3 34 9e be
       -0.10059055 0.18749131 0.07111032 -0.30899772
000100 3e 47 fe bd be 92 6e bd 6c b4 0a be 33 67 2b 3d
       -0.12415932 -0.058245413 -0.13545388 0.041846465
000110 26 c1 1d 3e 9a ac 58 be 78 05 12 3e 95 6f 0e be
       0.15405712 -0.21159592 0.14259899 -0.13909753
000120 99 fa 92 bd 2a 25 01 3e ae ff d7 3e 0c ff b5 bd
       -0.07176704 0.12611833 0.42187256 -0.08886537
000130 00 d9 f3 bb 7d 96 39 3e 3a 21 fc bd 0d a2 2a be
       -0.00744164 0.18123813 -0.12311025 -0.1666338
000140 ad 7c 8a 3e 00 ed c4 bb 27 b0 57 be 4b 41 84 bd
       0.27048245 -0.006009698 -0.2106329 -0.06457766
000150 e5 2f de 3c 36 5a c4 3d fd 04 a8 3e c6 59 07 be
       0.027122447 0.09587519 0.32816306 -0.1321784
000160 92 0a 15 3f a7 6d 61 3e 43 96 ad be ea c9 74 be
       0.58219254 0.22014485 -0.33903703 -0.23905149
000170 5f a5 bb 3c bd 8f 3d be 9b 36 15 3e 47 0b 88 be
       0.022906004 -0.18511863 0.14571612 -0.26571104
000180 97 ab bd bd 58 b5 48 3e 41 25 28 bd c9 62 5f 3c
       -0.09261244 0.19600427 -0.041051153 0.013634392
000190 ae ca 2f be f7 39 c6 be ad 6b a5 3d f5 ab d7 bc
       -0.1716716 -0.387161 0.08077178 -0.026327113
0001a0 f4 57 70 be 62 44 11 3e 1e df f3 bd ce 8b b4 3d
       -0.23471051 0.14186242 -0.119077906 0.08815728
0001b0 e1 27 23 3d b7 66 f2 bd 04 28 7f bd 16 c0 9a 3e
       0.039832953 -0.118359976 -0.06229402 0.30224675
0001c0 32 8b 0a bb e4 60 1f bb b2 7b e3 bc da a3 bf 3d
       -0.0021140096 -0.0024319226 -0.027768943 0.09357424
0001d0 9a e8 8e be c0 98 4f be 8e 97 3e be 62 70 f9 bc
       -0.27911836 -0.20273113 -0.18612501 -0.030449096
0001e0 02 ea e0 bd 16 66 b3 bd 8b ea 76 3e 0d 10 0a be
       -0.109821334 -0.08759706 0.24112909 -0.13482685
0001f0 37 b2 3e be e9 82 32 be f0 8d 2e 3e 5f 05 0c 3d
       -0.18622671 -0.17432751 0.17046332 0.03418481
000200 2c 3e 73 be e3 8e fe 3c b9 ef 93 3e 3b fa 8f be
       -0.23754185 0.031073993 0.2889383 -0.28120598
000210 3a 06 9c bd ae 01 33 3d 7a 85 90 3e 94 4c b5 3d
       -0.07618375 0.043702774 0.28226835 0.08852497
000220 93 70 f2 bd f6 79 2b be 93 7d 30 ba 4a 53 5e bd
       -0.11837878 -0.16745743 -0.0006732579 -0.05427865
000230 51 03 54 3e 93 b0 96 3e 4d 2a 3d bd 2f e8 4c bd
       0.2070439 0.2943159 -0.04618292 -0.050026115
000240 87 55 08 3e f2 1b 21 be b3 b8 98 3d 61 31 29 be
       0.13313876 -0.15733317 0.074571036 -0.16522743
000250 ba d9 c3 bc 0a b4 42 be 6f 01 2d bd 50 f4 f8 be
       -0.023907531 -0.19013992 -0.042237695 -0.48623896
000260 f5 ec 3a be c5 99 57 be 06 ab ab 3d 9d 2b eb bd
       -0.18254454 -0.21054752 0.083822295 -0.11482928
000270 c8 9f de bd 28 e0 a3 be cb 66 43 bd 18 3b 30 3e
       -0.108703196 -0.32006955 -0.047705453 0.17210042
000280 0e a4 48 bd a0 14 56 3e b6 ac fc 3b 2c 11 35 3e
       -0.04898458 0.20906305 0.0077110184 0.17682332
000290 56 39 2d 3e 0b 7e 11 be da 4e 21 3e eb d2 b1 bd
       0.16916403 -0.14208238 0.15752736 -0.086828075
0002a0 d0 1e 24 bc d2 ef 0b 3e 29 4e f7 bc 5f 99 d0 3c
       -0.010017112 0.13665703 -0.030188637 0.025463758
0002b0 f8 0a 7e 3e 74 17 bb 3d a9 23 60 3c 00 c2 68 be
       0.24808872 0.09135333 0.013680377 -0.22730255
0002c0 21 0c 16 be 58 42 29 bd 21 0d 81 3e 0e ec 5b 3e
       -0.14653064 -0.041323036 0.2520533 0.21476766
0002d0 61 8f 9f 3d 13 62 4d 3e b1 77 5f 3e 3d 5b c7 bd
       0.07791019 0.20056944 0.21823002 -0.09734199
0002e0 73 12 92 3d 8d 83 ab bd 59 4e 2e 3d 8a 31 03 be
       0.07132425 -0.08374701 0.042555187 -0.12811866
0002f0 b8 5f e7 3d 54 70 e4 3d 78 f8 c7 3d 49 5b a5 3d
       0.11297554 0.111542374 0.097641885 0.08074052
000300 b1 56 5a bc 6a 1d 66 bd 2c 16 97 3e f3 07 40 3d
       -0.013326333 -0.056180395 0.29509103 0.04688258
000310 20 5b 82 3e 4a ce 03 bd c5 c0 0d 3e fe 0a 81 be
       0.25460148 -0.032179154 0.13843067 -0.252037
000320 f5 8c b8 3e 81 4d ab 3d 39 1e 41 3d 4c 98 6c bd
       0.36045042 0.08364392 0.047147963 -0.05776243
000330 02 31 a1 bd c9 30 c3 bc 0d 92 1e bf 87 8e 56 3c
       -0.078706756 -0.023826974 -0.61941606 0.013095505
000340 e8 9a 7a bd 5f a1 ad be 29 cc 82 3e 93 1b 31 3e
       -0.061182886 -0.3391218 0.25546387 0.17295675
000350 25 93 a3 3d e1 28 e7 bd 29 1d ad 3e eb b7 65 be
       0.0798705 -0.11287094 0.3381131 -0.2243344
000360 48 29 ed bc 1f 88 b3 3b e8 42 39 bc d6 de 01 be
       -0.028950348 0.0054788734 -0.011307456 -0.12682661
000370 e5 b6 a6 bd 3d 3b 50 be bc 78 15 3d 31 5a 53 3e
       -0.08140353 -0.20335098 0.036492094 0.20639874
000380 10 34 f4 3d 10 19 3a bb 50 7a 5a bd 20 98 c3 3d
       0.11923993 -0.0028396286 -0.053339303 0.095505
000390 45 06 d0 be 66 90 a8 bb 5e 2c 3b be 91 35 cf bb
       -0.40629783 -0.0051441668 -0.18278643 -0.0063235243
0003a0 f8 3e 1c 3e df f9 51 3e dd 23 ed 3d 23 48 a0 bd
       0.15258396 0.20505475 0.11579106 -0.07826259
0003b0 19 28 d1 3b 8b a2 78 3e 55 10 9f 3d 69 b5 67 3e
       0.006382954 0.24280755 0.07766787 0.22627796
0003c0 7b 49 cf bc e2 4d b0 bd f9 66 92 3e eb 71 bd 3d
       -0.025303593 -0.08608605 0.28594187 0.09250244
0003d0 dc 0e 2c 3e d4 6f 14 3d e8 1c 61 be 01 b5 d1 bd
       0.16802543 0.03623946 -0.21983683 -0.10239602
0003e0 e6 26 0c 3e f3 2f c0 bd 00 5b 45 3d 08 6d 1a be
       0.13686714 -0.093841456 0.048182487 -0.15080655
0003f0 fc c7 54 bd a5 fc 71 bd 1f 9a ca 3c 62 ec 4d 3e
       -0.051948532 -0.05907883 0.024731694 0.20109704

network_body._body_endoder.seq_layers.0.bias f4 [128]
000000 2f c4 a4 bd 5a 38 c9 bc ab 6e bf bd 47 ed 34 bc
       -0.080452316 -0.024563003 -0.0934728 -0.011042899
000010 a0 cd 6a 3d f4 73 f3 3c e9 d1 01 3d f6 fd 08 bd
       0.057325006 0.029718377 0.031694327 -0.03344532
000020 18 da 76 3d 5d 18 38 bd d9 6d 11 3d 71 f8 aa bd
       0.060266584 -0.04494511 0.03550515 -0.08348168
000030 87 ce 0d bb 0c 1a e2 bc a7 58 77 3d 54 7e bf 3c
       -0.0021637992 -0.02760031 0.06038728 0.023375668
000040 67 3f c5 3c ec 7a 74 3d 63 84 d5 3b 11 2b 9c 3d
       0.024078084 0.05968754 0.006516026 0.07625402
000050 0d ed 01 3d fb 09 22 3d f1 6a 67 bd 97 7f 0f 3a
       0.03172021 0.0395603 -0.05649847 0.00054740295
000060 cc 78 e2 bc ae c3 22 3d 93 c9 90 bc 29 36 bd bc
       -0.027645491 0.039737396 -0.017674243 -0.023097115
000070 82 44 72 bd 02 50 fc 3c b1 70 16 bc b1 51 20 3d
       -0.059147365 0.03079987 -0.009182141 0.039140407
000080 51 06 aa 3d 62 54 8c bc 43 7f 2a 3d 37 06 e9 3c
       0.08301986 -0.01713008 0.041625272 0.028445346
000090 d4 e3 a7 3b 05 54 62 3d 2a 41 6d 3d 6f 47 2c 3d
       0.005123595 0.05525591 0.057923473 0.042060312
0000a0 3a 7e 8d 3d 20 f7 23 3d c9 ec fe 3b 90 35 c3 3d
       0.069088414 0.0400306 0.007779692 0.095317006
0000b0 3c 61 65 bd 15 36 78 3d 50 ca a5 bd 32 d7 2b 3d
       -0.056000933 0.06059845 -0.08095229 0.041953273
0000c0 cf d7 94 3a 37 c4 b1 bd 1d c0 b3 3c 4d ab 9f 3d
       0.001135582 -0.08680003 0.021942193 0.07796345
0000d0 39 52 49 3c 6a 13 8c 3c ec d6 71 3d d7 04 4e bd
       0.01228767 0.017099101 0.059042856 -0.050297584
0000e0 18 d2 a1 bd 71 98 b0 3c dd dd 8a 3c cf 7c 0e 3d
       -0.079014 0.021557065 0.016951496 0.034786996
0000f0 39 f4 10 3d 4f 7c 3d 3c d3 09 4c 3d 39 d0 4b 3d
       0.03538916 0.011565282 0.049814057 0.049759123
000100 e5 f6 d1 bd 93 0d 4b 3c bf 67 5d 3d 08 f1 a3 bb
       -0.102521695 0.012393373 0.054054018 -0.0050030984
000110 00 7f 72 3c 70 64 33 bd f9 f2 b5 3c 24 c0 f0 3b
       0.014800787 -0.043796957 0.022210585 0.0073471237
000120 76 2b 73 3d 83 9a 6b bc 96 4c 64 3c e2 cc 78 bd
       0.05936762 -0.0143801 0.013934275 -0.060742266
000130 88 16 26 3d ba 28 58 bb 74 9a 06 bc d9 ec 25 bd
       0.04054883 -0.003298326 -0.008215535 -0.04050908
000140 f2 3d 6c bd 3b 20 95 3d 3b 53 aa 3c de 74 9e bd
       -0.057676263 0.07281538 0.02079164 -0.077371344
000150 33 94 64 bb 0c fd b9 3a 88 ad 1b bd 1a 3e 92 bd
       -0.0034878373 0.0014189794 -0.03800729 -0.07140751
000160 01 04 19 3d bd 93 b9 3c 08 8a 78 ba cf be 08 3d
       0.037357334 0.022653455 -0.00094810175 0.033385094
000170 72 5c 1c 3d 93 20 7a 3c fe 87 7b 3d 1f 9e 09 3d
       0.0381741 0.015266555 0.06140899 0.03359806
000180 cc b8 aa 3c 07 77 1d be d8 06 90 3d b3 ec b5 3c
       0.020840071 -0.15377437 0.07032555 0.022207594
000190 5a b5 69 3d 52 30 bd bb f6 9e 0b bd 78 08 0d 3d
       0.057057716 -0.0057735825 -0.034087144 0.034431905
0001a0 56 07 48 3d 9e 5f eb 3c 80 b4 8f 3c d8 71 8a 3d
       0.04883512 0.028732117 0.017542124 0.06759995
0001b0 69 c2 3a 3c 04 87 49 3d 3b c8 4e bd 45 c9 e6 3b
       0.01139889 0.049201027 -0.050483923 0.007043036
0001c0 48 04 3e 3d 40 b0 c0 3c 4a 1e 10 bd 16 d1 17 3d
       0.0463908 0.023521543 -0.035185136 0.037064634
0001d0 e9 2a 59 bd 13 fe a4 3d fc c9 04 bc ca 80 44 3b
       -0.053019438 0.08056273 -0.008104797 0.002998399
0001e0 d0 ba be 3c ea f5 f9 3a d8 57 88 3d da a5 52 3c
       0.023282439 0.001907048 0.0665738 0.012856925
0001f0 5a 14 8f bd 8b 3f f5 3b e2 34 23 3d 30 a0 0c 3d
       -0.06986304 0.0074843816 0.039845355 0.034332454

network_body._body_endoder.seq_layers.2.weight f4 [128, 128]
000000 57 5b 61 3e aa d8 bf 3c f7 0f 9c 3d 67 5e ca 3d
       0.220075 0.023418743 0.076202326 0.09881287
000010 56 cb 75 be 09 36 c0 3d 41 1e 00 bd 38 5b 82 3e
       -0.24003348 0.093853064 -0.031278852 0.2546022
000020 71 43 43 3e e5 8b 87 3d d2 40 88 bc 89 1c 15 3c
       0.19068696 0.0661848 -0.016632471 0.009101042
000030 70 28 02 be 00 91 48 3d 15 6a 5b be 47 d8 28 bc
       -0.12710738 0.048966408 -0.21427186 -0.010305471
000040 b6 41 90 be 87 39 18 bd 08 56 bc 3d b3 56 7c be
       -0.28175133 -0.037164237 0.09196097 -0.24642448
000050 6a 14 f2 3c 41 76 d5 bd 1e bc 08 3d 31 69 f8 bd
       0.02955075 -0.10422946 0.033382528 -0.12129439
000060 bc cf ca 3d 8b b7 ac bd 32 dc 45 3d 6d 3b b7 bd
       0.099029034 -0.084334455 0.048305698 -0.089468814
000070 d0 2e a3 bb b7 46 9f 3c 14 71 63 be a7 e8 9b 3d
       -0.0049799457 0.0194429 -0.22211105 0.07612734
000080 73 e6 53 bd 2d 3b 2c 3d a4 3c 35 3e 8e d3 4f 3d
       -0.051733445 0.042048622 0.17698914 0.050738864
000090 1c b9 d9 3d 3c 91 95 3d 41 cc dd 3d 0f f0 10 3d
       0.1063101 0.07303092 0.10829974 0.035385188
0000a0 7e c7 bb bd 6c b5 4f be bc 75 c4 3a 6b 6d 56 ba
       -0.091689095 -0.2028405 0.0014988701 -0.00081797567
0000b0 e7 52 8c 3d 8c 78 e5 bd 4b 4d db bc d8 e4 7c be
       0.0685175 -0.11204633 -0.026770255 -0.24696672
0000c0 20 9c d3 3d 9f c2 9a 3c c0 6c b0 bd 1f e3 43 be
       0.10332513 0.01889163 -0.086144924 -0.19129609
0000d0 a2 eb 40 be 5b a6 d7 3d 07 ab 35 3e e2 89 ea 3d
       -0.18839887 0.10529777 0.17741023 0.1145208
0000e0 00 19 b4 bb 13 e9 ff bd bf ea 99 bd ac 86 0b 3e
       -0.0054961443 -0.12495627 -0.075154774 0.13625592
0000f0 f4 9e 78 3c 2c 67 5d 3d 9b 24 1c be 09 83 95 bd
       0.015174616 0.05405347 -0.15248339 -0.073003836
000100 4a 02 34 3e 3f 52 03 3e 1d f8 c2 3c 72 44 71 bc
       0.17578998 0.12824343 0.02379995 -0.014725791
000110 ea c7 8f bc 8b ff e1 3b 77 f5 3a 3e 41 23 89 3d
       -0.017551381 0.006896918 0.182577 0.06696177
000120 a6 7c 1d be 5f f9 37 bd f1 ac 07 be 01 a0 5c 3d
       -0.15379581 -0.044915553 -0.13249566 0.05386353
000130 16 e5 31 3d 6c 0a 15 bd 49 52 16 be e5 df 73 bd
       0.043431364 -0.036386892 -0.14679827 -0.059539694
000140 4d 59 f0 3d 7d cc 80 3d d3 ee 7c be ca 9c 8b 3d
       0.11735783 0.06289003 -0.24700479 0.068170145
000150 ef 93 43 bd 2d a6 61 bd 92 96 f5 3d 5c e2 9f 3c
       -0.047748502 -0.05509012 0.1199161 0.019517116
000160 e4 18 0a 3b fb 06 46 bd 54 b9 c1 3d c7 85 aa bd
       0.0021071965 -0.0483465 0.09459177 -0.08326297
000170 61 02 46 be 3f 02 3b bd 55 f3 49 3d 1b ad e7 bd
       -0.19336845 -0.04565644 0.049304325 -0.11312314
000180 04 57 4d 3c 38 ed c7 bd 88 8b 22 3e 50 70 cf 3d
       0.012532953 -0.09762043 0.1587354 0.10128844
000190 60 8b 8c bd 89 ce 4d bd 87 49 88 bd a5 11 21 be
       -0.06862521 -0.050245795 -0.06654649 -0.15729387
0001a0 32 02 46 bc cd c2 25 be 10 36 f7 3d 1e 9c 20 be
       -0.012085484 -0.16187592 0.120708585 -0.15684554
0001b0 f5 91 4b 3d 50 cb 91 3b c9 39 15 3e 5a 22 8e 3d
       0.049699742 0.0044492856 0.14572825 0.06940146
0001c0 63 cf 8d be f4 66 9f 3c 73 92 8a 3d 8d ae 1e be
       -0.27697286 0.019458272 0.06766214 -0.15496273
0001d0 7a 72 30 bd 60 c9 14 3d 76 79 56 3e 48 1a 32 3e
       -0.043077923 0.03632486 0.20944771 0.17392838
0001e0 3c 9e 72 bc 3e 06 74 bd 4c 2d e1 3d 4c 70 75 bd
       -0.014808234 -0.059576266 0.10994968 -0.059921548
0001f0 9c ba 18 3e 3d 92 35 3e 45 88 b0 bd e1 d7 85 3e
       0.14914936 0.17731567 -0.08619741 0.26141265
000200 fc 8e 35 bd 17 3c f3 3d c6 16 e7 3d 81 3c 82 ba
       -0.044325814 0.118766956 0.112836406 -0.0009936244
000210 1d 97 2b bd cb 53 49 be 6d cf 7b 3d 37 d4 c3 3d
       -0.04189216 -0.1966087 0.061477114 0.09561961
000220 9b 20 c1 bd 03 95 50 3d e8 fc ad bd b9 df b8 bd
       -0.09430047 0.05092336 -0.08495504 -0.09027047
000230 44 8b af bc b4 b8 7c bd 1a 64 90 be af 04 01 be
       -0.021428712 -0.061699584 -0.2820137 -0.12599443
000240 d0 11 d8 bd 4a b8 73 3e f0 8b 31 be b3 d9 22 bc
       -0.105502725 0.2380077 -0.17338538 -0.009939599
000250 85 c2 3f 3c 9e cc 71 bd 73 74 36 be 00 ac 0b be
       0.011704092 -0.05903303 -0.1781786 -0.13639832
000260 b5 c0 b3 3d b3 3a 68 be 60 ca b3 3d 13 90 fc bd
       0.0877699 -0.22678642 0.08778834 -0.123321675
000270 f1 e7 b9 bd 63 36 68 3e 42 7c ab bc 0a 62 fa bd
       -0.090774424 0.22676997 -0.020933274 -0.12225731
000280 75 cb b6 3d b6 09 00 be 0f 49 92 3d 4a 55 cf 3d
       0.08925525 -0.12503704 0.07142841 0.101236895
000290 08 6e f5 3c 1e ea 15 be a0 b0 84 3c 1b 37 48 be
       0.029959694 -0.1464009 0.016197503 -0.19552271
0002a0 b9 54 5a bd e4 d5 0d be 95 2b 17 be d4 05 12 3e
       -0.053303454 -0.13851124 -0.14762719 0.14260036
0002b0 82 10 89 ba c0 2a 10 be 4f 16 de bd cc 2f 4b 3d
       -0.001045719 -0.14078808 -0.10844099 0.04960613
0002c0 61 ad 94 bd 29 59 d8 3d ca 73 1f bc b9 05 2a bd
       -0.07259632 0.10563881 -0.009732196 -0.041509364
0002d0 96 5c 20 be 18 48 23 3e 7e 5e 4c 3d eb 99 07 3e
       -0.15660319 0.1594547 0.049894802 0.13242309
0002e0 6c c5 17 3d 2c 22 cc be cc 4b e2 3d 76 44 dd bd
       0.03705351 -0.3986982 0.11049613 -0.108040735
0002f0 8f 36 ed 3d 93 f0 d9 bd c2 32 8a bd 78 95 ac bd
       0.11582672 -0.10641589 -0.067479625 -0.084269464
000300 73 b4 05 3e c1 41 24 bd 20 82 80 be 9f 1f 86 bd
       0.13057117 -0.04010177 -0.25099277 -0.06549
000310 f0 9e 47 bd 05 a1 1e bd 15 a2 7e bc 28 c1 3e bd
       -0.04873556 -0.03872778 -0.015541573 -0.046570927
000320 6d af 44 bc 8e 4c 0f 3e d3 5c f1 3c 28 66 db bc
       -0.012004715 0.13994047 0.029463207 -0.02678211
000330 a6 cd a8 3d 11 12 3d be aa 22 f6 bd 80 07 2e 3c
       0.08242349 -0.18463923 -0.120183304 0.010621905
000340 9f ee de 3d e7 0f 0c 3e 96 ee f2 bd a4 1b 34 bd
       0.10885357 0.13677941 -0.11861913 -0.043971673
000350 a1 84 55 3e 8f 0c 84 bd ef 11 69 bd fb 69 aa 3d
       0.20851375 -0.06447708 -0.05690187 0.083209954
000360 f3 af 4c bd f3 1b 33 bd 25 4c 74 3d a0 6e 81 bd
       -0.049972486 -0.043727826 0.05964293 -0.06319928
000370 f4 9d 9a bd a0 1c a9 3d c0 2d 79 3e 7a b5 a9 3d
       -0.075496584 0.08257413 0.24333858 0.08286567
000380 62 1d 4e bd bb 19 f6 bb 76 fa 73 3e 7b 3c 74 bd
       -0.05032099 -0.0075103915 0.23826012 -0.05962799
000390 6d ba a3 be 98 35 35 be 59 04 eb bd c2 53 4e be
       -0.3197817 -0.17696226 -0.114754386 -0.20149139
0003a0 dc f5 16 be 05 db 4f 3d db ba a7 bc 13 e0 b6 3d
       -0.14742225 0.050745983 -0.020474842 0.089294575
0003b0 2f e6 92 3c b6 9a 17 be 98 ed b6 bc 1f bd 90 bd
       0.017932026 -0.14805111 -0.02233009 -0.07067322
0003c0 f8 4d 85 be e5 74 2d 3e a9 c2 34 be 00 ae 98 bd
       -0.26036048 0.16939123 -0.17652382 -0.07455063
0003d0 94 6d 6a be d4 b9 70 3d 53 89 b0 3d 1e 9d 3d 3e
       -0.22893363 0.05877097 0.086199425 0.18516967
0003e0 e9 f5 1a 3e 04 15 bd 3d a3 35 d2 3d 08 de bc be
       0.1513287 0.09232524 0.10264137 -0.36888146
0003f0 74 17 52 3c 0f af 4b 3e ab c2 a3 3d bd fe b0 3d
       0.0128229745 0.19890998 0.07996114 0.086423375

network_body._body_endoder.seq_layers.2.bias f4 [128]
000000 32 63 92 bd 24 18 2c bd 27 92 36 bd 6e 2d 74 3a
       -0.07147826 -0.04201521 -0.044572975 0.0009314631
000010 f2 ed 30 be 8c 98 71 bd f1 75 d0 bc 66 52 07 3d
       -0.17278269 -0.05898337 -0.025446864 0.033037566
000020 bc c1 e9 bd 15 9f a8 bd 20 d3 c3 3d e5 36 a1 bd
       -0.11413905 -0.082334675 0.09561753 -0.078717984
000030 88 fc 9c 3c 8e 7b 1f bc 3f 64 09 bd 42 d0 18 3d
       0.019163385 -0.009734048 -0.033542868 0.037307985
000040 8b 94 4d bd 2f 66 e6 bd 12 9b 00 ba 7a 77 0d be
       -0.05019049 -0.11249959 -0.000490592 -0.13815108
000050 c6 3c c7 bd 4d 18 85 3d bb c4 ed 3d 8e 17 dc 3d
       -0.097283885 0.06498776 0.11609789 0.1074668
000060 51 6f b4 bd 80 4a 72 bd e1 44 9a bd 9a 9f 02 bd
       -0.088102944 -0.05915308 -0.07532669 -0.03189049
000070 2a 54 8b bc b6 97 07 bd ea e4 1b bd 0c 5b 90 bd
       -0.017007906 -0.033103667 -0.038060106 -0.07048616
000080 7b 93 f6 bd b0 7c 76 bd 2a 6e dc bd 63 41 8e 3b
       -0.120398484 -0.060177505 -0.107631996 0.004341291
000090 6a 9b 8c bd 29 26 90 bd 39 cf 29 be bd 19 41 3c
       -0.068655804 -0.070385285 -0.16582955 0.011785922
0000a0 f2 d4 53 bd 93 13 0f bd e8 55 0d bd 3b 77 c2 bc
       -0.051716752 -0.034930777 -0.034505755 -0.023738494
0000b0 77 96 50 bd 7b 31 29 bd 72 e2 c9 3c 50 14 e5 bd
       -0.050924744 -0.041306954 0.02464411 -0.11185515
0000c0 b4 bd b8 bd 38 08 8c bd 0f 07 2b bd a4 f2 23 be
       -0.09020558 -0.06837505 -0.04175478 -0.16010529
0000d0 00 a2 b6 3d 8f 08 89 bd 4e 74 aa 3c 17 dc 59 3d
       0.08917618 -0.066910855 0.020807412 0.05318841
0000e0 56 df fa 3b 3a 9a 32 3d e4 d2 8e bd d3 0f d2 bc
       0.0076560182 0.043604113 -0.06973818 -0.025642311
0000f0 6b 11 b0 bc 2c 32 cc bc 31 fe fa bc a7 cc e6 bd
       -0.02149268 -0.024926268 -0.030638786 -0.11269503
000100 50 18 cd bd 94 fd 50 bd 5f b1 a2 bd ec 93 c3 bd
       -0.10014403 -0.05102308 -0.07943987 -0.09549698
000110 4e f0 8e bd 4d 56 9f bd cf c4 c3 bc e5 9b 4f bd
       -0.06979428 -0.077801324 -0.023897557 -0.050685782
000120 eb c8 07 bd e9 b2 3c bd 85 80 12 bd 96 ca 0f be
       -0.033150595 -0.04606906 -0.035767097 -0.14042124
000130 aa bd 88 bd 2f 29 4c bc 49 59 08 be ea a0 9e bd
       -0.066768005 -0.012460991 -0.1331531 -0.07745536
000140 21 e1 1a be e2 28 ab bd f2 02 26 bd 09 29 9c bd
       -0.15124942 -0.08357407 -0.040530153 -0.07625014
000150 6b bb ad bd 5b eb bd bd 27 09 8e bd 0b 90 76 bd
       -0.08483013 -0.09273406 -0.069353394 -0.060195964
000160 d8 7b 55 bd 67 e2 00 be eb af 99 bc aa b8 eb ba
       -0.05212006 -0.12586366 -0.018760642 -0.0017984111
000170 eb 4a 73 bd d8 07 ba bc c7 06 3b 3d 47 40 1e bd
       -0.05939762 -0.022708818 0.04566076 -0.03863552
000180 58 6c 60 bd 1c af f8 bd 4b b2 9f 3c 3d f0 80 bd
       -0.054790825 -0.121427745 0.019494196 -0.06295822
000190 f3 cc 1a 3d 08 99 9a bc 13 aa 67 3c 0d 1b cc bc
       0.03779311 -0.0188718 0.01413967 -0.024915243
0001a0 77 33 8a bc 2e 71 2b bd 30 e1 2f be 6e 00 f2 bd
       -0.016870243 -0.041855983 -0.17175746 -0.11816488
0001b0 59 ea 9d bd 6a fc 0c bd bc 4a 3c bd 61 8b 4d bd
       -0.07710714 -0.03442041 -0.04596971 -0.05018175
0001c0 ab 21 1d bd 38 9a 15 bd eb 26 5f bd 59 0f ab bd
       -0.038362186 -0.036524028 -0.054480474 -0.08352537
0001d0 4c 3b 7c 3c 96 aa 03 be 42 0c 04 be 22 5f b2 bd
       0.015394997 -0.12858042 -0.12895301 -0.087095514
0001e0 dc ef 87 bd a7 b4 e2 3b e2 c7 70 bd c2 3a c2 bd
       -0.066375464 0.006918508 -0.058784373 -0.094838634
0001f0 c3 9b 84 bd 32 1c 82 bd 37 43 e1 bc 59 c2 cc ba
       -0.06475022 -0.06353034 -0.02749787 -0.0015621885

action_model._continuous_distribution.log_sigma f4 [1, 3]
000000 c5 6a ab be d0 e6 fd be ce f0 9b be
       -0.33479896 -0.49590158 -0.30457157

action_model._continuous_distribution.mu.weight f4 [3, 128]
000000 0c ce 59 bc ed a8 9e ba 16 ab d6 bd 28 cd 47 bd
       -0.013293754 -0.0012104787 -0.10481851 -0.048779637
000010 d0 be 51 bd 5e 82 0e 3d ff 3d e8 3d 89 ed b5 bd
       -0.051207364 0.034792297 0.1133995 -0.08883197
000020 51 31 c5 3d 40 ff 1a be e3 53 5f be 64 e2 6c 3d
       0.09628547 -0.15136433 -0.21809344 0.05783309
000030 81 8c a4 3d b1 58 7c 3d 48 47 b3 bd bb af 4a 3e
       0.080346115 0.06160802 -0.0875383 0.19793598
000040 d8 0c 06 be 2d ce df 3d c6 eb 95 3c 28 65 5d bc
       -0.13090837 0.10927997 0.018300902 -0.013512887
000050 bc 15 d0 3d 45 63 b9 bc 48 a9 8f 3d c3 84 a2 3d
       0.101603955 -0.022630343 0.0701471 0.079354785
000060 39 68 68 3c 08 47 f4 3d 04 68 b7 3c af ff 18 bd
       0.014185005 0.11927611 0.022388466 -0.037353214
000070 64 b8 f9 3d 28 52 eb bd 3d 69 da bc 1f 54 d5 bc
       0.12193373 -0.114902794 -0.02666151 -0.026041089
000080 df e2 36 bc ee c6 8b 3c d2 aa 64 3d dc 41 98 bd
       -0.011162489 0.01706263 0.05582697 -0.07434437
000090 26 b1 6a bd 2e 05 22 3d d3 e4 9d 3c c5 67 f0 bd
       -0.05729785 0.03955572 0.019274151 -0.117385425
0000a0 0a 33 12 3d 07 c2 93 bd e4 be ff bc fd 5c 04 3e
       0.035693206 -0.07214742 -0.031218953 0.12926097
0000b0 90 20 d7 3c da 62 07 3c f2 ce 27 bd 72 92 68 3d
       0.026260644 0.008263314 -0.040968843 0.056780286
0000c0 63 8d c9 bd 3f 71 ae bd 92 ac 9a 3c e8 4a 8b 3d
       -0.098414205 -0.08517694 0.018881116 0.068013966
0000d0 c2 21 5f be fc 8d 64 3d 6b fe ec bd 7d d6 41 3e
       -0.21790221 0.05579947 -0.11571964 0.18929477
0000e0 53 57 c5 bd 3e 9a 4d 3d 97 17 01 be 55 0f 67 bc
       -0.096357964 0.050195925 -0.12606655 -0.014102777
0000f0 a2 02 94 bd 6a a1 8a bd a0 e8 4a bd 58 58 ce b9
       -0.07227065 -0.067690685 -0.049538255 -0.00039357203
000100 9e d5 99 3d 5e e7 08 bc 7a c9 c3 bd b2 0c 90 3d
       0.07511447 -0.0083559435 -0.09559913 0.070336714
000110 d2 a3 7d bd e5 e5 4d 3c ab 4c 57 bc d6 fa b0 3c
       -0.06192381 0.012567018 -0.013140838 0.021603983
000120 2a 5e f6 bc d5 70 04 bb 3a 15 0a bd 90 09 00 3d
       -0.030074198 -0.0020208855 -0.03371165 0.03125912
000130 1a 55 42 3c 0d 8e 81 3d ff c7 9d 3b 86 94 e1 3d
       0.01186111 0.06325922 0.004815101 0.11014657
000140 a5 e5 f8 bc 2e 4f 6c bd e3 58 ca 3c 7d e8 37 bd
       -0.03038294 -0.0576927 0.024700588 -0.044899452
000150 22 ab 73 bd 49 1c e1 bc 58 84 cb 3d e9 0c e9 bd
       -0.059489377 -0.027479308 0.09937352 -0.113794155
000160 10 a1 e8 bd bf 21 12 bd 37 9d 16 bd e4 b1 94 3d
       -0.11358845 -0.035676714 -0.036771026 0.072604924
000170 8f 55 03 be fe 59 ae bd e6 b6 b7 bd 23 41 af 3c
       -0.12825607 -0.085132584 -0.08970432 0.021393364
000180 91 42 cc 3d 54 a2 20 3c 5c 97 c6 3c dc eb c9 3d
       0.09973634 0.009804327 0.024242096 0.0985944
000190 da b5 0f bd a5 3b 17 bd 09 4a 90 bd 01 97 87 3c
       -0.035085537 -0.036922116 -0.07045371 0.016551496
0001a0 f3 cf db 3b af d7 da bc 90 50 0f bc e6 84 9b 3d
       0.006708139 -0.026714174 -0.008747235 0.07593708
0001b0 9f 84 d4 bc a8 7b 27 bd 96 e7 27 bd 65 a8 d0 3c
       -0.025942145 -0.040889412 -0.040992342 0.025470922
0001c0 b1 1c a5 3d a9 c9 68 3b 52 a2 0c 3e 3b b5 5f 3d
       0.08062113 0.003552059 0.13733795 0.054616194
0001d0 75 d4 61 bd d6 37 04 bd 89 1a 49 3d d2 fd 02 3d
       -0.055134255 -0.03227981 0.04909757 0.031980343
0001e0 1e ce 13 3e d9 c8 67 bc f4 0b a6 3d 5a 6e 77 3d
       0.14434096 -0.014147007 0.08107749 0.060407974
0001f0 80 c3 b7 bd 11 7d 03 bd 5e da e8 bc f0 db c5 b8
       -0.089728355 -0.032101694 -0.028424438 -9.4346586e-05
000200 93 3e 3f be fc 48 17 be 24 a5 0d be b0 8b 3e bd
       -0.18676214 -0.14773935 -0.13832527 -0.046519935
000210 68 f4 d3 ba d6 b2 35 be e3 88 10 be 20 dd 29 be
       -0.0016170861 -0.17744002 -0.14114718 -0.16588259
000220 23 b2 18 be d5 5b 97 bd c6 2f ba bc f2 cc d7 bc
       -0.14911704 -0.073905624 -0.022727858 -0.026342843
000230 89 02 b9 bd 0f 2f 1f be 9e 14 83 bc 2d e2 fc bd
       -0.09033687 -0.15545295 -0.016001042 -0.12347827
000240 87 af ed bc b3 6b 75 bd 0d 26 51 be b3 d0 e9 3c
       -0.029014362 -0.059917163 -0.20424671 0.028541898
000250 50 a9 76 bc eb 26 28 3c 5e 43 e7 3d 70 59 16 3e
       -0.015055016 0.010263185 0.11292146 0.14682555
000260 ee a9 21 be 37 42 b5 bd 5c 0d 67 be 71 40 48 be
       -0.1578748 -0.0885052 -0.2256369 -0.19555832
000270 45 31 99 bd f8 ce b9 bd 2b 26 c9 bd e8 fd 58 be
       -0.074801005 -0.09072679 -0.09821733 -0.21190608
000280 03 e0 82 3d 3d 5e 89 bd 82 73 ab bd d5 87 b1 bc
       0.06390383 -0.06707428 -0.08371641 -0.021671215
000290 5c 8b e5 bd 57 64 9a bd 7e 2b a4 3c c4 5b 00 be
       -0.11208221 -0.075386696 0.02004027 -0.12535006
0002a0 8d c1 5b bc b1 da 81 be 44 70 5f bd 09 c1 aa bd
       -0.013412845 -0.2536216 -0.054550424 -0.083376
0002b0 0a 9f 0c be 8c c1 71 be 0d 26 1b bd 24 0c 09 3d
       -0.13732544 -0.23608989 -0.037878085 0.033458844
0002c0 8e 5f 01 be 25 40 96 bd f5 0f 08 be 39 93 23 3c
       -0.12634107 -0.07336453 -0.13287337 0.009983831
0002d0 d9 c7 3e 3a a9 90 77 be 85 39 3d be fe bf f3 bd
       0.00072777044 -0.24176277 -0.18478973 -0.11901854
0002e0 a3 8c ee bd 42 47 ab 3d c1 1b bf bc a7 82 8e bd
       -0.11647918 0.08363201 -0.023328664 -0.06958514
0002f0 43 87 71 ba 02 90 12 bd 05 2c 01 bd 20 ac 4a bd
       -0.0009213576 -0.035781868 -0.03153612 -0.049480557
000300 0c c8 ee bd 1e 58 47 be 54 93 93 bd 8f bc 12 bc
       -0.1165925 -0.19467208 -0.07205835 -0.008956089
000310 03 1e 7d bd 6f 37 f4 3c 6e 9f 4b be e1 b7 2a be
       -0.0617962 0.029811589 -0.19885036 -0.16671707
000320 0f 5f 5e be c0 64 22 be fc 77 64 be 6b 6f a3 bd
       -0.2171595 -0.15858746 -0.22311395 -0.07980236
000330 cb fa 38 be ea be 95 bd 30 72 f8 bc 24 aa ee bd
       -0.1806442 -0.073118046 -0.030327886 -0.116535455
000340 8c 70 0b bc 35 8a a3 bd 5a fb 1f be 9f c2 58 be
       -0.00851072 -0.07985345 -0.15623227 -0.21167992
000350 b4 da 00 be bd c2 19 be e9 c6 a9 3b 5f de 5f bd
       -0.12583429 -0.15015693 0.0051811826 -0.05465543
000360 42 df a1 bd 0f 94 4f 3c 32 f7 54 bd c0 6f f7 bd
       -0.07903911 0.012669577 -0.051993556 -0.120818615
000370 27 2c c6 bd b3 24 6f bd b1 c3 cc 3b 35 76 3a be
       -0.0967639 -0.05838461 0.006248914 -0.18209155
000380 7d 96 2d be 56 8a bc 3d 37 88 25 be ef 10 ae bd
       -0.16951938 0.09206073 -0.16165243 -0.084993236
000390 ca 0e b0 bd a8 73 91 bd c2 00 c3 bb 22 b7 54 be
       -0.08596571 -0.07102138 -0.005951018 -0.20772985
0003a0 0c 74 e5 bc 5b 16 43 be 1e 98 7f 3c 54 96 4b 3d
       -0.028009437 -0.19051497 0.015600232 0.04970391
0003b0 23 60 da bc 78 8b 3b be ab 36 3d be a2 60 11 bd
       -0.02665717 -0.18314922 -0.18477885 -0.035492547
0003c0 f3 a4 46 be ea 57 87 be e9 0e cc bd 44 e4 0e 3c
       -0.1939886 -0.2643426 -0.099637814 0.008721415
0003d0 66 e1 e0 bc 54 fc 05 bc fb a5 af bc 9d 19 69 be
       -0.027451228 -0.0081778355 -0.02144145 -0.22763677
0003e0 b9 e2 73 bd 58 cc f0 bd fc d0 55 be 8a 64 ae bd
       -0.05954239 -0.117577255 -0.20880502 -0.0851527
0003f0 7e 7e 2e be 7a c2 45 bd ed ee 2f be 12 7d 7c be
       -0.1704044 -0.04828117 -0.17180987 -0.24657086

action_model._continuous_distribution.mu.bias f4 [3]
000000 fd 03 4e 3c a7 65 8f 3d 3e 34 2f bd
       0.012574193 0.070018105 -0.04277443

exp_avg f4 [128, 46]
000000 d0 5d b2 37 7c 1f 95 33 c8 dd 68 38 9e 28 12 38
       2.1262938e-05 6.94408e-08 5.551966e-05 3.484694e-05
000010 6b 33 37 2d ed 1d 51 38 f6 bf ad 37 6e 78 6a 33
       1.0413763e-11 4.9857354e-05 2.0712596e-05 5.45919e-08
000020 3f 09 3d 38 c3 60 cc 37 dd 7e f3 ae 3a ae a3 37
       4.5069723e-05 2.4363753e-05 -1.1072896e-10 1.9512245e-05
000030 40 3f 94 37 9c af 4f 36 97 c0 2e 38 56 5b 79 b7
       1.7672428e-05 3.0947622e-06 4.1664196e-05 -1.4862822e-05
000040 6a 9a 33 31 00 23 64 35 54 71 23 38 b2 00 98 b7
       2.6135702e-09 8.498755e-07 3.8967773e-05 -1.8120136e-05
000050 a0 a7 d3 37 04 53 b6 37 2c 74 81 b5 48 5d 5f b7
       2.5231217e-05 2.1734748e-05 -9.64506e-07 -1.33135545e-05
000060 40 1d bc 37 2a 93 df b5 e9 3c 19 b7 e6 34 ae 37
       2.2424967e-05 -1.6657625e-06 -9.133692e-06 2.076705e-05
000070 fc b8 97 a8 1d fe 56 b7 fd 68 98 38 0e 9e 59 b8
       -1.6844592e-14 -1.2814559e-05 7.2674804e-05 -5.188403e-05
000080 13 94 6e b7 66 9e b2 37 0b 87 6c b4 aa 96 1f b5
       -1.4220382e-05 2.1293014e-05 -2.2028341e-07 -5.945136e-07
000090 33 41 bb 37 79 60 a7 b5 94 7d 61 37 18 88 80 b7
       2.2322498e-05 -1.2470547e-06 1.34402835e-05 -1.5322163e-05
0000a0 09 6e aa b3 f7 0d 13 37 23 da 21 36 00 b4 d5 28
       -7.936257e-08 8.765134e-06 2.4117842e-06 2.3725813e-14
0000b0 bd e8 24 39 ae e0 13 39 f0 7d 98 39 06 bb 7a 34
       0.0001572696 0.00014102712 0.0002908553 2.3351103e-07
0000c0 2a 43 7f 39 37 d3 b0 39 2a 17 a4 2e 1e d5 79 39
       0.00024343716 0.00033726703 7.461971e-11 0.00023825883
0000d0 65 07 a6 39 b0 2a 49 34 b8 ba 5b 39 11 eb 9f 39
       0.00031667497 1.8735113e-07 0.00020955026 0.0003050198
0000e0 9a 60 93 ad 01 ef 49 39 b7 9f a5 39 92 d1 80 35
       -1.6754865e-11 0.0001925789 0.0003159025 9.597736e-07
0000f0 30 c3 49 39 b0 18 cb 39 6b be 3c b1 2c e7 3f 39
       0.00019241567 0.0003873757 -2.746584e-09 0.00018301298
000100 af 17 8b 39 7b 43 58 38 b0 28 77 39 96 6a a8 39
       0.00026529792 5.156126e-05 0.00023570913 0.0003212287
000110 74 7b 92 b6 74 1f 4b 39 a8 f6 73 39 05 97 b0 38
       -4.365511e-06 0.00019371306 0.00023266173 8.4204636e-05
000120 27 5f 83 39 89 20 a6 39 05 08 67 a9 f8 82 38 39
       0.0002505716 0.00031686228 -5.129926e-14 0.00017596397
000130 b8 42 05 3a 78 cb 48 b9 69 df 4f 39 d1 bc a4 39
       0.0005083489 -0.00019149284 0.00019824285 0.00031421197
000140 1e 83 9e 33 ed 1a 7a 39 9b b5 a8 39 5c 67 97 b6
       7.3812984e-08 0.00023851889 0.00032178764 -4.5121833e-06
000150 ee 51 52 39 7a 9f a1 39 c0 1a 95 31 90 ae 7b 39
       0.00020057682 0.00030827132 4.339512e-09 0.00024002255
000160 b9 64 3e 39 2a 04 fc 28 05 6b 66 39 12 47 36 3b
       0.00018157334 2.7979426e-14 0.00021974377 0.0027813357
000170 94 9a e3 38 88 03 0a b3 17 f3 0e 38 89 72 be 38
       0.00010852996 -3.213384e-08 3.4081833e-05 9.08124e-05
000180 a2 4c 43 ae 3a a5 f3 37 a5 1f fc 38 95 9d cc b1
       -4.440593e-11 2.9044797e-05 0.00012022191 -5.9550964e-09
000190 bd 60 07 38 8c eb f3 38 db 57 a9 2c 56 e0 4d 38
       3.2276603e-05 0.00011631017 4.813023e-12 4.9084738e-05
0001a0 35 4a f1 38 da 23 ad 36 fc 7f 13 38 82 25 c3 38
       0.00011505598 5.1599754e-06 3.5166726e-05 9.305311e-05
0001b0 56 09 84 2d f3 d4 76 38 f3 fb 06 39 ea ef 0f b7
       1.5010809e-11 5.8849295e-05 0.00012873094 -8.579324e-06
0001c0 59 e3 b2 38 47 63 f4 38 e1 d1 75 36 ae 21 ec 38
       8.530048e-05 0.000116533185 3.663001e-06 0.0001125963
0001d0 3b b2 01 39 66 95 69 b6 b6 85 0f 39 99 1b fc 38
       0.00012368795 -3.4806667e-06 0.00013687354 0.00012021437
0001e0 81 c7 e7 a8 28 59 e5 38 a6 5e ea 37 88 87 c1 38
       -2.5732673e-14 0.000109361776 2.7939048e-05 9.228202e-05
0001f0 2e 38 ed 38 c9 81 f0 38 a8 9b 54 31 09 80 aa 38
       0.00011311505 0.00011468266 3.093854e-09 8.13008e-05
000200 ae 0e f5 38 4c 5f 6b 36 f5 b3 a8 38 7d 35 4c 39
       0.00011685245 3.50732e-06 8.044384e-05 0.00019474882
000210 bd b1 ed 32 12 51 e9 38 21 4e 60 38 b2 98 09 a9
       2.7671257e-08 0.00011125406 5.3478525e-05 -3.0552553e-14
000220 8a d5 4b b8 10 9f 7e 3a 22 a0 09 b9 e8 b4 98 33
       -4.8597845e-05 0.0009713033 -0.00013124992 7.110958e-08
000230 a1 ba f4 b8 c5 26 05 b9 17 7a e0 2c db 20 e6 b8
       -0.00011669589 -0.00012698311 6.3800176e-12 -0.000109733744
000240 e6 b9 0a b9 e7 64 94 33 5e 29 b0 b8 2e 15 b1 b8
       -0.00013229958 6.910141e-08 -8.400039e-05 -8.443963e-05
000250 c5 de b6 af ab 9e e3 b8 67 b5 f2 b8 27 65 8a b7
       -3.3263894e-10 -0.00010853758 -0.00011573248 -1.6497985e-05
000260 5f a0 12 b8 21 21 90 b8 b2 90 31 32 19 62 b1 b8
       -3.495847e-05 -6.872626e-05 1.0335656e-08 -8.45829e-05
000270 0e 32 25 b9 da 8a e0 37 4e a5 b9 b8 1d 80 0d b9
       -0.00015754273 2.6767539e-05 -8.852278e-05 -0.00013494534
000280 de 51 36 36 64 1e a9 b8 e3 66 31 b8 b6 9f bc b8
       2.7167766e-06 -8.064209e-05 -4.229591e-05 -8.994287e-05
000290 5c a1 08 b9 63 a8 0a b9 35 fb 08 2a b9 e7 d2 b8
       -0.00013030082 -0.00013223435 1.2166381e-13 -0.00010056742
0002a0 e5 be 87 b9 9f d6 04 39 57 0b 55 b8 6a 80 d5 b8
       -0.00025891434 0.00012668454 -5.079372e-05 -0.000101805505
0002b0 c2 80 34 b5 e3 1a e8 b8 1f 27 11 b9 ea d6 55 36
       -6.724259e-07 -0.0001106763 -0.00013842851 3.186457e-06
0002c0 a5 16 12 b8 83 aa 5c b9 b3 3e 23 b5 ba 88 32 b9
       -3.4830202e-05 -0.00021044356 -6.081347e-07 -0.00017026337
0002d0 d3 0b 01 b8 4b 39 0a a8 31 63 8a b9 c7 03 c1 ba
       -3.076701e-05 -7.672962e-15 -0.00026395314 -0.0014725857
0002e0 c8 db f0 b9 ee 51 5c 35 65 10 41 3a 0e 41 0a b8
       -0.00045940117 8.207561e-07 0.00073648087 -3.296235e-05
0002f0 84 e3 a5 2f 0c 53 e7 39 05 41 29 ba d7 84 9a b5
       3.0174985e-10 0.00044121628 -0.0006456527 -1.1512556e-06
000300 3f 2b e6 39 d8 7a e9 b9 e1 46 0e b1 84 43 4a b8
       0.0004390124 -0.0004453275 -2.070401e-09 -4.822343e-05
000310 5b bc 30 ba ae c2 e5 37 35 d0 72 39 d8 15 91 ba
       -0.00067419343 2.7389582e-05 0.00023156482 -0.0011069132
000320 4f f9 2d 33 46 40 53 b9 8b 5b da b9 4f ec 6f b9
       4.0506446e-08 -0.00020146472 -0.00041648405 -0.00022880848
000330 08 0f 11 ba 71 bb 27 ba bb bc d4 b6 cf fb 5c ba
       -0.0005533551 -0.00063984754 -6.3400635e-06 -0.00084298564
000340 28 e0 c5 b9 69 e3 8d b9 c0 a9 bd ba 58 86 29 ba
       -0.00037741777 -0.0002706305 -0.0014470145 -0.0006466857
000350 61 c3 e2 a9 97 63 8b ba c9 08 a6 39 b9 e2 7b ba
       -1.0070309e-13 -0.0010634538 0.00031668533 -0.00096086744
000360 5d 54 a3 ba 91 6b 23 ba 54 fd 42 b6 ba 70 50 ba
       -0.0012461055 -0.0006233985 -2.905571e-06 -0.0007951368
000370 5f 35 27 ba 37 a3 ef b6 f2 69 fe b9 a2 b3 a7 ba
       -0.00063784973 -7.1417558e-06 -0.0004852559 -0.0012794624
000380 e2 54 a0 b5 d3 0b 19 ba d0 e9 ba b8 12 da 98 2b
       -1.1945633e-06 -0.0005838249 -8.912722e-05 1.0860776e-12
000390 e7 e5 88 3a 83 71 af 3b 90 af 02 3b 42 fd ba 35
       0.0010444493 0.005354108 0.001994107 1.3931788e-06
0003a0 11 44 dc 3a d9 5e 11 3b fb bd 13 30 d2 ab d0 3a
       0.0016804953 0.0022181778 5.3748267e-10 0.0015920347
0003b0 b8 aa 0b 3b 39 ab 2f 33 54 19 bc 3a 32 85 07 3b
       0.0021311473 4.090109e-08 0.001435081 0.0020678756
0003c0 a4 bf 17 30 3b 2b a7 3a e1 0b 0c 3b ef f2 c0 b6
       5.520582e-10 0.0012753973 0.0021369385 -5.750327e-06
0003d0 33 33 b0 3a e4 92 22 3b 68 95 1b b1 f7 51 a2 3a
       0.0013442993 0.0024806792 -2.2640396e-09 0.0012384047
0003e0 80 60 eb 3a d0 64 af 39 08 c3 d0 3a 6b 08 0f 3b
       0.0017957836 0.00033453712 0.0015927264 0.0021825086
0003f0 7f aa 55 b8 2a 8a ac 3a ca f9 de 3a e7 5d e1 39
       -5.0941944e-05 0.0013163735 0.0017011699 0.00042985307

exp_avg_sq f4 [128, 46]
000000 3d c0 b1 35 34 ed 58 33 1c dc 13 35 ae ac b2 35
       1.3243476e-06 5.0507154e-08 5.508207e-07 1.331229e-06
000010 09 d6 80 33 77 c4 13 35 7b 2b b3 35 b6 b5 44 33
       5.999397e-08 5.504766e-07 1.3349194e-06 4.580007e-08
000020 99 eb 22 35 52 fb b2 35 30 bb 8b 33 93 94 1e 35
       6.069254e-07 1.3335177e-06 6.506741e-08 5.907579e-07
000030 2d e5 af 35 1d c9 7a 33 17 cb 21 35 3e 16 9f 35
       1.3105215e-06 5.8390572e-08 6.027271e-07 1.1852896e-06
000040 7a 63 90 33 7c 20 26 35 6b 05 ae 35 2b 3e 8e 33
       6.723617e-08 6.188709e-07 1.2965587e-06 6.6236986e-08
000050 9c 81 29 35 1a 8f b5 35 c4 4e 23 33 c9 14 1e 35
       6.314601e-07 1.3527199e-06 3.8023032e-08 5.8889833e-07
000060 c0 e0 b5 35 4b ad 3d 33 b4 78 28 35 22 71 b1 35
       1.3550962e-06 4.41626e-08 6.2760523e-07 1.3220454e-06
000070 9d bc a9 33 de 7e 1f 35 6d 92 a7 35 ce b7 22 34
       7.903984e-08 5.941673e-07 1.2485085e-06 1.5154293e-07
000080 d5 e3 30 35 be 2b ab 35 fa 30 05 34 02 02 29 35
       6.589665e-07 1.2753223e-06 1.2404408e-07 6.296033e-07
000090 07 ab a2 35 2b bb 38 34 27 79 37 35 36 10 ac 35
       1.2119716e-06 1.7204427e-07 6.834911e-07 1.2819717e-06
0000a0 49 88 a8 33 5b 15 28 35 98 98 28 35 8c 9b 08 24
       7.8479e-08 6.2615953e-07 6.280693e-07 2.9622052e-17
0000b0 f0 19 4c 35 f8 14 9f 37 e1 d2 c3 35 7e 7f d5 33
       7.6033666e-07 1.8964041e-05 1.4590006e-06 9.941776e-08
0000c0 3b e5 08 35 0a 51 d8 35 89 3f b3 33 1e 0f 0e 35
       5.099752e-07 1.611684e-06 8.346894e-08 5.292112e-07
0000d0 11 16 cc 35 60 07 30 33 f9 98 1b 35 36 f9 d7 35
       1.5205607e-06 4.09849e-08 5.7964604e-07 1.6091278e-06
0000e0 e9 c0 c2 33 08 65 29 35 dc 45 fa 35 cd 37 fe 32
       9.068919e-08 6.3104426e-07 1.8646783e-06 2.9594867e-08
0000f0 e4 86 38 35 f9 c6 e1 35 c7 07 14 34 8f e9 84 35
       6.8741633e-07 1.6821715e-06 1.3786403e-07 9.902741e-07
000100 e1 14 ea 35 26 45 12 33 37 5d 4a 35 b0 ce fe 35
       1.7440435e-06 3.4056164e-08 7.538651e-07 1.8984629e-06
000110 90 0d a0 33 be 96 76 35 8e ff 00 36 ce e1 9f 33
       7.4530476e-08 9.18615e-07 1.9222239e-06 7.445088e-08
000120 1e ce 6e 35 03 2b f9 35 cf 83 40 34 9c 54 94 35
       8.896185e-07 1.8564464e-06 1.7929345e-07 1.1051484e-06
000130 01 73 e6 35 04 f1 88 34 0d c3 7b 35 29 cc d7 35
       1.7169806e-06 2.5507336e-07 9.378862e-07 1.6078167e-06
000140 bd 4c d7 34 71 8f 8f 35 a0 04 de 35 9f f4 ad 34
       4.0102705e-07 1.0696077e-06 1.6541635e-06 3.2401746e-07
000150 01 ef 7e 35 9d 41 d3 35 04 97 f3 34 02 51 88 35
       9.497017e-07 1.5739821e-06 4.5372155e-07 1.0156366e-06
000160 b9 34 63 35 0e f3 8a 25 09 c8 95 35 c1 60 04 38
       8.464081e-07 2.4103884e-16 1.1159583e-06 3.156136e-05
000170 1e 1f 19 35 64 5e cd 32 b5 d8 6f 34 f4 23 1c 35
       5.7042223e-07 2.3908065e-08 2.2337447e-07 5.816685e-07
000180 b6 85 8b 32 5c 68 6f 34 d0 c6 1c 35 d9 ef 91 32
       1.6242534e-08 2.2296575e-07 5.840384e-07 1.6989292e-08
000190 8e bc 86 34 34 76 1d 35 1f de 7b 32 45 5b 7d 34
       2.5096637e-07 5.8659066e-07 1.4660627e-08 2.3595665e-07
0001a0 c1 00 1a 35 6a 48 6c 32 f1 37 8c 34 0c 9b 0e 35
       5.737057e-07 1.3753473e-08 2.6117735e-07 5.3124745e-07
0001b0 9d d7 97 32 cb 90 82 34 9f e1 1c 35 79 da 76 32
       1.7676763e-08 2.4319738e-07 5.844285e-07 1.43687595e-08
0001c0 03 86 98 34 59 f5 1d 35 54 6a 06 32 86 8f 91 34
       2.8409713e-07 5.8844086e-07 7.824003e-09 2.7112782e-07
0001d0 6c 39 1a 35 82 0d ee 32 76 a3 a3 34 ae 1e 1b 35
       5.745303e-07 2.771299e-08 3.048005e-07 5.7786644e-07
0001e0 16 15 a2 32 04 f3 8d 34 23 90 07 35 22 85 be 33
       1.8868871e-08 2.6440114e-07 5.0501166e-07 8.871781e-08
0001f0 ee f5 aa 34 58 f5 15 35 d9 b7 2b 33 13 18 90 34
       3.1843905e-07 5.586385e-07 3.998125e-08 2.6839606e-07
000200 62 01 03 35 29 97 ef 33 90 ac a8 34 be 51 18 35
       4.8803315e-07 1.11568006e-07 3.1417994e-07 5.6743363e-07
000210 14 a4 8e 32 60 48 87 34 18 03 55 34 13 35 da 24
       1.660559e-08 2.519837e-07 1.9838296e-07 9.463234e-17
000220 fd 86 dc 34 97 b3 5a 37 ed c7 fb 37 96 ad b4 34
       4.107641e-07 1.3035627e-05 3.001463e-05 3.3653913e-07
000230 dc 15 39 37 1d eb 05 38 c0 eb 02 35 f0 bd 5a 37
       1.1031949e-05 3.1928637e-05 4.8771835e-07 1.3038036e-05
000240 8e 88 fa 37 c5 e5 87 33 67 0c 19 37 94 12 fd 37
       2.986591e-05 6.328222e-08 9.122398e-06 3.0168601e-05
000250 2c cb fc 35 5b 0e 77 37 0c dd f6 37 7e 2a 88 32
       1.8834594e-06 1.472569e-05 2.9428418e-05 1.5851807e-08
000260 6e e9 18 37 f2 b2 ed 37 ee d7 81 36 f9 5d 9a 37
       9.114256e-06 2.833593e-05 3.869637e-06 1.840199e-05
000270 3f b8 ee 37 e1 51 9c 33 98 cb 23 37 b1 70 00 38
       2.8457607e-05 7.27921e-08 9.76296e-06 3.062253e-05
000280 4d 03 db 35 92 20 85 37 d7 63 04 38 e6 1a 81 35
       1.6317732e-06 1.5870002e-05 3.1564236e-05 9.619077e-07
000290 40 ee 66 37 97 17 eb 37 85 b5 80 36 13 7e 93 37
       1.376454e-05 2.8025168e-05 3.835829e-06 1.7582473e-05
0002a0 b1 db 02 38 2c ff 24 35 3e 55 3d 37 e2 fd ce 37
       3.119902e-05 6.1466085e-07 1.1285125e-05 2.4675337e-05
0002b0 1e 1a f2 36 1b 96 a9 37 d3 c9 fb 37 04 d0 0d 34
       7.2152025e-06 2.0216268e-05 3.0015513e-05 1.3207324e-07
0002c0 d8 4a 29 37 eb 35 d5 37 8e 2d b5 36 ef c5 b1 37
       1.0090611e-05 2.5416686e-05 5.3995236e-06 2.1192214e-05
0002d0 90 6a 81 37 51 09 76 27 e0 b6 97 37 2c da 52 39
       1.542762e-05 3.4144408e-15 1.808576e-05 0.00020108436
0002e0 7b 62 93 39 20 1b 66 37 eb ee 0a 39 63 02 93 39
       0.000281114 1.3715384e-05 0.0001324971 0.00028039803
0002f0 93 f6 87 37 06 06 0e 39 d7 d2 97 39 a8 1f f3 36
       1.6208074e-05 0.00013544419 0.00028958052 7.2456496e-06
000300 e2 cf 0a 39 cf f4 91 39 af 4d 8e 37 e9 1c 19 39
       0.00013238148 0.00027838952 1.6963893e-05 0.00014601987
000310 73 d5 98 39 a3 97 bf 36 a5 5d 03 39 d9 e8 8b 39
       0.0002915073 5.7098964e-06 0.00012528019 0.0002668563
000320 7a a3 8a 37 2c 2b 1e 39 4b 39 92 39 4e 13 c1 36
       1.6527007e-05 0.00015084137 0.00027889977 5.7540956e-06
000330 c8 54 00 39 28 5e 99 39 1c d6 51 36 38 c8 ff 38
       0.00012238615 0.00029252586 3.1268055e-06 0.00012196641
000340 01 45 98 39 f5 64 80 36 c8 90 fa 38 6b bf 94 39
       0.0002904311 3.82645e-06 0.000119478966 0.00028371377
000350 54 1d 1c 37 19 2f 04 39 5b 3e 90 39 08 e5 39 37
       9.305153e-06 0.00012606046 0.0002751228 1.1080185e-05
000360 af 51 f9 38 05 6f 91 39 9a 04 93 37 72 ee 0c 39
       0.0001188846 0.0002773927 1.7525908e-05 0.00013440268
000370 16 74 8f 39 6c 16 87 37 ef ab 02 39 c9 43 8f 39
       0.00027361576 1.6103695e-05 0.00012461816 0.0002732559
000380 d3 c9 95 37 c5 c4 15 39 62 89 15 39 e8 4f 81 27
       1.7856166e-05 0.0001428305 0.00014260926 3.5891327e-15
000390 38 b8 12 39 30 b8 66 3c b8 2d 15 39 61 66 4c 36
       0.00013992272 0.014082 0.00014226779 3.0457961e-06
0003a0 40 69 5e 38 31 5c 1a 39 e5 cf 31 36 cf e0 60 38
       5.3026946e-05 0.00014720928 2.6496066e-06 5.361513e-05
0003b0 c4 a7 14 39 29 66 2a 36 11 1c 7d 38 ed bb 17 39
       0.00014176877 2.539144e-06 6.034604e-05 0.0001447049
0003c0 f9 b4 4c 36 6c 82 72 38 02 72 19 39 3b 06 00 36
       3.0503709e-06 5.781876e-05 0.00014633688 1.9077113e-06
0003d0 cc 41 86 38 e4 55 09 39 a5 a9 4d 36 6d e1 81 38
       6.4018735e-05 0.00013097335 3.0646127e-06 6.193188e-05
0003e0 3d d6 17 39 6f 86 3e 36 12 17 95 38 6d ee 19 39
       0.00014480292 2.8390457e-06 7.109171e-05 0.00014680038
0003f0 ef 45 3a 36 d9 f0 8f 38 52 e6 16 39 49 16 f2 36
       2.7756867e-06 6.863633e-05 0.00014390916 7.2147564e-06

exp_avg f4 [128]
000000 3b 35 ae 37 89 20 a6 39 73 1c fc 38 57 a7 0a b9
       2.0767204e-05 0.00031686228 0.000120215955 -0.00013223045
000010 46 8e 29 ba 67 ab 0b 3b 64 e5 1a bb c9 a6 dc 39
       -0.0006468039 0.002131188 -0.0023635263 0.00042085935
000020 84 14 89 bb 9b fa 2e 38 da c9 0d 3a 1f c4 1b ba
       -0.004183354 4.1718227e-05 0.00054088014 -0.0005942005
000030 c4 a4 3f ba 88 ec 34 b9 76 55 38 bb 24 91 c4 3a
       -0.0007310624 -0.00017254252 -0.002812711 0.0014996869
000040 54 46 8a bb d6 d4 b6 b9 2f 82 1c ba c7 82 31 3b
       -0.0042198095 -0.0003487232 -0.00059703266 0.0027086006
000050 a0 58 99 3b 31 0f 50 bb b1 db c9 b9 8f 92 79 b9
       0.0046797544 -0.0031747336 -0.0003850139 -0.00023801088
000060 dd 81 8e 37 66 29 1d 39 c9 0f 0c 3a ea 13 fb 38
       1.6988191e-05 0.00014988109 0.00053429283 0.00011972322
000070 f7 c4 a6 37 40 19 0c 3b eb 19 bd 38 85 6b 02 bb
       1.9880461e-05 0.0021377355 9.01705e-05 -0.0019900512
000080 fc 95 ba 39 61 43 53 b9 7d d6 1b 3b 4b 0d af ba
       0.00035588432 -0.00020147629 0.0023778968 -0.0013355402
000090 d1 63 37 38 f9 84 25 bb 89 16 9e 39 d8 3e a1 3a
       4.372356e-05 -0.002525626 0.00030152898 0.0012302054
0000a0 c5 35 fd ba e5 56 37 ba 03 96 9b 3a 41 1d 2b 3b
       -0.0019318393 -0.0006993844 0.0011870268 0.0026109966
0000b0 a6 fd 08 3a b6 5f dd 3a 1a d3 06 3a cf 0f 02 bb
       0.0005225785 0.0016889486 0.0005143151 -0.0019845848
0000c0 93 59 66 39 27 7e 2f 39 59 8d 98 ba 90 3a 61 bb
       0.00021967878 0.00016736296 -0.0011638805 -0.0034367181
0000d0 52 4a 18 bb 4f 87 37 ba a5 04 37 bb b6 bc 52 b8
       -0.0023237658 -0.00070010585 -0.0027926352 -5.0243652e-05
0000e0 4d 59 bd 39 78 0a d5 b9 01 c6 a7 b9 25 cc 13 bb
       0.00036115423 -0.00040634326 -0.00032000247 -0.00225521
0000f0 9c 75 92 3b 40 c1 51 3b 60 93 99 bb ba 30 6a 3a
       0.0044695865 0.0032006055 -0.004686758 0.00089336524
000100 bf 5b 3d 39 fc 56 38 bb 71 ae e5 b9 f0 fd b9 3a
       0.00018058623 -0.0028128019 -0.00043808253 0.0014190059
000110 56 48 0d 3b fe 3b 0d 39 f9 d2 fe 39 e1 54 03 3b
       0.0021558008 0.00013469157 0.00048603842 0.0020039605
000120 10 5b da 39 7d c9 58 3a 53 33 c4 3a ba a6 e9 38
       0.00041648047 0.000826977 0.0014968909 0.00011141361
000130 4b a4 34 3b 9b 33 06 3a 38 66 cb 39 99 6b 4b 3a
       0.0027563747 0.0005119384 0.00038795336 0.0007759869
000140 95 68 ba 39 63 bc 5c 3a c0 28 a0 ba 32 1c 8d 39
       0.00035554604 0.0008420406 -0.0012219176 0.00026914623
000150 52 df 35 38 7e 3a 91 3a f3 8c fd 38 41 58 73 38
       4.3361746e-05 0.0011080054 0.00012090234 5.8017908e-05
000160 57 ec 58 3b a9 ec 0d bb da 9b f9 37 f0 fc f6 39
       0.0033099854 -0.0021655953 2.9755687e-05 0.0004710923
000170 98 f9 2a b9 53 1c ce 37 73 9a 2d 3b c2 f7 ce b9
       -0.00016305444 2.4570303e-05 0.0026489764 -0.00039475976
000180 1a 73 3e bb de 48 ea 37 75 cd 1b 3b 9b 97 51 ba
       -0.0029060305 2.7928905e-05 0.0023773585 -0.0007995308
000190 d0 9b 3f b9 1b 5e 54 b8 71 d5 d9 3a 19 93 5b 3b
       -0.00018273224 -5.063238e-05 0.0016619397 0.0033504425
0001a0 b4 66 d0 ba b6 b0 a2 3b 7c 19 3a b9 80 ac 18 3b
       -0.0015899749 0.0049649132 -0.00017747836 0.0023296177
0001b0 a5 70 16 3a 6f d9 22 bb 7d 12 c6 38 28 86 9d 3b
       0.0005738831 -0.0024848839 9.4448194e-05 0.0048072524
0001c0 ab e2 8c 3a 8d bd 23 3b c5 e5 2a bb 03 de 85 3b
       0.0010748705 0.0024984807 -0.0026076895 0.0040853037
0001d0 d6 b9 8f ba bd 83 86 bb 0c 3e 6d 3b ca 04 24 3b
       -0.0010965418 -0.00410506 0.0036200313 0.0025027269
0001e0 b7 34 5f 3a 7a 47 59 bb 0e 33 6c 3b 1f 36 36 ba
       0.000851463 -0.0033154176 0.0036041173 -0.00069508137
0001f0 c7 5e d3 37 a7 cf 95 ba 2b b1 c2 3a 9a 3f 93 ba
       2.5197294e-05 -0.0011429683 0.0014853826 -0.0011234165
