Project/results/Test3_NoWall_01/Test3/Test3-250556.onnx (onnx, 96205 bytes, 7 tensors)

network_body._body_endoder.seq_layers.0.weight f4 [128, 46]
-0.08382641 -0.21876852 0.02643617 -0.16157292 0.14602765 0.15161696 0.09214269 0.14023322
-0.26389012 0.25128904 0.112497814 -0.13263716 -0.132047 -0.115064755 0.017490558 0.034688145
-0.31200287 0.24573883 -0.21973506 0.10548099 0.19563873 -0.2204064 -0.027693512 0.012104937
-0.026852401 -0.031046959 -0.10800821 -0.07790871 -0.16663788 -0.1493531 -0.14235829 0.022797722
-0.029375415 -0.14844836 -0.11351415 -0.23077857 -0.3560291 -0.021604331 -0.19714968 -0.3582881
0.24869537 0.07732057 -0.117114 -0.024649426 -0.38705483 -0.27904665 -0.111173086 0.23732525
-0.08757287 -0.057553027 -0.03453898 -0.1689836 0.041754823 -0.024816865 -0.081229694 -0.16279417
0.07538758 -0.03144606 -0.09740693 -0.2420607 -0.10059055 0.18749131 0.07111032 -0.30899772
-0.12415932 -0.058245413 -0.13545388 0.041846465 0.15405712 -0.21159592 0.14259899 -0.13909753
-0.07176704 0.12611833 0.42187256 -0.08886537 -0.00744164 0.18123813 -0.12311025 -0.1666338
0.27048245 -0.006009698 -0.2106329 -0.06457766 0.027122447 0.09587519 0.32816306 -0.1321784
0.58219254 0.22014485 -0.33903703 -0.23905149 0.022906004 -0.18511863 0.14571612 -0.26571104
-0.09261244 0.19600427 -0.041051153 0.013634392 -0.1716716 -0.387161 0.08077178 -0.026327113
-0.23471051 0.14186242 -0.119077906 0.08815728 0.039832953 -0.118359976 -0.06229402 0.30224675
-0.0021140096 -0.0024319226 -0.027768943 0.09357424 -0.27911836 -0.20273113 -0.18612501 -0.030449096
-0.109821334 -0.08759706 0.24112909 -0.13482685 -0.18622671 -0.17432751 0.17046332 0.03418481
-0.23754185 0.031073993 0.2889383 -0.28120598 -0.07618375 0.043702774 0.28226835 0.08852497
-0.11837878 -0.16745743 -0.0006732579 -0.05427865 0.2070439 0.2943159 -0.04618292 -0.050026115
0.13313876 -0.15733317 0.074571036 -0.16522743 -0.023907531 -0.19013992 -0.042237695 -0.48623896
-0.18254454 -0.21054752 0.083822295 -0.11482928 -0.108703196 -0.32006955 -0.047705453 0.17210042
-0.04898458 0.20906305 0.0077110184 0.17682332 0.16916403 -0.14208238 0.15752736 -0.086828075
-0.010017112 0.13665703 -0.030188637 0.025463758 0.24808872 0.09135333 0.013680377 -0.22730255
-0.14653064 -0.041323036 0.2520533 0.21476766 0.07791019 0.20056944 0.21823002 -0.09734199
0.07132425 -0.08374701 0.042555187 -0.12811866 0.11297554 0.111542374 0.097641885 0.08074052
-0.013326333 -0.056180395 0.29509103 0.04688258 0.25460148 -0.032179154 0.13843067 -0.252037
0.36045042 0.08364392 0.047147963 -0.05776243 -0.078706756 -0.023826974 -0.61941606 0.013095505
-0.061182886 -0.3391218 0.25546387 0.17295675 0.0798705 -0.11287094 0.3381131 -0.2243344
-0.028950348 0.0054788734 -0.011307456 -0.12682661 -0.08140353 -0.20335098 0.036492094 0.20639874
0.11923993 -0.0028396286 -0.053339303 0.095505 -0.40629783 -0.0051441668 -0.18278643 -0.0063235243
0.15258396 0.20505475 0.11579106 -0.07826259 0.006382954 0.24280755 0.07766787 0.22627796
-0.025303593 -0.08608605 0.28594187 0.09250244 0.16802543 0.03623946 -0.21983683 -0.10239602
0.13686714 -0.093841456 0.048182487 -0.15080655 -0.051948532 -0.05907883 0.024731694 0.20109704
00000000: 2ead abbd db04 60be ab90 d83c 5f73 25be
00000010: 4688 153e 7a41 1b3e 4fb5 bc3d 4c99 0f3e
00000020: 9b1c 87be f5a8 803e 4165 e63d 09d2 07be
00000030: 5437 07be 12a7 ebbd 5c48 8f3c 2815 0e3d
00000040: d7be 9fbe f6a2 7b3e 3a02 61be 6b06 d83d
00000050: 8555 483e 37b2 61be 81dd e2bc c953 463c
00000060: 91f9 dbbc 3156 febc 6933 ddbd 9a8e 9fbd
00000070: 1fa3 2abe 05f0 18be 5fc6 11be 4ac2 ba3c
00000080: b6a4 f0bc d902 18be 1b7a e8bd 3851 6cbe
00000090: 7249 b6be 91fb b0bc 9be1 49be 8a71 b7be
000000a0: 00aa 7e3e 3f5a 9e3d 77d9 efbd 98ed c9bc
000000b0: 0d2c c6be 34df 8ebe b7ae e3bd 6405 733e
000000c0: 6859 b3bd b9bc 6bbd bf78 0dbd 090a 2dbe
000000d0: 1b07 2b3d bd4c cbbc c15b a6bd 84b3 26be
000000e0: ce64 9a3d 95cd 00bd 497d c7bd c3de 77be
000000f0: 6b02 cebd b9fd 3f3e 4aa2 913d f334 9ebe
00000100: 3e47 febd be92 6ebd 6cb4 0abe 3367 2b3d
00000110: 26c1 1d3e 9aac 58be 7805 123e 956f 0ebe
00000120: 99fa 92bd 2a25 013e aeff d73e 0cff b5bd
00000130: 00d9 f3bb 7d96 393e 3a21 fcbd 0da2 2abe
00000140: ad7c 8a3e 00ed c4bb 27b0 57be 4b41 84bd
00000150: e52f de3c 365a c43d fd04 a83e c659 07be
00000160: 920a 153f a76d 613e 4396 adbe eac9 74be
00000170: 5fa5 bb3c bd8f 3dbe 9b36 153e 470b 88be
00000180: 97ab bdbd 58b5 483e 4125 28bd c962 5f3c
00000190: aeca 2fbe f739 c6be ad6b a53d f5ab d7bc
000001a0: f457 70be 6244 113e 1edf f3bd ce8b b43d
000001b0: e127 233d b766 f2bd 0428 7fbd 16c0 9a3e
000001c0: 328b 0abb e460 1fbb b27b e3bc daa3 bf3d
000001d0: 9ae8 8ebe c098 4fbe 8e97 3ebe 6270 f9bc
000001e0: 02ea e0bd 1666 b3bd 8bea 763e 0d10 0abe
000001f0: 37b2 3ebe e982 32be f08d 2e3e 5f05 0c3d
00000200: 2c3e 73be e38e fe3c b9ef 933e 3bfa 8fbe
00000210: 3a06 9cbd ae01 333d 7a85 903e 944c b53d
00000220: 9370 f2bd f679 2bbe 937d 30ba 4a53 5ebd
00000230: 5103 543e 93b0 963e 4d2a 3dbd 2fe8 4cbd
00000240: 8755 083e f21b 21be b3b8 983d 6131 29be
00000250: bad9 c3bc 0ab4 42be 6f01 2dbd 50f4 f8be
00000260: f5ec 3abe c599 57be 06ab ab3d 9d2b ebbd
00000270: c89f debd 28e0 a3be cb66 43bd 183b 303e
00000280: 0ea4 48bd a014 563e b6ac fc3b 2c11 353e
00000290: 5639 2d3e 0b7e 11be da4e 213e ebd2 b1bd
000002a0: d01e 24bc d2ef 0b3e 294e f7bc 5f99 d03c
000002b0: f80a 7e3e 7417 bb3d a923 603c 00c2 68be
000002c0: 210c 16be 5842 29bd 210d 813e 0eec 5b3e
000002d0: 618f 9f3d 1362 4d3e b177 5f3e 3d5b c7bd
000002e0: 7312 923d 8d83 abbd 594e 2e3d 8a31 03be
000002f0: b85f e73d 5470 e43d 78f8 c73d 495b a53d
00000300: b156 5abc 6a1d 66bd 2c16 973e f307 403d
00000310: 205b 823e 4ace 03bd c5c0 0d3e fe0a 81be
00000320: f58c b83e 814d ab3d 391e 413d 4c98 6cbd
00000330: 0231 a1bd c930 c3bc 0d92 1ebf 878e 563c
00000340: e89a 7abd 5fa1 adbe 29cc 823e 931b 313e
00000350: 2593 a33d e128 e7bd 291d ad3e ebb7 65be
00000360: 4829 edbc 1f88 b33b e842 39bc d6de 01be
00000370: e5b6 a6bd 3d3b 50be bc78 153d 315a 533e
00000380: 1034 f43d 1019 3abb 507a 5abd 2098 c33d
00000390: 4506 d0be 6690 a8bb 5e2c 3bbe 9135 cfbb
000003a0: f83e 1c3e dff9 513e dd23 ed3d 2348 a0bd
000003b0: 1928 d13b 8ba2 783e 5510 9f3d 69b5 673e
000003c0: 7b49 cfbc e24d b0bd f966 923e eb71 bd3d
000003d0: dc0e 2c3e d46f 143d e81c 61be 01b5 d1bd
000003e0: e626 0c3e f32f c0bd 005b 453d 086d 1abe
000003f0: fcc7 54bd a5fc 71bd 1f9a ca3c 62ec 4d3e

network_body._body_endoder.seq_layers.0.bias f4 [128]
-0.080452316 -0.024563003 -0.0934728 -0.011042899 0.057325006 0.029718377 0.031694327 -0.03344532
0.060266584 -0.04494511 0.03550515 -0.08348168 -0.0021637992 -0.02760031 0.06038728 0.023375668
0.024078084 0.05968754 0.006516026 0.07625402 0.03172021 0.0395603 -0.05649847 0.00054740295
-0.027645491 0.039737396 -0.017674243 -0.023097115 -0.059147365 0.03079987 -0.009182141 0.039140407
0.08301986 -0.01713008 0.041625272 0.028445346 0.005123595 0.05525591 0.057923473 0.042060312
0.069088414 0.0400306 0.007779692 0.095317006 -0.056000933 0.06059845 -0.08095229 0.041953273
0.001135582 -0.08680003 0.021942193 0.07796345 0.01228767 0.017099101 0.059042856 -0.050297584
-0.079014 0.021557065 0.016951496 0.034786996 0.03538916 0.011565282 0.049814057 0.049759123
-0.102521695 0.012393373 0.054054018 -0.0050030984 0.014800787 -0.043796957 0.022210585 0.0073471237
0.05936762 -0.0143801 0.013934275 -0.060742266 0.04054883 -0.003298326 -0.008215535 -0.04050908
-0.057676263 0.07281538 0.02079164 -0.077371344 -0.0034878373 0.0014189794 -0.03800729 -0.07140751
0.037357334 0.022653455 -0.00094810175 0.033385094 0.0381741 0.015266555 0.06140899 0.03359806
0.020840071 -0.15377437 0.07032555 0.022207594 0.057057716 -0.0057735825 -0.034087144 0.034431905
0.04883512 0.028732117 0.017542124 0.06759995 0.01139889 0.049201027 -0.050483923 0.007043036
0.0463908 0.023521543 -0.035185136 0.037064634 -0.053019438 0.08056273 -0.008104797 0.002998399
0.023282439 0.001907048 0.0665738 0.012856925 -0.06986304 0.0074843816 0.039845355 0.034332454
00000000: 2fc4 a4bd 5a38 c9bc ab6e bfbd 47ed 34bc
00000010: a0cd 6a3d f473 f33c e9d1 013d f6fd 08bd
00000020: 18da 763d 5d18 38bd d96d 113d 71f8 aabd
00000030: 87ce 0dbb 0c1a e2bc a758 773d 547e bf3c
00000040: 673f c53c ec7a 743d 6384 d53b 112b 9c3d
00000050: 0ded 013d fb09 223d f16a 67bd 977f 0f3a
00000060: cc78 e2bc aec3 223d 93c9 90bc 2936 bdbc
00000070: 8244 72bd 0250 fc3c b170 16bc b151 203d
00000080: 5106 aa3d 6254 8cbc 437f 2a3d 3706 e93c
00000090: d4e3 a73b 0554 623d 2a41 6d3d 6f47 2c3d
000000a0: 3a7e 8d3d 20f7 233d c9ec fe3b 9035 c33d
000000b0: 3c61 65bd 1536 783d 50ca a5bd 32d7 2b3d
000000c0: cfd7 943a 37c4 b1bd 1dc0 b33c 4dab 9f3d
000000d0: 3952 493c 6a13 8c3c ecd6 713d d704 4ebd
000000e0: 18d2 a1bd 7198 b03c dddd 8a3c cf7c 0e3d
000000f0: 39f4 103d 4f7c 3d3c d309 4c3d 39d0 4b3d
00000100: e5f6 d1bd 930d 4b3c bf67 5d3d 08f1 a3bb
00000110: 007f 723c 7064 33bd f9f2 b53c 24c0 f03b
00000120: 762b 733d 839a 6bbc 964c 643c e2cc 78bd
00000130: 8816 263d ba28 58bb 749a 06bc d9ec 25bd
00000140: f23d 6cbd 3b20 953d 3b53 aa3c de74 9ebd
00000150: 3394 64bb 0cfd b93a 88ad 1bbd 1a3e 92bd
00000160: 0104 193d bd93 b93c 088a 78ba cfbe 083d
00000170: 725c 1c3d 9320 7a3c fe87 7b3d 1f9e 093d
00000180: ccb8 aa3c 0777 1dbe d806 903d b3ec b53c
00000190: 5ab5 693d 5230 bdbb f69e 0bbd 7808 0d3d
000001a0: 5607 483d 9e5f eb3c 80b4 8f3c d871 8a3d
000001b0: 69c2 3a3c 0487 493d 3bc8 4ebd 45c9 e63b
000001c0: 4804 3e3d 40b0 c03c 4a1e 10bd 16d1 173d
000001d0: e92a 59bd 13fe a43d fcc9 04bc ca80 443b
000001e0: d0ba be3c eaf5 f93a d857 883d daa5 523c
000001f0: 5a14 8fbd 8b3f f53b e234 233d 30a0 0c3d

network_body._body_endoder.seq_layers.2.weight f4 [128, 128]
0.220075 0.023418743 0.076202326 0.09881287 -0.24003348 0.093853064 -0.031278852 0.2546022
0.19068696 0.0661848 -0.016632471 0.009101042 -0.12710738 0.048966408 -0.21427186 -0.010305471
-0.28175133 -0.037164237 0.09196097 -0.24642448 0.02955075 -0.10422946 0.033382528 -0.12129439
0.099029034 -0.084334455 0.048305698 -0.089468814 -0.0049799457 0.0194429 -0.22211105 0.07612734
-0.051733445 0.042048622 0.17698914 0.050738864 0.1063101 0.07303092 0.10829974 0.035385188
-0.091689095 -0.2028405 0.0014988701 -0.00081797567 0.0685175 -0.11204633 -0.026770255 -0.24696672
0.10332513 0.01889163 -0.086144924 -0.19129609 -0.18839887 0.10529777 0.17741023 0.1145208
-0.0054961443 -0.12495627 -0.075154774 0.13625592 0.015174616 0.05405347 -0.15248339 -0.073003836
0.17578998 0.12824343 0.02379995 -0.014725791 -0.017551381 0.006896918 0.182577 0.06696177
-0.15379581 -0.044915553 -0.13249566 0.05386353 0.043431364 -0.036386892 -0.14679827 -0.059539694
0.11735783 0.06289003 -0.24700479 0.068170145 -0.047748502 -0.05509012 0.1199161 0.019517116
0.0021071965 -0.0483465 0.09459177 -0.08326297 -0.19336845 -0.04565644 0.049304325 -0.11312314
0.012532953 -0.09762043 0.1587354 0.10128844 -0.06862521 -0.050245795 -0.06654649 -0.15729387
-0.012085484 -0.16187592 0.120708585 -0.15684554 0.049699742 0.0044492856 0.14572825 0.06940146
-0.27697286 0.019458272 0.06766214 -0.15496273 -0.043077923 0.03632486 0.20944771 0.17392838
-0.014808234 -0.059576266 0.10994968 -0.059921548 0.14914936 0.17731567 -0.08619741 0.26141265
-0.044325814 0.118766956 0.112836406 -0.0009936244 -0.04189216 -0.1966087 0.061477114 0.09561961
-0.09430047 0.05092336 -0.08495504 -0.09027047 -0.021428712 -0.061699584 -0.2820137 -0.12599443
-0.105502725 0.2380077 -0.17338538 -0.009939599 0.011704092 -0.05903303 -0.1781786 -0.13639832
0.0877699 -0.22678642 0.08778834 -0.123321675 -0.090774424 0.22676997 -0.020933274 -0.12225731
0.08925525 -0.12503704 0.07142841 0.101236895 0.029959694 -0.1464009 0.016197503 -0.19552271
-0.053303454 -0.13851124 -0.14762719 0.14260036 -0.001045719 -0.14078808 -0.10844099 0.04960613
-0.07259632 0.10563881 -0.009732196 -0.041509364 -0.15660319 0.1594547 0.049894802 0.13242309
0.03705351 -0.3986982 0.11049613 -0.108040735 0.11582672 -0.10641589 -0.067479625 -0.084269464
0.13057117 -0.04010177 -0.25099277 -0.06549 -0.04873556 -0.03872778 -0.015541573 -0.046570927
-0.012004715 0.13994047 0.029463207 -0.02678211 0.08242349 -0.18463923 -0.120183304 0.010621905
0.10885357 0.13677941 -0.11861913 -0.043971673 0.20851375 -0.06447708 -0.05690187 0.083209954
-0.049972486 -0.043727826 0.05964293 -0.06319928 -0.075496584 0.08257413 0.24333858 0.08286567
-0.05032099 -0.0075103915 0.23826012 -0.05962799 -0.3197817 -0.17696226 -0.114754386 -0.20149139
-0.14742225 0.050745983 -0.020474842 0.089294575 0.017932026 -0.14805111 -0.02233009 -0.07067322
-0.26036048 0.16939123 -0.17652382 -0.07455063 -0.22893363 0.05877097 0.086199425 0.18516967
0.1513287 0.09232524 0.10264137 -0.36888146 0.0128229745 0.19890998 0.07996114 0.086423375
00000000: 575b 613e aad8 bf3c f70f 9c3d 675e ca3d
00000010: 56cb 75be 0936 c03d 411e 00bd 385b 823e
00000020: 7143 433e e58b 873d d240 88bc 891c 153c
00000030: 7028 02be 0091 483d 156a 5bbe 47d8 28bc
00000040: b641 90be 8739 18bd 0856 bc3d b356 7cbe
00000050: 6a14 f23c 4176 d5bd 1ebc 083d 3169 f8bd
00000060: bccf ca3d 8bb7 acbd 32dc 453d 6d3b b7bd
00000070: d02e a3bb b746 9f3c 1471 63be a7e8 9b3d
00000080: 73e6 53bd 2d3b 2c3d a43c 353e 8ed3 4f3d
00000090: 1cb9 d93d 3c91 953d 41cc dd3d 0ff0 103d
000000a0: 7ec7 bbbd 6cb5 4fbe bc75 c43a 6b6d 56ba
000000b0: e752 8c3d 8c78 e5bd 4b4d dbbc d8e4 7cbe
000000c0: 209c d33d 9fc2 9a3c c06c b0bd 1fe3 43be
000000d0: a2eb 40be 5ba6 d73d 07ab 353e e289 ea3d
000000e0: 0019 b4bb 13e9 ffbd bfea 99bd ac86 0b3e
000000f0: f49e 783c 2c67 5d3d 9b24 1cbe 0983 95bd
00000100: 4a02 343e 3f52 033e 1df8 c23c 7244 71bc
00000110: eac7 8fbc 8bff e13b 77f5 3a3e 4123 893d
00000120: a67c 1dbe 5ff9 37bd f1ac 07be 01a0 5c3d
00000130: 16e5 313d 6c0a 15bd 4952 16be e5df 73bd
00000140: 4d59 f03d 7dcc 803d d3ee 7cbe ca9c 8b3d
00000150: ef93 43bd 2da6 61bd 9296 f53d 5ce2 9f3c
00000160: e418 0a3b fb06 46bd 54b9 c13d c785 aabd
00000170: 6102 46be 3f02 3bbd 55f3 493d 1bad e7bd
00000180: 0457 4d3c 38ed c7bd 888b 223e 5070 cf3d
00000190: 608b 8cbd 89ce 4dbd 8749 88bd a511 21be
000001a0: 3202 46bc cdc2 25be 1036 f73d 1e9c 20be
000001b0: f591 4b3d 50cb 913b c939 153e 5a22 8e3d
000001c0: 63cf 8dbe f466 9f3c 7392 8a3d 8dae 1ebe
000001d0: 7a72 30bd 60c9 143d 7679 563e 481a 323e
000001e0: 3c9e 72bc 3e06 74bd 4c2d e13d 4c70 75bd
000001f0: 9cba 183e 3d92 353e 4588 b0bd e1d7 853e
00000200: fc8e 35bd 173c f33d c616 e73d 813c 82ba
00000210: 1d97 2bbd cb53 49be 6dcf 7b3d 37d4 c33d
00000220: 9b20 c1bd 0395 503d e8fc adbd b9df b8bd
00000230: 448b afbc b4b8 7cbd 1a64 90be af04 01be
00000240: d011 d8bd 4ab8 733e f08b 31be b3d9 22bc
00000250: 85c2 3f3c 9ecc 71bd 7374 36be 00ac 0bbe
00000260: b5c0 b33d b33a 68be 60ca b33d 1390 fcbd
00000270: f1e7 b9bd 6336 683e 427c abbc 0a62 fabd
00000280: 75cb b63d b609 00be 0f49 923d 4a55 cf3d
00000290: 086e f53c 1eea 15be a0b0 843c 1b37 48be
000002a0: b954 5abd e4d5 0dbe 952b 17be d405 123e
000002b0: 8210 89ba c02a 10be 4f16 debd cc2f 4b3d
000002c0: 61ad 94bd 2959 d83d ca73 1fbc b905 2abd
000002d0: 965c 20be 1848 233e 7e5e 4c3d eb99 073e
000002e0: 6cc5 173d 2c22 ccbe cc4b e23d 7644 ddbd
000002f0: 8f36 ed3d 93f0 d9bd c232 8abd 7895 acbd
00000300: 73b4 053e c141 24bd 2082 80be 9f1f 86bd
00000310: f09e 47bd 05a1 1ebd 15a2 7ebc 28c1 3ebd
00000320: 6daf 44bc 8e4c 0f3e d35c f13c 2866 dbbc
00000330: a6cd a83d 1112 3dbe aa22 f6bd 8007 2e3c
00000340: 9fee de3d e70f 0c3e 96ee f2bd a41b 34bd
00000350: a184 553e 8f0c 84bd ef11 69bd fb69 aa3d
00000360: f3af 4cbd f31b 33bd 254c 743d a06e 81bd
00000370: f49d 9abd a01c a93d c02d 793e 7ab5 a93d
00000380: 621d 4ebd bb19 f6bb 76fa 733e 7b3c 74bd
00000390: 6dba a3be 9835 35be 5904 ebbd c253 4ebe
000003a0: dcf5 16be 05db 4f3d dbba a7bc 13e0 b63d
000003b0: 2fe6 923c b69a 17be 98ed b6bc 1fbd 90bd
000003c0: f84d 85be e574 2d3e a9c2 34be 00ae 98bd
000003d0: 946d 6abe d4b9 703d 5389 b03d 1e9d 3d3e
000003e0: e9f5 1a3e 0415 bd3d a335 d23d 08de bcbe
000003f0: 7417 523c 0faf 4b3e abc2 a33d bdfe b03d

network_body._body_endoder.seq_layers.2.bias f4 [128]
-0.07147826 -0.04201521 -0.044572975 0.0009314631 -0.17278269 -0.05898337 -0.025446864 0.033037566
-0.11413905 -0.082334675 0.09561753 -0.078717984 0.019163385 -0.009734048 -0.033542868 0.037307985
-0.05019049 -0.11249959 -0.000490592 -0.13815108 -0.097283885 0.06498776 0.11609789 0.1074668
-0.088102944 -0.05915308 -0.07532669 -0.03189049 -0.017007906 -0.033103667 -0.038060106 -0.07048616
-0.120398484 -0.060177505 -0.107631996 0.004341291 -0.068655804 -0.070385285 -0.16582955 0.011785922
-0.051716752 -0.034930777 -0.034505755 -0.023738494 -0.050924744 -0.041306954 0.02464411 -0.11185515
-0.09020558 -0.06837505 -0.04175478 -0.16010529 0.08917618 -0.066910855 0.020807412 0.05318841
0.0076560182 0.043604113 -0.06973818 -0.025642311 -0.02149268 -0.024926268 -0.030638786 -0.11269503
-0.10014403 -0.05102308 -0.07943987 -0.09549698 -0.06979428 -0.077801324 -0.023897557 -0.050685782
-0.033150595 -0.04606906 -0.035767097 -0.14042124 -0.066768005 -0.012460991 -0.1331531 -0.07745536
-0.15124942 -0.08357407 -0.040530153 -0.07625014 -0.08483013 -0.09273406 -0.069353394 -0.060195964
-0.05212006 -0.12586366 -0.018760642 -0.0017984111 -0.05939762 -0.022708818 0.04566076 -0.03863552
-0.054790825 -0.121427745 0.019494196 -0.06295822 0.03779311 -0.0188718 0.01413967 -0.024915243
-0.016870243 -0.041855983 -0.17175746 -0.11816488 -0.07710714 -0.03442041 -0.04596971 -0.05018175
-0.038362186 -0.036524028 -0.054480474 -0.08352537 0.015394997 -0.12858042 -0.12895301 -0.087095514
-0.066375464 0.006918508 -0.058784373 -0.094838634 -0.06475022 -0.06353034 -0.02749787 -0.0015621885
00000000: 3263 92bd 2418 2cbd 2792 36bd 6e2d 743a
00000010: f2ed 30be 8c98 71bd f175 d0bc 6652 073d
00000020: bcc1 e9bd 159f a8bd 20d3 c33d e536 a1bd
00000030: 88fc 9c3c 8e7b 1fbc 3f64 09bd 42d0 183d
00000040: 8b94 4dbd 2f66 e6bd 129b 00ba 7a77 0dbe
00000050: c63c c7bd 4d18 853d bbc4 ed3d 8e17 dc3d
00000060: 516f b4bd 804a 72bd e144 9abd 9a9f 02bd
00000070: 2a54 8bbc b697 07bd eae4 1bbd 0c5b 90bd
00000080: 7b93 f6bd b07c 76bd 2a6e dcbd 6341 8e3b
00000090: 6a9b 8cbd 2926 90bd 39cf 29be bd19 413c
000000a0: f2d4 53bd 9313 0fbd e855 0dbd 3b77 c2bc
000000b0: 7796 50bd 7b31 29bd 72e2 c93c 5014 e5bd
000000c0: b4bd b8bd 3808 8cbd 0f07 2bbd a4f2 23be
000000d0: 00a2 b63d 8f08 89bd 4e74 aa3c 17dc 593d
000000e0: 56df fa3b 3a9a 323d e4d2 8ebd d30f d2bc
000000f0: 6b11 b0bc 2c32 ccbc 31fe fabc a7cc e6bd
00000100: 5018 cdbd 94fd 50bd 5fb1 a2bd ec93 c3bd
00000110: 4ef0 8ebd 4d56 9fbd cfc4 c3bc e59b 4fbd
00000120: ebc8 07bd e9b2 3cbd 8580 12bd 96ca 0fbe
00000130: aabd 88bd 2f29 4cbc 4959 08be eaa0 9ebd
00000140: 21e1 1abe e228 abbd f202 26bd 0929 9cbd
00000150: 6bbb adbd 5beb bdbd 2709 8ebd 0b90 76bd
00000160: d87b 55bd 67e2 00be ebaf 99bc aab8 ebba
00000170: eb4a 73bd d807 babc c706 3b3d 4740 1ebd
00000180: 586c 60bd 1caf f8bd 4bb2 9f3c 3df0 80bd
00000190: f3cc 1a3d 0899 9abc 13aa 673c 0d1b ccbc
000001a0: 7733 8abc 2e71 2bbd 30e1 2fbe 6e00 f2bd
000001b0: 59ea 9dbd 6afc 0cbd bc4a 3cbd 618b 4dbd
000001c0: ab21 1dbd 389a 15bd eb26 5fbd 590f abbd
000001d0: 4c3b 7c3c 96aa 03be 420c 04be 225f b2bd
000001e0: dcef 87bd a7b4 e23b e2c7 70bd c23a c2bd
000001f0: c39b 84bd 321c 82bd 3743 e1bc 59c2 ccba

action_model._continuous_distribution.log_sigma f4 [1, 3]
-0.33479896 -0.49590158 -0.30457157
00000000: c56a abbe d0e6 fdbe cef0 9bbe

action_model._continuous_distribution.mu.weight f4 [3, 128]
-0.013293754 -0.0012104787 -0.10481851 -0.048779637 -0.051207364 0.034792297 0.1133995 -0.08883197
0.09628547 -0.15136433 -0.21809344 0.05783309 0.080346115 0.06160802 -0.0875383 0.19793598
-0.13090837 0.10927997 0.018300902 -0.013512887 0.101603955 -0.022630343 0.0701471 0.079354785
0.014185005 0.11927611 0.022388466 -0.037353214 0.12193373 -0.114902794 -0.02666151 -0.026041089
-0.011162489 0.01706263 0.05582697 -0.07434437 -0.05729785 0.03955572 0.019274151 -0.117385425
0.035693206 -0.07214742 -0.031218953 0.12926097 0.026260644 0.008263314 -0.040968843 0.056780286
-0.098414205 -0.08517694 0.018881116 0.068013966 -0.21790221 0.05579947 -0.11571964 0.18929477
-0.096357964 0.050195925 -0.12606655 -0.014102777 -0.07227065 -0.067690685 -0.049538255 -0.00039357203
0.07511447 -0.0083559435 -0.09559913 0.070336714 -0.06192381 0.012567018 -0.013140838 0.021603983
-0.030074198 -0.0020208855 -0.03371165 0.03125912 0.01186111 0.06325922 0.004815101 0.11014657
-0.03038294 -0.0576927 0.024700588 -0.044899452 -0.059489377 -0.027479308 0.09937352 -0.113794155
-0.11358845 -0.035676714 -0.036771026 0.072604924 -0.12825607 -0.085132584 -0.08970432 0.021393364
0.09973634 0.009804327 0.024242096 0.0985944 -0.035085537 -0.036922116 -0.07045371 0.016551496
0.006708139 -0.026714174 -0.008747235 0.07593708 -0.025942145 -0.040889412 -0.040992342 0.025470922
0.08062113 0.003552059 0.13733795 0.054616194 -0.055134255 -0.03227981 0.04909757 0.031980343
0.14434096 -0.014147007 0.08107749 0.060407974 -0.089728355 -0.032101694 -0.028424438 -9.4346586e-05
-0.18676214 -0.14773935 -0.13832527 -0.046519935 -0.0016170861 -0.17744002 -0.14114718 -0.16588259
-0.14911704 -0.073905624 -0.022727858 -0.026342843 -0.09033687 -0.15545295 -0.016001042 -0.12347827
-0.029014362 -0.059917163 -0.20424671 0.028541898 -0.015055016 0.010263185 0.11292146 0.14682555
-0.1578748 -0.0885052 -0.2256369 -0.19555832 -0.074801005 -0.09072679 -0.09821733 -0.21190608
0.06390383 -0.06707428 -0.08371641 -0.021671215 -0.11208221 -0.075386696 0.02004027 -0.12535006
-0.013412845 -0.2536216 -0.054550424 -0.083376 -0.13732544 -0.23608989 -0.037878085 0.033458844
-0.12634107 -0.07336453 -0.13287337 0.009983831 0.00072777044 -0.24176277 -0.18478973 -0.11901854
-0.11647918 0.08363201 -0.023328664 -0.06958514 -0.0009213576 -0.035781868 -0.03153612 -0.049480557
-0.1165925 -0.19467208 -0.07205835 -0.008956089 -0.0617962 0.029811589 -0.19885036 -0.16671707
-0.2171595 -0.15858746 -0.22311395 -0.07980236 -0.1806442 -0.073118046 -0.030327886 -0.116535455
-0.00851072 -0.07985345 -0.15623227 -0.21167992 -0.12583429 -0.15015693 0.0051811826 -0.05465543
-0.07903911 0.012669577 -0.051993556 -0.120818615 -0.0967639 -0.05838461 0.006248914 -0.18209155
-0.16951938 0.09206073 -0.16165243 -0.084993236 -0.08596571 -0.07102138 -0.005951018 -0.20772985
-0.028009437 -0.19051497 0.015600232 0.04970391 -0.02665717 -0.18314922 -0.18477885 -0.035492547
-0.1939886 -0.2643426 -0.099637814 0.008721415 -0.027451228 -0.0081778355 -0.02144145 -0.22763677
-0.05954239 -0.117577255 -0.20880502 -0.0851527 -0.1704044 -0.04828117 -0.17180987 -0.24657086
00000000: 0cce 59bc eda8 9eba 16ab d6bd 28cd 47bd
00000010: d0be 51bd 5e82 0e3d ff3d e83d 89ed b5bd
00000020: 5131 c53d 40ff 1abe e353 5fbe 64e2 6c3d
00000030: 818c a43d b158 7c3d 4847 b3bd bbaf 4a3e
00000040: d80c 06be 2dce df3d c6eb 953c 2865 5dbc
00000050: bc15 d03d 4563 b9bc 48a9 8f3d c384 a23d
00000060: 3968 683c 0847 f43d 0468 b73c afff 18bd
00000070: 64b8 f93d 2852 ebbd 3d69 dabc 1f54 d5bc
00000080: dfe2 36bc eec6 8b3c d2aa 643d dc41 98bd
00000090: 26b1 6abd 2e05 223d d3e4 9d3c c567 f0bd
000000a0: 0a33 123d 07c2 93bd e4be ffbc fd5c 043e
000000b0: 9020 d73c da62 073c f2ce 27bd 7292 683d
000000c0: 638d c9bd 3f71 aebd 92ac 9a3c e84a 8b3d
000000d0: c221 5fbe fc8d 643d 6bfe ecbd 7dd6 413e
000000e0: 5357 c5bd 3e9a 4d3d 9717 01be 550f 67bc
000000f0: a202 94bd 6aa1 8abd a0e8 4abd 5858 ceb9
00000100: 9ed5 993d 5ee7 08bc 7ac9 c3bd b20c 903d
00000110: d2a3 7dbd e5e5 4d3c ab4c 57bc d6fa b03c
00000120: 2a5e f6bc d570 04bb 3a15 0abd 9009 003d
00000130: 1a55 423c 0d8e 813d ffc7 9d3b 8694 e13d
00000140: a5e5 f8bc 2e4f 6cbd e358 ca3c 7de8 37bd
00000150: 22ab 73bd 491c e1bc 5884 cb3d e90c e9bd
00000160: 10a1 e8bd bf21 12bd 379d 16bd e4b1 943d
00000170: 8f55 03be fe59 aebd e6b6 b7bd 2341 af3c
00000180: 9142 cc3d 54a2 203c 5c97 c63c dceb c93d
00000190: dab5 0fbd a53b 17bd 094a 90bd 0197 873c
000001a0: f3cf db3b afd7 dabc 9050 0fbc e684 9b3d
000001b0: 9f84 d4bc a87b 27bd 96e7 27bd 65a8 d03c
000001c0: b11c a53d a9c9 683b 52a2 0c3e 3bb5 5f3d
000001d0: 75d4 61bd d637 04bd 891a 493d d2fd 023d
000001e0: 1ece 133e d9c8 67bc f40b a63d 5a6e 773d
000001f0: 80c3 b7bd 117d 03bd 5eda e8bc f0db c5b8
00000200: 933e 3fbe fc48 17be 24a5 0dbe b08b 3ebd
00000210: 68f4 d3ba d6b2 35be e388 10be 20dd 29be
00000220: 23b2 18be d55b 97bd c62f babc f2cc d7bc
00000230: 8902 b9bd 0f2f 1fbe 9e14 83bc 2de2 fcbd
00000240: 87af edbc b36b 75bd 0d26 51be b3d0 e93c
00000250: 50a9 76bc eb26 283c 5e43 e73d 7059 163e
00000260: eea9 21be 3742 b5bd 5c0d 67be 7140 48be
00000270: 4531 99bd f8ce b9bd 2b26 c9bd e8fd 58be
00000280: 03e0 823d 3d5e 89bd 8273 abbd d587 b1bc
00000290: 5c8b e5bd 5764 9abd 7e2b a43c c45b 00be
000002a0: 8dc1 5bbc b1da 81be 4470 5fbd 09c1 aabd
000002b0: 0a9f 0cbe 8cc1 71be 0d26 1bbd 240c 093d
000002c0: 8e5f 01be 2540 96bd f50f 08be 3993 233c
000002d0: d9c7 3e3a a990 77be 8539 3dbe febf f3bd
000002e0: a38c eebd 4247 ab3d c11b bfbc a782 8ebd
000002f0: 4387 71ba 0290 12bd 052c 01bd 20ac 4abd
00000300: 0cc8 eebd 1e58 47be 5493 93bd 8fbc 12bc
00000310: 031e 7dbd 6f37 f43c 6e9f 4bbe e1b7 2abe
00000320: 0f5f 5ebe c064 22be fc77 64be 6b6f a3bd
00000330: cbfa 38be eabe 95bd 3072 f8bc 24aa eebd
00000340: 8c70 0bbc 358a a3bd 5afb 1fbe 9fc2 58be
00000350: b4da 00be bdc2 19be e9c6 a93b 5fde 5fbd
00000360: 42df a1bd 0f94 4f3c 32f7 54bd c06f f7bd
00000370: 272c c6bd b324 6fbd b1c3 cc3b 3576 3abe
00000380: 7d96 2dbe 568a bc3d 3788 25be ef10 aebd
00000390: ca0e b0bd a873 91bd c200 c3bb 22b7 54be
000003a0: 0c74 e5bc 5b16 43be 1e98 7f3c 5496 4b3d
000003b0: 2360 dabc 788b 3bbe ab36 3dbe a260 11bd
000003c0: f3a4 46be ea57 87be e90e ccbd 44e4 0e3c
000003d0: 66e1 e0bc 54fc 05bc fba5 afbc 9d19 69be
000003e0: b9e2 73bd 58cc f0bd fcd0 55be 8a64 aebd
000003f0: 7e7e 2ebe 7ac2 45bd edee 2fbe 127d 7cbe

action_model._continuous_distribution.mu.bias f4 [3]
0.012574193 0.070018105 -0.04277443
00000000: fd03 4e3c a765 8f3d 3e34 2fbd
